backend/trained_models/ADBL_GRU_model_state_dict.pth (torch, 126723 bytes, 5 tensors)

rnn.weight_ih_l0 f4 [300, 1]
000000 63 92 c1 3d 9c e4 b0 bd 19 1d e1 3d ee e5 01 3e
       0.09451749 -0.08637354 0.10991878 0.12685367
000010 b5 5a b3 3a ad d4 5c bd c1 71 68 bc ce 58 04 bd
       0.0013683649 -0.05391376 -0.014187277 -0.032311253
000020 06 6e d2 3d af ee bc bd 6e 66 67 3d 50 74 b5 3d
       0.102748916 -0.09225213 0.05649417 0.088600755
000030 0b ec 38 3d 99 c5 51 bd 07 a0 be 3d c3 13 ba 3c
       0.045146983 -0.051213834 0.093078665 0.022714501
000040 e7 9b 97 3d 88 b1 e2 3c cf 10 1d ba a0 09 4c bd
       0.07402783 0.027672544 -0.00059915794 -0.049813867
000050 2d 41 99 3d c0 74 33 bd 7c 09 0b 3e 54 4f 51 bd
       0.074831344 -0.043812513 0.13577837 -0.051101044
000060 2d 22 9b 3d 6d 09 a2 3d 1a 4b c6 bd 87 de 88 bd
       0.07574878 0.07911954 -0.09682293 -0.06683069
000070 9c 04 e1 bc 44 6a b3 bc 7f 9b 59 3d 6a 61 18 bb
       -0.027468018 -0.021901257 0.05312681 -0.0023251423
000080 c3 f3 d9 3d 6b 73 3f 3d 47 ec 57 3c 6e 56 d5 3d
       0.10642197 0.04674093 0.0131788915 0.10416876
000090 0d 76 82 bc 99 47 a1 3d bd d1 a9 bc 26 55 f1 3c
       -0.015925432 0.07874984 -0.020729894 0.029459547
0000a0 cd 57 a1 3c 27 60 42 3d 3d 83 a2 bc 68 14 05 3e
       0.019695187 0.04745498 -0.01983797 0.12996066
0000b0 7b e2 07 bc f9 1a 49 bb fa 25 e0 3d 30 3c 78 bd
       -0.008293743 -0.0030686243 0.109447435 -0.060604274
0000c0 41 c7 d8 3d b1 3d 8c 3d 86 fe 4f bd dd 64 0b 3e
       0.1058488 0.06847704 -0.05077984 0.13612695
0000d0 f4 7c e5 3d 9f 13 8d bc 84 25 94 bd 01 f0 b7 3c
       0.112054735 -0.01722127 -0.07233718 0.02245331
0000e0 6f 38 34 bd f4 e0 a3 bd 8c b4 43 bd 89 2f 8c 3d
       -0.04399913 -0.08001891 -0.047779605 0.06845004
0000f0 46 29 bd bc f5 3b a5 3d 31 32 42 3d 51 7d 05 3e
       -0.02309097 0.080680765 0.047411148 0.13036086
000100 e8 d3 eb 3d ec 68 15 bc fb c5 b0 3d 0c 6b 27 bd
       0.11515027 -0.009119254 0.08631512 -0.040873572
000110 fb b7 9c 3d 4c 0b a0 3d d3 e7 70 3d dc a1 71 3d
       0.07652279 0.07814655 0.058814835 0.05899225
000120 96 f7 0a 3d ad 16 51 bd b7 ff 27 3d da af f9 bc
       0.033927523 -0.051047016 0.041015353 -0.03047936
000130 94 27 bc 3b b5 91 2c 3c 01 44 c4 3d 82 82 ae bb
       0.005742023 0.010532786 0.09583283 -0.0053256163
000140 05 aa 8a 3d 8b 2f 1f bd 98 04 f7 3d d7 07 99 ba
       0.0677071 -0.0388637 0.12061423 -0.001167531
000150 3c f2 55 bd 39 d8 3a bd 29 23 b5 3c 4a 53 58 3d
       -0.052232966 -0.045616362 0.022111492 0.052813806
000160 b3 39 43 bc 36 c8 a9 bc f6 b9 f0 3b 29 43 df bd
       -0.011915612 -0.02072535 0.007346387 -0.10901482
000170 61 3c 7b bd db 47 74 bd aa ce 51 bd 78 41 85 ba
       -0.06133688 -0.05963884 -0.05122248 -0.0010166606
000180 9a e9 a2 3d ab b2 82 3c 04 d4 6c 3d 37 f6 d0 3d
       0.07954712 0.015954336 0.05781938 0.10203212
000190 22 78 ea bd 0b e9 15 3b 3e f6 11 3d 2e bd 68 bd
       -0.11448695 0.00228745 0.035635225 -0.05682104
0001a0 a3 c4 6d bd ab b3 c2 bd 33 50 a7 bc fb dc 98 bd
       -0.058048856 -0.09506925 -0.020423984 -0.07464024
0001b0 a6 69 1f bd 68 4a 24 3d 2d 6e 2d bd cb 66 c8 bb
       -0.038919114 0.04011002 -0.0423414 -0.0061157695
0001c0 b1 6b c1 3b cf 0e 13 3d 05 e8 bd bd c1 94 8f 3d
       0.0059027304 0.035902794 -0.0927277 0.070107944
0001d0 6f 4a 06 be 5d e6 f0 bd 7a 8e bd bd 00 6e f6 3c
       -0.13114332 -0.11762688 -0.09255691 0.030081749
0001e0 ec ad ab bc ff 37 b0 3d 8c 60 05 3c 42 b0 e2 bd
       -0.020956956 0.086044304 0.008140694 -0.11068775
0001f0 4d b2 d3 bd 3e d6 c3 3c 64 55 c2 3b 93 e1 aa 3d
       -0.103367426 0.02390587 0.0059305895 0.08343806
000200 5b 19 0a be 5c 5f 22 be 57 00 2c bd 55 fb 20 3b
       -0.13486235 -0.15856689 -0.04199251 0.0024563868
000210 4f 86 ac 3c a5 e8 e7 bd 39 2d 0d be 2a 2d 11 be
       0.021060137 -0.1132367 -0.13786782 -0.14177385
000220 ab f2 06 3e 8d 08 48 3c 62 9d 7d bd af 24 a8 bd
       0.13178508 0.01220907 -0.06191767 -0.08210122
000230 9a ca 03 be 22 0d 1d 39 c0 31 8c 3c b1 3c 0d bd
       -0.12870255 0.00014977579 0.017113566 -0.034481708
000240 77 22 e4 bd bc 3e 07 bc c9 79 84 3b f9 0a 14 bd
       -0.11139386 -0.008254703 0.0040428382 -0.036143277
000250 4c e0 b9 3d ac b7 5d bc 9c 06 86 bc 9e 02 2c bc
       0.09075984 -0.01353256 -0.016360573 -0.010498671
000260 ec c8 31 bd eb d2 e8 bd 36 c9 3b bd e9 63 01 be
       -0.043404505 -0.113683544 -0.045846187 -0.12635769
000270 80 70 10 3d 7c 3b dc 3b 9b 71 f5 bc c7 a0 09 be
       0.03526354 0.0067209583 -0.029961398 -0.13440238
000280 93 9b 80 3d 2f 22 30 bd 63 af eb bc 52 65 c4 bd
       0.062796734 -0.04300135 -0.028770154 -0.09589638
000290 09 80 c9 b9 8c 73 cb 3c 8f 2f bd 3c fd 1a 24 bd
       -0.000384331 0.02483537 0.023093967 -0.0400648
0002a0 d6 f8 d8 3c 3f 57 57 3d 94 4b 7a bd f6 7b 79 bc
       0.026485842 0.05257344 -0.061107233 -0.0152273085
0002b0 64 96 28 3d 3f 07 18 be e7 9d 6f bc dd dc df 3c
       0.04115905 -0.14846514 -0.014625049 0.027326996
0002c0 fa 21 f1 bd 01 59 3f bd 6d 5a ef bd b2 42 4a bc
       -0.11774059 -0.04671574 -0.11687169 -0.012345003
0002d0 06 f3 d3 3b 6a 65 35 3d c4 be 25 bc 1b 09 2d 3d
       0.0064681796 0.04428617 -0.010116283 0.04224501
0002e0 94 4c 8f bc 70 9b 92 bc b1 68 83 3b f6 12 4c bc
       -0.01749257 -0.017896384 0.004010283 -0.0124556925
0002f0 9a 5a 3f bd 4a 27 20 3c 7c ff d1 3b e6 62 87 3d
       -0.046717264 0.009774992 0.00640863 0.0661066
000300 be fe 9a bc 1a 64 55 3d 47 50 9c bd 0b d6 10 be
       -0.018920299 0.052097417 -0.07632499 -0.14144151
000310 73 6b ec bd d8 6f 28 be 4a e5 03 be 30 9f 1b be
       -0.11543932 -0.16448915 -0.12880436 -0.15197444
000320 c5 44 b2 3a 33 ba 8d bd fb 26 02 3e 72 2b 1a bc
       0.0013600817 -0.0692028 0.12710182 -0.009409772
000330 69 c9 ee bd 02 e7 7d bc 08 93 cd bd f8 29 8b 3d
       -0.1165951 -0.015496971 -0.100378096 0.06795114
000340 d7 56 c0 3d 0a cf 83 3d e1 7a 2b bd 00 fa f9 3d
       0.093915634 0.06435974 -0.041865233 0.12205887
000350 df 82 0d bd cd ff 84 3d 65 e0 e3 bd 68 fa 86 3d
       -0.034548637 0.064941026 -0.11126784 0.0659073
000360 95 93 3f 3c e3 c2 1b 3d 07 d5 54 3d a6 54 bf bc
       0.011692901 0.038027655 0.05196097 -0.023355793
000370 7a e5 d5 bd cb 1c 49 bc c9 33 81 bd ac 02 31 bd
       -0.1044416 -0.012274931 -0.06308705 -0.04321544
000380 de e5 a9 3d 76 52 f3 3c cf fb 12 3d a2 a0 64 3d
       0.08295797 0.029702406 0.035884675 0.055817254
000390 58 84 79 bd 47 c2 85 3d 0c 8a 61 3d 08 df 58 bd
       -0.06091723 0.06531196 0.055063292 -0.052947074
0003a0 11 52 02 3c b7 03 79 3d f2 e8 d3 3d 4d 78 e6 3d
       0.0079541365 0.06079456 0.10347165 0.11253414
0003b0 f1 c2 8b bc 87 25 8f 3d 46 f5 f6 bd f3 3d 34 bd
       -0.017060729 0.0698958 -0.12058501 -0.044004392
0003c0 05 ce bd 3d 58 49 88 3d e1 61 b7 bc 2e 11 8d 3c
       0.09267811 0.06654614 -0.02238554 0.017220106
0003d0 d9 25 b1 3d f3 08 d9 3d 7e 30 77 3d 46 93 fa 3c
       0.08649797 0.1059741 0.06034898 0.030587804
0003e0 28 45 55 3d 29 f6 4d bd b8 02 9c 3c d1 e6 b6 bb
       0.052067906 -0.050283585 0.019044265 -0.0055817147
0003f0 eb 2d 9d 3d 19 71 a6 3b c5 32 a4 3d ce aa e2 bd
       0.07674774 0.0050794003 0.08017496 -0.11067735

rnn.weight_hh_l0 f4 [300, 100]
000000 db ef 5b bd aa 09 be bd a5 01 24 bc c9 a5 99 3c
       -0.05369554 -0.09279187 -0.010010158 0.01875581
000010 2f 55 a6 bb d4 fd df bc d6 56 7b bb ba ca 9f bd
       -0.0050760726 -0.027342714 -0.0038351319 -0.07802339
000020 26 5d 34 3d 50 b6 1c 3c e1 98 f0 bc 37 73 88 bd
       0.044034146 0.009564951 -0.029369773 -0.066626005
000030 89 e9 07 3d 82 0b 35 3d 83 b3 65 3b 30 99 6b 3d
       0.0331817 0.044200428 0.0035049624 0.057519138
000040 1a a9 60 3d 1b a0 ca bd 66 57 da 3c 65 e5 5d 3c
       0.054848768 -0.09893819 0.026653003 0.013543461
000050 34 1a 57 bc 56 98 19 3d 95 8d 44 3b 17 2a 93 bd
       -0.013128806 0.037498794 0.0029991616 -0.071857624
000060 3b 8f 1e 3c ca 82 4e bd df 2f 21 bd ca 4f 07 3c
       0.0096777035 -0.0504177 -0.039352294 0.008258769
000070 63 d8 96 3d 8e 09 d6 3c cd 10 2c ba db 90 18 3d
       0.07365491 0.026127603 -0.0006563783 0.03724752
000080 c8 63 2e 3d ef 53 c5 3d f0 73 ea bb fe 91 a7 bd
       0.042575628 0.0963515 -0.007154934 -0.08182143
000090 b3 fe 41 3b dd 89 85 3d 4c 4f 99 3d 3d 8f 36 3d
       0.0029601275 0.06520436 0.07485828 0.044570196
0000a0 40 e5 1f 3d 44 e9 6f bd 5d fa b6 bd 7d c7 59 3d
       0.03903699 -0.05857207 -0.08934472 0.053168762
0000b0 53 a4 4e bc e3 be 8d 3c 58 21 c2 bd ef be ca bc
       -0.01261242 0.017302936 -0.09479016 -0.024749247
0000c0 c9 57 c7 bd 04 7e a6 bd 30 7a 64 3b 44 4d 9c bc
       -0.097335406 -0.08129504 0.0034862868 -0.019079812
0000d0 57 cd 44 bd e5 93 38 3c d5 ec a0 3c 92 f8 ae 3c
       -0.04804739 0.01126573 0.01964418 0.021358762
0000e0 48 b0 5e bc 21 2d 69 3d 19 fe d0 bd 3e 91 8d 3d
       -0.013591833 0.056927804 -0.10204715 0.069124684
0000f0 34 7e d5 3d d6 d4 e5 bc 10 5e f0 bd d3 db 01 bd
       0.10424462 -0.02805559 -0.11736691 -0.03170378
000100 9a 99 cf bd 5d f1 18 3c f6 d7 4b bb d9 d0 9f 3d
       -0.10136719 0.009334889 -0.0031104065 0.078035064
000110 3e ba 84 bc 50 e4 9b bd 64 ae 82 3d 4f ed ec 3c
       -0.016202088 -0.076119065 0.063809186 0.028921751
000120 13 c3 af 3d 37 fa bb bc a2 7e 99 3d ef 9e 3f bd
       0.08582129 -0.02294646 0.074948564 -0.04678243
000130 f3 1e 91 3d 63 d0 80 3d 4a d2 6d bd 67 da 0e 3d
       0.07085981 0.062897466 -0.058061875 0.034876253
000140 a6 1b 88 bc 21 48 dc 3c d4 66 c4 3c b4 9e 95 3d
       -0.016614746 0.026889862 0.023974814 0.07305661
000150 79 2a f2 bc 92 dd 01 3d f4 97 33 bc 13 d9 87 bc
       -0.029561268 0.031705447 -0.010961521 -0.016583001
000160 31 4f 39 bd ba 4d bc bd de 12 e3 3d 51 84 32 3d
       -0.04524154 -0.09194513 0.11087583 0.043583218
000170 87 c6 03 3d 38 a4 24 3d 4e 2b 80 bd fb 1f af bb
       0.032171752 0.040195674 -0.0625826 -0.0053443885
000180 b9 cd 74 bd 4f 58 b7 3d bd 72 d8 bd 7f 4d 99 3d
       -0.059766505 0.089523904 -0.105687596 0.07485484
000190 5d d0 89 3d 2e 1c f6 3d b8 39 33 3d 1f fe 37 3d
       0.06729195 0.120170936 0.043756217 0.044920083
0001a0 5b 91 54 3c 9a d6 b2 3d 6d 60 a2 3c 97 3e bc 3c
       0.012974109 0.08732338 0.01982137 0.022979064
0001b0 88 c6 18 bd 2b 71 da 3b a4 03 93 bd 13 e4 81 bd
       -0.03729871 0.0066663227 -0.07178429 -0.0634233
0001c0 ce 16 a2 bd 82 d2 a0 3d 0b 6d 9e bd 9b 06 bc bc
       -0.07914506 0.07852651 -0.07735642 -0.022952368
0001d0 da c4 a9 3d 05 27 39 3d c6 35 e6 bc 4a 2f 06 3d
       0.082894996 0.045203228 -0.028101813 0.032759942
0001e0 66 b5 1a 3d 27 bc 80 3d e7 15 4b bd d4 d7 e6 3d
       0.03777065 0.06285887 -0.049581435 0.11271635
0001f0 b1 e7 c1 3c 42 f0 5c 3c 1b 61 1a bd 9d e3 8b bd
       0.02367005 0.013485016 -0.037690263 -0.06830523
000200 68 bb 6a 3d 83 10 7c bd 8d 45 88 3c 6a 56 58 3d
       0.05730763 -0.061539184 0.016634727 0.052816786
000210 bc 95 b7 bc c6 1c 5e 3d 35 54 de bc 5c 2b 94 3d
       -0.022410266 0.05422666 -0.027139762 0.07234833
000220 19 fe 3f 3d aa e4 d9 3c e1 3a a3 3d ef 18 b6 3d
       0.046873186 0.026598293 0.07970215 0.088914745
000230 61 dc 90 bd 97 0e ee 3b 81 10 85 bd 02 20 9b bd
       -0.07073284 0.007264923 -0.064972885 -0.075744644
000240 c5 47 66 bd 63 07 71 3d f1 0f 89 3d 8f 6f 89 bd
       -0.05622079 0.058844935 0.06692494 -0.06710731
000250 fe 42 bb 3c 15 64 53 3d 27 25 d6 bd dd 1f a1 bd
       0.022859093 0.051609118 -0.10456305 -0.078674056
000260 3c a3 80 bd b7 d5 c9 bd 1d 8e ca bd 3e 0a 8a bc
       -0.062811345 -0.09855216 -0.09890387 -0.016850587
000270 80 f5 4a 3d 6b f7 7d bd c6 cd 9c bd 21 cf 16 3d
       0.049550533 -0.062003534 -0.07656436 0.036818627
000280 cd 72 75 3d e7 75 58 3c f5 fd ab bd 7a 8d 05 bd
       0.059923936 0.013211704 -0.08398048 -0.032605626
000290 5c 32 18 bc d6 b9 0f bd 55 d8 93 3d d3 49 a9 3d
       -0.00928935 -0.035089336 0.072189964 0.08266034
0002a0 b3 21 df bd ca ad 74 bd 6f 9f a0 bc e1 0f af ba
       -0.108950995 -0.05973605 -0.019607274 -0.0013356173
0002b0 37 76 dc 3d 1f e7 4e 3d 8c a0 bc bd 4a b5 6c bd
       0.10764735 0.050513383 -0.092103094 -0.05779008
0002c0 51 5d 7f bc 83 ee 46 3b 97 b5 02 3b e5 a7 21 3c
       -0.015586213 0.0030354566 0.0019944662 0.009866689
0002d0 bc ec a6 3c 54 60 b5 bd 73 0a 92 bd e8 58 00 3e
       0.020376556 -0.08856264 -0.07130899 0.12533915
0002e0 65 29 77 3d 90 c2 97 3d 89 a2 9e 3c c0 8e 4e 3d
       0.06034221 0.07410157 0.019364612 0.050429106
0002f0 53 7b 9f 3c b6 c3 41 3d 3d 34 83 bd ec 02 d5 3d
       0.019467985 0.047305785 -0.06406448 0.10400948
000300 91 b6 3e bc 6f ad 80 bd 19 fc 59 bd 38 fb 87 bd
       -0.011640207 -0.0628308 -0.053218935 -0.06639713
000310 57 e1 a8 3c 7b 82 8b bd 5d ed 49 bd 8c f3 81 3d
       0.020615263 -0.068119965 -0.049298633 0.06345281
000320 92 94 ba 3a 90 4d 61 3d 4f 05 3f bd 19 00 a5 3d
       0.0014234951 0.05500561 -0.046635922 0.08056659
000330 03 58 cf bd 16 c9 75 b9 7d ee a7 3d 4b 84 47 bd
       -0.10124209 -0.00023439931 0.08199785 -0.04871015
000340 bb 03 82 3d d4 61 08 bd 9b f7 08 3d 49 fb fc bc
       0.06348368 -0.03329642 0.03343926 -0.03088154
000350 f2 a5 79 3d 1c 70 93 bc 9d 45 41 bd de c5 d6 bc
       0.060949273 -0.017997794 -0.04718553 -0.026217397
000360 20 cd c1 3c 41 83 8d 3d b3 5d 87 bd 84 2b 7b 3d
       0.023657382 0.069098 -0.066096686 0.061320797
000370 10 84 28 3d 0a ee 2a 3c 8a 46 a6 3c 87 00 93 3d
       0.04114157 0.0104327295 0.020297308 0.07177835
000380 c2 e8 94 bd 1d 8c d8 bc bb 72 cd 3c 96 8e 99 bc
       -0.072709575 -0.026433999 0.025079122 -0.018744748
000390 d6 47 a6 bd 07 07 4c bd 4c 95 86 3d f8 bb bd bd
       -0.0811917 -0.04981139 0.06571445 -0.09264368
0003a0 32 62 29 bd b1 e8 f9 bc 43 35 88 bd 95 e8 d5 3d
       -0.041353412 -0.030506464 -0.06650784 0.10444752
0003b0 11 de 03 3d ee 09 3e 3d da 4e 2f 3d 6a 60 fd bc
       0.0321942 0.04639619 0.042799808 -0.030929763
0003c0 62 ae a7 bd 52 5f ad 3b fb b7 d7 bd 68 4e 06 3d
       -0.08187558 0.005290904 -0.10533138 0.032789618
0003d0 d9 14 9f 3d d3 2e 91 3d 8c de b6 bd 84 57 ad 3d
       0.07767648 0.07089009 -0.08929166 0.08463958
0003e0 db 13 44 3d 36 e6 97 bd bb 75 8c 3d af a5 77 3c
       0.0478705 -0.07416956 0.06858393 0.015115186
0003f0 45 1a ae 3d b9 63 6e 3c a0 ac dc 3b ce ab 30 bd
       0.08501104 0.014550143 0.0067344457 -0.043132596

rnn.bias_ih_l0 f4 [300]
000000 68 54 c2 3d 80 66 aa bd d1 72 06 bc 92 38 31 3c
       0.094887555 -0.083203316 -0.008206085 0.01081671
000010 34 c9 e8 bd 42 4b 43 bd 08 25 0b bd d5 ea 73 3d
       -0.113665015 -0.047679193 -0.033970863 0.059550125
000020 1e 42 b9 bc 7c 9e 21 3b 30 e9 94 bd 22 eb ff 3c
       -0.022614535 0.0024661114 -0.072710395 0.03124005
000030 9d a4 f8 3d 98 17 08 3d 1a 6f 81 bd 1f f0 9b 3c
       0.121407725 0.033225626 -0.06320019 0.019035397
000040 eb 3d 30 bd 9f 11 3b bd 63 f4 9e bc 8a 76 eb 3b
       -0.0430278 -0.0456711 -0.019403642 0.007185762
000050 60 37 e4 3d 8f 4d c7 3d ba 39 da 3c 39 ce 84 3c
       0.111433744 0.0973159 0.026638854 0.016211616
000060 4f 6e d9 3d 92 0c 6d 3d f6 70 6e bd b2 fd e6 bc
       0.10616743 0.057873316 -0.058213197 -0.028197143
000070 72 12 80 bc 8e ea 84 3d e1 8e b5 3d f4 e8 8f bd
       -0.015633795 0.0649005 0.088651426 -0.07026854
000080 95 ce 81 3d 65 72 b8 3c a6 82 ca 3d 3c 4a 8a 3d
       0.063382305 0.022515485 0.098882005 0.0675244
000090 aa e8 48 bd 9d 50 11 bd bb f9 4d bc d8 bb 1e bc
       -0.04905001 -0.03547727 -0.012571747 -0.00968834
0000a0 26 bb 01 bd e7 3b b3 bd a5 67 7a 3d 52 ef 6a bc
       -0.03167262 -0.0875166 0.061134 -0.014339285
0000b0 7c cb 68 3d 9b 1f 60 3d 78 fb 9d 3d 1f 72 75 3d
       0.056834683 0.05471764 0.077139795 0.059923287
0000c0 b6 80 ce 3c ec a4 cd bb 99 d9 82 3c 60 7f de 3d
       0.025207859 -0.0062757637 0.0159729 0.108641386
0000d0 da bc bf 3d 33 00 87 bc af 2a 99 3d 16 c7 25 bd
       0.093621925 -0.016479587 0.074788444 -0.040473066
0000e0 5a d0 58 3d bc 76 9d bd 8a f2 1b 3d 3a d4 01 bd
       0.052933075 -0.076886624 0.0380731 -0.031696536
0000f0 3e 4a 57 3c 56 1a 91 3c 47 5c e5 bd f9 77 b0 ba
       0.013140259 0.017712753 -0.11199241 -0.0013463489
000100 18 dd e4 3c a5 f0 15 bd 7b e6 bd 3b 99 91 c0 bc
       0.027937457 -0.03660645 0.0057952977 -0.023506926
000110 9d b8 2a 3d e1 35 74 bd da 43 ab bd 7a 05 78 bd
       0.041679967 -0.059621695 -0.08362551 -0.060552098
000120 3d 8e ad bc 03 48 d5 3d 41 50 5b bc 8b 27 3f bd
       -0.021185989 0.10414126 -0.013385833 -0.04666857
000130 38 fd 8e 3d 9d 8d 63 3d 04 2a ba 3d 79 fe 55 3d
       0.069818914 0.055554975 0.09090045 0.052244637
000140 73 52 d2 bd f8 1a 79 bc 02 c4 a0 bc b1 1e a6 3d
       -0.10269632 -0.015204184 -0.019624714 0.08111323
000150 f6 4a 60 3d 72 f4 f7 3c 3d 09 f5 3c a1 df 18 3d
       0.05475899 0.030267928 0.029911632 0.037322644
000160 a9 c8 d8 3d 70 28 61 bd ad ab c4 bc a8 f3 2f 3d
       0.10585148 -0.054970205 -0.024007643 0.042956978
000170 a6 d4 d6 3d 3f ab 0b 3a 9f 74 04 bd 81 ec cf 3d
       0.10489778 0.0005327947 -0.03233778 0.101525314
000180 09 01 0f 3c c0 48 04 3d 17 22 60 bd 40 b2 03 bd
       0.008728274 0.032295942 -0.05472001 -0.032152414
000190 4d c8 1a be de 62 50 3d a4 67 8a 3c 72 8a 3d bd
       -0.15115471 0.050875537 0.016895123 -0.04627461
0001a0 1c 13 21 bd e5 b0 79 3c 6f cb 13 be 2b e1 0b be
       -0.039324865 0.015239929 -0.14433073 -0.13660114
0001b0 22 2e 30 3c e9 4e 94 bd d6 6e 92 bc 4b 25 80 bd
       0.010753186 -0.072416134 -0.017875116 -0.06257113
0001c0 6f dc 14 be 7c c8 94 bb d6 f1 b8 bd 6c 58 c4 bd
       -0.14537214 -0.004540501 -0.090305015 -0.09587178
0001d0 e8 28 1d be 54 d2 0d be 2a 2f 08 be 1f 9b 9d bd
       -0.15347636 -0.13849765 -0.13299242 -0.076956026
0001e0 12 66 5e bd bf 1c 72 bd 3f 23 c5 bc 50 0e 0a bd
       -0.05429656 -0.059109446 -0.024064658 -0.033705056
0001f0 d6 54 0e be 5a ab e6 bd 01 46 15 3d e7 1d 6a 3d
       -0.1389955 -0.112631515 0.036443714 0.057157423
000200 4d 49 18 be 0a 29 03 bd aa fc 28 39 ad 4c 68 3c
       -0.14871712 -0.03202156 0.00016115853 0.014178437
000210 fd df a0 3c de 1d f9 3b 50 85 1b be 39 79 cc bd
       0.019638056 0.0076024374 -0.15187573 -0.09984059
000220 f6 a4 02 bd 4d 51 c6 ba ff 0a f8 bc 3b 69 fa bd
       -0.0318956 -0.0015130431 -0.03027868 -0.12227102
000230 8f b8 b7 3b cb ce 63 bd c0 39 f1 bd 8b b0 c2 bd
       0.005606718 -0.055617135 -0.11778593 -0.09506329
000240 9c 3c 91 bc 34 c2 3e bd 77 5d 0d be 15 53 f3 bb
       -0.017729096 -0.046571925 -0.13805185 -0.0074256756
000250 ea cd bd bc 6c c8 ed bc 3c 6b 8b 3d 0f 53 b0 bd
       -0.023169477 -0.029026233 0.06807563 -0.08609592
000260 4c 02 91 bd e9 65 a2 bd 72 09 e1 3c 20 e1 dc bd
       -0.07080516 -0.07929594 0.027470324 -0.10785127
000270 b7 79 20 3d 1f 16 7c 3b 59 ab 75 3c 94 48 19 be
       0.039178576 0.0038465334 0.014994466 -0.14969093
000280 2f 57 a4 3c 91 e4 60 bd 52 6f 5a 3d e0 b1 d0 bc
       0.020061104 -0.054905478 0.05332882 -0.025475442
000290 bd 24 55 bd bb 0b 27 bc 6b 9a a8 bb 37 3c 00 3c
       -0.05203699 -0.010195668 -0.005145361 0.007826856
0002a0 85 a2 52 3c e5 6b 14 be 42 7f 0c bc e1 14 26 3a
       0.0128561305 -0.14494283 -0.0085752625 0.00063355087
0002b0 8a f1 e7 bb 78 35 bc bc 2c a2 c4 bd 01 05 1e bd
       -0.0070783542 -0.022974715 -0.09601244 -0.03857899
0002c0 5a 0b 9d bd 76 dc 6d bd 09 9c c0 bd 37 71 17 bd
       -0.07668181 -0.058071576 -0.09404761 -0.036973204
0002d0 79 9e cb bd 14 0f 11 be 4d 2e 90 bb c5 c4 00 be
       -0.09942336 -0.14165908 -0.0044000507 -0.12575062
0002e0 75 e7 67 3d f7 0b c0 3c dc b8 be bd 70 2b 4a bd
       0.05661722 0.023443205 -0.09312603 -0.04935783
0002f0 56 98 02 be b0 6c d4 bd 29 01 19 be 1b 17 e7 bd
       -0.12753424 -0.10372293 -0.14941849 -0.11283704
000300 6d bd 9d 3b e0 fc f5 bd 64 27 18 be d2 f5 b9 3c
       0.004813841 -0.12011123 -0.14858776 0.022700224
000310 6b d0 88 bd 0b 54 fe bc d7 1e 1a bd 9d 39 9f bc
       -0.066803776 -0.031045934 -0.037627067 -0.019436652
000320 5b a1 94 bd a2 9b fe bb fa 3d 1a 3d 59 7d bb bd
       -0.072573386 -0.0077700177 0.03765676 -0.091547675
000330 aa 74 98 3d 01 14 c0 bd 75 4f 09 bc 1b 91 70 bc
       0.07444127 -0.093788154 -0.00838076 -0.014683033
000340 7c d0 d3 bc 15 5a f6 3c 4a 94 63 bd b3 70 81 3d
       -0.025856249 0.030072251 -0.05556134 0.06320324
000350 70 5f 5d bd 96 cc e7 bd 40 10 47 3c 53 ff 47 bd
       -0.054046094 -0.113183185 0.01214987 -0.04882748
000360 67 2d 64 bd 5d 8f 90 bd 56 86 8b bc 7c 9e 1c bc
       -0.05570736 -0.070585944 -0.01703183 -0.00955927
000370 ee 7e 43 3c 81 42 05 bd 3e 23 f4 3c 0c 72 c6 bc
       0.011932118 -0.032534126 0.029801961 -0.024224304
000380 c4 50 aa 3d b0 18 5b 3d 2b 68 94 bd 47 15 24 3c
       0.08316186 0.05349034 -0.07246431 0.010014839
000390 9f 6d 90 3d 3c fc c3 3d 3b 1d 31 bb 8c 43 92 3b
       0.070521586 0.09569594 -0.002702548 0.0044636186
0003a0 7b cf 83 3d a3 d8 8e 3d 25 0d 43 bc fc 08 20 bd
       0.06436058 0.06974914 -0.011904989 -0.03907107
0003b0 59 16 41 3d 02 cf dc 3c e6 19 7b bd 7b 1a d9 3c
       0.047140453 0.026954178 -0.061303996 0.026501885
0003c0 5b e8 a3 3c 71 1a 25 bc 5a 73 81 bd d7 6c b4 3d
       0.020008257 -0.010077105 -0.0632083 0.08809822
0003d0 a8 85 b9 3b df 6c 10 3c fc 2b c8 3b 46 8c e5 bc
       0.005661685 0.008815019 0.006108759 -0.02802099
0003e0 d3 b2 99 bd 87 a7 73 bd ad c8 80 bd 58 04 27 bd
       -0.07504811 -0.05948594 -0.06288276 -0.040775627
0003f0 c4 a5 b1 bd 2e 1e 96 bb 5b a0 3f bd 37 33 16 3d
       -0.086741954 -0.0045812344 -0.046783786 0.036669936

rnn.bias_hh_l0 f4 [300]
000000 42 83 5c 3d 12 d3 fc bb 6d af 90 3d 54 f2 60 3b
       0.053836115 -0.007715591 0.0706471 0.0034324126
000010 8b 1c 9b 3c 0b 70 ba 3c b1 7b 89 3c 90 4e bd 3d
       0.018934509 0.022758504 0.016782613 0.092435
000020 bf f3 ab bd bf 93 2d bd 38 cb 9f 3c 08 f4 20 bd
       -0.083961 -0.04237723 0.019506082 -0.039295226
000030 95 a7 bb 3d e7 c8 83 bd 61 7f a0 3d bd 86 04 bd
       0.09162823 -0.064348035 0.078367956 -0.03235506
000040 d6 56 cb 3d dd ef 81 3b cd 06 9a 3d fe 10 a4 3c
       0.09928672 0.0039653615 0.075208284 0.020027634
000050 b2 4b 87 bd 5e b8 72 bd 54 31 ad 3d b8 f5 5f bd
       -0.066062346 -0.059257858 0.08456674 -0.054677695
000060 e4 20 a4 bc 55 41 90 3d a0 a9 65 bd 3b a8 e2 bd
       -0.020035215 0.07043711 -0.05606997 -0.11067244
000070 58 9a f1 3d 22 fc ac bd e8 bd 2c bd 58 f3 cc 3c
       0.11797017 -0.08446528 -0.042173296 0.02501838
000080 07 ac f6 3b 94 9f 35 bd f1 c3 bf 3d 60 f0 4f 3d
       0.0075278315 -0.04434164 0.09363545 0.05076635
000090 3b 71 e8 3d 7c e6 c4 bd e8 d2 05 bd f7 11 9c bd
       0.11349722 -0.09614274 -0.03267184 -0.07620614
0000a0 8b 10 47 3c 01 97 5d 3d bc b6 c0 3d ae ff c7 bd
       0.01214994 0.054099087 0.09409854 -0.09765564
0000b0 db 0e 39 3d f0 31 02 3c 61 19 59 bd fb 3b f6 3d
       0.045180183 0.007946476 -0.05300272 0.12023159
0000c0 67 68 00 bc dd 22 da 3d 5d 47 bb bd 5b d6 c1 3d
       -0.007837391 0.10651181 -0.09144471 0.09464713
0000d0 0b 8d 86 bd 32 51 2b bd 44 10 bf 3d 24 7f ac 3d
       -0.065698706 -0.04182548 0.09329274 0.08422688
0000e0 94 18 64 3d 97 f9 0f 3d a3 16 2e bd 6e 08 6b 3d
       0.055687502 0.035150137 -0.042502057 0.057381086
0000f0 3d 2a c2 3d 65 36 86 bd 24 1d d1 bd 17 68 e6 3d
       0.094807126 -0.06553344 -0.10210636 0.11250322
000100 5e b0 85 3b c0 c8 53 3d 17 0d e1 3c cc a2 af bc
       0.0040798625 0.051705122 0.027472062 -0.021439932
000110 df a8 2f bc f4 31 73 3d c2 e9 8b bc bd dc 43 3d
       -0.010721414 0.05937381 -0.017079238 0.047817934
000120 80 2c 53 3a 78 a5 bc 3d 44 3f 9c 3d 33 db 8c bc
       0.0008055642 0.09211248 0.076292545 -0.017194366
000130 b8 ab c9 3d 5e a3 e2 3d de b2 13 3d 5d 0d c1 bc
       0.09847206 0.11066316 0.036059253 -0.023565942
000140 27 01 db b9 d4 c4 92 bd 2e c1 be 3d 5c 24 ef bb
       -0.00041771794 -0.07166448 0.0931419 -0.0072980355
000150 7f af 8b bc d2 0e fa bc 3d 95 3d bd 83 07 0b bd
       -0.017051456 -0.030524645 -0.046284903 -0.03394271
000160 c3 27 e8 3d d6 9c 67 bc 0c c9 fd bc 65 c5 7a bd
       0.11335709 -0.014136514 -0.030979656 -0.061223406
000170 9a b2 53 bd 30 7b e7 bb d9 cf 67 3d 8e 1b 8a bd
       -0.051684 -0.0070642456 0.056594703 -0.06743537
000180 0c 9e 51 3d c5 3f 53 bd 23 27 ce 3d 42 40 cc 3d
       0.051176116 -0.051574487 0.100660585 0.09973194
000190 17 4d e7 bd 8c 01 ce bd 76 4c 02 be fe e8 9b bc
       -0.112940006 -0.10058889 -0.1272448 -0.019031998
0001a0 24 29 7b bb e9 5b f6 3c b2 87 70 bd 9b b2 07 39
       -0.0038324082 0.030073123 -0.05872316 0.00012941139
0001b0 e4 07 c1 bc d9 e5 a2 bd d9 dd cc 3c aa 2e 11 bd
       -0.023563333 -0.07953996 0.025008129 -0.035444893
0001c0 2c ec 0b be ec 67 c3 3c dd 57 db 3b 63 9f 67 3d
       -0.13664311 0.023853265 0.0066938237 0.056548487
0001d0 21 cf 88 bd 65 7d 38 be 91 b3 f1 bc ea 20 99 bd
       -0.06680132 -0.18016584 -0.02950457 -0.07476981
0001e0 0d f4 ed bd 85 b6 01 be 4d 25 11 3d 1a c6 3b 3b
       -0.116188146 -0.12667282 0.035435963 0.0028652013
0001f0 09 4e 85 3b 53 5c bc bb a7 e5 08 be 61 f6 03 bb
       0.0040681404 -0.0057483106 -0.13368855 -0.0020135867
000200 cc 5b 2e bd 06 98 27 be c6 40 c8 bd 34 a3 f1 bd
       -0.042568013 -0.16366586 -0.097779796 -0.11798707
000210 af 34 03 be bb 81 09 be 9e 21 db bd 0e 70 ca bd
       -0.12813066 -0.13428394 -0.10699771 -0.09884654
000220 2c 65 0d bd ee 7d 47 bd e8 48 15 be b7 f9 dc bc
       -0.034520313 -0.04870408 -0.14578593 -0.026974542
000230 d6 f4 2f be 0d 4b b9 bd 62 37 5f 3b 1c 37 7d bd
       -0.17183241 -0.09047518 0.003406011 -0.061820135
000240 fd 03 ef bc 1d 76 26 bd eb d9 1e be d2 a9 c7 bc
       -0.029176706 -0.040639985 -0.15512817 -0.024372969
000250 4c e9 d3 3c 0b 60 2b be db 9c 81 bd b2 ac 86 3b
       0.02586808 -0.16735856 -0.06328746 0.0041099424
000260 9e 00 24 bd 30 f9 02 3c 9d 8d f1 3b 06 30 9a bb
       -0.04003965 0.007993981 0.007371618 -0.004705432
000270 78 04 a9 3d 4f 91 64 bd 42 25 94 3c 21 b8 3b be
       0.082528055 -0.05580264 0.018084172 -0.18331958
000280 84 33 9e bd 14 bc 01 3d 40 2e 9c 3c ba 32 cd bd
       -0.077246696 0.031673506 0.019065022 -0.10019441
000290 de 55 26 bd fc ff e0 bd 31 7d 36 be 42 d1 47 bd
       -0.040609233 -0.10986325 -0.17821194 -0.04878355
0002a0 85 f8 6f bd a0 37 b5 ba a2 c5 df bd 1a 52 06 be
       -0.058586616 -0.0013825782 -0.10926367 -0.13117257
0002b0 b9 56 b9 bd 65 ae 04 be 32 71 99 bd 88 29 f7 bd
       -0.09049744 -0.12957151 -0.074922934 -0.12068468
0002c0 7e c9 95 bd 28 47 93 bd 59 e1 50 bd cf de 1e be
       -0.07313822 -0.07191306 -0.05099616 -0.15514682
0002d0 5b 93 bb bd 4f a2 b6 bd 8e a8 1f bd 7f 82 4b 3d
       -0.09158965 -0.08917677 -0.038979106 0.049684998
0002e0 fa d6 6f bc a2 06 d4 3d 6c 47 14 be 77 d2 64 bd
       -0.014638657 0.103528276 -0.1448037 -0.055864777
0002f0 1d 37 3b be 9d 85 1c bd 7c 47 a2 bc 32 38 89 bd
       -0.18282743 -0.03821336 -0.019809477 -0.067001715
000300 17 ae 00 be 92 bc 1e 3d 6c 9f 3a be 8e fe c8 bc
       -0.1256641 0.038754053 -0.18224877 -0.024535444
000310 97 d7 37 be c4 c8 04 bc 66 3c 95 3c ab 41 f6 bd
       -0.17953335 -0.008104507 0.018217277 -0.12024244
000320 74 b2 b6 bd 41 ed a8 bc 7a 47 9a bc e5 1a 76 3d
       -0.08920756 -0.020620944 -0.01883291 0.060084242
000330 94 25 2e bd f8 47 d0 3d 33 ca 5f bd 46 ee f3 bc
       -0.042516306 0.10169977 -0.05463619 -0.029776704
000340 1c d3 97 3c d1 c6 d4 bd 49 5d 50 bb 75 a9 f0 bb
       0.018533282 -0.10389484 -0.0031793884 -0.0073444196
000350 6c 37 90 3d 06 b0 a6 bd eb 51 3b bd 51 56 97 bd
       0.07041821 -0.081390426 -0.04573242 -0.073895104
000360 82 69 bd bc 31 68 5d 3d af 64 59 bd c7 5a 57 bd
       -0.0231216 0.054054443 -0.053074535 -0.052576806
000370 9f 33 b7 bd 0f 00 68 bd 16 a9 c4 bc 5c eb 9d bd
       -0.08945393 -0.05664068 -0.024006408 -0.07710907
000380 29 a8 ae bd b4 3e cc 3d be 2e a5 3d 1d 0a cb bd
       -0.08528168 0.09972897 0.08065556 -0.09914038
000390 18 a3 b9 bd e0 8a c0 3d 29 ba 17 bd 45 c7 33 3c
       -0.09064311 0.09401488 -0.03704277 0.0109728025
0003a0 39 31 d5 3d bc 19 4d 3d f9 1d 38 3c cf 53 b5 3d
       0.10409779 0.05007337 0.011237615 0.08853876
0003b0 69 b9 80 bd c6 1e 30 bd 77 dd 14 3d 53 eb 88 bd
       -0.06285364 -0.042998098 0.036344018 -0.066855095
0003c0 33 ce 89 bd 1a 84 fc bc f2 cb 6b bc c7 b8 44 3d
       -0.067287825 -0.03082471 -0.014391886 0.04802778
0003d0 4c 0f 95 3d 08 e4 61 3d 63 65 82 bd b2 86 4d 3d
       0.07278308 0.05514911 -0.06366994 0.050177284
0003e0 4d 04 88 3c e1 67 f8 3c 02 27 3c 3d 0f 3e 8f 3d
       0.016603613 0.03032297 0.04593564 0.069942586
0003f0 2f 72 29 bd c5 5e a4 bd 08 e7 ab 3d fd 72 68 bd
       -0.04136866 -0.08025888 0.08393675 -0.056750286

linear.weight f4 [1, 100]
000000 91 f2 04 3d 31 4c 12 3d 9c a8 8d 3d 7e a1 88 bd
       0.03245789 0.035717193 0.06916925 -0.06671427
000010 ce f8 4b bd 20 3a fb bd 6c c5 8b 3c 66 2f 02 3e
       -0.049797826 -0.12266946 0.017061912 0.12713394
000020 08 41 cf 3d 8c 65 97 bc 20 e4 37 3d dd c3 b6 3d
       0.101198256 -0.018481039 0.04489529 0.08924077
000030 e6 a7 a5 bd 18 22 54 bd 93 23 e2 bd d5 f1 99 bc
       -0.08088665 -0.051790327 -0.110419415 -0.018792072
000040 ad 82 7a 3d 8e bc 07 3e 4b a8 bc 3d f1 0b 90 bd
       0.06115978 0.13255522 0.09211787 -0.07033528
000050 f1 39 da bd 62 52 9f 3d 6d 94 af 3d a1 51 f2 3c
       -0.10655583 0.07779385 0.08573232 0.02957994
000060 de 43 90 3d bc 19 4e 3d a7 9d 3e bc 81 29 18 bc
       0.07044195 0.05031751 -0.011634267 -0.009287239
000070 4f 89 ad bd 5e 32 7f 3d ef ee 3f bd e6 71 ed bd
       -0.08473455 0.062303893 -0.046858724 -0.1159399
000080 82 33 b1 3d 39 43 86 3d 81 3f 86 3d 3b 1b 22 3d
       0.086524025 0.065557905 0.06555081 0.03957675
000090 f2 98 be 3c 45 4d ba 3d ff f6 88 bd 62 28 c6 bd
       0.02326629 0.09096769 -0.06687736 -0.09675671
0000a0 8e 0e dd 3d af 7e e9 3b 81 26 df bd 1d 1b 72 3d
       0.10793792 0.0071256976 -0.10896016 0.05910789
0000b0 d0 0d 06 3e e6 c0 c0 3c e4 71 e0 3d 7e 2f fd 3d
       0.13091207 0.023529481 0.10959223 0.12362574
0000c0 4f 05 74 bd 8b 5c 69 bd 81 42 87 bc 16 6f a4 3d
       -0.059575375 -0.05697302 -0.016511204 0.080290005
0000d0 15 72 e3 3d a0 10 15 3d 7d d2 04 bb b6 a8 e5 bd
       0.11105744 0.036392808 -0.0020267062 -0.1121382
0000e0 85 10 64 bd d3 db 0a be 0c 5a 9a bd 44 04 01 be
       -0.055679817 -0.13560419 -0.07536706 -0.12599283
0000f0 ff fb a5 bd bc 29 b0 bc d7 a8 7f bd 7f 33 29 bd
       -0.08104705 -0.021504276 -0.062416878 -0.041308876
000100 c8 6b 7f 3d 75 89 4f bd 7e b4 8d bd a3 70 89 bc
       0.062358648 -0.0506682 -0.06919192 -0.016777342
000110 98 87 9a 3d dd 39 cb 3c d3 a2 40 bd b2 76 d7 bd
       0.07545394 0.024807865 -0.04703028 -0.10520686
000120 6a ab c0 bd ec 6b 2f 3d d9 ad 78 3d 65 80 f9 3d
       -0.09407695 0.04282753 0.06071267 0.121826924
000130 1b d5 a1 3d bf b0 ae 3d d8 39 cc bd e6 ed 62 bc
       0.07901975 0.085298054 -0.0997197 -0.013850665
000140 e8 f4 f8 3d 0c 1f c7 3d fb d9 50 3d 33 6e 5b bb
       0.12156087 0.097227186 0.050989132 -0.0033482432
000150 f7 99 d9 3c bd 0a e7 3c 57 ff d9 bd 84 ff 4e 3d
       0.026562674 0.028203363 -0.10644405 0.050536647
000160 d5 cb 85 3d f0 ec c6 bd 02 8f b0 3d 97 23 be 39
       0.065330185 -0.09713161 0.086210266 0.0003626614
000170 d5 ca 84 bd b9 c7 38 3d 8d 3a d9 3c 17 63 9f bc
       -0.06484 0.045112345 0.026517177 -0.01945643
000180 cb ea db 3d d6 72 9b bd 27 23 2f 3c 24 e8 77 3d
       0.107381426 -0.075902626 0.010689533 0.06052412
