backend/trained_models/ADBL_LSTM_model_state_dict.pth (torch, 167948 bytes, 5 tensors)

rnn.weight_ih_l0 f4 [400, 1]
000000 ae 10 18 bd f0 ef ed 3d 37 3d 15 3d c3 61 dd 3d
       -0.037125282 0.1161803 0.036435332 0.10809662
000010 0a be 71 bd ed b0 2c 3d b5 d9 82 3d db fd ea bd
       -0.059019126 0.042160917 0.063891806 -0.114742
000020 93 82 5f bc 22 83 61 3d 25 65 4f bb 7a 38 11 3c
       -0.013641971 0.0550567 -0.003164598 0.008863563
000030 b3 dc ce 3d 63 2f bd 3d 1c 93 f3 3d 95 84 91 bc
       0.10100689 0.09237554 0.11893293 -0.017763415
000040 ce cf 88 3b c3 45 8e 3d 5e 2f 2b bd 31 a4 8d bb
       0.004175163 0.069469 -0.04179322 -0.0043225517
000050 b5 1a 99 3d ad aa 7a bd c5 e5 d3 3d 30 8a 4d bd
       0.07475797 -0.061197925 0.103465594 -0.050180614
000060 7b ac ac bd df 27 16 bd d0 83 56 bc f5 9a 7f bd
       -0.084313355 -0.036659118 -0.01309295 -0.062403638
000070 01 2c 9a bd 32 94 23 bd 4f 30 88 3c c2 b4 32 bc
       -0.07527924 -0.039936252 0.016624598 -0.010907354
000080 05 d6 2f 3d 8d b1 a8 3d 14 58 e7 3d b4 22 86 bd
       0.042928714 0.0823699 0.112960964 -0.06549588
000090 a3 80 08 3d 40 e0 b9 bc be e5 f3 bc eb ac a4 bc
       0.033325803 -0.022689939 -0.029772636 -0.020101985
0000a0 5b 24 bf 3d 33 21 10 bd bd 42 4e bd e3 d1 1c 3d
       0.09333106 -0.03518791 -0.050356615 0.0382861
0000b0 5b e4 03 bd 99 79 47 bc 70 8c 8b bd 1c 73 99 3d
       -0.0322002 -0.012174987 -0.06813896 0.074926585
0000c0 84 7f 82 3c 28 40 b3 3c ba 1e 4a bd bc 54 6b bc
       0.015929945 0.021881178 -0.04934571 -0.014363464
0000d0 9d 53 b2 3d 40 d7 c4 3c ea 21 99 bd 83 0a 5a 3d
       0.08707354 0.02402842 -0.07477172 0.05323268
0000e0 8b 5b 09 be 1e 9f f6 3d e3 7b 87 3d a5 09 3e bd
       -0.13413827 0.12042068 0.066154264 -0.046395916
0000f0 49 fa 06 3d 59 a2 00 3e 35 c5 4a bd 44 f4 20 ba
       0.032953534 0.1256193 -0.049504478 -0.0006139914
000100 bf e6 8b 3d 1f 48 0a bd 20 88 16 bc 65 e4 94 bd
       0.06831121 -0.033760186 -0.009187728 -0.07270125
000110 79 05 86 3d e1 51 bc 3d 55 3d 12 3e 26 87 ca 3d
       0.065440126 0.09195305 0.14281209 0.09889059
000120 eb b1 68 3d 8b 38 91 3d 19 3d 4a 3d ce b2 8b 3d
       0.0568103 0.07090863 0.049374674 0.06821214
000130 1a b5 ca 3d f6 9d 26 3d 41 de bc bc 9f 1c d7 bc
       0.09897824 0.040677987 -0.023055198 -0.026258765
000140 1e 04 17 bd 7b 89 ce bb 1f 31 fc 3d 33 ae 5b 3d
       -0.03686916 -0.00630301 0.123140566 0.053632926
000150 07 65 de 3c 13 ce 3c bd 9b dd 51 bc b9 f8 f0 3c
       0.027147783 -0.046094965 -0.0128091825 0.029415475
000160 5a 68 16 bd a9 48 44 bd 59 d6 e5 bd bc bf f3 bd
       -0.03672061 -0.047920857 -0.11222524 -0.11901805
000170 21 67 bf 3d 8a a8 8c 3c 0d b0 00 3e c3 d6 3c 3c
       0.09345842 0.01717021 0.12567158 0.011525813
000180 d7 ae 80 bc 87 f6 9f bd 7c d5 84 3c 78 24 49 3d
       -0.01570837 -0.07810693 0.016215079 0.049107045
000190 f1 91 0d 3d d5 d8 0c 3c 43 7e 55 bb 6f bf d6 bc
       0.03456301 0.008596619 -0.0032576479 -0.02621433
0001a0 0a 00 e3 3d cf 4f 01 3e 2a 39 dd bd 7f 8b af bd
       0.11083992 0.12628101 -0.10801919 -0.08571529
0001b0 78 55 75 3c be a0 30 bd e0 31 a2 3c 90 85 b3 3d
       0.014973991 -0.043122046 0.019799173 0.087657094
0001c0 d9 07 c7 3d 68 22 f3 3d 83 02 70 3d 6c 38 03 3d
       0.09718294 0.11871797 0.058596145 0.03203623
0001d0 f0 ae 3a bc f0 f3 ce 3d ba 22 df 3d 73 5f 98 bd
       -0.011394247 0.10105121 0.108952954 -0.074400805
0001e0 37 df a7 bd cc 16 ec 3d 13 c7 1f 3d 00 9c 3f 3d
       -0.08196872 0.11527786 0.03900821 0.046779633
0001f0 e5 83 28 3d 5d 81 42 bd 33 ae 60 bc 21 48 f0 3b
       0.04114141 -0.04748665 -0.013713407 0.007332817
000200 c2 64 df bd b3 d3 b9 3d 4c 9d 90 3d eb 40 c5 3d
       -0.1090789 0.090735815 0.07061252 0.09631523
000210 5c 13 12 3d c6 78 bd bc bb ef ca 3d 96 dd 9e 3d
       0.035662994 -0.023128878 0.09909006 0.07757108
000220 5c c5 91 3c 03 82 cb bd 99 90 b4 3d 72 8f 62 bc
       0.017794304 -0.09936907 0.08816642 -0.013828145
000230 bb 13 e1 3c c2 eb c2 3d 81 b8 bc bc 3c 4d 1b bb
       0.027475229 0.095176235 -0.023037197 -0.0023697158
000240 1b 17 60 bd 84 ab b0 3d a9 1e 34 bd 0b 3b e4 3d
       -0.054709535 0.08626464 -0.043974552 0.11144074
000250 be 39 f0 bd ee 87 cd 3d bc 13 c4 3c 71 25 6e 3d
       -0.117297634 0.10035692 0.023935191 0.058141176
000260 13 b1 d1 3d e7 b8 12 3b f4 95 41 bc 49 65 bb 3c
       0.10238852 0.0022388042 -0.011815537 0.022875445
000270 04 31 1c 3d 0f 54 18 3d fa 7c cc bc b6 1d 01 bd
       0.038132682 0.03718954 -0.024961937 -0.031522475
000280 54 5e 08 bd e0 ff c2 bb d5 08 94 3d 61 fc a4 3d
       -0.033293083 -0.005950913 0.07228247 0.0805595
000290 9b 26 17 3d 24 b4 cf bd 57 61 87 bc 3b 8f fb bc
       0.03690205 -0.10141781 -0.016525907 -0.030707946
0002a0 a2 6c 2e 3d a8 fe 85 3c 09 e6 c8 3d 9d 09 77 3d
       0.04258407 0.016356781 0.09809501 0.060311902
0002b0 f1 4e f5 3d 78 e8 8a 3d 78 0e 38 bd 15 78 44 3d
       0.119779475 0.06782621 -0.044935673 0.04796608
0002c0 d8 06 15 bd e2 bc 12 bd d6 c8 cc 3d f1 3e 8e bd
       -0.03638348 -0.035824664 0.09999244 -0.06945599
0002d0 58 5d 83 bc f7 5d 5f 3d 1f b7 27 3c e3 fe e8 3d
       -0.01603572 0.05453297 0.010236531 0.11376741
0002e0 d3 92 0a bd 7b 84 a1 bc 94 c1 91 bc aa c3 84 3d
       -0.03383143 -0.019716492 -0.0177925 0.064826325
0002f0 fa ab d1 3d f7 11 2c bd 3d 51 9f 3d 63 27 8a bd
       0.1023788 -0.04200932 0.07779167 -0.06745794
000300 5a b0 2f bd 4c 01 cc 3c 57 a2 0b 3e d9 b7 a5 bc
       -0.04289279 0.024902962 0.13636146 -0.020229267
000310 32 a2 0d bd 26 4d 9d bd c1 7d 53 3c 65 84 72 bc
       -0.03457851 -0.076807305 0.0129084 -0.014802073
000320 53 28 8d bd df 4d 53 bd e3 d5 6f bd 69 a4 85 3d
       -0.06892457 -0.051587936 -0.058553588 0.065254994
000330 4a da a3 bd 89 21 a3 3c 69 7e 90 bd 79 d7 73 bd
       -0.0800062 0.019913452 -0.07055361 -0.059531663
000340 27 25 ef bd 39 2c 78 bd 5e 16 82 bd 53 b2 9b 3d
       -0.11677008 -0.06058905 -0.063519225 0.07602372
000350 b5 ee fa bd 85 7d d9 bd de 3c 86 3d e8 b7 f7 bd
       -0.12252561 -0.10619644 0.06554578 -0.12095624
000360 ab 96 0e 3e 7b 65 00 be 47 5d 6b 3d 68 2f ca 3d
       0.13924663 -0.12538712 0.057462003 0.09872323
000370 6a d0 db bd 3c 88 0a bd 01 a4 b2 3d 90 e0 7f 3d
       -0.10733111 -0.03382133 0.087226875 0.06247002
000380 a1 9f 4e bd b8 2c ae bd ad bd 8f 3d e0 a8 6b 3d
       -0.050445203 -0.08504623 0.070186 0.0575341
000390 24 03 74 bd 09 77 d9 3d d8 4a 2f 3d aa 4d 00 be
       -0.059573308 0.10618407 0.042795986 -0.12529626
0003a0 02 fa 8a 3d 09 01 61 bd 60 91 4c 3d dc 18 d1 3d
       0.067859665 -0.054932628 0.049943328 0.1020982
0003b0 52 53 ab bd 33 8f ee bc af f6 f8 bd 5f 91 59 3d
       -0.083655015 -0.029121017 -0.12156426 0.053117152
0003c0 20 ec 67 3d e7 a0 f4 bd 5b 60 57 3d f0 fb 22 3a
       0.05662167 -0.11944752 0.052582126 0.0006217351
0003d0 dd fe b2 3d 95 ec 4e bc 32 6a a8 3d 57 96 c1 3d
       0.087400176 -0.012629648 0.0822338 0.09452503
0003e0 78 e9 db bd a3 30 9c bd 39 f8 41 3d 96 3f 86 3d
       -0.1073789 -0.07626464 0.047355864 0.06555097
0003f0 e8 e6 ff 3d eb 22 56 3d ae 9c a9 bd 74 f0 9b bd
       0.12495214 0.052279394 -0.082818374 -0.07614222

rnn.weight_hh_l0 f4 [400, 100]
000000 78 aa 95 bd c8 50 74 3c 8a e3 46 3d aa a3 9a ba
       -0.07307905 0.014911838 0.048556842 -0.0011798043
000010 c0 b9 90 bd 65 cc 76 bd d9 bb 31 3d 43 8a 84 3d
       -0.07066679 -0.06025352 0.043392036 0.06471684
000020 3f 0a 12 3d c7 50 97 bd 5d f6 16 bd 4b da 03 3d
       0.035654303 -0.07388454 -0.036856044 0.032190602
000030 06 d2 25 3d c4 2e d8 bd 1e 99 59 bd 55 e9 62 bd
       0.040483497 -0.10555795 -0.05312454 -0.055398304
000040 28 b5 3b 3d 4e a1 09 3d a4 a5 16 3d 12 47 06 bd
       0.04582706 0.033601098 0.03677906 -0.03278262
000050 70 81 08 bd 66 5b b2 3d 6e 15 5a bd 86 1d 9b 3c
       -0.033326566 0.08708839 -0.053243093 0.018934976
000060 84 fb 05 3d a5 38 f0 3b ab 19 c3 3b cd 2a 98 3d
       0.032710567 0.0073309713 0.0059539876 0.074300386
000070 f0 51 d9 3b 85 64 6c bc c9 00 b1 3d f3 a1 8c 3d
       0.006632082 -0.014428263 0.08642728 0.06866827
000080 cd 9c ac 3d 2e 25 ae bc 9e 9a 86 bd 67 37 ac bc
       0.08428345 -0.021257963 -0.0657246 -0.021022512
000090 ef 7a cc bd f8 53 19 bd 26 64 f1 3c 5b c4 96 3b
       -0.09984385 -0.037433594 0.0294667 0.004601044
0000a0 25 0e d6 3d 78 4e 88 bd a2 2c 31 3d 14 af d5 bd
       0.104519166 -0.06655592 0.043255456 -0.10433784
0000b0 02 83 69 3d 5a ad a0 3d 73 f3 35 3d 01 dc 0e 3c
       0.057009704 0.07845564 0.044421624 0.008719445
0000c0 72 5f af bd 83 d3 9e 3d 5d 06 2a bd 34 6f df 3b
       -0.085631266 0.077551864 -0.041509975 0.0068186764
0000d0 a0 7f 96 3d f8 c2 af 3d 48 3b 93 bc d9 6d b5 bd
       0.07348561 0.08582109 -0.017972603 -0.088588424
0000e0 ab f2 32 3d b1 0b 65 bd a5 09 9a 3d 7f 00 35 bd
       0.043688457 -0.055919353 0.07521371 -0.044189926
0000f0 b3 ad 81 3d 3f 48 c2 3c 07 18 96 3d 7a 2a ed 3c
       0.063319586 0.02371609 0.073288016 0.028950918
000100 58 e2 ec bc 29 c8 40 bd 71 2d 83 3d d8 0e 32 bc
       -0.028916523 -0.047065888 0.06405152 -0.010867797
000110 9d ae ee 3c 0f 3c 7b 3d 3d a2 2f bd 3e 4e 01 bd
       0.029135996 0.061336573 -0.04287933 -0.03156876
000120 69 b0 5b bd 55 54 ab bd 16 b0 bd bd 5d ce 76 bb
       -0.053635035 -0.083656944 -0.09262101 -0.0037659623
000130 00 7b 2c 3c 36 5b 17 3d 2e 96 9e bd 11 67 d1 3c
       0.010527372 0.03695222 -0.07743488 0.025561841
000140 9f 27 b7 bd 5b 24 4a bb 2d be 39 3d e7 9a 89 3d
       -0.08943104 -0.0030844423 0.04534738 0.067189984
000150 d3 3c 2d 3d e1 d6 30 bc 38 fc e3 bc 92 40 68 3d
       0.042294335 -0.010793419 -0.027830228 0.056702204
000160 6c 57 e0 3c 60 03 61 3c 6d b9 cc bd 15 d1 6d 3d
       0.027385436 0.013733715 -0.09996305 0.058060724
000170 ef 9e 5d 3c 31 86 9d 3b bf 74 e7 3a ea 15 a4 3d
       0.013526662 0.0048072566 0.0017658694 0.08011992
000180 a4 9d 2c bc 1a 6b 28 3d c7 96 76 bc 33 26 c6 3d
       -0.010535631 0.041117765 -0.015050597 0.09675255
000190 d6 7a 9e 3d 6f b8 d2 bd a9 6d 9b 3c 59 14 93 bc
       0.07738273 -0.10289084 0.018973188 -0.017954038
0001a0 b6 74 e0 bd 2b e8 e8 bb f9 23 96 3c a9 98 dd bd
       -0.10959761 -0.0071077547 0.0183277 -0.10820133
0001b0 f7 a8 65 bd 62 cd f2 3c 5c cf 81 bd 7a 46 73 bd
       -0.05606934 0.02963895 -0.06338379 -0.059393384
0001c0 bb e0 cc bd 3c b1 bb 3c dc 46 95 bd 0a a7 2e bd
       -0.100038014 0.02291166 -0.07288906 -0.04263977
0001d0 34 ac 9f 3d 5a fc b5 bd 97 28 af bc 03 8a fd bc
       0.07796517 -0.08886023 -0.02138166 -0.030949598
0001e0 79 21 ae 3c a0 6b 63 3d f0 86 ad 3d b5 4e 99 3d
       0.021256195 0.05552256 0.08473003 0.07485715
0001f0 31 5c d4 bd 2c f2 30 3c 71 a6 ce 3d 8c 2d ac 3d
       -0.103691466 0.010799926 0.1009034 0.08407125
000200 0d 00 0f bd 90 c4 aa bc 52 9b 76 bd 18 19 fc bd
       -0.034912158 -0.020845681 -0.06020672 -0.12309474
000210 d1 47 d2 3d c8 ca c3 3b 78 b8 36 bc 11 10 a8 3d
       0.10267604 0.005975101 -0.011152379 0.082061894
000220 5f 1c e9 bd f3 b4 8f 3d 7d db de 3c bd c7 ca 3c
       -0.113823645 0.07016935 0.02720427 0.024753446
000230 6c 42 a1 3d 37 cb 55 3d 67 3b 0e 3c 32 be 21 bd
       0.07873997 0.052195754 0.008681155 -0.039488025
000240 5e 26 40 3d e7 bb 88 3d 4f 00 cb 3d ab f0 02 3e
       0.04691159 0.066764645 0.09912168 0.1278712
000250 36 8e 76 3d a4 12 65 bd f0 00 61 3d e9 fa b4 3d
       0.060194217 -0.05592598 0.054932535 0.0883692
000260 c8 d0 f4 3d 72 a7 5d bc 80 71 66 bd 27 53 e8 bd
       0.11953884 -0.013528692 -0.056260586 -0.11343985
000270 f5 0e 48 bd 90 43 41 3d 94 b3 82 bb 86 91 af bb
       -0.04884239 0.047183573 -0.0039886925 -0.005357924
000280 4c 0c 9e bd cb 85 78 3b 7f e8 85 bd be e6 aa bd
       -0.07717189 0.0037921544 -0.06538486 -0.08344792
000290 50 31 22 bc da c3 f2 bc 3b 9e 17 bd 71 46 61 bc
       -0.009899452 -0.029634405 -0.037016135 -0.013749705
0002a0 3c 89 12 bc 39 23 c4 bd f4 47 92 bd e7 41 3a 3b
       -0.008943852 -0.09577031 -0.0714263 0.0028420629
0002b0 6a 47 2f bd 1e be 8d bd 97 39 60 bd 92 5b 44 bc
       -0.042792715 -0.069210276 -0.054742422 -0.011984723
0002c0 be 98 61 3c a6 20 5a 3d 79 e0 06 3d 4f 99 fe 3c
       0.013769327 0.053253792 0.032928918 0.031078963
0002d0 64 bf e3 bd 19 8c ac 3d 44 7c 88 3d 7f 5b 3a bc
       -0.11120489 0.08425159 0.06664327 -0.011374353
0002e0 21 57 ba bb 55 96 76 3d 3a f0 c3 3d 3b 2a 88 3c
       -0.005686656 0.06020196 0.09567304 0.0166217
0002f0 e5 0b 67 3d b6 c4 55 bd a2 67 a3 3d 7e 10 9a bd
       0.056407828 -0.05218955 0.07978751 -0.07522677
000300 74 7d 01 bd b9 65 3f 3d b3 4e b0 bc a4 da dd bc
       -0.031613782 0.04672787 -0.021521902 -0.027081795
000310 4f 91 f0 3c 55 41 2f bd eb 94 60 3d 32 6a aa 3d
       0.029366164 -0.042786915 0.05482952 0.083210364
000320 51 2c 2b bc 28 7d 22 bd 07 63 3a 3d 68 a3 e8 bc
       -0.010447578 -0.03967014 0.045504596 -0.02839823
000330 a3 d4 cc bc 57 6d 8b bd b1 7a 2e 3d 47 c9 01 3d
       -0.025003737 -0.06807964 0.042597476 0.031686094
000340 dd f4 ad 3b 0f 78 f8 bc 39 fc ba 3d 0d f0 03 bd
       0.005308731 -0.030330686 0.09130139 -0.032211352
000350 d0 bc 56 3d d1 23 98 3d 95 4d 1f 3d 17 11 e6 bc
       0.05242616 0.074287064 0.038892347 -0.028084321
000360 a2 61 84 3d 29 72 84 bb c9 97 19 3d 7e 2d 08 bd
       0.064639345 -0.0040419293 0.03749827 -0.03324651
000370 36 45 30 3d b0 fe cd 3b eb 6f d3 bc 32 27 4e bd
       0.043034755 0.0062864646 -0.025810203 -0.05033035
000380 cb 0c 25 bd 07 2f 96 bd 12 bc 42 bd ed 99 57 bd
       -0.040295403 -0.073331885 -0.04754264 -0.05263703
000390 f1 14 7a 3c 49 1a 83 3b c1 e5 5f 3c 11 43 9c 3d
       0.015263782 0.004000936 0.013665617 0.076299794
0003a0 cd b1 a0 bd f8 f3 23 bd 1c 73 af bc bf 16 01 bd
       -0.07846413 -0.04002759 -0.021417193 -0.031515833
0003b0 be be 5b ba fb 3a 72 bd f4 0e af 3d a9 8c 71 bd
       -0.000838261 -0.05913828 0.08547774 -0.058972035
0003c0 38 b1 ad 3d ea 05 c5 bd 9d 2e 17 3b a3 3e 70 bc
       0.084810674 -0.09620269 0.0023068555 -0.014663371
0003d0 0b c3 89 3d 7c 7d 20 bd 98 86 3f 3d 23 fa c2 3d
       0.067266546 -0.03918217 0.046759218 0.09520366
0003e0 93 e5 90 3d 3c a6 c6 bd f7 be 84 3c 04 f3 5d 3c
       0.07075038 -0.096996754 0.01620434 0.013546709
0003f0 ac b0 02 3d a7 c3 ce 3d c6 b9 18 3c a6 28 19 3d
       0.03190677 0.100959115 0.009321636 0.03739228

rnn.bias_ih_l0 f4 [400]
000000 bc 11 9b bd 4f bc d5 3d 0c 97 54 bd 75 5c 2d 3d
       -0.07571742 0.10436308 -0.051901862 0.042324502
000010 44 0a 28 bd e8 57 cf bd cb cd 0e bd 09 7b c0 3d
       -0.041025415 -0.10124189 -0.03486423 0.09398467
000020 81 82 db 39 69 ba f8 3c 41 96 6d bd e1 d9 1a 3d
       0.00041868168 0.030362325 -0.05800462 0.03780544
000030 4f 0e d1 bb 78 fd cb 3d 3d 42 62 bc a2 8f f6 bc
       -0.0063798795 0.09960455 -0.013809738 -0.030097786
000040 e3 32 cc 3d b1 ab dd 3d 22 dc bb 3d f8 8b 34 bd
       0.09970643 0.10823763 0.091728464 -0.044078797
000050 00 08 23 3c a5 05 20 3d 71 50 39 bc f5 03 85 3d
       0.009950638 0.039067883 -0.011310683 0.06494895
000060 b7 f3 8d 3d 69 74 ee 3d 9a 6d d0 bc cb fa 70 bd
       0.069312505 0.11643297 -0.025442887 -0.058832925
000070 91 4b 9e 3d 4d 7d db bb 76 eb 29 ba de 59 dc 3d
       0.07729257 -0.0066982866 -0.0006481925 0.10759328
000080 66 f5 15 bd 45 06 01 3e 22 2e 99 3d e9 ce e3 3c
       -0.036610983 0.12600048 0.07479502 0.027808623
000090 e1 b3 02 3d 7d d7 8b 3d 79 ee 24 bc 98 2f 5b bd
       0.031909827 0.068282105 -0.010066622 -0.053512186
0000a0 51 34 8e 3d 14 71 84 3d b5 95 18 3d 0f 02 8e 3d
       0.06943572 0.064668804 0.037252147 0.069339864
0000b0 fc eb ff 3d 81 9f b6 3d 38 19 98 3d 43 e8 31 3c
       0.12496182 0.08917142 0.07426685 0.010858598
0000c0 da 45 58 ba 6c 30 92 3c 9c e4 c3 bd ed bd ae 3d
       -0.0008250155 0.017845355 -0.09565088 0.08532319
0000d0 30 a7 b4 bc 7c 66 9e 3a 8b 3b 32 3d 57 e8 89 bd
       -0.022052377 0.0012084986 0.043513816 -0.067337684
0000e0 0e 85 9b 3d dd 89 76 3d 33 0f 9b bc ee cf 2c 3d
       0.075937375 0.06019007 -0.018928146 0.042190485
0000f0 d2 f9 26 3d e9 eb 17 3d 1f 6c 88 bd 88 de 80 bd
       0.04076559 0.037090216 -0.066612475 -0.062924445
000100 42 8a 3f 3d 9d 32 f1 bd 1c f7 7f bd fc db c5 bd
       0.046762712 -0.11777232 -0.06249152 -0.09661099
000110 b0 6f dd 3c a2 a0 0b bd 53 47 25 bd f4 d4 7e bd
       0.027030796 -0.03408874 -0.040351223 -0.062214807
000120 09 78 c4 bd 68 22 89 bd 0c 29 a0 bd d8 c0 23 3c
       -0.095932074 -0.066960156 -0.07820329 0.009994708
000130 6e 89 14 3d 15 74 1c 3d 27 d6 26 bd b9 7e f1 3c
       0.036263876 0.038196642 -0.040731575 0.029479371
000140 a0 f5 f3 3d 7c aa 79 3c b3 90 bf 3d de 45 13 bd
       0.119120836 0.015238401 0.09353771 -0.035955302
000150 4f 6c 5e 3d 40 51 7b 3b 64 70 22 bd 2f db 36 bd
       0.05430251 0.003834799 -0.039657965 -0.044642624
000160 ee 78 b5 3c 38 cb 8e bd b0 c7 c1 bd 82 a8 78 3c
       0.02215239 -0.06972355 -0.094619155 0.015176894
000170 1a 79 f1 3d 5a aa 61 3d 61 90 94 bd 6e d9 3d bd
       0.117906764 0.0550941 -0.072541006 -0.046349935
000180 ff d4 d0 3c ce a1 2e bd eb 5f bf bd 0d 10 31 3d
       0.02549219 -0.042634778 -0.09344467 0.043228198
000190 20 3e 79 3d 07 a4 bd 3d fb 2f 6c bd 90 25 7a 3d
       0.060850263 0.09259801 -0.057662945 0.06107098
0001a0 5d 0a d9 bc 0a 91 9d 3d b9 c8 83 bb e5 13 95 3d
       -0.0264942 0.0769368 -0.0040217307 0.07279185
0001b0 d5 fd 63 3b 17 d0 82 bc ba 37 3d 3c 07 af c4 3c
       0.0034788747 -0.015968366 0.011548931 0.02400924
0001c0 0c 68 6e 3d a1 c4 67 3d 7d 98 91 3d f1 66 0e 3d
       0.058204696 0.056584004 0.07109163 0.03476614
0001d0 2d 5f f4 ba 80 7f b6 3d 80 8e 16 bd d2 b6 c1 bb
       -0.0018644087 0.089110374 -0.036756992 -0.0059116865
0001e0 dd 93 65 bd ea 57 51 3d cb f3 40 bc 6f 7d 25 3c
       -0.056049217 0.051109232 -0.011776875 0.0101007065
0001f0 0c 26 1d bd 9b 99 03 bd 2b 3f 62 bc 35 0b 67 3d
       -0.038366362 -0.03212891 -0.013809006 0.056407172
000200 7a c0 7b bd 8a e9 21 bd 4f c1 e3 bc 05 50 e4 3d
       -0.061462857 -0.03952936 -0.027802138 0.11148075
000210 49 06 a4 bd 81 71 00 3e 9a be d7 3d 80 3d 78 bd
       -0.08009011 0.12543298 0.10534401 -0.060605526
000220 ae be 04 bc a4 35 c3 3c 49 b2 31 3c 44 36 d5 3d
       -0.008102102 0.023829289 0.010845729 0.10410741
000230 40 d2 68 bd b9 88 bd 3c fb 23 74 bd e7 bb c1 bd
       -0.056841135 0.023136484 -0.059604626 -0.09459668
000240 23 7c a3 3c 3e 67 69 3d 67 4f 84 3d 31 43 55 3d
       0.019956654 0.056983225 0.06460457 0.05206603
000250 24 0c ce 3d cb a1 ca 3c c0 2c 84 3c 36 17 2f 3d
       0.100609094 0.024735352 0.01613462 0.042746745
000260 c6 0e f4 bc 2f 36 86 3d 70 3b 80 bc ff f5 74 3d
       -0.0297922 0.065533035 -0.015653342 0.059804913
000270 78 9d ef 3c 0c 6b 99 3d ac 98 0b bd f3 e7 43 bc
       0.029249892 0.07491121 -0.034081146 -0.0119571565
000280 20 6e cf bc c5 90 43 3d 2c ce d3 bc 3b 22 9a 3d
       -0.025321066 0.047745485 -0.025855146 0.0752606
000290 67 cf 98 bd 3b 17 89 bd ec 62 b5 bd bf 37 69 3d
       -0.07461434 -0.06693884 -0.088567585 0.05693793
0002a0 f1 7f 5b 3d d7 1d 3f b8 52 dd 0c bd 28 9b 97 3d
       0.05358881 -4.556574e-05 -0.034390755 0.074026406
0002b0 9d 48 e3 bb 03 44 67 3d cd 7d 6a bd cc 01 22 3d
       -0.0069361464 0.056461345 -0.05724888 0.039552495
0002c0 78 46 ae 3c 45 ad 26 3d 1f b9 0c 3d 67 b4 c7 bc
       0.021273836 0.040692586 0.034356233 -0.024378015
0002d0 a3 5b 91 bd b8 1b 30 bd d2 e6 7c bc fd bc f0 3c
       -0.070975564 -0.042995185 -0.015435891 0.029386992
0002e0 f5 31 8d bd 0c d1 6c bd c1 e0 3e bd da e8 2d 3d
       -0.06894294 -0.05781655 -0.04660106 0.042458393
0002f0 7d 74 e3 3d 2d 0a a1 3b 7a 93 a7 3c a7 26 da bc
       0.11106203 0.004914543 0.020456064 -0.026629759
000300 6a d4 b3 3d 04 13 63 3c 9a b5 8f 3b 81 95 c0 bd
       0.08780749 0.013859514 0.0043856623 -0.094035156
000310 dc 80 4f 3d bd cf a3 bd 01 cc 8c bd 77 53 3c 3d
       0.05066 -0.07998607 -0.06874848 0.045978036
000320 27 3c b3 bc 36 10 3d bd 48 89 b7 3d ee f9 77 3d
       -0.021879269 -0.046158038 0.08961731 0.060541086
000330 fb 78 92 3c 5d 4a 39 bc 04 aa 2e 3d c4 2e 35 bd
       0.017879954 -0.0113092335 0.04264261 -0.044234052
000340 d9 43 90 bd 28 64 1a bd b0 36 a4 bc 77 82 45 bd
       -0.07044191 -0.037693173 -0.020045608 -0.048220124
000350 40 d1 16 bd 12 e0 1a bd 1c 4f 9e bd ac f2 a9 bd
       -0.03682065 -0.037811346 -0.07729933 -0.08298239
000360 a7 94 94 bd fe 41 ca bc bf 7b 8e bd 12 16 4c 3c
       -0.07254916 -0.02468967 -0.069571964 0.012456434
000370 a5 89 b5 3d 07 07 b7 3c b5 d1 9c bc df f5 db 3c
       0.08864144 0.022342218 -0.019142965 0.026850639
000380 20 21 a0 bd 31 60 c1 bd 72 2d 66 3c 63 47 99 bd
       -0.07818818 -0.09442175 0.014048921 -0.07484319
000390 a2 68 b7 bc aa 24 a0 3b dd d5 08 bd 27 de 0a 3d
       -0.02238876 0.004887183 -0.03340708 0.033903267
0003a0 34 18 8c 3d d1 37 f1 bc 42 70 8b 3d 91 d9 88 3d
       0.06840554 -0.02944556 0.06808521 0.066821225
0003b0 98 ec 37 bd 4f 8e 3f 3d d9 ad 20 bd 95 90 7c 3c
       -0.044903368 0.046766575 -0.039228294 0.01541533
0003c0 4a 18 4e 3d 8c 9e a8 3d ca 70 27 3d cd a2 7a bd
       0.050316133 0.082333654 0.04087905 -0.061190415
0003d0 45 e6 6c ba e7 96 16 bd c4 2d dd 3a 44 f3 01 bd
       -0.00090369984 -0.036765005 0.0016874601 -0.031726137
0003e0 38 65 d6 3d 24 11 a4 bd e3 64 ac bd 1b 0c aa 3d
       0.10468525 -0.08011082 -0.0841768 0.0830309
0003f0 bc 3a 72 3c 73 de c9 3a 99 a8 3d 3d f9 40 64 3d
       0.014784511 0.0015401378 0.046303365 0.055726025

rnn.bias_hh_l0 f4 [400]
000000 fd a4 85 3d 85 9a aa 3d 02 b6 5d bd ad 7a a1 bb
       0.0652561 0.083302535 -0.054128654 -0.004927954
000010 6a fd 5a bd 0d 56 81 3d c8 d8 c3 bc 70 51 51 bd
       -0.05346433 0.06315241 -0.02390708 -0.051103055
000020 59 c1 f3 3d 91 1c 88 3a cc fd 64 bb b4 e5 29 3d
       0.119021125 0.001038449 -0.0034941314 0.041478828
000030 ab 7a 8e bd 73 06 68 bd 82 95 0f 3d 1c ec d7 3d
       -0.06956991 -0.056646775 0.03505469 0.10543081
000040 2b 56 4f 3d 7a c7 51 39 9e 41 58 3c 4e 5a 9d bd
       0.050619286 0.00020006104 0.013199238 -0.0768324
000050 1c 0e c5 bd 4c ce ac bc 0c 1e 8d 3d 70 a5 e6 bc
       -0.09621832 -0.021094464 0.068904966 -0.028155059
000060 9d c9 f1 3b 90 16 b5 3c 3d b8 94 bb 13 24 b2 3d
       0.0073787705 0.022105485 -0.0045385645 0.08698287
000070 49 81 e5 bd 7a a7 bb 3d 65 25 54 3d 85 d0 74 bd
       -0.112063 0.09162803 0.051793475 -0.059769172
000080 3b 95 87 bd cb d2 0d bd fc b9 48 3d 25 66 8b bd
       -0.0662026 -0.034624856 0.049005494 -0.06806592
000090 ee 20 c0 3d 4a 3b 74 3d e5 72 c4 3d 91 cd be 3d
       0.09381281 0.059626855 0.09592227 0.093165524
0000a0 e3 e5 af bd ec af a1 3d 19 42 4b 3d c7 82 bf bd
       -0.08588769 0.078948826 0.049623583 -0.09351116
0000b0 4a 34 be bc 3f 17 c8 3d 20 d2 a6 3b af 5d c1 bb
       -0.023218293 0.09770059 0.005090967 -0.0059010605
0000c0 b4 68 a3 3c 09 95 ed 3d 68 7e ae 3d 7e e2 ba 3d
       0.019947387 0.11600692 0.08520204 0.09125231
0000d0 5a ee 9a 3b 72 5b c1 bc 5e 6c f5 bc 05 2d 58 3c
       0.0047281208 -0.023603175 -0.0299589 0.013194327
0000e0 2e f4 e9 3d 24 62 a7 3d 3f ab 23 3d a2 9f f2 3b
       0.11423527 0.08173016 0.039958235 0.0074042836
0000f0 18 fb ce 3d 5f 7a 3e bd 79 33 67 bc 2b 40 b1 3c
       0.10106486 -0.04650342 -0.014111393 0.021637043
000100 cb f0 26 bc ab 8f 99 3d 48 3d 0c 3c 28 75 b1 bd
       -0.010189245 0.074981056 0.008559532 -0.08664924
000110 ee 66 56 3d bc 07 2f 3c 97 1e 19 bc 12 f7 e5 3d
       0.052344255 0.010682996 -0.009345672 0.112287655
000120 68 34 be 3d 07 af c4 bd 56 35 a3 bd e2 44 a1 3d
       0.092873394 -0.09603696 -0.079691574 0.078744665
000130 9d d4 25 3d bc 06 3d 3d 60 1d 8a 3d 6c ec c9 3c
       0.040485967 0.046149 0.06743884 0.024648868
000140 04 8b 40 3d 5b da ce bd 1a 87 fc bb 3d 9d 66 3d
       0.047007576 -0.10100242 -0.007706535 0.056302298
000150 87 dd 88 bd fa a5 cc bb fd a5 f7 3c fe 95 a8 3d
       -0.06682878 -0.006245372 0.030230517 0.08231734
000160 00 05 e0 3d f2 12 19 3d cf 14 d4 bb 34 11 21 3d
       0.10938454 0.037371583 -0.006472207 0.039323047
000170 d6 ab 1b bd f8 e1 fb 3d 9e ae b1 bc 64 7e 92 bd
       -0.038005672 0.122989595 -0.02168971 -0.07153013
000180 b9 6e 63 3d 29 df 44 3d 34 88 44 bd 91 7e 80 3d
       0.055525515 0.048064385 -0.047981456 0.062741406
000190 5a b0 8d 3d a5 f1 32 3d 12 7e b4 bd db 0b 97 bc
       0.06918402 0.04368748 -0.088131085 -0.01843827
0001a0 79 41 c8 bd 6f a3 14 bd 7a 0b 79 bd 5b 3a 8e 3d
       -0.09778113 -0.036288675 -0.06080196 0.06944724
0001b0 00 3b cb bb 7c 06 2c bd d7 e0 09 3d eb 45 46 bd
       -0.0062021017 -0.04199837 0.03366169 -0.048406523
0001c0 0b 32 e3 bc ef a6 34 bc 81 aa 84 bd 18 6b b6 3b
       -0.027733823 -0.011026128 -0.064778335 0.005566966
0001d0 02 96 3b bd e2 23 94 bb 08 5f 83 3d fc 77 99 3c
       -0.045797355 -0.004520879 0.0641461 0.01873397
0001e0 2c 84 8e 3d 06 50 d9 3c cf 0e 78 3d 59 50 1a 3d
       0.069588035 0.026527416 0.060560998 0.03767428
0001f0 d8 5f d3 3d 0a 6f 1e 3d db ad 96 bd ab 67 3c 3c
       0.10321015 0.038680114 -0.07357379 0.011499326
000200 3d 22 b5 38 3e da 8b bd 22 2e a8 3d b9 b2 0b 3c
       8.63713e-05 -0.06828736 0.08211924 0.0085264975
000210 03 c7 94 bc b4 e2 34 bd ca 5e 94 bc 5a 97 8e 3d
       -0.018161302 -0.044161513 -0.018111605 0.06962462
000220 5d 59 e0 3d 10 ad 96 3c 78 5e e6 bc fb 98 b6 bc
       0.10954545 0.01839307 -0.028121218 -0.022289744
000230 4e 3a 39 3c 7c d5 13 bc dc 51 1f 3d 15 be 19 3d
       0.011305405 -0.009023067 0.038896427 0.037534792
000240 a3 70 5c 3d 4e 0d 84 bc e1 96 fd bc 67 fd 8e bd
       0.053818356 -0.016119625 -0.030955734 -0.069819264
000250 36 1d e3 3d 76 9f 7b bd 7e 8b 80 bc 1e 01 16 3d
       0.11089556 -0.06143137 -0.015691515 0.03662216
000260 f7 e0 2f bd c4 b3 80 3d 70 ba 16 3d d4 26 41 3d
       -0.042939153 0.062842876 0.036798894 0.04715617
000270 90 2f fb 3d f6 68 2a bc 50 91 87 3d b4 9b 18 3d
       0.12264931 -0.010401001 0.06619513 0.037257865
000280 f0 a9 59 bd 25 f7 d1 3d a5 08 5a 3d bd 1b 9e bd
       -0.05314058 0.10252217 0.0532309 -0.077201344
000290 c1 55 90 3d cc 3a 3d 3d 97 bd b9 bd 02 6d 72 bd
       0.07047606 0.04619865 -0.090693645 -0.05918599
0002a0 96 f9 be bd 08 6d 93 bc 7b d0 b6 3d 77 51 a2 3d
       -0.093249485 -0.017996326 0.08926483 0.079256944
0002b0 c1 43 8d bd a1 90 70 bd 6b 52 8e bd 90 9a 21 bd
       -0.06897689 -0.05873168 -0.06949314 -0.039454043
0002c0 b8 15 b7 3d 39 ae 97 bd 25 10 ac bd 67 7c 47 bc
       0.089396894 -0.07406277 -0.08401517 -0.012175656
0002d0 1c ee af 3c bc 81 5e bd 72 17 14 3a 43 3d e1 3d
       0.021475844 -0.054322943 0.00056492456 0.10998013
0002e0 ec e4 0d 3d 6e 37 83 3d 9e 21 e8 3c f7 9e ac bd
       0.034642145 0.06407057 0.028336342 -0.08428758
0002f0 46 2c d6 3c 75 fb 80 bd 7e 7f ad 3d a7 bf 98 3d
       0.026144158 -0.062979616 0.08471583 0.0745843
000300 7d 8a 2a bd 7f 51 6c 3d ac 69 90 bd e5 ca 97 bd
       -0.04163598 0.05769491 -0.07051405 -0.07411746
000310 b2 bf 3b 3d 05 50 69 3d e9 ae 41 bd 7e b9 41 3a
       0.04583711 0.05696108 -0.047285948 0.0007390006
000320 9d 1a 5c bd 7b 12 be bd d1 51 44 bd 7f 0d be 3d
       -0.053736318 -0.092808686 -0.04792959 0.09279918
000330 2b 2a b3 3d 6c 3e ec bb d5 95 56 bc 28 5e 9c 3d
       0.08748277 -0.0072095897 -0.013097246 0.076351464
000340 e8 ab 90 3d 1e 1a e3 bb 7b a8 80 bd b6 50 84 3d
       0.070640385 -0.0069306036 -0.06282135 0.06460707
000350 5b e0 0c bb 43 5f 7a bd 22 1e 93 3d bd a3 b5 bd
       -0.002149603 -0.061126005 0.07183482 -0.08869121
000360 5e 7e 53 3c c6 40 12 3d 45 d9 b7 3d 63 f9 9d 3d
       0.012908546 0.035706304 0.08976988 0.07713582
000370 4c 7a 9f bd 04 90 af bd a0 a9 88 bd e5 17 96 3d
       -0.07786998 -0.08572391 -0.066729784 0.07328776
000380 f8 d9 b8 bc 06 86 56 3d c7 3d 97 3d 31 50 41 bd
       -0.022564873 0.05237391 0.0738483 -0.047195617
000390 e8 62 27 bd 5b 69 8a bd e4 88 6e 3d 22 10 d8 bd
       -0.04086581 -0.06758376 0.058236018 -0.10549952
0003a0 c7 11 8f bd 07 d7 b2 3c 60 fe ed bb 3d 77 4b bc
       -0.06985813 0.021831049 -0.00726299 -0.012418565
0003b0 36 67 79 bd 01 c4 49 3c d2 b9 3e 3c 7c 01 16 bc
       -0.060889445 0.012314797 0.011640983 -0.009155627
0003c0 16 02 c4 3d 65 9f 29 bd d7 ec c5 3a 69 be 61 3d
       0.0957071 -0.041411776 0.0015100491 0.05511323
0003d0 7a ed f6 3c b3 15 c2 bd 8e d4 a6 bd 5b 83 a8 bd
       0.030142535 -0.09476795 -0.0814601 -0.08228179
0003e0 b6 39 dd 3d 3b a1 aa bd 35 e5 24 bd 62 85 a4 bd
       0.10802023 -0.083315335 -0.04025765 -0.08033253
0003f0 dc f5 c8 bc 31 15 93 bd 6b b3 c9 bc 8a 63 d0 3c
       -0.024531297 -0.07181776 -0.024621686 0.025438089

linear.weight f4 [1, 100]
000000 b7 a8 e9 bc 62 2d de bd fe 1b bd bc f7 8e d9 3d
       -0.028522832 -0.108485 -0.023084637 0.106229715
000010 dc de 87 3d a3 11 96 bd 3e 31 32 3c 1d 74 01 be
       0.06634304 -0.07327583 0.010875998 -0.1264195
000020 af 03 09 be cb 00 87 bd 16 e9 e8 bd 41 83 96 3d
       -0.13380311 -0.06591948 -0.113725826 0.073492534
000030 21 9f 47 bd cb f3 ab bd 43 07 0f 3e 46 cb 8c bd
       -0.04873574 -0.08396109 0.13967614 -0.06874709
000040 51 f5 6a 3d 00 ca a1 bd f6 cf 15 3e 52 e3 6d bb
       0.05736286 -0.078998566 0.14630112 -0.0036298824
000050 b0 fc 13 3b 1e 09 f4 bd 40 58 b1 3d e7 62 48 3d
       0.0022581033 -0.119158015 0.086594105 0.048922446
000060 6e 50 b2 3d 4c 69 13 be c6 9f aa bc 16 c5 c1 3c
       0.08706747 -0.14395636 -0.020828139 0.023653548
000070 01 15 89 3d 0e e7 85 3d 3d 59 91 bd b6 1e 54 bd
       0.06693459 0.06538211 -0.07097099 -0.0517871
000080 80 3f 23 bc ef 6c 1b be 07 1a 66 3d 06 e0 85 bc
       -0.00996387 -0.15178274 0.056177165 -0.016342174
000090 7d 60 f8 bd 1e f3 b4 bd 20 ab c1 bd 21 ba 0d 3e
       -0.12127779 -0.088354334 -0.09456468 0.13840534
0000a0 04 10 3f 3d ad a9 9d bd 3b 69 7d bd 55 fc 59 3d
       0.046646133 -0.07698379 -0.061867934 0.05321916
0000b0 8b 74 e2 3d 95 92 af bd 9e cf e2 3d 62 d2 26 3d
       0.11057385 -0.0857288 0.11074756 0.04072798
0000c0 bb d1 20 bd 69 1f d0 bd 5a 66 8e bd b5 3a 1b 3e
       -0.039262515 -0.10162241 -0.06953116 0.15159114
0000d0 c0 1f 8b 3d 03 1e eb 3d 51 ef 0a be a6 19 16 bc
       0.06793165 0.11480334 -0.13567854 -0.0091613885
0000e0 29 92 65 3d bf 63 0a 3e 54 52 9b 3d 4c 8d a5 bd
       0.056047592 0.13514613 0.07584062 -0.08083591
0000f0 a1 fc 66 bd 8e 97 e3 3c 14 63 26 3d 58 b9 e4 bd
       -0.05639327 0.027782228 0.040621832 -0.11168164
000100 79 0d 5f 3d 7c 0c cd 3c 11 69 9b bd 44 0e 36 3d
       0.054456208 0.025030367 -0.07588399 0.0444472
000110 59 d5 7f 3d 6c 05 bd bc 42 e4 7b 3d 2e 2e ee bd
       0.062459324 -0.023073874 0.06149698 -0.11629902
000120 05 53 09 3d 08 bb f3 3a 20 6b 0b 3d 28 88 a7 3d
       0.03352644 0.0018595168 0.03403771 0.081802666
000130 fd 9d 1e bc 39 ee 10 3e 2a 14 9a bd 22 14 24 bd
       -0.009681222 0.14153375 -0.07523377 -0.040058263
000140 b7 2f bd bd 26 9f b8 bd 70 42 11 3e 37 7e 98 3d
       -0.092376165 -0.0901473 0.141855 0.074459486
000150 cf be a8 bd a0 1c 13 be 6e d3 fc 3c 35 c5 a7 bc
       -0.08239519 -0.14366388 0.030862536 -0.020479778
000160 bf 81 b9 bd fd 8c ed 3d 17 e6 a8 3d d4 42 91 3d
       -0.0905795 0.11599157 0.08247011 0.070928246
000170 1f a5 1c 3d 68 76 d7 3d e3 a5 ee 3d 33 64 25 3d
       0.03824341 0.10520631 0.11652734 0.04037876
000180 2d c6 b8 bd 6f 2f 9e bd e7 f9 6b bd f7 99 06 3e
       -0.09022174 -0.07723891 -0.057611372 0.1314467
