backend/trained_models/CZBIL_GRU_model_state_dict.pth (torch, 126732 bytes, 5 tensors)

rnn.weight_ih_l0 f4 [300, 1]
0	0xbdbbe590	-0.09174645
1	0x3d836bef	0.06417071
2	0xbd8c4ebe	-0.068509564
3	0x3db02531	0.08600844
4	0x3dfa1470	0.122109294
5	0x3daa9466	0.08329086
6	0x3c829cfb	0.015943995
7	0x3b9cb30b	0.004782086
8	0x3d4c9960	0.049950957
9	0xbc14981b	-0.009069468
10	0x3d2baf7c	0.0419154
11	0xbc935480	-0.017984629
12	0xbd32e85c	-0.043678626
13	0x3d85b493	0.065285824
14	0xbd196241	-0.037447218
15	0xbd116625	-0.035497803
16	0x3cedb2db	0.029015949
17	0xbd864bff	-0.06557464
18	0x3c324779	0.010881298
19	0xbdb15ac2	-0.08659889
20	0xbd9927be	-0.07478283
21	0xbd8aa52e	-0.06769787
22	0x3c9a3b0e	0.018826988
23	0x3db35738	0.0875687
24	0x3c8d1a1c	0.017224364
25	0xbd4ece6c	-0.050489828
26	0xbd87237b	-0.06598564
27	0xbd4c4d39	-0.049878333
28	0x3d4d3dfa	0.050107934
29	0x3a7503a5	0.00093465514
30	0xbd91223b	-0.07086607
31	0x3c129937	0.008947662
32	0x3de9a634	0.11408654
33	0x3d42bf2f	0.047545608
34	0xbce1f869	-0.027584272
35	0xbd507c49	-0.050899778
36	0x3cb57663	0.022151178
37	0xbcc04156	-0.023468655
38	0xbbf56634	-0.00748899
39	0xbd205699	-0.039145086
40	0x3dcb8cbb	0.099389516
41	0xbdf48d0c	-0.11940965
42	0xbc30981d	-0.010778454
43	0xbd8a3a1c	-0.06749365
44	0x3d42444c	0.047428414
45	0xbc52565b	-0.012837972
46	0xbc0c0897	-0.00854697
47	0x3b49819d	0.0030747422
48	0xbdd021f1	-0.10162724
49	0xbd2a80ca	-0.04162673
50	0xbd4d73b8	-0.050159186
51	0x3da2e345	0.079535045
52	0xbd837206	-0.064182326
53	0x3dd1f838	0.10252422
54	0xbcc6ccba	-0.024267543
55	0x3d94ac64	0.072594434
56	0x3db69c4a	0.089165285
57	0x3d85f408	0.06540686
58	0x3d4e13c9	0.050311837
59	0xbc11c681	-0.008897425
60	0x3df54cc4	0.119775325
61	0x3d529274	0.0514092
62	0xbd071320	-0.032977223
63	0xbbf762f3	-0.0075496375
64	0xbc38bcaa	-0.01127545
65	0xbd8623c1	-0.06549788
66	0xbd4ce447	-0.05002239
67	0x3dfda717	0.123853855
68	0xbc157bca	-0.009123752
69	0x3df55233	0.11978569
70	0x3d36ec4a	0.044658937
71	0x3d9292bd	0.07156894
72	0x3dc82afe	0.09773825
73	0x3d86a9da	0.06575365
74	0x3c25eed8	0.010127746
75	0xbcf310e1	-0.029671134
76	0xbd1cc2f3	-0.038271856
77	0xbd77f4e1	-0.06053627
78	0xbb3e6d88	-0.0029056985
79	0x3c8cb324	0.017175265
80	0xbe01aefd	-0.12664409
81	0xbd89efee	-0.06735216
82	0x3dad0661	0.08448482
83	0x3c68e479	0.014214628
84	0xbcac5f6f	-0.0210416
85	0x3cca7d34	0.024717905
86	0x3d4de602	0.05026818
87	0x3dad6336	0.084661886
88	0x3c0287e0	0.007966965
89	0xbda886eb	-0.082288586
90	0xbc85a02f	-0.016311733
91	0xbd0e6a55	-0.034769375
92	0x3cd55e05	0.026045809
93	0xbdc6d31a	-0.09708233
94	0x3d8786d9	0.06617517
95	0x3d61e04b	0.055145543
96	0x3dd4fec2	0.10400154
97	0xbd565b8c	-0.0523334
98	0x3c1e76f2	0.009671913
99	0x3d1aa361	0.037753467
100	0xbdba4b06	-0.09096341
101	0x3d8ab84e	0.067734346
102	0xbba84d93	-0.0051362007
103	0xbd5ea7bc	-0.054359183
104	0xbdcf76c3	-0.10130074
105	0x3ba43123	0.0050107404
106	0x3d12d5ab	0.0358483
107	0xbda8b0ae	-0.08236824
108	0xbe0787ad	-0.1323535
109	0x3cc01d3d	0.023451442
110	0xbd9a5f1f	-0.07537674
111	0x3c03ada8	0.008037008
112	0xbd7b78ce	-0.061394505
113	0xbc5d4e78	-0.013507478
114	0x3cccffdd	0.025024349
115	0xbdeb37cb	-0.11485251
116	0xbdcb4f69	-0.09927256
117	0x3bba2afb	0.005681393
118	0x3c96fb55	0.018430391
119	0xbd5d5f49	-0.05404595
120	0xbd30c900	-0.04316044
121	0x3dd502ad	0.10400901
122	0xbdf4c296	-0.11951177
123	0xbdc11e42	-0.09429599
124	0xbdcdaee9	-0.10043127
125	0xbdc075f8	-0.09397501
126	0xbd0ff172	-0.03514237
127	0xbd878752	-0.06617607
128	0xbd140a65	-0.036142725
129	0xbc46fdd0	-0.012145475
130	0xbd6f7ea1	-0.058470372
131	0xbd3b9c16	-0.045803152
132	0x3cc6fa3e	0.024289247
133	0xbcece827	-0.028919293
134	0xbcda7c79	-0.026670681
135	0xbd841a72	-0.064503565
136	0xbdd89a68	-0.10576326
137	0xbd44e6be	-0.048071615
138	0xbca0bca7	-0.019621206
139	0x3d2bab2a	0.04191128
140	0xbb830288	-0.0039981045
141	0xbde0ee39	-0.10982937
142	0x3c677be4	0.014128659
143	0x3b45dfc3	0.0030193187
144	0xbd0fe92d	-0.035134483
145	0x3cdba3c4	0.026811488
146	0xbd4c52ca	-0.04988364
147	0xbdd09f75	-0.10186664
148	0xbe2b5b96	-0.16734156
149	0xbdb572be	-0.08859776
150	0xbc881812	-0.01661304
151	0xbe13ddf3	-0.14440136
152	0x3a6d5b0d	0.00090544
153	0x3cf06381	0.029344322
154	0xbd8e7c34	-0.069572836
155	0xbe1c1b79	-0.15244855
156	0xbd36dc87	-0.044643905
157	0x3d21efab	0.039535206
158	0xbc336623	-0.010949644
159	0x3ba075a6	0.0048968373
160	0xbc076879	-0.008264654
161	0x3e0831ca	0.13300243
162	0xbd7b9725	-0.06142344
163	0x3c5d1cf7	0.013495675
164	0x3c0b1910	0.008489862
165	0xbddae109	-0.10687453
166	0xbd844af9	-0.064596124
167	0x3c9b2ba7	0.018941713
168	0xbd3e00fe	-0.046387665
169	0xbd8e5f96	-0.06951825
170	0xbdfc28bc	-0.12312457
171	0x3ce56638	0.028002843
172	0xbb7e02c6	-0.0038758977
173	0x3dadceb5	0.08486692
174	0xbde4b9e7	-0.111682706
175	0xbdd0d861	-0.10197521
176	0xbbf58675	-0.007492835
177	0x3d6facee	0.058514528
178	0xbca5f955	-0.020260492
179	0x3d030ca1	0.031994466
180	0xbe0c1160	-0.13678503
181	0x3b19a1f8	0.0023442488
182	0x3c9e9ddc	0.019362383
183	0xbe0771ed	-0.13227053
184	0xbdc22499	-0.09479637
185	0xbd86bdae	-0.06579147
186	0x3d2e7727	0.0425941
187	0xbe0708c1	-0.13186933
188	0xbe25cd98	-0.16191709
189	0xbe1937b9	-0.14962663
190	0xbe283009	-0.16424574
191	0xbcd5ab17	-0.026082559
192	0xbe207948	-0.15671265
193	0xbdaca281	-0.08429433
194	0xbc06771a	-0.008207107
195	0xbe15cc7b	-0.14628784
196	0xbe11b7f0	-0.14230323
197	0x3db61938	0.08891529
198	0x3d6c6e85	0.057722587
199	0xbdd7388b	-0.105088316
200	0x3d91c636	0.07117884
201	0x3da828a8	0.082108796
202	0xbc948f61	-0.018134775
203	0x3dd26e2e	0.10274921
204	0x3dd095be	0.10184811
205	0xbb9c3945	-0.0047675692
206	0x3caef3e7	0.021356536
207	0x3ddec8be	0.10878132
208	0xbd85302e	-0.0650333
209	0x3dcc724d	0.09982739
210	0xbda1a357	-0.07892483
211	0xbd52d957	-0.051476803
212	0xbdbb32f8	-0.09140581
213	0xbb51f700	-0.0032038093
214	0xbd9ced89	-0.07662494
215	0xbd7742d8	-0.06036648
216	0x3e03d859	0.12875499
217	0xbdb6aa8a	-0.089192465
218	0x3c581cd3	0.013190466
219	0xbd47d0b2	-0.04878301
220	0x3d2f91dc	0.04286371
221	0xbd877021	-0.06613184
222	0x3cc3d8dd	0.02390712
223	0xbd860fda	-0.06545992
224	0xbc41aabf	-0.011820494
225	0x3da106e4	0.078626424
226	0xbcb6aa3c	-0.022297971
227	0x3df2f56a	0.11863215
228	0x3d9859fb	0.074390374
229	0xbd2cf476	-0.042225324
230	0x3e018e17	0.12651859
231	0x3c2b4744	0.010454003
232	0x3dcc9521	0.099893816
233	0xbcda66fe	-0.026660439
234	0xbde86d20	-0.11348939
235	0xbc934059	-0.01797502
236	0xbcb67cb7	-0.022276266
237	0xbd9324ad	-0.0718473
238	0x3dd075d9	0.10178728
239	0x3d9183b0	0.071051955
240	0xbdbd0bd8	-0.09230775
241	0x3d477976	0.04869982
242	0x3dd5d762	0.10441472
243	0xbcc30f5f	-0.02381104
244	0xbcd3daa1	-0.025861086
245	0x3cc3e41d	0.023912484
246	0x3d4c276a	0.049842276
247	0x3d4839d4	0.048883274
248	0xbd48b059	-0.048996303
249	0x3d4df475	0.05028196
250	0x3b690b58	0.003555974
251	0x3da02850	0.07820189
252	0xbc996bde	-0.018728193
253	0xbd385d4e	-0.045010857
254	0xbdba378b	-0.09092625
255	0x3de1d193	0.11026301

rnn.weight_hh_l0 f4 [300, 100]
0	0x3d4a1ec6	0.049345754
1	0xbd49f2e6	-0.04930391
2	0xbd8b6ff2	-0.06808461
3	0xbd58a341	-0.052890066
4	0x3c7d1bd9	0.015448534
5	0xbd320626	-0.043462895
6	0x3d9c4336	0.07630007
7	0xbcc2a38c	-0.023759626
8	0xbd899bba	-0.067191556
9	0x3dc4bce7	0.09606343
10	0xbd6ba6d8	-0.05753216
11	0x3d3dbc79	0.04632232
12	0xbd92c5f4	-0.07166663
13	0xbcf03e1c	-0.029326491
14	0xbca67e90	-0.020324022
15	0xbdb3608f	-0.087586515
16	0x3d712195	0.058869917
17	0x3cda1253	0.026620066
18	0xbd6dade5	-0.058027167
19	0x3d722d2e	0.059125118
20	0xbc318a5d	-0.010836211
21	0xbcd7fbdf	-0.026365219
22	0xbc7d5d6e	-0.01546417
23	0x3d4e31d9	0.050340507
24	0x3d2c563c	0.042074427
25	0x3be372e6	0.006941187
26	0x3db3594e	0.08757268
27	0xbc30bf09	-0.010787734
28	0x3dbd745e	0.09250711
29	0xbd8f6e04	-0.07003406
30	0xbd19e0f3	-0.037568044
31	0xbdae051d	-0.08497069
32	0xbd99dac2	-0.07512428
33	0x3d9fe135	0.07806627
34	0xbdc98bcb	-0.098411165
35	0xbdc18bd5	-0.09450499
36	0xbb43bfb0	-0.0029868893
37	0xbd55c226	-0.052187108
38	0xbda0a266	-0.07843475
39	0x3d5a0630	0.053228557
40	0x3d585396	0.05281409
41	0x3d6f52e6	0.058428667
42	0x3d94f794	0.07273784
43	0x3dbeb285	0.09311394
44	0xbb6b6599	-0.0035918711
45	0xbce0ac45	-0.027425895
46	0xbd536f54	-0.051619843
47	0x3b866363	0.0041012033
48	0x3c1955e3	0.009358856
49	0x3bbc3681	0.005743802
50	0xba8f5d41	-0.0010937826
51	0x3d42f75d	0.047599185
52	0xbca49278	-0.020089373
53	0xbd8f6b65	-0.07002906
54	0xbcde67e8	-0.027149156
55	0x3dc89d17	0.097955875
56	0x3c80cd8d	0.015723014
57	0xbc3c0330	-0.011475369
58	0xbc745558	-0.014912926
59	0x3d9bed4a	0.07613619
60	0x3d34924a	0.044084825
61	0x3d9f398e	0.077746496
62	0x3d3bfc94	0.045895174
63	0x3db388da	0.08766337
64	0x3db8592f	0.090013854
65	0x3d4ae2b7	0.04953262
66	0xbde1eb52	-0.11031212
67	0x3d02e77a	0.031959035
68	0x3cc6ea7d	0.024281735
69	0xbd3cbef2	-0.046080537
70	0xbd99e29e	-0.07513927
71	0xbd888ed2	-0.06667866
72	0x3d7aabd0	0.06119901
73	0x3d91e4f0	0.071237445
74	0x3d275f03	0.040862095
75	0x3da9a970	0.08284271
76	0x3d4a1da0	0.04934466
77	0xbd8e61a6	-0.06952219
78	0xbd45d498	-0.04829845
79	0x3ca3b79b	0.01998501
80	0xbbbc719a	-0.005750847
81	0xbd4a962c	-0.04945962
82	0x3d95ece5	0.07320575
83	0xbd4970b4	-0.049179748
84	0xbcafc7bb	-0.021457544
85	0x3d8d1775	0.0688924
86	0x3d460529	0.048344765
87	0x3d194083	0.03741504
88	0x3d9e55f9	0.07731242
89	0xbdc92bb4	-0.09822789
90	0x3dd10f6b	0.10208019
91	0x3dbfdbae	0.093680725
92	0x3dc930e1	0.09823776
93	0x3d7fc25d	0.06244122
94	0xbcbc491e	-0.022984084
95	0xbcbd5bfc	-0.02311515
96	0x3d5b9b8c	0.053615138
97	0xbda8e2c6	-0.082463786
98	0xbdc12500	-0.09430885
99	0x3c88e764	0.016711898
100	0xbd2921fc	-0.041292176
101	0x3d1a9ef6	0.037749253
102	0x3d99968c	0.07499418
103	0xbdea101f	-0.11428856
104	0xbc905a9f	-0.017621337
105	0xbdab719e	-0.0837128
106	0x3d30f827	0.043205407
107	0x3cdc306b	0.026878556
108	0x3d356696	0.044287287
109	0x3c8161ac	0.015793644
110	0xbbae44f2	-0.0053182775
111	0x3d8b6cfd	0.06807897
112	0x3d4ac6ad	0.04950588
113	0xbd80791a	-0.06273098
114	0xbdbcab2c	-0.09212336
115	0x3db5b906	0.08873181
116	0xb8c56038	-9.411614e-05
117	0x3cc0b760	0.02352494
118	0xbdc5c7f4	-0.09657279
119	0x3dda48e7	0.10658436
120	0x3ca697ad	0.020335997
121	0xbd78ac5f	-0.06071126
122	0x3c338a29	0.010958233
123	0x3caa0cb7	0.020758016
124	0xbc268118	-0.010162614
125	0x3d66abdb	0.056316238
126	0x3d6255f6	0.05525776
127	0x3d864841	0.0655675
128	0x3d920722	0.07130267
129	0xbd8b13da	-0.06790896
130	0x3d953165	0.07284812
131	0xbd466945	-0.048440237
132	0x3c86df2d	0.01646384
133	0xbd792b5f	-0.060832378
134	0x3d964f8d	0.07339392
135	0xbcbc097d	-0.022953743
136	0x3d9a16ca	0.07523878
137	0xbb557685	-0.0032571864
138	0xbbee3c5b	-0.0072703785
139	0xbdbbd817	-0.09172075
140	0x3d44f9e8	0.04808989
141	0xbdc6dd21	-0.09710146
142	0xbccd9ec3	-0.025100118
143	0xba9e7e6f	-0.0012092124
144	0x3cd9b457	0.02657525
145	0xbd4866e5	-0.048926253
146	0xbd39a648	-0.045324594
147	0x3d87bb90	0.066275716
148	0x3cb7a27d	0.022416348
149	0xbd103201	-0.035203937
150	0xbd9fb6d5	-0.07798544
151	0xbbb27619	-0.0054462072
152	0xbd754fd6	-0.05989059
153	0x3cf73187	0.030174984
154	0x3d3fdc92	0.04684121
155	0x3d974def	0.073879115
156	0xbdb40dd9	-0.08791704
157	0x3d900909	0.07032973
158	0xbd9abfd4	-0.075561196
159	0x3cee124c	0.029061459
160	0x3cd4bb52	0.025968228
161	0xbdb3d92d	-0.08781657
162	0xbd90a265	-0.07062224
163	0xbcc279ef	-0.023739783
164	0x3b5d142e	0.0033733952
165	0xbc67853e	-0.0141308885
166	0x3d4853eb	0.048908155
167	0x3c19910f	0.009372964
168	0xbd127229	-0.035753403
169	0x3d273759	0.040824268
170	0x3d47520c	0.04866223
171	0xbd54f840	-0.051994562
172	0x3c86d9c1	0.016461255
173	0x3dcd724f	0.10031568
174	0x3d975b19	0.073904224
175	0x3d2483b4	0.040164664
176	0x3b8e6b2e	0.004346273
177	0xbd171055	-0.03688081
178	0xbcb96d91	-0.022635253
179	0xbd74cfec	-0.059768602
180	0xbd329a1a	-0.043603994
181	0x3cb45761	0.022014322
182	0xbd065578	-0.032796353
183	0xbda25827	-0.0792697
184	0x3d58b896	0.05291041
185	0x3c82de28	0.015975073
186	0xbd96598b	-0.07341298
187	0xbd14c8a6	-0.036324166
188	0x3c7c4046	0.015396183
189	0x3d6383a9	0.055545483
190	0x3cfb9937	0.030712707
191	0xbdba81e6	-0.091068074
192	0x3d972fdf	0.073821776
193	0x3d896060	0.06707835
194	0xbd02ac85	-0.03190281
195	0x3cfc7de6	0.030821752
196	0xbc61c510	-0.0137798935
197	0x3d288b66	0.041148566
198	0xbaa27bb2	-0.0012396483
199	0x3d4af8cf	0.04955369
200	0xbdabdd17	-0.08391779
201	0x3d379908	0.044823676
202	0x3c352c99	0.011057996
203	0xbd459051	-0.048233334
204	0x3cfad045	0.030616889
205	0x3cba77ed	0.022762263
206	0x3d7470e8	0.05967799
207	0x3d91db4b	0.07121905
208	0xbb84e716	-0.004055868
209	0xbd8b7830	-0.06810033
210	0xbd295479	-0.041340325
211	0x3da6a623	0.08137157
212	0x3c845124	0.016151972
213	0xba593135	-0.00082852255
214	0xbdd3ff94	-0.10351482
215	0xbd88fc89	-0.06688792
216	0xbd8d896c	-0.06910977
217	0xbd5f7e53	-0.05456383
218	0xbd9329b6	-0.0718569
219	0x3bbab264	0.0056975354
220	0x3d365b99	0.044520948
221	0xbd166c3f	-0.036724325
222	0x3db6c217	0.089237384
223	0x3db093e7	0.0862196
224	0xbd8c91b5	-0.06863729
225	0x3c447ab8	0.011992149
226	0xbd0909b0	-0.033456504
227	0x3d4d59c9	0.050134454
228	0x3d75bb51	0.059993092
229	0xbd290269	-0.041262064
230	0x3daf2f40	0.08553934
231	0x3c2337b4	0.009962011
232	0xbcc2c243	-0.023774272
233	0xbd04d579	-0.032430146
234	0x3d6fe60b	0.058568995
235	0x3d2d9761	0.042380694
236	0xb8a54229	-7.8801364e-05
237	0x3b3433f0	0.0027496777
238	0x3da228a9	0.079179116
239	0x3dc24be4	0.09487131
240	0xbdc69cf3	-0.096979044
241	0x3d57b190	0.05265957
242	0xbd369230	-0.04457301
243	0x3d9aebaf	0.07564484
244	0xbe0cdfe6	-0.13757285
245	0x3ce92cdd	0.028463775
246	0x3db71fc8	0.08941609
247	0x3bb48bf8	0.0055098496
248	0x3d6a1875	0.05715223
249	0xbda9d1e4	-0.082919866
250	0xbda24ad5	-0.07924429
251	0xbdd6a5e2	-0.104808584
252	0xbd4a7f28	-0.049437672
253	0x3d9270ba	0.07150407
254	0x3d59dbb5	0.053188045
255	0x3c68befc	0.0142056905

rnn.bias_ih_l0 f4 [300]
0	0xbd5f1aa5	-0.05446877
1	0x3d6faaa5	0.05851235
2	0xbd470be0	-0.04859531
3	0x3ce25830	0.027629942
4	0xbd76dc62	-0.060268767
5	0x3dd0c6b1	0.101941474
6	0x3cd16b44	0.025563844
7	0xbd622783	-0.055213463
8	0x3d4c08b5	0.04981299
9	0x3ddef200	0.108860016
10	0xbc8f1874	-0.017467715
11	0xbd830419	-0.06397266
12	0x3d2d7bac	0.04235427
13	0xbc96b3d7	-0.018396301
14	0x3dd0565b	0.10172721
15	0xbd9c257d	-0.07624338
16	0x3da59376	0.080847666
17	0x3cae7bab	0.021299204
18	0x3b4cb9eb	0.0031238745
19	0xbd4488b3	-0.04798193
20	0xbd8887a0	-0.066664934
21	0x3db3b658	0.08775014
22	0xbd550e9e	-0.052015893
23	0xbcf8bb51	-0.030362757
24	0x3dafc030	0.08581579
25	0xbdafec76	-0.08590023
26	0x3d296367	0.041354563
27	0xbd0bcf3b	-0.034133177
28	0xbd8c8120	-0.06860566
29	0x3d48be6d	0.04900973
30	0x3d51fb1d	0.05126487
31	0x3be4dbcc	0.0069842096
32	0x3d2dc65d	0.042425502
33	0x3d0f102d	0.034927536
34	0x3b117f24	0.0022201026
35	0x3d98eb3a	0.07466741
36	0x3daa3dcd	0.08312569
37	0xbd4737bd	-0.04863714
38	0xbcb4fdcb	-0.022093674
39	0xbd583b01	-0.052790646
40	0xbda4413f	-0.08020257
41	0x3cdc4e3f	0.02689278
42	0xbdb23074	-0.08700648
43	0x3d4f693e	0.050637476
44	0xbc8f821c	-0.017518096
45	0xbd3151be	-0.043290846
46	0xbd004c02	-0.031322487
47	0x3dbe7837	0.09300273
48	0xbd68f674	-0.05687566
49	0xbcd359d4	-0.02579967
50	0x3cf10360	0.029420555
51	0x3db1bcad	0.08678565
52	0x3dd68986	0.10475449
53	0xbc1423a7	-0.009041703
54	0xbc07f2c0	-0.008297622
55	0x3c2a1111	0.0103800455
56	0x3d67fb08	0.056635886
57	0xbde05537	-0.109537534
58	0x3cb5fd1d	0.02221542
59	0xbcc6e89f	-0.024280844
60	0xbda35788	-0.0797568
61	0x3cf0bdf4	0.029387452
62	0xbd6a88df	-0.057259437
63	0x3d0ebdb3	0.03484888
64	0x3c83b47c	0.016077273
65	0x3cdcbfcf	0.02694693
66	0xbd020aa4	-0.03174843
67	0xbda63677	-0.08115857
68	0x3dcf2bf9	0.10115809
69	0xbc0afe44	-0.008483473
70	0xbd74f6ea	-0.059805788
71	0x3c84a001	0.016189577
72	0x3d8f5144	0.06997922
73	0x3d971172	0.07376374
74	0x3d709f77	0.058745828
75	0xbc9ac874	-0.018894412
76	0x3d597664	0.05309142
77	0x3cd5954e	0.02607217
78	0x3d9db969	0.0770138
79	0xbcb24f01	-0.021766188
80	0xbd7daae5	-0.061930556
81	0xbcb48ccd	-0.022039795
82	0xbd51f142	-0.051255472
83	0x3bf6484e	0.0075159436
84	0xbdbaca3c	-0.091206044
85	0xbda72443	-0.08161213
86	0xbccb6213	-0.024827039
87	0xbd8dd001	-0.06924439
88	0x3dbb7427	0.09153014
89	0xbd863d6c	-0.06554684
90	0xbd9bc1fd	-0.0760536
91	0x3c5b408b	0.013382087
92	0xbda2d9d8	-0.07951707
93	0xbd27652c	-0.04086797
94	0xbd09c8df	-0.03363883
95	0xbc36fe18	-0.011168979
96	0xbc332717	-0.010934613
97	0x3957cc59	0.00020580123
98	0x3dc62cb5	0.09676496
99	0xbd1ec42a	-0.038761295
100	0xbd1114ca	-0.035420217
101	0x3dbbd2b5	0.091710486
102	0x3cdd213e	0.02699339
103	0x3b7af098	0.0038290378
104	0x3bb64661	0.005562589
105	0xbd5b454b	-0.05353288
106	0xbc99eda2	-0.01879007
107	0xbb83b184	-0.0040189642
108	0xbdf9fbb5	-0.122062124
109	0xbe3d10fd	-0.18463512
110	0xbd8f5083	-0.06997778
111	0xbe02d84e	-0.12777826
112	0xbe0723f7	-0.13197313
113	0xbe09d391	-0.13459612
114	0x3be68c0a	0.007035737
115	0xbc3da57b	-0.011575098
116	0xbd3c5de1	-0.045987967
117	0xbe0cb478	-0.13740718
118	0x3ca55676	0.02018283
119	0xbdec4685	-0.11536888
120	0xbd0cddda	-0.03439126
121	0x3dc64578	0.09681219
122	0xbdceec14	-0.10103622
123	0xbdc7089c	-0.09718439
124	0x3cd933e5	0.026514003
125	0xbdda58da	-0.10661478
126	0x3d02f6bc	0.031973585
127	0xbdbbc7ce	-0.09168969
128	0xbd768a8b	-0.06019072
129	0xbd1e7e02	-0.03869439
130	0xbca0a08e	-0.019607808
131	0x3dd9ba90	0.10631287
132	0xbd847622	-0.064678445
133	0xbdf25306	-0.11832242
134	0xbb57fd9c	-0.003295756
135	0xbcf47a3d	-0.029843444
136	0xbcfb903c	-0.030708425
137	0x3dc17d21	0.094476946
138	0xbe139d26	-0.14415416
139	0xbe2fb74d	-0.17159767
140	0xbd7b7044	-0.06138636
141	0xbda2ef0f	-0.07955753
142	0xbd3fce59	-0.046827648
143	0xbd415b98	-0.04720649
144	0xbdc30aa9	-0.09523518
145	0xbde4af5c	-0.1116626
146	0x3e0909a6	0.13382587
147	0xbcc23115	-0.023705045
148	0xbdcd148c	-0.10013685
149	0xbbb0df61	-0.0053977226
150	0xbe1aa36a	-0.151014
151	0xbe1f23d5	-0.15541013
152	0xbc8a518e	-0.016884591
153	0xbcf60c40	-0.030035138
154	0xbe392053	-0.18078737
155	0xbde10c89	-0.10988719
156	0xbe367ac6	-0.17820272
157	0xbd759c09	-0.05996326
158	0xbe1a4eee	-0.15069172
159	0x3d701077	0.058609452
160	0xbe2be564	-0.16786724
161	0x3def0f90	0.1167289
162	0xbdccb0de	-0.09994672
163	0xbd86f8d7	-0.06590431
164	0xbc6bf04f	-0.014400556
165	0xbdf032fd	-0.11728475
166	0xbd05801a	-0.03259287
167	0xbe0595ad	-0.13045378
168	0x3adff3e3	0.0017086234
169	0x3b02f760	0.0019983873
170	0xbe22f322	-0.1591306
171	0x3c32dbf7	0.0109167015
172	0xbda39dee	-0.07989107
173	0x3ca9f7bc	0.020748012
174	0xbad44cb1	-0.0016197172
175	0xbdc0d234	-0.09415093
176	0x3ca69e77	0.020339234
177	0xbce48ab2	-0.027898166
178	0xbd2f4728	-0.04279247
179	0xbd3153fb	-0.04329298
180	0xbe2a7203	-0.16645055
181	0xbd976087	-0.07391458
182	0xbdeffaab	-0.11717733
183	0xbcaec3f7	-0.021333678
184	0xbe019c39	-0.1265725
185	0xbe10642a	-0.1410071
186	0x3db5df57	0.08880489
187	0xbcf18bf3	-0.029485678
188	0xbd3fa37e	-0.046786778
189	0xbe0f8d53	-0.14018755
190	0xbd231a3c	-0.03981994
191	0xbdd3c9a8	-0.10341197
192	0xbe2efb5c	-0.17088073
193	0xbe160482	-0.14650157
194	0xbd370654	-0.04468377
195	0xbce98d0b	-0.028509637
196	0xbe158013	-0.14599638
197	0x3db9de57	0.09075611
198	0x3c050f4a	0.008121321
199	0xbba29f6f	-0.0049628536
200	0x3cec9754	0.028880753
201	0x3d9c5bda	0.07634707
202	0x3daa1b05	0.08305935
203	0xbd62fa61	-0.05541456
204	0x3d16e336	0.03683778
205	0xbcbbf7f8	-0.02294539
206	0x3d30713e	0.043076746
207	0x3d3c1eda	0.04592786
208	0xbdc074fc	-0.09397313
209	0xbd92bd3e	-0.07165001
210	0xbc9cc5ea	-0.019137342
211	0xbd5d567d	-0.05403756
212	0x3db5bd47	0.088739924
213	0xbc2eb04c	-0.01066215
214	0x3c215f57	0.009849391
215	0x3da4debb	0.08050295
216	0x3c18f5b5	0.009335925
217	0x3c81e959	0.01585834
218	0xbddac380	-0.1068182
219	0xbd1a4ad8	-0.037669033
220	0xbc39869d	-0.011323598
221	0x3de8d341	0.113684185
222	0xbb484743	-0.0030560053
223	0xbd8405ef	-0.06446444
224	0xbd109e02	-0.035306938
225	0x3dbc1a3b	0.091846906
226	0xbd174ce5	-0.036938567
227	0x3dbf0645	0.09327368
228	0xbd7be52d	-0.061497856
229	0x3d81b65e	0.06333612
230	0x3dbdb381	0.09262753
231	0xbd654f62	-0.05598391
232	0xbc8a95c1	-0.016917111
233	0xbc829347	-0.015939368
234	0x3d3f4648	0.046697885
235	0x3a1e7d49	0.00060458906
236	0x3d059b00	0.032618523
237	0x3d9c5a78	0.07634443
238	0xbd3d33db	-0.04619203
239	0xbce746b4	-0.028231956
240	0xbd21f8c7	-0.039543893
241	0xbdb75e80	-0.08953571
242	0x3d892864	0.06697157
243	0x3d48bd58	0.049008697
244	0xbdbeb1f2	-0.09311284
245	0xbc7d2d89	-0.015452751
246	0x3d4b4a2a	0.049631275
247	0x3d199280	0.03749323
248	0x3ced2e9f	0.028952895
249	0xbc391292	-0.011295931
250	0x3c5d428e	0.013504637
251	0xbd4f42a8	-0.050600678
252	0x3bc08c91	0.005876132
253	0xbda35a31	-0.07976187
254	0xbd896e92	-0.06710543
255	0x3d9b384d	0.07579098

rnn.bias_hh_l0 f4 [300]
0	0x3b84a14d	0.004047549
1	0xbd3635fb	-0.044485074
2	0xbd8b25d7	-0.06794327
3	0xbdc04aec	-0.0938929
4	0x3d8017fe	0.06254576
5	0x3d0ebacc	0.034846112
6	0xbbdac380	-0.0066761374
7	0xbda8d507	-0.08243757
8	0x3da1f4a2	0.07907988
9	0xbd04f04b	-0.032455724
10	0x3cdcc8f9	0.0269513
11	0x3c91a5d1	0.017779263
12	0xbd9cfa3d	-0.07664917
13	0x3c394e21	0.011310131
14	0x3d5beaf8	0.05369088
15	0x3d80be73	0.06286325
16	0xbd4aa753	-0.04947598
17	0x3df313ab	0.11868986
18	0xbd6f9c53	-0.05849869
19	0x3cc0e42a	0.023546297
20	0xbd6ba2c2	-0.057528265
21	0xbd82e344	-0.06391004
22	0xbd4b0b61	-0.0495714
23	0x3d492d20	0.0491153
24	0xbd0f99f6	-0.035058938
25	0x3cc89bf4	0.024488427
26	0xbcae8768	-0.021304801
27	0xbd25681c	-0.04038249
28	0x3dfad432	0.12247504
29	0x3d63039e	0.05542337
30	0x3c8e6efc	0.017386906
31	0xbd908a91	-0.070576794
32	0x3c09372c	0.00837497
33	0x3c0a02de	0.008423535
34	0xbdd6cce5	-0.10488299
35	0xbd7e3864	-0.062065497
36	0x3dca863f	0.09888887
37	0x3d3f1b5d	0.046656955
38	0xbcc27772	-0.023738597
39	0x3da75ba3	0.08171775
40	0xbda5e736	-0.081007406
41	0x3a3a43c8	0.0007105437
42	0xbca82d3e	-0.020529386
43	0x3be8e0a3	0.007106857
44	0x3d9b5b8b	0.0758582
45	0xbb92d2e8	-0.0044807084
46	0x3d647ea8	0.05578485
47	0x3d032e97	0.032026853
48	0x3cf40f0d	0.029792333
49	0xbd8c283b	-0.06843611
50	0x3cd89de6	0.02644248
51	0xbd8938e8	-0.06700307
52	0x3d50d3fe	0.05098342
53	0xbd6769e1	-0.05649746
54	0x3d7254ac	0.05916278
55	0xbca10a8f	-0.019658355
56	0xbb56f369	-0.0032798892
57	0x39a296f9	0.0003101153
58	0xbd39f34b	-0.045398038
59	0xbdcd5dcf	-0.10027658
60	0x3da17b3a	0.07884832
61	0xbc29bf91	-0.010360614
62	0x3daecb27	0.08534842
63	0x3d96de33	0.073666
64	0xbd8835e2	-0.06650902
65	0x3de83eac	0.11340079
66	0xbd4b0410	-0.04956442
67	0xbc37fffd	-0.011230466
68	0xbcfd54a3	-0.030924147
69	0x3dca9c0f	0.09893047
70	0xbd985cc3	-0.07439568
71	0xbc5c48e9	-0.0134451175
72	0xbd8b2273	-0.0679368
73	0xbbbf27f9	-0.0058336225
74	0xbd7cdfeb	-0.061736982
75	0xbd08e73d	-0.03342365
76	0x3dc210ec	0.09475884
77	0x3d27cb29	0.040965233
78	0xbdce1595	-0.1006271
79	0xbd91bc12	-0.0711595
80	0x3d87f666	0.06638794
81	0xbd481b98	-0.04885444
82	0xbc9af23c	-0.018914334
83	0xbdf0a401	-0.11750031
84	0xbcc5115f	-0.024056135
85	0xbcaa3713	-0.020778215
86	0xbd435990	-0.047692835
87	0xbd5239de	-0.051324718
88	0x3db567bf	0.088576786
89	0xbd1bf910	-0.03807932
90	0xbd54960a	-0.0519009
91	0x3d9d6439	0.076851316
92	0x3d740b9a	0.059581377
93	0xbcd0db3a	-0.02549516
94	0x3d5630dc	0.05229269
95	0x3c9a8f7c	0.018867247
96	0x3daaf7bd	0.083480336
97	0x3da61345	0.08109144
98	0x3de5ab48	0.1121431
99	0xbd4abbdb	-0.04949556
100	0x3d345199	0.04402313
101	0x3d6167b8	0.055030555
102	0xbd1afe47	-0.037840154
103	0xbdce5c3d	-0.10076187
104	0xbe218e8c	-0.15777034
105	0xbd7daf15	-0.06193455
106	0xbdf8d8d0	-0.12150729
107	0xbd1bd9c0	-0.03804946
108	0xbca1dba2	-0.01975805
109	0xbc100e13	-0.008792418
110	0xbe3202ba	-0.17383853
111	0x3c1eff55	0.009704431
112	0xbd158f57	-0.036513653
113	0xbd802554	-0.0625712
114	0xbd13f51e	-0.036122434
115	0xbdc8a112	-0.09796347
116	0xbd2a1ad4	-0.04152949
117	0xbd42c563	-0.047551524
118	0x3d6447a6	0.05573239
119	0xbe1d630d	-0.15369816
120	0xbdb76bce	-0.08956109
121	0x3d033ea1	0.03204215
122	0xbd8882b2	-0.06665553
123	0x3c98089c	0.018558793
124	0x3c0956e9	0.008382537
125	0xbd7868cf	-0.06064683
126	0xbccfe528	-0.025377825
127	0xbe2564cb	-0.1615173
128	0xbd5704f4	-0.052494958
129	0xbd356f67	-0.044295695
130	0xbc2e0ce8	-0.010623194
131	0x3dabad7b	0.08382698
132	0x3cb2c77c	0.021823637
133	0x3d825d26	0.06365423
134	0xbe3a18f9	-0.18173589
135	0xbd4f70f8	-0.050644845
136	0xbcda622b	-0.026658138
137	0x3ce78643	0.028262263
138	0x3bc6cad9	0.006066662
139	0x3bceda41	0.006312639
140	0xbe1cb124	-0.15301949
141	0xbd0462dc	-0.032320842
142	0xbdd48c0f	-0.103782766
143	0xbdf96db2	-0.12179126
144	0xbd9524c2	-0.072824016
145	0xbd218479	-0.039432976
146	0x3d7086fb	0.058722477
147	0xbdc797ef	-0.09745776
148	0xbe4565fb	-0.19277184
149	0xbe09e282	-0.13465312
150	0x3ba2854c	0.004959738
151	0xbdb7cfef	-0.08975207
152	0xbd5d3fd4	-0.05401595
153	0xbcd8da40	-0.026471257
154	0xbd61f625	-0.055166382
155	0xbe1d57bb	-0.15365498
156	0xbdd02685	-0.10163597
157	0xbe255bea	-0.16148344
158	0xbe07e6f0	-0.1327169
159	0xbd9ab764	-0.0755451
160	0xbe2c62dd	-0.16834588
161	0x3d4a122b	0.049333733
162	0xbe171d50	-0.14757276
163	0xbe127696	-0.1430305
164	0xbe1debc1	-0.15421964
165	0xbd63f919	-0.05565748
166	0xbc719d38	-0.0147469565
167	0xbdb17321	-0.08664537
168	0xbe1f2d06	-0.15544519
169	0xbcdb46e3	-0.0267672
170	0xbe2087ce	-0.15676805
171	0xbd281933	-0.041039657
172	0xbd392363	-0.045199763
173	0xbc243310	-0.01002194
174	0xbe0639f5	-0.13108046
175	0xbc782dd3	-0.015147644
176	0xbd94fcdc	-0.072747916
177	0x3d49b258	0.049242347
178	0xbd7f98a3	-0.062401425
179	0xbde692b6	-0.11258452
180	0xbe20c1f0	-0.15698981
181	0xbdbf11e2	-0.09329583
182	0xbbb74e9f	-0.005594089
183	0x3a88f9e8	0.0010450454
184	0xbe3a740f	-0.18208335
185	0xbdc8ec40	-0.09810686
186	0xbd833d41	-0.06408168
187	0x3c87c4c8	0.016573325
188	0xbe0658cf	-0.13119815
189	0x3c7a774e	0.0152872335
190	0xbd8a4af2	-0.06752576
191	0xbd2e61be	-0.042573683
192	0xbd06aba6	-0.03287854
193	0xbd6c03b6	-0.057620727
194	0xbe260a10	-0.16214776
195	0xbe0220b1	-0.12707783
196	0x3b4c40a4	0.0031166459
197	0xbcb650e2	-0.022255365
198	0xbd5f459f	-0.054509755
199	0x3d851684	0.06498435
200	0x3d14d3c0	0.036334753
201	0x3c9ce657	0.019152803
202	0xbda15215	-0.07876984
203	0x3db4b2f3	0.08823194
204	0x3d11a557	0.03555807
205	0xbd950170	-0.07275665
206	0xbd32a23b	-0.043611746
207	0x3d965a73	0.073414706
208	0xbd8a9566	-0.06766777
209	0x3dbf3e83	0.09338095
210	0xbd110399	-0.03540382
211	0xbd17f608	-0.037099868
212	0xbd8960a3	-0.06707885
213	0xbd24354a	-0.040089883
214	0xbdbad782	-0.09123136
215	0xbcfbc041	-0.030731322
216	0xbd01f075	-0.03172346
217	0xbd8d77b8	-0.069076
218	0x3c8f53b2	0.017495964
219	0x3d563e3d	0.05230545
220	0x3d450127	0.048096802
221	0x3dce0cd9	0.10061044
222	0x3dcaed7b	0.09908577
223	0xbd342aa9	-0.043985996
224	0xbc62dc9c	-0.013846543
225	0xbdc07c3d	-0.093986966
226	0x3deb8a79	0.11501021
227	0x3c0e3f2f	0.008682056
228	0x3d38f3bf	0.04515433
229	0xbcc0d6a5	-0.02353985
230	0xbd877937	-0.06614917
231	0xbcb20b14	-0.021733798
232	0xbcd81ada	-0.026379991
233	0x3cf63f66	0.030059528
234	0x3d23ab7b	0.03995846
235	0xbdaa891a	-0.08326931
236	0x3dac8b82	0.084250465
237	0xbc252a56	-0.010080894
238	0xbcca8e1b	-0.024725964
239	0xbd16d824	-0.03682722
240	0xbd9e092b	-0.077165924
241	0x3d4687c1	0.04846931
242	0x3d7e78b7	0.06212684
243	0x3d1f52e3	0.038897406
244	0xbcc59596	-0.02411918
245	0x3c56b947	0.013105697
246	0x3d844f49	0.06460435
247	0xbb71e988	-0.0036912877
248	0x3db8636c	0.09003338
249	0xbccbb4b2	-0.024866436
250	0x3d3540c8	0.044251233
251	0xbd00a5dd	-0.03140818
252	0xbd945a5a	-0.07243796
253	0xbdabf26c	-0.08395848
254	0x3d8c867c	0.06861588
255	0xbd546760	-0.0518564

linear.weight f4 [1, 100]
0	0xbd0e0f54	-0.034682587
1	0xbcfd22f9	-0.030900465
2	0x3d8e91e5	0.06961421
3	0x3d931bef	0.07183062
4	0x3d4755b7	0.04866573
5	0xbdcd2487	-0.10016733
6	0x3d0fb4ef	0.03508466
7	0x3bf51826	0.0074796854
8	0xbccef4a6	-0.025263142
9	0x3d842940	0.0645318
10	0xbde2878d	-0.110610105
11	0xbcd22646	-0.025653016
12	0xbd8128cd	-0.0630661
13	0xbd6781ff	-0.05652046
14	0xbda16e3d	-0.078823544
15	0xbd59b3a3	-0.05314983
16	0x3bd3bf0e	0.0064619845
17	0xbddd20fb	-0.10797306
18	0xbd6a9b12	-0.057276793
19	0xbd45d3a7	-0.04829755
20	0xbd5b5bc3	-0.053554308
21	0x3d7dd985	0.06197502
22	0x3cb0459a	0.021517564
23	0x3da2de0a	0.07952507
24	0x3dd0ffc6	0.10205035
25	0x3c9b5648	0.01896204
26	0x3cba034b	0.022706648
27	0x3d983c0e	0.074333295
28	0xbda1c774	-0.07899371
29	0x3cc5f764	0.024165817
30	0x3ddd4a13	0.10805144
31	0xbca8b726	-0.020595144
32	0x3e012155	0.12610371
33	0x3a988464	0.0011636135
34	0xbd9b5f6f	-0.07586562
35	0xbdaf230e	-0.08551608
36	0xbdc1e05f	-0.094666235
37	0x3d84e271	0.06488503
38	0x3d9f8e16	0.077907726
39	0x3dc36ee7	0.09542637
40	0xbd90f942	-0.07078792
41	0xbcf12dfe	-0.029440876
42	0x3c66ff8d	0.014099014
43	0xbda59ded	-0.080867626
44	0xbdd0c20a	-0.1019326
45	0xbd2a164e	-0.041525178
46	0xbd4b638b	-0.04965548
47	0x3d37a3ca	0.044833936
48	0xbd8589b7	-0.06520408
49	0x3cb013a6	0.021493744
50	0xbdb697bf	-0.08915662
51	0x3dbe2276	0.09283917
52	0xbd764579	-0.060124848
53	0xbd69cd22	-0.057080396
54	0xbdf8b9f2	-0.12144841
55	0x3df3e64a	0.119091585
56	0xbe00d30a	-0.12580505
57	0xbda10975	-0.07863132
58	0x3dd04fa5	0.10171441
59	0xbcebc3f1	-0.028779956
60	0x3df9b456	0.121925995
61	0x3ca76b46	0.020436894
62	0xbdd5209e	-0.10406612
63	0x3c909107	0.01764728
64	0x3ddbf929	0.10740883
65	0x3d1e767c	0.038687214
66	0x3d341591	0.04396588
67	0xbd8935fa	-0.06699748
68	0x3d1e6bdf	0.038677093
69	0x3d5af407	0.05345538
70	0xbd35a2b4	-0.04434462
71	0xbdfd5d4c	-0.123713106
72	0x3dd0ef40	0.10201883
73	0x3cf40905	0.029789457
74	0x3dcbbb1a	0.09947796
75	0x3a613ce5	0.0008592143
76	0xbab89d0e	-0.0014084892
77	0xbd9009e3	-0.07033136
78	0x3d95db4a	0.07317217
79	0xbd13c001	-0.03607178
80	0xbdb06fbe	-0.08615063
81	0xbd3bce9b	-0.04585133
82	0xb98ff15f	-0.0002745492
83	0xbd466769	-0.048438463
84	0x3dcc00d8	0.099610984
85	0xbc1e855e	-0.009675352
86	0x3cdae1df	0.026719032
87	0xbd0b8f9c	-0.034072503
88	0x3d836081	0.06414891
89	0xbc922f5a	-0.017844845
90	0x3d289999	0.041162107
91	0x3dc82017	0.09771746
92	0x3df1ac40	0.11800432
93	0xbb33ed09	-0.0027454516
94	0x3cbe66e6	0.023242425
95	0x3d8f1417	0.06986254
96	0x3d50da9a	0.050989725
97	0xbd0c6f6f	-0.03428596
98	0xbd80440e	-0.062629804
99	0xbdbde644	-0.09272435
