backend/trained_models/CZBIL_LSTM_model_state_dict.pth (torch, 167957 bytes, 5 tensors)

rnn.weight_ih_l0 f4 [400, 1]
0.03903662 -0.039007854 0.09409122 0.10180654 -0.11581159 0.05859453 -0.027732275 0.08227449
-0.045461558 0.058889177 0.07314641 0.0647888 0.12679438 -0.009851994 -0.016644096 -0.11411949
0.09403284 0.0006722865 0.053040747 -0.05607742 0.025786147 -0.08034148 0.057616126 0.092873536
0.03396901 -0.11805872 0.040046744 0.056943692 0.04676833 -0.04576219 0.00036374095 0.012390698
0.025378881 0.039152514 0.017558832 0.008032991 -0.043228276 -0.037719637 -0.04473087 -0.08552826
0.03935448 -0.021979045 0.029905856 0.08620912 -0.10261423 0.0098307505 -0.015306495 0.0050982004
0.012987305 0.052948613 -0.065313876 0.06971952 0.08441226 0.050919406 0.00024959425 0.013767631
0.0062012053 -0.04713207 -0.016938815 -0.0223422 0.03938786 -0.04409037 0.03682817 0.12336826
-0.011899651 0.08289907 -0.015596086 0.06859817 -0.02192803 -0.06523969 0.11647027 0.053783197
0.10435613 -0.00897266 0.0398145 -0.041458827 0.040925633 0.058088936 0.078904174 0.12693024
-0.015019463 -0.025793456 0.09319369 0.08922404 0.1129881 0.06032189 0.13261159 0.04314159
-0.026079904 0.0989751 -0.028876625 -0.028732372 0.06515726 -0.039679494 -0.036810804 -0.120455824
-0.011595848 -0.07184309 -0.022843303 -0.04825372 0.028096484 -0.0181377 -0.029644841 -0.007080266
-0.10918375 -0.038216498 -0.035858355 0.057491083 0.07092258 0.070400245 0.03381821 0.0035118912
0.060488664 -0.06351812 0.0017667471 -0.10409441 -0.07499827 -0.012389815 0.03201826 0.11260381
-0.058469787 0.115921885 0.119246915 0.06026353 -0.07883613 0.0035004998 -0.021965783 -0.060028143
-0.04929308 0.048119005 -0.039966527 0.023424365 -0.08425994 0.06996381 -0.081186466 -0.10628818
-0.051965542 0.090964705 0.08242669 -0.11601082 -0.027714621 -0.016968284 -0.021715397 -0.0063282843
0.06190074 0.035220765 0.10617404 0.061065696 0.08188899 0.026974902 -0.014939469 -0.028956119
-0.06040727 0.068662435 -0.11956335 -0.0216296 0.04731644 0.04332983 -0.015226799 -0.028467348
0.0795895 -0.035266325 -0.021354487 -0.016170533 0.07845496 -0.06591126 0.056750014 0.01588594
0.050638687 0.055481665 0.028803136 0.035120815 -0.025335928 -0.06811088 0.016719038 0.09138472
0.07096899 0.009274342 0.024185712 0.025731845 0.026731925 0.07732506 -0.044956513 -0.023969863
-0.030455777 -0.07877251 -0.05376781 0.047156982 0.083583966 0.10247121 -0.067699105 0.025955657
0.10993221 0.06671664 0.03589405 -0.09200035 0.0005014519 -0.020093007 -0.052768324 -0.11504824
-0.04494767 -0.044969738 -0.009412351 -0.13408282 0.08909458 -0.058321677 -0.060239196 -0.01852326
0.06190532 0.066366896 0.117014 0.0833796 0.08737242 -0.07455813 0.042524617 -0.057822227
-0.043893933 -0.041921802 0.12948932 -0.07876774 0.123875014 0.070613414 0.10945035 -0.057474084
0.058875978 0.08153475 0.11020059 -0.006337263 0.056006234 -0.045229178 -0.007526607 -0.06268463
0.102282956 -0.06554074 0.040131867 0.04073038 -0.09303359 0.07662057 -0.028225517 -0.012085967
0.07543803 -0.06120769 -0.038768627 -0.074801415 -0.021617591 0.0727263 -0.12136525 0.11577856
-0.019785957 -0.080726504 0.06633065 0.09835127 -0.111046396 0.11491885 -0.09972414 -0.076987535
00000000: dde4 1f3d b3c6 1fbd e6b2 c03d f27f d03d
00000010: a02e edbd d100 703d cc2e e3bc 877f a83d
00000020: e635 3abd c735 713d c9cd 953d feaf 843d
00000030: 63d6 013e 426a 21bc 3359 88bc 7bb7 e9bd
00000040: 4a94 c03d 623c 303a 4141 593d 70b1 65bd
00000050: 783d d33c 138a a4bd e3fe 6b3d 7b34 be3d
00000060: 1723 0b3d c5c8 f1bd 0e08 243d ca3d 693d
00000070: 2690 3f3d 2271 3bbd 7cb4 be39 5b02 4b3c
00000080: 5fe7 cf3c 635e 203d 8ad7 8f3c ce9c 033c
00000090: 2210 31bd e87f 1abd b737 37bd 7129 afbd
000000a0: 2a32 213d 660d b4bc 20fd f43c 688e b03d
000000b0: 6927 d2bd 2811 213c 18c8 7abc ce0e a73b
000000c0: b5c8 543c a5e0 583d 48c3 85bd 1cc9 8e3d
000000d0: 56e0 ac3d de90 503d f9db 8239 a191 613c
000000e0: 7b33 cb3b 8f0d 41bd 45c3 8abc fd06 b7bc
000000f0: 2a55 213d 1b98 34bd 23d9 163d 80a8 fc3d
00000100: c1f6 42bc fdc6 a93d ba86 7fbc 337d 8c3d
00000110: 69a2 b3bc 639c 85bd f787 ee3d c54b 5c3d
00000120: abb8 d53d 1002 13bc 8714 233d bbd0 29bd
00000130: a3a1 273d aaee 6d3d 8398 a13d 00fa 013e
00000140: 3214 76bc cc4c d3bc 55dc be3d 18bb b63d
00000150: 4e66 e73d 1614 773d 55cb 073e 3cb5 303d
00000160: 86a5 d5bc 75b3 ca3d ac8e ecbc 2760 ebbc
00000170: 2b71 853d f786 22bd edc6 16bd 8bb1 f6bd
00000180: 83fc 3dbc 7822 93bd e121 bbbc b1a5 45bd
00000190: 992a e63c 8495 94bc bdd9 f2bc 9301 e8bb
000001a0: bb9b dfbd e788 1cbd 36e0 12bd c57b 6b3d
000001b0: dc3f 913d 012e 903d f784 0a3d c227 663b
000001c0: f6c2 773d ca15 82bd 3292 e73a 732f d5bd
000001d0: b198 99bd a7fe 4abc 9425 033d d49c e63d
000001e0: 047e 6fbd 7468 ed3d ba37 f43d e4d6 763d
000001f0: d674 a1bd a468 653b 96f1 b3bc 12e0 75bd
00000200: 8ae7 49bd 6f18 453d f1b3 23bd 74e4 bf3c
00000210: 7a90 acbd 3049 8f3d 1745 a6bd 9ead d9bd
00000220: d2d9 54bd b44b ba3d 53cf a83d 1597 edbd
00000230: c609 e3bc 1201 8bbc 7de4 b1bc 7f5d cfbb
00000240: a18b 7d3d a643 103d c671 d93d 0620 7a3d
00000250: 6ab5 a73d 78fa dc3c adc4 74bc 6235 edbc
00000260: 9d6d 77bd e49e 8c3d a1dd f4bd 8f30 b1bc
00000270: e2ce 413d 9f7a 313d d379 79bc 5b34 e9bc
00000280: d2ff a23d 6c73 10bd 9bef aebc 1178 84bc
00000290: feac a03d 7cfc 86bd b472 683d 3b23 823c
000002a0: 836a 4f3d be40 633d 8ef4 eb3c d8da 0f3d
000002b0: 4b8d cfbc b87d 8bbd 5df6 883c e927 bb3d
000002c0: 3158 913d 69f3 173c 1d21 c63c 97cb d23c
000002d0: e9fc da3c 9a5c 9e3d 5224 38bd 725c c4bc
000002e0: 657e f9bc 7b53 a1bd a33b 5cbd ae27 413d
000002f0: 122e ab3d 6ddc d13d d4a5 8abd f5a0 d43c
00000300: 2324 e13d bca2 883d a405 133d ae6a bcbd
00000310: de73 033a 179a a4bc 9923 58bd 699e ebbd
00000320: 0c1b 38bd 3032 38bd 4336 1abc 024d 09be
00000330: 3877 b63d b6e2 6ebd 60bd 76bd 17be 97bc
00000340: 6f90 7d3d 5eeb 873d 09a5 ef3d ecc2 aa3d
00000350: 50f0 b23d efb1 98bd 4b2e 2e3d 00d7 6cbd
00000360: 20ca 33bd 32b6 2bbd d998 043e fb50 a1bd
00000370: 2fb2 fd3d c49d 903d 8127 e03d f269 6bbd
00000380: f027 713d b1fb a63d d9b0 e13d d1a8 cfbb
00000390: cb66 653d 3b42 39bd c1a1 f6bb cd60 80bd
000003a0: ba79 d13d 393a 86bd 5061 243d e6d4 263d
000003b0: 6588 bebd 3feb 9c3d 3339 e7bc 3804 46bc
000003c0: 417f 9a3d eab4 7abd dacb 1ebd 7c31 99bd
000003d0: 6017 b1bc 87f1 943d 588e f8bd 4f1d ed3d
000003e0: 2916 a2bc f053 a5bd 5dd8 873d 646c c93d
000003f0: 4b6c e3bd 935a eb3d 2b3c ccbd a4ab 9dbd

rnn.weight_hh_l0 f4 [400, 100]
-0.016774703 -0.020675387 0.060924806 -0.038767897 0.07353294 0.04171926 0.046331875 0.06899731
0.026116148 0.09602179 0.08316264 -0.03966606 0.100047655 -0.0619696 -0.07811553 -0.030083619
-0.0005327306 -0.047126934 -0.013555795 -0.066674076 -0.045261197 0.11088432 0.094685264 -0.074002706
-0.054372925 -0.048112057 -0.0006702332 -0.056560908 -0.09248209 -0.061992712 0.023111772 -0.010222486
0.048670005 0.066128545 -0.028508727 0.010769517 -0.11470036 0.035768323 0.03995235 0.06009803
0.057190925 0.08964893 -0.04878843 -0.05289478 0.044613495 -0.09145985 -0.06148034 0.047207575
-0.07802926 -0.04184395 -0.020392407 0.04898801 -0.12207566 -0.09087514 -0.07120486 0.07412576
-0.021484258 -0.0009268649 0.096334726 0.057991922 0.081482075 -0.115415804 -0.026923971 0.09311141
0.033717386 0.044340312 0.081200756 0.04559598 -0.08105679 0.06914553 0.043763593 -0.06820822
0.025816219 0.0989751 -0.07411496 0.03209508 0.10122853 -0.023167841 -0.022945309 -0.028053926
-0.0022572107 -0.026920803 -0.06570005 0.04613457 -0.045872875 -0.021800477 0.020343948 0.033384763
0.06036582 0.08190156 -0.011972982 0.054928068 0.04505218 0.056387343 0.056812778 -0.11016453
0.072762296 -0.067670494 0.03176624 0.06891875 0.003384373 -0.08862061 0.077842325 -0.057811487
-0.09751107 0.0036030808 0.042193815 -0.12381895 -0.0196196 0.06342184 -0.045196757 -0.039055888
0.038023703 -0.097812064 0.042415164 0.05811038 0.057063438 0.002523695 0.11606698 -0.030081563
0.03898265 0.02607486 -0.0079442235 -0.022634588 0.014020686 0.03171003 0.06608037 0.012966313
0.020751406 0.001913892 -0.068762444 -0.07091754 0.05011168 0.08274198 -0.08936343 0.021100752
0.027590815 -0.08483986 0.054696552 0.02336608 0.035862375 -0.10427224 0.07417027 0.08064209
0.005895554 0.08941083 -0.038916077 0.023282088 -0.012179076 -0.03626042 0.012751414 0.11055765
-0.042061392 -0.0064188233 0.03526848 -0.024812948 -0.1080223 0.012733798 0.10912842 -0.08099678
-0.020190924 -0.049588308 -0.05650903 -0.033681437 -0.01862056 -0.09626978 -0.057629343 -0.016558342
0.008194245 0.03390937 -0.07262655 -0.1108556 0.0054915305 0.0006327345 -0.09910686 -0.058270525
0.025276057 -0.06386085 -0.0025853955 -0.09778344 -0.021766527 -0.027813213 0.06968978 0.08370492
0.0545173 0.0813104 0.11183661 -0.04294042 -0.025686923 0.0608207 0.07651826 -0.09006635
-0.061435957 0.025939375 -0.046797596 0.001065654 -0.038255833 0.074784555 -0.0067465687 -0.071574084
0.01590239 -0.02872952 0.07627654 -0.06473965 0.03674457 0.007110704 -0.05354069 0.09462766
0.06193378 0.043366488 -0.032794204 -0.005441306 -0.01328431 0.09535514 -0.048908092 -0.12765495
-0.12820947 -0.10572912 -0.04068981 -0.05601569 0.007992978 0.1322119 0.07693566 -0.056607362
0.055298857 -0.007526445 0.051162977 0.065966874 -0.007101907 -0.09179477 -0.010480315 0.043028016
0.046484906 -0.104229495 0.037591457 -0.058152564 -0.06952266 0.09772132 -0.09616767 -0.035182387
0.09491078 -0.081945874 -0.105459794 0.076202415 -0.060360968 0.07532116 0.04151978 0.12355588
0.05397526 -0.046498407 0.0462365 0.027339973 -0.099002324 0.062006135 -0.08188154 0.06290131
00000000: 1a6b 89bc 6e5f a9bc 4a8c 793d 16cb 1ebd
00000010: 7098 963d d1e1 2a3d 7ec6 3d3d 764e 8d3d
00000020: 88f1 d53c 12a7 c43d 2d51 aa3d e178 22bd
00000030: c9e5 cc3d d6d3 7dbd 09fb 9fbd ec71 f6bc
00000040: f2a6 0bba 2c08 41bd 2019 5ebc 6b8c 88bd
00000050: ce63 39bd 5217 e33d 59ea c13d bb8e 97bd
00000060: 25b6 5ebd 2611 45bd 97b2 2fba 69ac 67bd
00000070: 4067 bdbd 12ec 7dbd e654 bd3c 377c 27bc
00000080: 335a 473d 676e 873d 228b e9bc a172 303c
00000090: 06e8 eabd ce81 123d 13a5 233d 5a29 763d
000000a0: 0841 6a3d dc99 b73d 60d6 47bd 32a8 58bd
000000b0: a4bc 363d 4d4f bbbd cfd2 7bbd bb5c 413d
000000c0: cecd 9fbd 9064 2bbd fa0d a7bc a7a7 483d
000000d0: ce02 fabd bf1c babd dbd3 91bd 3fcf 973d
000000e0: c1ff afbc daf8 72ba 244b c53d f088 6d3d
000000f0: 13e0 a63d 1f5f ecbd a98f dcbc 32b1 be3d
00000100: 3e1b 0a3d 309e 353d 954c a63d dac2 3a3d
00000110: 1a01 a6bd 2c9c 8d3d 7441 333d c0b0 8bbd
00000120: 897c d33c 75b3 ca3d 96c9 97bd 2176 033d
00000130: e750 cf3d 7cca bdbc cdf7 bbbc 59d1 e5bc
00000140: b6ed 13bb 0489 dcbc bf8d 86bd 9af7 3c3d
00000150: 32e5 3bbd ea96 b2bc 5aa8 a63c 76be 083d
00000160: 2642 773d 01bc a73d 542a 44bc 41fc 603d
00000170: a288 383d 6af6 663d 84b4 683d f19d e1bd
00000180: 6604 953d d496 8abd 511d 023d 4625 8d3d
00000190: 5bcc 5d3b b97e b5bd cc6b 9f3d bdcb 6cbd
000001a0: e2b3 c7bd aa21 6c3b 6cd3 2c3d ca94 fdbd
000001b0: 49b9 a0bc 4fe3 813d 3c20 39bd 11f9 1fbd
000001c0: bebe 1b3d b151 c8bd 86bb 2d3d 2605 6e3d
000001d0: 5abb 693d 9364 253b 86b4 ed3d 9c6d f6bc
000001e0: 45ac 1f3d f29a d53c 7d28 02bc 2c6c b9bc
000001f0: 05b7 653c 60e2 013d 2555 873d a970 543c
00000200: dafe a93c 8fdb fa3a 53d3 8cbd 373d 91bd
00000210: e841 4d3d a174 a93d 2d04 b7bd 7cdb ac3c
00000220: 2206 e23c 85c0 adbd 7e09 603d 396a bf3c
00000230: 6de4 123d af8c d5bd 95e6 973d ae27 a53d
00000240: 7e2f c13b 061d b73d 7766 1fbd 14ba be3c
00000250: bf8a 47bc ce85 14bd 4feb 503c 0d6c e23d
00000260: 9148 2cbd fe54 d2bb af75 103d 8644 cbbc
00000270: cc3a ddbd 6ba1 503c b97e df3d a4e1 a5bd
00000280: 7067 a5bc 1c1d 4bbd 0376 67bd 8cf5 09bd
00000290: 258a 98bc 1729 c5bd bf0c 6cbd 5ca5 87bc
000002a0: 2841 063c 8de4 0a3d 3bbd 94bd 4308 e3bd
000002b0: 4cf2 b33b 18de 253a 8af8 cabd 13ad 6ebd
000002c0: bc0f cf3c 7ac9 82bd bd6f 29bb af42 c8bd
000002d0: b74f b2bc 89d8 e3bc 84b9 8e3d 7c6d ab3d
000002e0: 884d 5f3d 1186 a63d 980a e53d 4be2 2fbd
000002f0: 626d d2bc 201f 793d 9bb5 9c3d b574 b8bd
00000300: 45a4 7bbd d07e d43c d6ae 3fbd 6aad 8b3a
00000310: 26b2 1cbd a528 993d 5212 ddbb 6f95 92bd
00000320: bb45 823c 2c5a ebbc e036 9c3d 3996 84bd
00000330: 7981 163d e900 e93b 7c4d 5bbd 26cc c13d
00000340: 46ae 7d3d 0fa1 313d 3753 06bd fc4c b2bb
00000350: 6fa6 59bc 8e49 c33d da53 48bd fbb7 02be
00000360: 5849 03be 8288 d8bd 5caa 26bd b570 65bd
00000370: fbf4 023c 8e62 073e 7190 9d3d 1fdd 67bd
00000380: 0e81 623d 66a0 f6bb 4590 513d a419 873d
00000390: 1db7 e8bb e5fe bbbd a1b5 2bbc 253e 303d
000003a0: f566 3e3d 4676 d5bd 80f9 193d 6231 6ebd
000003b0: e561 8ebd 1e22 c83d 8ef3 c4bd 681b 10bd
000003c0: 9560 c23d 3dd3 a7bd 4efb d7bd 0310 9c3d
000003d0: 103d 77bd fb41 9a3d a510 2a3d dd0a fd3d
000003e0: 2a15 5d3d 1d75 3ebd 7c62 3d3d 14f8 df3c
000003f0: bbc1 cabd 25fa 7d3d 82b1 a7bd 67d2 803d

rnn.bias_ih_l0 f4 [400]
-0.061861724 0.07786172 -0.100255795 -0.056785047 -0.035773527 0.02852675 0.04755285 0.09638047
0.034369677 0.0682919 0.0772092 -0.04704383 0.07179674 -0.016467549 -0.071030654 0.052125964
-0.03157717 0.04914593 0.022769911 -0.018818133 0.12167773 0.018801395 0.035195444 0.08162967
-0.018855203 0.09015489 -0.040169723 -0.057549197 -0.061548732 -0.028322143 -0.05988683 0.06003652
-0.0720073 0.030715398 -0.03734217 -0.02236339 0.07103851 -0.030715946 0.049382474 0.050501075
-0.042834178 -0.0627293 -0.057302084 -0.06643935 0.06424555 0.025510607 -0.050045848 0.11233998
0.10932503 0.05780819 0.08094895 -0.011150597 0.012551719 0.04910816 -0.07486329 -0.019976653
-0.079377964 0.020355532 0.1043425 0.033909548 0.018337823 -0.031757087 0.063804425 0.123688616
-0.021493178 -0.008316041 -0.016881216 -0.06743489 -0.050937966 0.0035818547 0.057904914 -0.083852746
0.10317102 0.029905928 -0.08338177 -0.028707385 -0.019696059 -0.07816999 0.048654675 0.038734604
0.077797554 0.121905215 0.014213998 0.06520455 0.074887164 0.0915366 0.0844875 0.0076955273
-0.03703353 0.010536185 -0.05464657 -0.048093304 0.050156295 0.034575555 0.039067637 0.010948297
0.012751269 0.021544257 0.0015821286 0.092233814 0.078803204 0.052371696 0.08043274 0.0053126407
0.08400047 0.01577128 -0.07659445 -0.07935019 0.059783693 0.003314474 0.016359163 0.014147352
-0.03342733 0.012861949 0.063929096 -0.06541157 0.10826204 -0.068137474 -0.047254033 0.06383552
0.109955736 -0.0704383 0.047207836 0.031748585 -0.029003697 0.06026521 -0.06197855 -0.06932846
-0.013011447 0.04520234 -0.050399244 0.06393474 -0.05812976 0.0964396 0.00034228124 0.019774318
-0.099633805 0.008863398 0.029897084 0.075103685 0.031969875 0.03350763 -0.010375255 -0.049022812
-0.04373911 0.059074044 -0.031616013 0.11146143 -0.06075605 -0.12079376 0.084874675 -0.10020126
0.031900186 -0.036318794 0.07985502 -0.10283573 0.08990283 0.08236714 0.07985962 0.12744755
0.005662382 0.093604766 -0.094986856 -0.030411016 0.07662356 0.027346294 0.009872789 0.088589504
0.05850955 0.03853378 0.0450288 0.0704018 -0.028165016 0.019136475 0.08449312 0.0581988
-0.076947294 -0.09357998 -0.06785092 0.06688085 0.038810868 0.11614774 -0.06893935 0.06821191
0.08082054 0.040449105 -0.054154534 0.03184691 -0.011183339 -0.032225747 0.123825625 -0.04776652
0.01327593 -0.013166068 -0.0043098787 0.02800229 0.083035775 -0.0074008266 0.075506486 -0.0001959366
0.07014071 -0.019078506 0.096721165 0.08342283 -0.024702514 -0.004895382 -0.02034785 -0.015131711
0.088941306 -0.025590798 0.013547885 -0.010012295 -0.003232182 -0.06615316 0.033019166 0.07046271
0.0080816345 0.032625634 0.015925078 0.06991995 0.039642114 -0.0060051326 0.064669356 -0.085749544
0.027374841 -0.10751062 -0.0056297653 -0.0054667997 -0.026471052 -0.10571285 -0.08528632 -0.03870312
-0.063515194 -0.026789056 -0.08934185 -0.103908315 0.036570773 -0.047266085 -0.056886066 0.027912209
-0.01820779 -0.07109225 0.011074869 -0.010162358 -0.029439216 0.0614334 0.028661516 -0.018028317
-0.024554309 -0.0104646385 0.013730029 -0.04246889 0.08423234 0.0632101 0.06814358 0.025218232
00000000: b862 7dbd f775 9f3d e952 cdbd 7097 68bd
00000010: 4387 12bd eeb0 e93c c7c6 423d 2063 c53d
00000020: 38c7 0c3d a0dc 8b3d db1f 9e3d 08b1 40bd
00000030: 2b0a 933d f4e6 86bc 8578 91bd 0982 553d
00000040: 1057 01bd 3e4d 493d f787 ba3c 7c28 9abc
00000050: 2c32 f93d 6205 9a3c 1929 103d 752d a73d
00000060: 3a76 9abc 21a3 b83d 0289 24bd b5b8 6bbd
00000070: 861a 7cbd d703 e8bc e54b 75bd dbe8 753d
00000080: 9078 93bd dc9e fb3c 1af4 18bd 6e33 b7bc
00000090: a37c 913d 02a0 fbbc 4745 4a3d 37da 4e3d
000000a0: e472 2fbd 3878 80bd 97b5 6abd 5b11 88bd
000000b0: 2c93 833d 9ffb d03c e0fc 4cbd 8112 e63d
000000c0: cde5 df3d 48c8 6c3d 90c8 a53d feb0 36bc
000000d0: baa5 4d3c a325 493d ed51 99bd 14a6 a3bc
000000e0: ea90 a2bd a5c0 a63c 85b1 d53d bde4 0a3d
000000f0: 3439 963c b813 02bd e5ab 823d 7550 fd3d
00000100: 7612 b0bc 0140 08bc 7a4a 8abc 4e1b 8abd
00000110: 54a4 50bd 8dbd 6a3b b42d 6d3d fdba abbd
00000120: 544b d33d 47fd f43c 10c4 aabd c02b ebbc
00000130: a159 a1bc 9617 a0bd 204a 473d 2da8 1e3d
00000140: 5354 9f3d 71a9 f93d d4e1 683c f789 853d
00000150: 715e 993d 8a77 bb3d c807 ad3d c32a fc3b
00000160: 79b0 17bd f69f 2c3c 15d5 5fbd 7cfd 44bd
00000170: b070 4d3d 199f 0d3d 6305 203d 7c60 333c
00000180: b3ea 503c 957d b03c 6d5f cf3a 15e5 bc3d
00000190: 9363 a13d b483 563d ecb9 a43d a915 ae3b
000001a0: 7008 ac3d c532 813c 8ddd 9cbd 5a82 a2bd
000001b0: bfdf 743d a537 593b a703 863c 4cca 673c
000001c0: 19eb 08bd edba 523c 42ed 823d 80f6 85bd
000001d0: 7db8 dd3d a98b 8bbd 728d 41bd 32bc 823d
000001e0: 7930 e13d f541 90bd 015d 413d ce0a 023d
000001f0: 2999 edbc a7d8 763d 38dd 7dbd 14fc 8dbd
00000200: f72d 55bc 1726 393d 706f 4ebd 38f0 823d
00000210: 7919 6ebd 2082 c53d 3674 b339 c0fd a13c
00000220: cf0c ccbd c937 113c bbea f43c f6cf 993d
00000230: d8f2 023d 4c3f 093d f9fc 29bc 25cc 48bd
00000240: c827 33bd a0f7 713d cb7f 01bd e445 e43d
00000250: 56db 78bd b862 f7bd c6d2 ad3d 5136 cdbd
00000260: c5a9 023d 04c3 14bd 078b a33d 8a9b d2bd
00000270: fa1e b83d 1ab0 a83d 718d a33d 9c81 023e
00000280: 818b b93b dbb3 bf3d 7888 c2bd 8620 f9bc
00000290: d0ec 9c3d 5605 e03c 7ac1 213c 6a6e b53d
000002a0: b6a7 6f3d 99d5 1d3d 1e70 383d d22e 903d
000002b0: 52ba e6bc 19c4 9c3c bb0a ad3d dd61 6e3d
000002c0: 8b96 9dbd dca6 bfbd 6cf5 8abd d4f8 883d
000002d0: 25f8 1e3d dede ed3d 1330 8dbd b0b2 8b3d
000002e0: 3d85 a53d f6ad 253d 25d1 5dbd e871 023d
000002f0: 533a 37bc 25ff 03bd 4a98 fd3d d4a6 43bd
00000300: 4983 593c 7eb6 57bc e239 8dbb 0f65 e53c
00000310: a90e aa3d a282 f2bb 25a3 9a3d 5574 4db9
00000320: efa5 8f3d 874a 9cbc bf15 c63d 97d9 aa3d
00000330: ed5c cabc 7169 a0bb 89b0 a6bc ffea 77bc
00000340: dc26 b63d cba3 d1bc f3f7 5d3c 9c0a 24bc
00000350: 04d3 53bb 4f7b 87bd 1b3f 073d c14e 903d
00000360: d568 043c 75a2 053d 4f75 823c 3132 8f3d
00000370: c55f 223d b4c6 c4bb 5e71 843d 759d afbd
00000380: 3441 e03c 872e dcbd e579 b8bb d722 b3bb
00000390: d2d9 d8bc fb7f d8bd 98aa aebd 2a87 1ebd
000003a0: 4114 82bd b974 dbbc dcf8 b6bd e2cd d4bd
000003b0: 3ccb 153d 159a 41bd 5d01 69bd 25a8 e43c
000003c0: 8128 95bc d098 91bd 5e73 353c 0580 26bc
000003d0: 832a f1bc 97a1 7b3d 8ecb ea3c 1fb0 93bc
000003e0: 1e26 c9bc e073 2bbc eaf3 603c dcf3 2dbd
000003f0: 0182 ac3d 4c74 813d dc8e 8b3d 7796 ce3c

rnn.bias_hh_l0 f4 [400]
0.04619814 0.0114264395 0.063657746 0.023276323 -0.0450154 -0.045201685 0.050142348 -0.021473702
-0.060961373 -0.036186308 0.047498833 0.023804696 0.04339432 -0.0038743499 -0.0808686 -0.025498355
-0.02174188 0.02942402 0.0574915 0.074102156 0.10566488 0.12165496 0.04189639 0.03409475
-0.020520853 0.017599111 -0.032335646 -0.08023081 -0.080915965 0.09032047 -0.024882032 0.025907418
-0.04864319 0.03032512 0.0815153 -0.019059947 -0.09419153 0.010548967 0.061047137 0.04764402
-0.022348996 0.030763483 0.059256468 -0.038212147 -0.023880035 -0.0013828231 0.025350329 0.11417697
0.06885251 -0.010547025 -0.011711127 -0.050208356 -0.017372658 0.09919009 0.06099514 -0.07968688
0.06597141 0.055889912 0.08726277 -0.034712464 -0.04930798 -0.023455856 -0.024145193 -0.035738178
0.027071416 0.10187358 -0.06301264 0.08913357 0.10235149 0.04821874 0.06670694 -0.105230615
0.0072660455 -0.07116284 0.057273485 0.045007292 0.07430098 0.08710129 -0.014699957 0.049715854
0.054765336 -0.04175367 0.08054219 0.013475829 -0.06072943 0.049619123 -0.006207727 -0.07037934
-0.07986467 0.060476974 0.08903796 0.05671957 0.071736224 0.09589767 0.0051938775 -0.019755336
-0.078027934 -0.03659874 0.07602552 0.017710177 -0.0035674598 0.094569236 0.07410334 0.034971476
0.04837436 0.055189442 0.0715585 -0.0022863557 0.007355733 -0.037602942 0.028925294 0.09677783
0.11790568 0.05493397 0.06689715 0.0015069874 -0.049151704 -0.062013287 0.12050232 0.024473956
0.029178403 0.08992044 0.10610311 -0.027627671 0.04581898 -0.08226095 -0.0518079 -0.018026255
-0.103628434 -0.07270946 0.05947185 0.11618385 0.015031652 0.031168807 -0.06150552 -0.0069204033
0.041737642 0.075395994 0.076951355 -0.04823069 0.060153738 -0.019864438 -0.049511913 0.020717297
0.05399034 -0.06738839 0.10374603 -0.007910518 0.07337244 -0.022089621 0.051434606 0.07633621
0.063383095 0.06415273 0.038869623 -0.083235465 0.042876087 0.0669493 0.00090512296 -0.049179684
0.115087636 -0.0028510226 -0.11250889 -0.023954997 -0.019265788 0.08401265 0.059408396 0.03293837
0.10402361 0.011723877 0.05131362 0.006999452 -0.006389813 0.034105863 -0.09751422 0.029036533
0.035864722 0.07920632 0.06028193 -0.009664327 0.009452342 0.109759934 -0.05773085 -0.047083363
8.040895e-05 0.1034439 0.024862591 -0.03847972 0.050978016 -0.054986577 0.0739268 0.062489506
0.0060988334 0.10405214 -0.037243295 -0.011018604 0.09718824 0.025691325 0.04414396 0.1049106
0.009034197 -0.062952876 -0.0037317576 -0.044124153 -0.0043489416 0.06429089 -0.05038358 -0.022127781
0.08314485 0.104849905 -0.040691923 -0.08763812 0.06490931 -0.04658325 -0.083595365 0.026978824
0.047628142 -0.034636043 0.038496345 -0.09050859 -0.046494015 -0.04073948 -0.013180079 0.014200058
-0.051717922 0.043962367 0.008993948 -0.032209836 0.031559862 0.054600686 0.083018035 0.07995711
0.06992885 -0.067251116 0.08110468 0.08431995 -0.0455895 0.09812035 0.075408466 0.05089579
-0.037354145 0.08567385 -0.07823116 -0.08895729 -0.021186879 0.04081595 0.0025187347 -0.058801655
-0.012688691 0.07742309 -0.0823552 0.03800662 0.03716318 -0.0059585585 0.0432375 0.017362017
00000000: 433a 3d3d f635 3b3c fe5e 823d fdad be3c
00000010: 1162 38bd 6725 39bd 1062 4d3d 9ee9 afbc
00000020: a2b2 79bd 1838 14bd 238e 423d 1102 c33c
00000030: 3ebe 313d cee8 7dbb 709e a5bd ede1 d0bc
00000040: 071c b2bc a40a f13c 357c 6b3d dfc2 973d
00000050: d466 d83d 3c26 f93d 8d9b 2b3d f0a6 0b3d
00000060: 591b a8bc 032c 903c 6272 04bd 0d50 a4bd
00000070: 45b7 a5bd f0f9 b83d 67d5 cbbc cb3b d43c
00000080: 153e 47bd 636c f83c 7ef1 a63d 9b23 9cbc
00000090: 7de7 c0bd 93d5 2c3c 900c 7a3d 6026 433d
000000a0: 3e15 b7bc b303 fc3c e9b6 723d 5784 1cbd
000000b0: 10a0 c3bc d83f b5ba 7eab cf3c 9ed5 e93d
000000c0: 8b02 8d3d 6ecd 2cbc 07e0 3fbc 47a7 4dbd
000000d0: 1b51 8ebc 2d24 cb3d 0ad6 793d e032 a3bd
000000e0: 051c 873d d2ec 643d d3b6 b23d a82e 0ebd
000000f0: 2af7 49bd 7f26 c0bc 24cc c5bc 3262 12bd
00000100: e0c4 dd3c 18a3 d03d c50c 81bd a98b b63d
00000110: a89d d13d 0381 453d a69d 883d 2683 d7bd
00000120: 0218 ee3b d3bd 91bd 9a97 6a3d 9159 383d
00000130: 1d2b 983d 2962 b23d 17d8 70bc daa2 4b3d
00000140: 9e51 603d e505 2bbd 4ef3 a43d b9c9 5c3c
00000150: 6cbf 78bd 6c3d 4b3d 306a cbbb 0b23 90bd
00000160: 1790 a3bd b4b6 773d 8959 b63d c852 683d
00000170: 71ea 923d ff65 c43d 6731 aa3b f1d5 a1bc
00000180: 1ccd 9fbd 8fe8 15bd 45b3 9b3d ef14 913c
00000190: 0bcc 69bb 84ad c13d 7ec3 973d 403e 0f3d
000001a0: 3124 463d 530e 623d 438d 923d afd6 15bb
000001b0: 5c08 f13b 8b05 1abd bdf4 ec3c 7433 c63d
000001c0: 8878 f13d 7102 613d 5f01 893d 1b86 c53a
000001d0: 4c53 49bd a501 7ebd ecc9 f63d 9b7d c83c
000001e0: 8c07 ef3c 3528 b83d 964c d93d 6d53 e2bc
000001f0: afac 3b3d 6e78 a8bd 8534 54bd ccab 93bc
00000200: 253b d4bd b3e8 94bd c198 733d ccf1 ed3d
00000210: 5147 763c ba55 ff3c 36ed 7bbd 8dc4 e2bb
00000220: 17f5 2a3d 3769 9a3d ac98 9d3d 8b8d 45bd
00000230: c463 763d bfba a2bc 01cd 4abd 52b7 a93c
00000240: fa24 5d3d ed02 8abd cc78 d43d 1e9b 01bc
00000250: 4a44 963d 4bf5 b4bc 18ad 523d 2956 9c3d
00000260: ffce 813d 8262 833d c135 1f3d 5b77 aabd
00000270: d69e 2f3d b71c 893d c645 6d3a a370 49bd
00000280: 11b3 eb3d 39d8 3abb 106b e6bd 453d c4bc
00000290: 49d3 9dbc d30e ac3d 3856 733d 62ea 063d
000002a0: 550a d53d 8115 403c 3b2e 523d a95b e53b
000002b0: a361 d1bb 97b2 0b3d 89b5 c7bd 06de ed3c
000002c0: e3e6 123d ec36 a23d 2fea 763d 2057 1ebc
000002d0: ffdd 1a3c d1c9 e03d 2f77 6cbd 7cda 40bd
000002e0: 3aa1 a838 65da d33d a2ac cb3c e99c 1dbd
000002f0: 53ce 503d 9b39 61bd ef66 973d fff4 7f3d
00000300: b9d8 c73b 4a19 d53d 6d8c 18bd 6087 34bc
00000310: a10a c73d 9d76 d23c 4cd0 343d 5edb d63d
00000320: 2b04 143c 70ed 80bd 8190 74bb 87bb 34bd
00000330: 9181 8ebb f1aa 833d 035f 4ebd 5245 b5bc
00000340: d947 aa3d 8cbb d63d 93ac 26bd 9d7b b3bd
00000350: 2cef 843d 14ce 3ebd 0c34 abbd b202 dd3c
00000360: ba15 433d 86de 0dbd 58ae 1d3d 915c b9bd
00000370: 8270 3ebd 71de 26bd 42f1 57bc 5ca7 683c
00000380: 2cd6 53bd e211 343d 5a5b 133c 76ee 03bd
00000390: ea44 013d f8a4 5f3d 5c05 aa3d 8ec0 a33d
000003a0: db36 8f3d f4ba 89bd 361a a63d f0af ac3d
000003b0: 0ebc 3abd 52f3 c83d c16f 9a3d 1b78 503d
000003c0: a900 19bd c575 af3d a937 a0bd 3d2f b6bd
000003d0: 1b90 adbc a02e 273d 5b11 253b 01da 70bd
000003e0: 3ae4 4fbc ff8f 9e3d d8a9 a8bd d4ac 1b3d
000003f0: 6b38 183d 0340 c3bb ce19 313d ca3a 8e3c

linear.weight f4 [1, 100]
0.09738083 -0.052305397 0.08346093 -0.13589488 0.006529285 0.009998921 -0.11237259 0.09269341
-0.011547521 0.10498241 0.004154417 0.070867896 0.11392944 -0.00076345965 -0.008371349 -0.101820104
-0.11663179 -0.03318774 0.10041497 -0.12464216 0.094585314 0.10231995 0.10405612 -0.07461858
-0.035186034 0.025116412 0.048050597 0.10222705 -0.03649303 -0.08753609 -0.029901175 -0.07907639
-0.039112538 -0.11600355 0.11543101 -0.031448558 0.015644733 0.053692155 -0.12883547 -0.06967243
-0.03322971 -0.07117584 -0.0993469 -0.04061218 0.023742901 -0.012441443 -0.0785599 0.026974676
0.09996572 0.019695535 0.08099574 -0.0459643 -0.11869405 0.09445673 -0.047804646 0.033526015
-0.025215916 -0.11142391 0.05880092 -0.12917472 0.08260835 -0.057148304 -0.056355976 -0.12572126
0.095249355 -0.03826639 -0.032500584 -0.076836266 0.056841448 0.058356423 -0.009119563 -0.012179733
-0.06391142 0.07884186 -0.006850298 0.0610274 0.06793213 -0.09513544 -0.08568862 -0.054544736
0.1432469 -0.081139386 0.09654557 0.02597363 0.12031109 0.096611544 0.13256407 -0.07129472
-0.046535563 -0.11270318 -0.108778924 0.09870753 -0.103599235 -0.12444078 0.06713101 -0.042088807
0.08033396 0.04405843 0.04492281 0.06392802
00000000: 9a6f c73d 2f3e 56bd 90ed aa3d 0728 0bbe
00000010: 9df3 d53b 84d2 233c 9a23 e6bd 0bd6 bd3d
00000020: d031 3dbc 0501 d73d c721 883b 3023 913d
00000030: d753 e93d e922 48ba fc27 09bc 0f87 d0bd
00000040: a6dc eebd deef 07bd 5da6 cd3d 6444 ffbd
00000050: f2b5 c13d 1f8d d13d 601b d53d a0d1 98bd
00000060: 3b1f 10bd efc0 cd3c b4d0 443d 6a5c d13d
00000070: b779 15bd 1f46 b3bd 4ff3 f4bc cdf2 a1bd
00000080: 7834 20bd 4593 edbd 1867 ec3d 34d0 00bd
00000090: 6229 803c 4eec 5b3d 72ed 03be 6bb0 8ebd
000000a0: e01b 08bd a4c4 91bd 6376 cbbd f558 26bd
000000b0: 7980 c23c 32d7 4bbc 03e4 a0bd fff9 dc3c
000000c0: d4ba cc3d 8858 a13c 18e1 a53d 1045 3cbd
000000d0: de15 f3bd 8872 c13d cece 43bd 9352 093d
000000e0: 9c91 cebc 3832 e4bd 3cd9 703d 6146 04be
000000f0: 912e a93d 5714 6abd 86d5 66bd 13bd 00be
00000100: 1812 c33d 38bd 1cbd 551f 05bd 555c 9dbd
00000110: 94d2 683d 2507 6f3d 386a 15bc 818d 47bc
00000120: fee3 82bd d777 a13d 7778 e0bb def7 793d
00000130: 0020 8b3d 5fd6 c2bd 847d afbd 4d6a 5fbd
00000140: 51af 123e 682c a6bd afb9 c53d a6c6 d43c
00000150: a965 f63d 46dc c53d e0be 073e f702 92bd
00000160: 139c 3ebd edd0 e6bd 7cc7 debd 2c27 ca3d
00000170: d62b d4bd cfda febd fc7b 893d 5065 2cbd
00000180: 2286 a43d 9d76 343d fb00 383d b2ec 823d
