backend/trained_models/EBL_GRU_model_state_dict.pth (torch, 126714 bytes, 5 tensors)

rnn.weight_ih_l0 f4 [300, 1]
000000 3b d9 c9 bc 2e 52 f2 3d 02 80 54 bd fb fb 3c bd
       -0.024639716 0.11832081 -0.05187989 -0.046138745
000010 43 2b e0 3d 9f 57 7f 3d 4d 94 f4 bb 18 8b 84 bd
       0.109457515 0.06233942 -0.007463968 -0.064718425
000020 a0 10 d7 3d 1c 4e 7b bd 8b d9 e7 3c 24 42 35 3d
       0.10501218 -0.061353788 0.028301975 0.04425253
000030 92 f0 c5 3d b9 37 9d 3b 92 8a a0 3b 9b 31 5d bd
       0.09665026 0.0047979024 0.0048993314 -0.054002386
000040 e1 42 b3 3d 84 4e a2 3b f3 d8 d5 bc dc 0f 37 bd
       0.087529905 0.0049532074 -0.026104426 -0.04469286
000050 6d d4 e3 bb d5 8b 53 3c e0 a7 cf 3c 37 e8 e7 3b
       -0.0069528134 0.0129117565 0.025348604 0.0070772427
000060 eb 26 49 bd 7a 0b 26 3c d0 49 ea 3c fd bc 65 3d
       -0.04910938 0.010134572 0.02859965 0.056088436
000070 b2 6d 91 3c 3f bb 7b 3d c1 f0 90 bd 1e fb 3b ba
       0.017752502 0.06145787 -0.0707717 -0.0007170903
000080 21 20 5f b8 e2 aa 20 3c a6 28 39 bc 1e 83 31 bd
       -5.3197266e-05 0.009806367 -0.011301195 -0.043337934
000090 51 80 a8 3d d9 9f b6 3a 87 ff c3 3d 00 34 6a bd
       0.082275994 0.0013933136 0.09570222 -0.057178497
0000a0 00 e3 b1 bd b0 46 f8 bc 66 8e ba bd f4 c7 b3 3d
       -0.08685875 -0.030307144 -0.091091916 0.087783724
0000b0 88 81 eb 3d 92 c7 f6 3c 53 63 db 3b e3 59 45 bd
       0.114993155 0.03012446 0.00669519 -0.048181426
0000c0 e4 fb 46 bd 33 f6 9d bd 8f 5e dc 3d d0 89 27 3d
       -0.048580065 -0.077129744 0.10760223 0.040902913
0000d0 ef a7 e4 3d 56 b3 82 3c ea 11 63 3c ea 74 2f ba
       0.11164843 0.015954655 0.0138592515 -0.0006693142
0000e0 81 09 b3 bc d9 94 8d bd 79 50 ef 3d a7 11 dd 3c
       -0.021855118 -0.06913156 0.11685271 0.026985956
0000f0 87 cd 26 3d 1a f4 a9 bc db 66 5a bd 42 1e cd 3c
       0.04072335 -0.02074628 -0.053320747 0.025038842
000100 a9 df 0e bd 01 b9 d5 3d c0 8e 84 3c 5b 7a 7d 3d
       -0.034881268 0.10435677 0.01618135 0.061884265
000110 37 ed 01 3c 3c c2 e7 3d db 9c 0c bd 39 5e f9 bc
       0.007930092 0.11316344 -0.034329277 -0.030440437
000120 3d 82 4e bd 7c bb d5 3d 42 2f 79 3c 24 bc 1d bd
       -0.050417174 0.104361504 0.015209021 -0.038509503
000130 a6 4d cf 3d 2b eb cc 3d 0c ec e9 3c 21 81 52 bd
       0.10122232 0.10005792 0.028554939 -0.05139268
000140 1e 95 96 3c 89 11 c5 3d 05 6a ad 3b c7 4f a9 3d
       0.018381651 0.09622485 0.0052921795 0.082671694
000150 65 f9 77 3b 5a 96 63 bc 97 2c f6 bd e4 59 98 bd
       0.003783786 -0.013890827 -0.120202236 -0.0743902
000160 ee 67 bc bd df 4f 50 bc 49 e6 2c bd 9b ee 7a 3d
       -0.091995105 -0.012714355 -0.042211805 0.06126271
000170 c7 5a 67 3c 4c 9f 6c 3d fe 5c 9d 3d 3d 7e ba 3d
       0.014120764 0.057769105 0.076837525 0.09106109
000180 9e 74 c7 3d e1 49 cc bb ad 22 b6 bd ac e8 f2 3d
       0.0973904 -0.006234393 -0.08893333 0.11860785
000190 55 2b 45 bd c1 bf 00 bc 9a f5 0a bd 0e 4b d7 3c
       -0.048137028 -0.007858218 -0.03392563 0.026280906
0001a0 bb 28 13 be 53 42 9b bd e4 83 ce bd a4 55 35 bd
       -0.14371006 -0.0758101 -0.1008375 -0.044271126
0001b0 d3 2f d6 bd b4 9d 11 be 62 6d ff bd 66 c5 19 bb
       -0.104583405 -0.14220315 -0.12472035 -0.0023463606
0001c0 5b 8b 53 3d c2 66 df bc 92 9a 86 bc 9c 6f 1b bd
       0.05164657 -0.027270678 -0.016431127 -0.037948236
0001d0 86 d6 15 be d6 4a c2 b9 2c b8 ee bd 24 81 0c be
       -0.14632615 -0.0003705832 -0.11656222 -0.13721138
0001e0 da 09 6a bd f7 1d 28 bc ed d3 02 bd 2f 33 ba 3d
       -0.0571383 -0.01026105 -0.03194039 0.09091794
0001f0 3f 26 d1 3b 82 2e 92 bd 63 b1 04 be 35 2c 0e be
       0.006382733 -0.07137777 -0.12958293 -0.13884051
000200 41 77 39 bc 1f e9 2f bd 62 10 53 bd 51 7d 94 3d
       -0.011319936 -0.04294693 -0.051529296 0.07250465
000210 3a 9b 18 be e9 d1 d7 3b e5 fd e9 bb 9c 7d 5d 3d
       -0.14902964 0.0065863025 -0.0071408623 0.05407487
000220 d3 44 10 3d b7 c5 87 bd b6 4a 41 bc 24 55 07 3d
       0.035221886 -0.06629508 -0.011797598 0.03304018
000230 b4 8f ea bd f0 fb 1d be 3b e1 b7 3d 4e 90 0d bd
       -0.114531904 -0.15428138 0.08978506 -0.034561448
000240 2f 2e 0b be da b8 37 bd 08 8a 93 bc 82 79 5d bd
       -0.13591836 -0.044854023 -0.018010154 -0.054070957
000250 f0 d2 22 be 5b 3e 06 bd bb 7e 15 be 78 f9 1e bd
       -0.15900779 -0.03277431 -0.14599125 -0.03881213
000260 15 8a ca bc bd 76 b8 bd e2 48 be bd a0 a4 ab bc
       -0.024724046 -0.090070225 -0.09291245 -0.020952523
000270 de 8b af bd 99 c2 84 bc 2f df 31 3b 7f 7d 1d be
       -0.085715994 -0.016206073 0.0027141084 -0.15379904
000280 98 dd c9 bb 6d 94 b3 bd cd e5 8e 3d a6 9c 4b 3d
       -0.0061604492 -0.08768544 0.06977425 0.04970994
000290 10 d9 0c be 50 dc 11 be 04 f3 4e bd f9 f6 1b be
       -0.13754678 -0.14244199 -0.050524727 -0.15230931
0002a0 d4 4b 9f bd 62 5b 6e bd eb c6 aa bd 6f 5c 30 3d
       -0.07778135 -0.05819262 -0.08338722 0.0430569
0002b0 3f 22 97 bd 22 4d 71 bd 62 af cb bd 94 96 42 3c
       -0.07379579 -0.05891145 -0.09945561 0.011876721
0002c0 c9 1a ba 3b 11 48 0f bd 5f 79 df bd 72 d1 18 be
       0.0056794626 -0.034980837 -0.109118216 -0.14923647
0002d0 2b 46 13 bd 63 ab 95 bd dd 13 b0 bc 3c 54 0c bd
       -0.03595559 -0.0730808 -0.021493847 -0.03426002
0002e0 1a 45 61 bd 67 7f f8 bb f7 5d ca bb 63 ee cf 3d
       -0.05499754 -0.007583547 -0.0061757523 0.101528905
0002f0 da 67 9e 3c fa b2 8f bd b4 9c 9d bd a3 41 9d 3c
       0.01933663 -0.07016559 -0.076959044 0.019196337
000300 14 24 26 bd e1 bf f5 bd 23 31 36 3d 3f ec f4 3c
       -0.04056175 -0.119994886 0.044480454 0.029897807
000310 d1 d7 d4 bd 45 04 2e 3d 2d 25 21 3d 89 d1 53 3d
       -0.10392726 0.04248454 0.039342094 0.0517135
000320 19 65 ee bd e1 7a 97 3d 77 a4 9e bd 67 dd d3 3d
       -0.116403766 0.07396484 -0.07746213 0.103449635
000330 ab a2 e5 bc 09 36 b5 bd 8f 28 00 3e 39 7e e3 bd
       -0.028031668 -0.08848197 0.12515472 -0.111080594
000340 89 bc 6c 3d 6b 5a 17 bd 1f 08 92 3c 9b 37 dc bd
       0.05779699 -0.036951464 0.017826138 -0.107527934
000350 c7 bf fb bc f1 97 86 bd 28 69 9b bd 26 86 c4 3d
       -0.030731095 -0.06571949 -0.07588416 0.09595899
000360 9e 01 84 3d 79 ef 99 3c a8 89 a4 3d 0f f6 9f bd
       0.06445621 0.018790947 0.08034068 -0.07810604
000370 36 ff b0 bd 57 8c 6a bd 4b 9f 35 bd 9f c7 8f bd
       -0.086424276 -0.057262745 -0.044341367 -0.070204966
000380 45 3c ca 3c 28 6d ef 3c 5a 9f aa 3d 09 be 84 3d
       0.024686942 0.029226854 0.08331175 0.06481559
000390 f5 48 4d bd d4 b2 87 3d 53 72 b8 bd 36 b6 84 bd
       -0.050118405 0.06625906 -0.090061806 -0.064800665
0003a0 92 d8 dd bd a2 92 98 bd d1 11 7b 3d b1 69 98 bd
       -0.10832323 -0.07449843 0.061296288 -0.07442034
0003b0 b1 fc 01 bd cf 8b 24 bc da 47 d2 3b 9b 45 f6 3d
       -0.031735126 -0.010043099 0.006417257 0.12024995
0003c0 2d 10 a1 bd 26 09 b2 bd 9c 7d 6f bd 3e 7d a6 3d
       -0.078644134 -0.08693151 -0.0584694 0.08129357
0003d0 ea 49 a0 bd d2 8c 65 bc a1 2c dd bc 3d 18 2b 3d
       -0.07826598 -0.014010625 -0.02699882 0.041771162
0003e0 11 f8 d1 3d 2e 31 7b bd 4b 88 95 3d 76 ba 8f 3d
       0.10252393 -0.0613262 0.073013864 0.070179865
0003f0 09 ee 0b 3d 9a 5f d5 3d b9 78 20 3d eb 09 9a bd
       0.034162555 0.10418625 0.03917763 -0.07521423

rnn.weight_hh_l0 f4 [300, 100]
000000 b2 3b 35 bd 2f cc 7d bc d0 57 e0 3b 6f b8 a2 bd
       -0.044246383 -0.015490576 0.0068464056 -0.07945334
000010 ef 1d 74 3d 98 8a 80 bd f9 42 ae 3d 31 e7 3b bd
       0.05959886 -0.06276435 0.08508868 -0.04587478
000020 db 4a f0 3c 18 9e d3 3d a1 dd 9f 3d db 10 92 bd
       0.029332569 0.10332888 0.07805944 -0.07132121
000030 57 3a bf bd 01 72 c6 bd f8 52 5d bd 75 35 b8 bb
       -0.09337299 -0.09689713 -0.054034203 -0.005621607
000040 bb 35 dd 3c 48 5c 68 3d cf cd c8 3d d3 5c 26 bd
       0.02700316 0.05672863 0.0980488 -0.040615868
000050 4d 3b 93 bd d9 79 d9 bd 6a 9c a2 3d 6c 01 dc bd
       -0.07189045 -0.10618944 0.0793999 -0.10742459
000060 48 2c 91 bd ae 2b a3 bd 99 73 01 3d a7 b3 da 3d
       -0.07088524 -0.079673156 0.031604383 0.10678797
000070 e5 14 8b 3d 6d ab 1e 3d 23 b8 b5 bd a9 e1 6a bc
       0.06791095 0.038737703 -0.08873012 -0.014336028
000080 c6 b2 44 3d 26 0a 95 bd 81 e4 8b 3d 18 f5 0d bd
       0.048022054 -0.07277326 0.06830693 -0.034657568
000090 e4 0d 86 3d d6 ae 79 3c b4 a8 0c 3d ab 43 9e bc
       0.06545618 0.015239438 0.034340575 -0.019319376
0000a0 8a af 4d bc 6a f3 99 3d 9d d8 9c 3d af 69 ee bc
       -0.012554059 0.07517131 0.07658503 -0.029103128
0000b0 d7 df 7e bd b1 d6 f0 3b dc af d2 bd cc 41 38 bd
       -0.06222519 0.007349812 -0.10287449 -0.044984624
0000c0 ae 5f ed 3b 3b 1a 2a bd 70 ce dc 3c fb 05 6c bd
       0.007244072 -0.04152892 0.026953906 -0.05762289
0000d0 8a 9a e8 bc d1 4c c2 bc c4 38 a5 bd ac 7a 66 3d
       -0.028394002 -0.02371827 -0.08067468 0.056269333
0000e0 c7 6f 00 3d 8c d6 d4 3c 8e 23 d7 bd b3 46 80 3d
       0.0313566 0.02598121 -0.105048284 0.06263485
0000f0 6c 0e 30 3b 88 ff 81 3d af d6 9e 3c 7f 14 b6 3c
       0.0026864065 0.06347567 0.019389478 0.02222657
000100 a5 ce 92 3d 9b f3 86 bd d0 d8 68 bd a6 75 6b bd
       0.071683206 -0.06589433 -0.056847394 -0.057485245
000110 74 17 e8 3d 2d 94 b5 bb 46 22 b6 3d 67 8f 67 3d
       0.11332598 -0.0055413456 0.08893256 0.056533244
000120 b2 66 c3 bc 5b 08 49 3d f4 e8 02 bc d3 f0 74 3d
       -0.02385268 0.049080234 -0.007990111 0.05979998
000130 b4 87 e1 bd bb 81 a9 bd 2a 50 10 3b a4 29 ce 3c
       -0.110122114 -0.08276697 0.0022020438 0.02516634
000140 f1 d1 b4 bc e2 67 b9 bc e1 9f 02 3d aa 3f 95 3d
       -0.022072764 -0.022632543 0.031890754 0.072875336
000150 8f 20 cc 3c 75 99 19 3d 68 ae 9a bd 73 e8 a7 3c
       0.024917869 0.037499864 -0.075527966 0.020496583
000160 5a e8 0c bc f6 60 a0 3c 93 b9 0c bc 01 f6 e3 3d
       -0.008600319 0.019577485 -0.008589166 0.11130906
000170 8a 8f 97 3d fd 07 3c 3d 78 5d d2 bc 38 e3 7f 3d
       0.07400425 0.045906056 -0.025679335 0.062472552
000180 0c df 67 3d 0e dd 8b 3d e0 01 91 bd e8 fc 8a 3d
       0.0566092 0.06829272 -0.07080436 0.06786519
000190 b5 cc 71 bd 29 9f 2f bd c1 54 6d 3d 61 c8 da 3d
       -0.059033114 -0.042876396 0.057942156 0.106827505
0001a0 1f 17 6e 3d 82 c5 44 bd 20 78 a9 3d ac b5 31 3c
       0.05812752 -0.04803992 0.08274865 0.010846537
0001b0 b7 e9 45 bd 73 fb a0 bd bf 27 3e bd 71 82 ed bd
       -0.04831859 -0.0786046 -0.046424624 -0.11597145
0001c0 ef ca c5 bd 1d 8d 5a 3d b3 eb 5f 3d 73 04 18 bd
       -0.09657847 0.053357232 0.05466814 -0.037113618
0001d0 e4 8e 04 3d c9 00 32 3c 52 4c 63 3d 42 78 1a 3c
       0.032362834 0.010864445 0.055492707 0.009428086
0001e0 f4 0b 12 3d cb 11 a8 3d 5d 88 82 3d e7 11 85 bd
       0.03565593 0.08206519 0.063736655 -0.06497555
0001f0 73 e1 cc 3d ca 3c b3 bd 18 90 9a bd c8 00 41 bd
       0.100039385 -0.08751829 -0.07547015 -0.047119886
000200 90 12 a3 3d a4 82 a1 bd 86 50 49 bc 21 7c 40 bd
       0.07962525 -0.07886246 -0.012287265 -0.04699338
000210 9d 69 a0 3d 88 c0 d8 bd 65 8e 29 3d c3 fb e8 bd
       0.07832644 -0.105835974 0.041395564 -0.11376145
000220 ad b2 1d 3c 88 c7 92 bd e3 78 59 3c 84 e0 28 3c
       0.009625119 -0.07166964 0.013273451 0.010307435
000230 40 8a 59 3d 62 1a 95 bd bd 19 92 bd a0 59 92 3d
       0.05311036 -0.07280423 -0.071338154 0.07146001
000240 53 1e c6 bd 68 0e b4 3d f5 5d 40 3c ba e9 99 bb
       -0.09673753 0.0879181 0.011741151 -0.004697052
000250 33 24 e4 3d 71 ad 0c bd 85 24 33 3c c8 eb fb 3c
       0.11139717 -0.034345094 0.010934 0.030752078
000260 a1 63 31 3d 64 f7 b4 3a bf cc c3 3d 78 ba 6a bc
       0.043307904 0.0013806638 0.095605366 -0.014326684
000270 b3 1c 86 3d 5d d6 58 bd e3 f5 99 bd 40 9c d6 3a
       0.06548443 -0.052938808 -0.07517602 0.001637347
000280 26 46 cc 3d 2f bc e2 ba 87 2e a5 bd ec 16 71 3d
       0.09974317 -0.0017298515 -0.08065515 0.05885975
000290 97 2b 2a 3d 54 55 af bb 52 47 4a bd 35 b2 b1 3d
       0.041545477 -0.005350748 -0.049384423 0.086765684
0002a0 b3 15 b0 3c e6 5a b7 bc c3 45 81 3d c9 e2 81 bd
       0.021494722 -0.022382211 0.06312134 -0.06342084
0002b0 2a e0 60 3d 39 24 36 bc 6f 48 78 bd af a6 3e bd
       0.05490128 -0.011117035 -0.060615953 -0.04654568
0002c0 d1 10 9e bd 0c 3f 2d 3d 28 16 81 3d c7 63 b1 3d
       -0.07718051 0.042296454 0.06303054 0.08661609
0002d0 17 45 89 bd 9f 13 73 3c e5 da ad bd b8 fb d1 bd
       -0.06702631 0.014836221 -0.084890164 -0.1025309
0002e0 a3 ff b3 bd 8a 1b e3 3c ff 04 bb bd 5d 70 41 bd
       -0.08788993 0.027723093 -0.09131812 -0.0472263
0002f0 2c 54 9e 3c c6 67 0a 3d 8a 46 25 3d d3 a4 8c bd
       0.019327246 0.033790372 0.040350474 -0.06867375
000300 a5 85 69 bd 88 92 90 bd 36 61 20 3d 15 bc e1 3d
       -0.05701222 -0.070591986 0.039155208 0.11022202
000310 8c ba 64 bd ae 1c 3d 3d 65 a6 38 bd 51 01 a3 bc
       -0.055841967 0.04616993 -0.04508056 -0.019898089
000320 57 55 2b 3d b9 b1 98 3d 8d 83 9f 3d 88 d5 bb bd
       0.041829433 0.07455773 0.07788763 -0.09171587
000330 e0 b6 b3 bd f0 69 71 3d ca 5b 27 3d ea d5 85 bd
       -0.08775115 0.05893892 0.04085902 -0.065349415
000340 3c 90 89 bc 95 22 08 3d 75 25 25 bd 84 10 ac bd
       -0.01679241 0.033236105 -0.040318925 -0.084015876
000350 ba 38 c1 bd 15 34 4d bb 33 db 29 3d ed cd 31 bd
       -0.09434648 -0.003131156 0.04146881 -0.043409277
000360 5c ce 3e bd 6d dc 21 3d 30 43 6d bd 90 6e 87 bd
       -0.04658352 0.039516855 -0.057925403 -0.06612885
000370 94 00 ef bd 27 85 83 bc f7 17 8b bd 5f 36 4b 3d
       -0.11670032 -0.016054703 -0.0679168 0.0496124
000380 47 6d 85 3d f5 a7 63 3d 8d e6 39 bc 6e 41 17 bd
       0.065149836 0.0555801 -0.0113464715 -0.036927633
000390 32 4b 9c bd 5e 38 90 bd 76 63 6e 3d 69 fa 50 3c
       -0.0763153 -0.07042001 0.058200322 0.012755015
0003a0 39 e5 10 bd c6 52 9b bd 72 9a 88 bd 56 b6 7f 3c
       -0.035374854 -0.07584147 -0.06670083 0.015607437
0003b0 8f d6 0c 3d b3 6b f2 bb bc ff bc bd fc fc bd bd
       0.034384307 -0.0073980927 -0.09228465 -0.092767686
0003c0 aa 26 9c 3d da 62 60 3c 59 82 29 bc da a0 b4 3c
       0.07624562 0.013695443 -0.010346019 0.022049356
0003d0 b9 b4 f8 bc 98 18 3d 3d 3a a1 56 3c a8 2b 4d 3d
       -0.030359613 0.046166033 0.013099963 0.050090462
0003e0 30 68 b0 bd c0 94 a2 3d fa b3 87 bd a1 a9 ee 3d
       -0.08613622 0.07938528 -0.06626125 0.11653448
0003f0 8c 3b cd 3d 86 74 cc 3d 39 ac 90 3d 3b 4a 3a 3d
       0.10021123 0.099831626 0.07064099 0.045480948

rnn.bias_ih_l0 f4 [300]
000000 9a 76 97 bd d7 25 e2 ba 94 7d 91 39 93 24 ff 3b
       -0.07395668 -0.0017253709 0.00027750118 0.0077863424
000010 c9 68 a3 3d ed f5 31 bd 77 60 32 bd 86 d7 3e 3c
       0.079789706 -0.043447424 -0.043549027 0.0116480645
000020 49 77 a9 3d e9 80 b7 bd 16 11 2f 3c ac 9d 42 bd
       0.08274705 -0.089601345 0.010685226 -0.04751365
000030 46 7b 9c bd 45 da b9 b9 31 60 78 bd 7c 89 0b bd
       -0.076407 -0.00035448573 -0.06063861 -0.034066662
000040 d1 d3 f9 3c e5 dc 74 3d ce 69 e1 3d c4 57 9e bd
       0.03049651 0.059780974 0.11006509 -0.07731584
000050 85 c1 47 bd 97 65 a3 3c c1 6e c3 bd b6 cd eb 3d
       -0.04876854 0.019945903 -0.09542609 0.115138456
000060 a0 f1 32 3d cd 9c f3 bc dd 24 b8 bd f8 c1 23 bd
       0.043687463 -0.029737854 -0.08991406 -0.039979905
000070 51 89 12 3d 02 96 1a 3d ad 33 5b bc 3d b8 5f bd
       0.035775486 0.037740715 -0.01337902 -0.054619063
000080 b9 ca 92 bc 25 2e 42 3d c8 48 04 3d 80 80 bf 3d
       -0.017918931 0.047407288 0.032295972 0.09350681
000090 5d e4 2a 3c 2e a8 a3 3c 48 8a 4e 3d d6 68 81 bd
       0.010430423 0.019977655 0.050424844 -0.06318824
0000a0 23 6a 09 bc e2 89 b7 3d 12 ef 66 bd 6c 40 a4 3d
       -0.008387121 0.08961846 -0.05638034 0.080201
0000b0 5d 3d 5b 3d f8 99 93 bc 9c 46 6f bd d5 49 f1 3c
       0.053525317 -0.018017754 -0.058416948 0.029454151
0000c0 3f d1 7c bd a5 76 76 3d 34 61 e7 3d 4f c7 06 3b
       -0.06172299 0.060171742 0.11297837 0.0020565575
0000d0 80 0c f7 3d a4 89 8b bc a8 56 ce 3d 9c 82 aa 3d
       0.12062931 -0.017033406 0.10075122 0.08325693
0000e0 d5 e8 a0 bc 59 1a cb bd dc 84 53 3d b7 bf 03 bd
       -0.019642273 -0.09917135 0.051640376 -0.032165255
0000f0 85 35 89 3d 6a dc e5 3d 41 4a bb 3c 6d 4b df 3d
       0.06699661 0.11223681 0.022862555 0.10903058
000100 e3 67 13 bc 0e b9 32 bd b4 21 a8 bd 43 45 27 bd
       -0.0089969365 -0.043633513 -0.08209553 -0.040837537
000110 bf 6c 23 3c ba 57 ab 3c 5b 98 ea bd 3a 83 17 bd
       0.009974658 0.020915855 -0.11454841 -0.03699038
000120 30 c3 5e bd a3 f5 61 3d cf 5a 86 3d 6c df b0 3d
       -0.054385364 0.055165898 0.06560289 0.08636364
000130 e5 1c 90 3d 57 59 9d bd 18 36 80 bc 7e d9 8e 3d
       0.07036761 -0.07683056 -0.015650794 0.06975077
000140 17 11 17 bd e5 6c a3 3d 9d 88 bd bb 0e 37 be 3c
       -0.036881533 0.07979754 -0.005784108 0.023219611
000150 5e 88 80 bd e8 63 67 bd 66 99 d8 bc 22 34 66 3d
       -0.0627601 -0.056491762 -0.026440334 0.05620206
000160 fe 37 ad 3d 42 d8 15 3c bf 12 8d bd 9b 15 3c 3d
       0.08457945 0.009145798 -0.06888341 0.045919042
000170 dc 45 c7 bc 3f 25 77 3d 4c 05 af 3c ed 29 13 3d
       -0.024325304 0.060338255 0.02136483 0.035928655
000180 16 c6 ce bc 5a 21 5e bc ee d2 7b 3c f2 8c ab 3d
       -0.02524094 -0.013557756 0.015370114 0.083764926
000190 2b 8f 0c be 81 36 d8 bd 5d 86 b7 3c c6 96 c0 bd
       -0.13726489 -0.10557271 0.022402937 -0.09403758
0001a0 4c c0 0e bd fd e0 1f be 5d 2f 02 3c ea 95 ec bc
       -0.034851357 -0.1561317 0.007945863 -0.028880078
0001b0 ac cf 0f be bc 84 c3 bd b0 d2 57 bd 78 9a a1 bb
       -0.14044064 -0.095468014 -0.05269116 -0.004931744
0001c0 07 03 dd 3d d4 65 1e bd b6 b3 7a bd f9 5e b0 bd
       0.10791593 -0.03867133 -0.061206542 -0.086118646
0001d0 33 76 24 bd db 11 ed bd c6 5f 6a bd 45 e0 24 be
       -0.040151786 -0.11575671 -0.057220243 -0.16101177
0001e0 18 00 a4 bd 97 80 ca bd 1e 58 df bd 86 18 c8 3d
       -0.080078304 -0.09887808 -0.10905479 0.097703025
0001f0 d8 0e 00 3c 2e 47 8b bd 29 51 92 bd 91 a7 24 be
       0.007816039 -0.06800686 -0.07144386 -0.16079547
000200 2e 0d 38 be 74 a7 56 bd 23 7b 9a bd cd 1b 81 3d
       -0.17973778 -0.05240579 -0.07543018 0.06304131
000210 0f d3 2f 3c 21 24 b1 bd 53 d3 e4 3b 99 c0 b1 3d
       0.010731473 -0.08649469 0.0069831996 0.08679313
000220 f6 f4 36 3d 9f cd 39 3c 9f 89 f7 bd d5 6e 84 bd
       0.044667207 0.011340528 -0.12086796 -0.06466452
000230 6b 0f 21 3d f3 05 c7 bd 67 79 56 bd da a5 c1 bd
       0.039321344 -0.097179316 -0.052361872 -0.09455462
000240 80 22 51 bd 50 e3 8d bd 0e b6 ea 3b 8a 5e d4 bc
       -0.051058292 -0.06928122 0.007162816 -0.025923986
000250 1a ed 1c be 44 57 10 be d3 df 83 bd 04 4d c9 bd
       -0.15324822 -0.14095789 -0.064391755 -0.09829143
000260 8c b7 45 bd 96 3c 1e be f1 56 ff bd 48 13 ed bc
       -0.048270747 -0.15452799 -0.12467755 -0.028939858
000270 0f 7b 78 bc 17 d7 83 bd 1c ef 1c 3c 8c 84 26 be
       -0.015166058 -0.064375095 0.0095784925 -0.162615
000280 19 de a5 bd 21 ed 99 3a d0 d3 0f 3c 13 51 90 bc
       -0.080990024 0.0011743644 0.008778527 -0.017616784
000290 61 15 03 be 6d 7f d1 bd a5 f0 25 be 81 cf 46 bd
       -0.12801124 -0.10229383 -0.1620508 -0.048537735
0002a0 b7 46 ad bd 08 61 32 3c f1 f1 93 3c 09 57 9f bd
       -0.084607534 0.010887392 0.018059703 -0.077802725
0002b0 65 06 ab ba df 23 eb bd c0 95 d0 39 b2 d2 22 3c
       -0.001304817 -0.11481451 0.00039784424 0.009937929
0002c0 93 cd 26 be 30 6b ba 3b 10 63 02 be 81 db 91 3c
       -0.16289358 0.0056890473 -0.12733102 0.017804863
0002d0 bd af 0a be 70 88 1f be 2f 57 18 3c 6a 5f 0f be
       -0.13543601 -0.1557939 0.00929813 -0.14001241
0002e0 71 41 ae 3c 1e fa a6 3c 27 b2 14 be 31 41 3b bd
       0.02127144 0.020382937 -0.14521085 -0.04571647
0002f0 df 22 05 be 9b b6 2f be 8c bc a1 bc 54 aa 36 bc
       -0.13001584 -0.17159502 -0.019743226 -0.011149008
000300 92 0a 3c 3d c2 54 87 bd 9a 60 82 3d 11 9f bb bd
       0.045908518 -0.06607963 0.063660815 -0.09161199
000310 bc 9c 06 be b0 17 e8 bd ae 6b 66 bd 69 3b a0 b9
       -0.13145727 -0.11332643 -0.056255035 -0.00030561842
000320 47 fc 85 ba 49 de 99 3d 81 87 c4 3c e6 6c 67 3d
       -0.0010222279 0.07513101 0.023990395 0.056500338
000330 9d 2c 0d 3d 79 22 9e bd f7 46 73 bd 5a ec 43 3c
       0.034466375 -0.07721419 -0.05939385 0.011958206
000340 73 22 9a bc 43 6c 3e 3d f3 2c d5 bc 32 f0 42 3d
       -0.018815255 0.046489965 -0.02602241 0.04759235
000350 4b 41 cd bd 2f 82 a8 bd 27 cc 24 3c ec 9f e9 bd
       -0.10022219 -0.082279555 0.010058439 -0.11407456
000360 59 99 e5 bc a9 d0 06 bd 08 11 99 bc 60 b9 32 3d
       -0.028027223 -0.032913838 -0.018684879 0.04363382
000370 90 09 9d 3d af 51 94 3a 90 54 9a bd ae 47 96 3d
       0.076678395 0.0011315848 -0.0753566 0.073378906
000380 3e d1 49 bd 4e f2 a1 3c 11 de b1 3d 30 21 4e bc
       -0.049271815 0.01976886 0.08684934 -0.012581155
000390 89 a0 d4 bb 19 f0 c4 bd 82 5e 12 3d 8d 04 44 bd
       -0.006488864 -0.096161075 0.03573466 -0.047855902
0003a0 5a 0a 24 bd 05 c0 9c 3c 58 9a 47 3d 1e ea 37 bd
       -0.040048935 0.01913453 0.048731178 -0.044901006
0003b0 6f ae 8b bd 2d 0e 8a 3c 59 fe a6 bd 16 99 be bd
       -0.0682038 0.016852463 -0.08153982 -0.093065426
0003c0 0a 6c 39 3d c5 ab e1 3c 46 49 27 3b 0d 5c 9f 3d
       0.04526905 0.027547726 0.0025525852 0.07781229
0003d0 c8 e3 41 3d 77 0f 85 bd aa e1 49 bb d9 bb c2 3c
       0.04733637 -0.0649709 -0.0030804672 0.023771213
0003e0 db 16 80 3d 6d 43 b7 bd 26 22 c9 3a c8 e3 d0 3a
       0.06254359 -0.08948407 0.001534526 0.0015937025
0003f0 f0 dd 72 bd 9e 69 86 3d 41 c7 2d bd 5e 4a b3 3b
       -0.059293687 0.06563114 -0.04242635 0.0054715117

rnn.bias_hh_l0 f4 [300]
000000 16 17 7c bd 83 4b f3 bc 1f 1a e1 bc 60 52 94 3d
       -0.061545454 -0.029699093 -0.027478276 0.07242274
000010 d5 4e 29 bd 21 90 83 bc 25 c5 55 bd 3f bc b9 bc
       -0.041334946 -0.016059937 -0.052189965 -0.02267277
000020 67 aa cb 3d 49 71 cd 3b 2f 71 90 3d b9 c3 95 3d
       0.09944611 0.006269608 0.07052838 0.07312722
000030 e6 5f 2e bd ad cb 0d 3d 33 52 af 3d 08 89 aa 3d
       -0.042571925 0.03461807 0.085606 0.08326918
000040 69 48 9e bd 62 87 18 bd 79 4d 53 bc 19 e6 b3 bc
       -0.07728655 -0.037238486 -0.012896889 -0.021960305
000050 b2 0a 45 bb 7f f7 25 3d 93 91 8a 3c 61 2c 7d bd
       -0.003006619 0.040519234 0.016915118 -0.0618099
000060 f9 bd eb bc 8c 12 7f bd 10 37 ca 3d ae 19 b9 3d
       -0.02877711 -0.062273547 0.098737836 0.09038101
000070 ba b6 34 bd d8 a8 f0 bc 92 b1 81 3c 5a 7f 4f 3d
       -0.044119574 -0.029377386 0.015831742 0.05065856
000080 c9 67 03 3c 55 8e 41 bd b7 b6 d1 bd 36 43 49 bd
       0.00802035 -0.04725488 -0.10239928 -0.049136363
000090 56 2f 63 b9 0e 80 bb bd 17 09 a0 3c ba 78 e9 3c
       -0.00021666041 -0.09155284 0.019535584 0.02849995
0000a0 cc 4d 94 3d c0 4d 9a bd 40 8f 85 bd c1 91 0d bd
       0.07241401 -0.07534361 -0.065214634 -0.03456283
0000b0 53 18 88 3d 56 b3 16 bd d2 42 c6 bb e7 f6 b7 3d
       0.066452645 -0.03679212 -0.006050446 0.0898264
0000c0 1e eb a9 bd cb 8a 56 3c 72 c0 54 bd 69 0c a1 3d
       -0.08296798 0.013094614 -0.051941343 0.07863695
0000d0 b4 10 02 3e 3d d2 ca 3d da 7a 01 bd d9 7c 7b 3d
       0.12701684 0.09903381 -0.0316113 0.06139836
0000e0 6c 77 6c 3d c0 11 9b bd f3 13 61 3d 33 ed c1 bd
       0.057731077 -0.07571745 0.054950666 -0.0946907
0000f0 68 ce ae 3d e8 b0 98 bd ad 83 b0 bb 93 50 26 3d
       0.085354626 -0.07455617 -0.0053867907 0.040604185
000100 6e ce 97 3d fa 55 91 3d bf 95 85 3d cb 5e 4c 3d
       0.0741242 0.07096477 0.065227024 0.04989509
000110 84 f4 e6 3d 53 36 8b bd 94 80 1d bd 2f c4 8e bd
       0.112771064 -0.06797471 -0.0384527 -0.06971013
000120 77 c3 45 3d 4e 39 2f 3c a8 c9 81 3d 4d 25 af bb
       0.048282113 0.010694815 0.06337291 -0.005345023
000130 27 7c fc 3c 9a ac 47 bd 5b 96 53 bd b1 e3 96 3d
       0.03082092 -0.04874859 -0.051657062 0.073676474
000140 42 d5 1d 3d f1 86 34 bd 23 7b 14 bc 73 37 a0 bb
       0.038533457 -0.044074003 -0.009062561 -0.0048894226
000150 b1 5e 1f 3c b2 a4 5e bb 1a 27 6a 3d 2a 75 b6 bc
       0.009727166 -0.0033972678 0.057166196 -0.022272665
000160 b6 73 62 3d 06 ce 38 3d 8c 53 be 3d 6f d5 41 bd
       0.05528613 0.045118354 0.09293279 -0.047322687
000170 6f 80 3a bc ca 04 95 3d 83 02 85 3d 0d 21 63 bc
       -0.01138316 0.07276304 0.0649462 -0.01386286
000180 a7 3b 09 3d 21 05 98 bd c8 ce fe 3c fd bd 69 bd
       0.033504155 -0.07422853 0.03110446 -0.057065953
000190 11 73 06 bd 65 47 9a 3c dd e8 4c 3d 38 6a 01 bc
       -0.03282458 0.018832872 0.050026763 -0.00789886
0001a0 c7 e5 b4 bc 33 e0 31 be 9b ff ee bd 26 75 6d bc
       -0.022082223 -0.17370681 -0.116698466 -0.014493262
0001b0 91 5a af 3b df a5 29 be 1f 16 af bd 7a 9b 56 bd
       0.0053513725 -0.16567181 -0.08549141 -0.052394368
0001c0 74 d1 b1 bc aa 3e b8 bd 09 8a 0d bd f7 cc a5 bd
       -0.02170632 -0.08996327 -0.03455547 -0.080957346
0001d0 a9 48 b5 3c f5 8f e7 bd 0d 42 02 be 89 e8 2c be
       0.022129374 -0.113067545 -0.12720509 -0.1688558
0001e0 50 5b 39 bc 19 5e b5 bd 16 cc 04 3c f6 d2 6d bc
       -0.0113132745 -0.08855838 0.0081052985 -0.014515629
0001f0 aa ea 73 bd ae 7c 2e be e8 f8 98 3b 19 33 7b 3c
       -0.059549965 -0.17039749 0.004668344 0.015332007
000200 c9 d7 31 be 63 65 8c 3d c8 91 d3 bd e2 1e 15 3d
       -0.17367472 0.068552755 -0.1033054 0.036406405
000210 aa 2b 45 bc 6d 8a 9a bd ad da 6d bd 22 2e fc bc
       -0.012034336 -0.07545934 -0.058069874 -0.030783717
000220 ed 93 90 bd 6a 89 b5 bd a2 f8 02 be 1f 63 6c bd
       -0.070594646 -0.088641 -0.12790158 -0.057711717
000230 05 7a 9e bd 00 2a c9 bd 97 c4 b8 3d 71 50 fe bd
       -0.07738117 -0.09822464 0.090218715 -0.12417687
000240 0d f6 34 be 0d 27 28 bd b6 03 00 bc 4f 0f bb bd
       -0.17671986 -0.041052867 -0.007813385 -0.09133779
000250 f5 ce cd bd e2 ad 25 be 83 77 ae bd 18 a4 9a 3d
       -0.100492395 -0.16179612 -0.08518889 0.0755083
000260 2f c8 d4 bc 1b 83 55 bd 60 78 b4 3a 25 53 4c bd
       -0.025974361 -0.052126985 0.0013768785 -0.04988398
000270 37 bc 49 bd 4a d6 20 be 9f d5 dc bc c3 a6 19 be
       -0.04925176 -0.15706745 -0.026957331 -0.15005021
000280 2c c1 c8 bd 7b f0 86 bd 75 a0 95 bd 2b 52 84 3d
       -0.098024696 -0.06588837 -0.073059954 0.06460985
000290 cb ea 00 be 46 92 29 be 39 65 43 bd 2d c2 d5 bd
       -0.12589566 -0.16559705 -0.047703955 -0.10437427
0002a0 da 3b fe bd 24 a8 a5 bc ba 15 4b bd 54 f8 08 bd
       -0.124137595 -0.020221777 -0.049581267 -0.03343995
0002b0 25 29 a5 bd 97 a0 03 be 52 4e 12 be 4a e6 c2 3d
       -0.08064488 -0.12854229 -0.1428769 0.095165804
0002c0 2e bd 14 be 22 a6 0a be 1e 6a 0c be b4 2f 99 bd
       -0.14525291 -0.13539937 -0.13712355 -0.07479802
0002d0 04 db 00 be 5d 35 b0 bd 12 41 a4 bd e6 3c d9 bd
       -0.12583548 -0.08603928 -0.08020224 -0.106073186
0002e0 db 04 43 3d e4 70 c2 bb 96 29 e7 bd c5 50 a5 3c
       0.047612052 -0.005933868 -0.11287229 0.020180115
0002f0 40 11 63 bd 0c 31 0a be 64 8e 2f bd 7e 36 cd bd
       -0.055436373 -0.13495272 -0.042860404 -0.10020159
000300 b6 88 70 bd 8d e7 c8 bd 02 16 67 3d 1d e1 c6 bd
       -0.058724128 -0.0980979 0.056417473 -0.09710906
000310 09 d9 ea bd 94 0e a1 bd 9f 1b 85 bd 46 de 20 be
       -0.114671774 -0.07864109 -0.06499409 -0.1570979
000320 a7 8d a7 bd 8a cd 6c 3c 48 f8 0c 3d 2c 43 0f 3d
       -0.08181315 0.014453301 0.034416467 0.03497617
000330 7f 6b 82 3d a3 7f c7 bd e8 07 2f bb 3f 55 b1 bd
       0.063681595 -0.09741142 -0.0026707593 -0.086588375
000340 15 0b 58 3d 3b 26 82 3d b3 92 ba bd e4 02 ac 3d
       0.052744944 0.06354948 -0.09110012 0.08398989
000350 60 12 f8 ba 35 24 88 3c aa de 97 bd 70 3c 56 bd
       -0.0018926375 0.016618827 -0.07415517 -0.05230373
000360 78 26 28 bd 17 9f 65 bc 59 b6 a3 3d 00 58 4e 3d
       -0.04105231 -0.014014981 0.079937644 0.050376892
000370 e7 d9 6e bd 44 30 7c 3d 61 a0 46 bd 08 77 9c 3d
       -0.058313277 0.061569467 -0.048492793 0.07639891
000380 e2 07 da 3c d8 6a 02 bd 88 ca 12 3d 9b e5 5a 3d
       0.026615087 -0.031840175 0.03583768 0.053441625
000390 d3 94 6f 3c 7f 48 e3 bb 91 01 27 3d 72 8f be 3d
       0.014622885 -0.0069361324 0.04077298 0.09304704
0003a0 b8 33 89 bb ad d9 34 3d a1 32 a1 bd bf e1 71 bd
       -0.0041870736 0.044152904 -0.07870985 -0.05905318
0003b0 60 26 bc 3d dd 37 bd 3d 23 e7 c4 3c 66 f7 6e 3c
       0.09187007 0.09239171 0.024035996 0.014585352
0003c0 d6 6e 29 bd 66 04 90 3d 14 2c 18 3c ca c5 4d ba
       -0.041365467 0.07032089 0.009287853 -0.0007849602
0003d0 8c 2a 95 bd ac 2b ca bb 7c 38 6c 3d 89 97 33 bd
       -0.07283506 -0.006169757 0.057671055 -0.043845687
0003e0 86 2c b7 bd df a7 d9 3d a1 45 08 3c 34 92 c3 3b
       -0.08944039 0.10627722 0.008317382 0.0059683565
0003f0 0a 2e 50 bd 27 ea 92 bd a9 a1 8a 3d e4 65 a8 bd
       -0.050825156 -0.07173567 0.067691155 -0.08222559

linear.weight f4 [1, 100]
000000 d9 22 b4 bd 85 62 c8 3d c6 05 b6 3c eb 61 47 3d
       -0.08795709 0.09784416 0.02221955 0.048677366
000010 ac 25 93 bd 61 38 af bd 12 44 70 3d af a9 35 bd
       -0.0718492 -0.08555675 0.058658667 -0.044351276
000020 91 64 ef 3c 80 47 e5 bd 22 2c 44 3d 37 35 8d bd
       0.029222758 -0.11195278 0.04789365 -0.068949156
000030 d6 23 d2 3c 7f 26 c6 bd 17 2e 38 3d 1e c6 09 bd
       0.025651854 -0.09675311 0.04496583 -0.033636205
000040 4d 86 51 3d 3e c7 93 bd cc f1 ee 3d e4 f2 8d bc
       0.05115347 -0.07215737 0.11667213 -0.017327733
000050 98 db 21 3d ab 9d 11 bd 9a bc cb 3c ef cb f5 3c
       0.03951606 -0.035550755 0.024870206 0.03000447
000060 92 aa ca 3d cf d6 d8 3d d4 90 f5 3d 01 50 ce 3d
       0.09895815 0.105878465 0.119905144 0.10073853
000070 26 f7 78 bd 08 f4 ba bc bb f6 3f bc 05 8c 81 3d
       -0.060782574 -0.022821441 -0.01171654 0.06325535
000080 d4 f7 06 bd 73 25 01 be 28 14 ab 3c df ab 80 3d
       -0.03295119 -0.12611942 0.020883635 0.06282782
000090 be 36 88 3c dc 5b 8a bd b6 79 e2 3d 2c 14 a2 3d
       0.016627666 -0.06755802 0.11058371 0.07914004
0000a0 40 dd db 3b 41 8d 52 bd 65 50 66 bd 84 51 a1 3d
       0.0067097247 -0.05140424 -0.056229014 0.07876876
0000b0 83 fd b4 bd 74 71 cd bd 3b 11 9c bd d6 af 82 bb
       -0.08837416 -0.10031405 -0.07620474 -0.0039882464
0000c0 2c 91 a7 3a 12 8c a9 bd e0 23 51 3d 7e 65 da bc
       0.0012784353 -0.082786694 0.051059604 -0.026659723
0000d0 5e 46 9f bd 57 9d ea 3d ae 8d b6 bd bf 07 8b bb
       -0.07777093 0.114557914 -0.08913742 -0.0042428668
0000e0 1d 09 60 3d f4 4a 6b bd f2 61 ac bd 16 b3 a2 bd
       0.05469619 -0.057444528 -0.08417119 -0.07944314
0000f0 df 33 22 3d 20 e3 a4 3d a1 15 04 3d 40 b5 0d bd
       0.03960025 0.08051133 0.03224719 -0.03459668
000100 d8 e5 b6 3d 18 28 fe bd c8 f3 fd 3d a5 45 c0 3d
       0.08930558 -0.12409991 0.12400013 0.09388284
000110 aa 70 57 3d ac 6a 87 3d 33 df a1 bc d9 ee ef bc
       0.05259768 0.06612143 -0.01975975 -0.029288696
000120 60 1f e8 bc 50 c8 14 3d aa 84 4f bd 4b 7c d7 bb
       -0.028335273 0.036323845 -0.050663628 -0.006576096
000130 19 8a ab bd c5 9a fe bd 1b a0 b6 bd eb 43 e7 3d
       -0.083759494 -0.12431864 -0.089172564 0.11292251
000140 30 a9 51 bd 5e a5 b4 bd 65 e6 2d 3d 70 94 b6 bd
       -0.05118674 -0.08820604 0.04245605 -0.08915031
000150 b7 22 5a ba 69 02 cf 3d 44 c8 ed bc ad ae f3 3c
       -0.0008321213 0.101078816 -0.029026158 0.029746378
000160 bc 0a 61 3b e0 53 e9 3d 88 cd da 3c a9 3b 44 bd
       0.0034338674 0.11392951 0.026709333 -0.04790846
000170 1d 38 31 3d 88 a9 7e bd d1 c3 0e 3d 86 25 0d 3d
       0.043266404 -0.062173396 0.034854714 0.034459613
000180 09 5b 78 bd 22 c6 49 3d be a2 3a bc 30 eb 4f 3d
       -0.060633693 0.04926122 -0.01139134 0.0507614
