backend/trained_models/EBL_GRU_model_state_dict.pth (torch, 126714 bytes, 5 tensors)

rnn.weight_ih_l0 f4 [300, 1]
000000 ac 09 93 3c c6 97 41 bd 98 39 21 bd d0 09 45 bd
       0.017948948 -0.047263883 -0.039361566 -0.04810506
000010 72 96 4e 3c 1d 44 c8 bc 77 e9 fb bc cb 12 19 bc
       0.012609111 -0.024446541 -0.030750973 -0.0093428595
000020 ff 39 b3 ba 99 89 56 3d 56 c4 ac 3b 5d 6c 20 bd
       -0.00136739 0.052377317 0.0052724285 -0.039165843
000030 b6 52 1c 3b 94 85 c1 bc 78 3e 31 3c 10 c6 5f 3d
       0.002385301 -0.023623265 0.010818116 0.054632246
000040 4c 43 0d 3d d6 b2 18 3b 4f e0 a8 bd 2c 22 eb bc
       0.034488007 0.0023299954 -0.082459085 -0.028702818
000050 a5 33 4b bd c5 03 c8 3b 31 f1 8c bd ca 8c ad bd
       -0.0496098 0.006103965 -0.06881941 -0.08474119
000060 36 b8 23 bd cc 10 61 bd 78 37 39 bd 8e 22 a7 3d
       -0.0399706 -0.05494766 -0.045218915 0.08160888
000070 d1 30 47 3d b1 be 55 bd ce 11 4a 3d 1a 81 5d 3d
       0.04863054 -0.05218381 0.049333386 0.0540782
000080 1f e2 b6 3c 7f 68 88 bb 36 e4 0d bd 2c aa e1 bc
       0.02232462 -0.0041628475 -0.034641467 -0.027546965
000090 b8 78 c5 bd f4 ac c8 bd 03 de 8f 3d c2 d6 88 bc
       -0.09642166 -0.09798613 0.07024767 -0.016703967
0000a0 fa 4e b1 3d 51 94 f9 3d 19 03 e8 3c 6f 65 e9 3d
       0.08657642 0.12186492 0.02832179 0.113963
0000b0 3d 92 91 bb 86 b7 4d bb ad 2e 01 3d ac d9 c3 3d
       -0.004442482 -0.0031389906 0.031538654 0.09563002
0000c0 f7 c9 94 3d 93 c1 3e 3d 7c 8e 39 ba 68 b2 e0 3d
       0.07265084 0.046571326 -0.0007078422 0.10971528
0000d0 39 c1 4a 3b b3 c0 a1 bc 74 b7 40 ba b0 bd 8f 3d
       0.0030937924 -0.019745206 -0.00073515554 0.07018602
0000e0 09 86 f0 bc ee e7 46 3d 60 92 c0 bb 48 de 72 3c
       -0.029360788 0.04856103 -0.0058768243 0.014823504
0000f0 32 48 d3 bd 69 df 84 bd 2d d2 b8 3d a6 99 8f bd
       -0.103165045 -0.064879246 0.09024463 -0.07011728
000100 81 a3 d4 bb ed c2 63 3c ae 7d 9a bd 60 61 00 3e
       -0.0064892177 0.013901454 -0.07543503 0.12537146
000110 d0 75 bf 3d 5a 18 13 3d 21 3e dc bb 01 41 88 bd
       0.09348643 0.035911895 -0.0067212735 -0.066530235
000120 37 d4 6e 3c 75 a9 bb bd 2e 08 d5 bc d1 b5 ed bc
       0.014576963 -0.09163181 -0.026004877 -0.02901736
000130 b6 17 7d bd 9b 04 67 b9 28 b8 ec 3d 30 3f f8 3c
       -0.06179019 -0.00022031592 0.115585625 0.030303568
000140 45 2f 80 bd e8 82 21 bd 8e d2 6f 3d 08 b4 d3 bd
       -0.06259016 -0.039431483 0.05855041 -0.103370726
000150 32 ce bd 3d b7 ae cd 3d 33 23 65 3c f8 cc a1 bc
       0.09267844 0.1004309 0.013985443 -0.019751057
000160 61 93 fb 3b c1 cc bc 3d c0 38 df 3c 6d 26 38 3d
       0.007677481 0.09218741 0.02724874 0.04495852
000170 4e 19 46 bd b0 5b e3 3d 7b 07 8b 3d ec 81 54 bd
       -0.048363976 0.111014724 0.06788536 -0.051881716
000180 9c 4e 98 bb fa b8 ca bd 4d 22 54 bd 9f 2c c7 bd
       -0.004648043 -0.09898563 -0.051790524 -0.09725308
000190 ef 53 26 bd 66 23 bb bc d6 4d 1a bd 49 a6 c1 bd
       -0.04060739 -0.022844028 -0.037671886 -0.094555445
0001a0 28 91 31 3d 01 4c 9c 3c a5 85 87 3d fc 05 07 3d
       0.043351322 0.01907921 0.066172875 0.03296469
0001b0 2d 56 cb bd 74 d0 2e bd ee ec 97 bd 4b f7 64 bd
       -0.09928546 -0.042679265 -0.074182376 -0.0558999
0001c0 fa 5c 6f 3d 26 d1 00 be d6 32 dd bd 16 02 9a bd
       0.05843828 -0.12579784 -0.10800712 -0.07519929
0001d0 e7 ec 19 bd ba f8 4e bd 83 a3 bb bd 31 25 7d 3c
       -0.037579443 -0.050530173 -0.09162047 0.015450762
0001e0 fd 47 ab bd eb 78 5e bd d1 54 1c bd ab ce a1 bd
       -0.0836334 -0.054314535 -0.038166825 -0.07900747
0001f0 27 18 b0 b7 06 69 18 bd 7e ba e2 bd d8 aa 0a bd
       -2.0992082e-05 -0.037209533 -0.11070727 -0.033854336
000200 e0 94 09 bd 91 94 80 3c 43 ae 0b be d3 7c 0d be
       -0.033589244 0.015695842 -0.13640694 -0.13817148
000210 d4 91 04 3d e1 bb af bd 36 66 0b 3d b6 b8 9e 3d
       0.032365635 -0.08580757 0.034033023 0.077500746
000220 1f 89 7d 3b e3 02 9d 3d 2e 4a e3 3d 3d dc f8 3c
       0.0038686467 0.07666566 0.11098133 0.030378455
000230 0b e7 26 be f2 ee e0 bc 7f 19 c2 bc 55 59 cd 3c
       -0.16299073 -0.027457688 -0.023693798 0.02506701
000240 a0 13 15 be e7 f8 2f bc e3 26 9f 3b bf 85 f3 3c
       -0.14558268 -0.010740495 0.0048569306 0.029726861
000250 c5 6e e9 3b 52 5d b2 3d e4 ac b7 3c 80 48 94 bd
       0.0071238005 0.08709206 0.022421308 -0.07240391
000260 fd ed 25 3c ce 34 9e bd a7 91 a6 bd f2 b5 34 3c
       0.010127542 -0.077249154 -0.0813325 0.011029707
000270 02 ae d7 3c 1d 3d 2d 3d 31 6e 19 3d b6 12 d2 bd
       0.02632809 0.04229461 0.037458602 -0.10257475
000280 9d cf 18 bd b9 56 f5 bd 0b 9f dd bd 73 fd 90 bd
       -0.03730737 -0.11979432 -0.10821351 -0.070795916
000290 db 59 20 3d 53 97 26 3d 2a f3 ba bd fd 31 a4 3c
       0.039148193 0.040671658 -0.09128411 0.020043368
0002a0 18 9e a8 bc ef 76 04 bd 78 65 7c 3c c6 18 87 bc
       -0.020583197 -0.032339986 0.015405051 -0.016491305
0002b0 7f f8 16 be ca 41 83 3a ba ce 90 bd 9a 83 fb bd
       -0.14743231 0.0010014114 -0.0707068 -0.122809604
0002c0 33 02 57 bd 38 4c aa 3d e3 8f 28 bd 97 75 c1 bd
       -0.05249233 0.08315319 -0.041152846 -0.094462566
0002d0 64 29 6f bd 8a 90 3f bd 2a 5a 13 be 13 3d 34 3d
       -0.058389083 -0.046768703 -0.14389864 0.044003557
0002e0 f1 05 f9 3c 50 b4 f8 bd cc 2d 97 3c 20 e7 e1 bd
       0.03039834 -0.12143767 0.018454455 -0.11030412
0002f0 d9 8c b7 bd e7 d5 9f bd 63 94 5a bd 0f b6 15 be
       -0.089624114 -0.078044705 -0.05336417 -0.14620231
000300 02 07 c4 3b b0 05 1c bc 39 60 73 3c 7d cb 76 bc
       0.0059822807 -0.00952284 0.014854484 -0.015063164
000310 7e 33 63 3c 43 b0 91 3d 38 e2 59 3b 12 f5 ab b9
       0.013867257 0.071136974 0.003324641 -0.00032798253
000320 20 1f 02 bd dd 03 9e 3d c8 53 e3 3d 6d 29 6f bd
       -0.031767964 0.077155806 0.110999644 -0.058389116
000330 11 10 22 bd 30 1d ec 3d 99 56 be bb 1c a4 8a 3d
       -0.039566103 0.115290046 -0.005808663 0.06769583
000340 13 61 ff bd 8a 48 56 bd 57 29 ba 3d 2d ef d1 bd
       -0.12469687 -0.052315272 0.09089916 -0.10250697
000350 9d 25 67 b9 7f 6f 99 bd bf ec f4 3c 0b 07 d1 bd
       -0.00022043889 -0.07491969 0.029898046 -0.102064215
000360 3f 6f c0 bd 4c 96 ef 3d f8 47 82 bd e9 81 de 3c
       -0.093962185 0.11698589 -0.06361383 0.027161555
000370 d0 77 c2 3d 89 77 13 3d 00 53 73 3c d2 b5 2d 3d
       0.09495509 0.03600267 0.014851332 0.042409725
000380 11 00 90 bd a0 31 49 bc ca 36 af bd cc 73 6e bd
       -0.07031263 -0.012279898 -0.08555372 -0.0582159
000390 a3 96 a6 3d 1b 9c 8d bd 89 6d 71 bd c4 ff 24 3d
       0.081342004 -0.069145404 -0.05894235 0.04028298
0003a0 d5 33 83 3d 67 cc 57 3d 99 2e ee bc 5f 83 6d bd
       0.064063706 0.052685168 -0.029074954 -0.057986613
0003b0 8f cd 64 3d 54 19 04 bd 38 21 71 3d 46 3f 32 3d
       0.0558601 -0.032250717 0.05886957 0.043517374
0003c0 ac 40 a2 3d 8d 1c dc bd da 71 f7 3d 3f d2 e4 3d
       0.079224914 -0.10747633 0.12082262 0.11172914
0003d0 6f 56 27 bd e9 03 51 3c 07 30 a7 bd 3f 1a 3d bd
       -0.040853914 0.01275728 -0.08163457 -0.04616761
0003e0 d5 72 3b bd 7c 0d 0a bd 3c 4c d7 bd ba 24 49 bc
       -0.04576381 -0.033704266 -0.105125874 -0.012276823
0003f0 cb 51 3c 3d 8d f4 52 3d 09 94 4b bc f8 1a e6 bb
       0.04597644 0.051502753 -0.012425431 -0.007022258

rnn.weight_hh_l0 f4 [300, 100]
000000 9d 87 28 3d dd 88 b3 bd 19 45 bb 3d 73 89 c7 bd
       0.041144956 -0.08766339 0.09144039 -0.09743013
000010 2c 04 37 bd f4 cf 18 bd eb bd e7 bd 09 1f a1 3d
       -0.044681713 -0.037307695 -0.11315521 0.078672476
000020 18 25 b8 bd 7c 55 21 3c cd 57 0f bd 31 a3 50 3d
       -0.0899145 0.009847041 -0.034995843 0.05093688
000030 92 75 c6 bd 48 24 f0 bc 8f b8 25 bd a2 81 1d bd
       -0.096903935 -0.029314175 -0.040459212 -0.038453706
000040 6a 60 b3 bd c4 5a 18 bd 18 de 38 bc 98 16 59 bb
       -0.08758624 -0.037195936 -0.01128342 -0.003312504
000050 24 59 7e bd e4 65 4d 3d 09 f7 12 bd 0e c2 05 bc
       -0.06209673 0.050146 -0.035880122 -0.008163942
000060 e3 9f 84 bd 5b a5 7f 3d 30 12 c3 bd d2 a2 4f bd
       -0.064758085 0.062413555 -0.09524953 -0.050692387
000070 61 d1 10 bd 8a ba d4 bc dc fb 35 3c ce dc 40 3d
       -0.03535593 -0.025967855 0.011107411 0.047085576
000080 86 eb 72 3d 62 c6 11 3c e9 d9 39 3d c9 c0 58 3d
       0.059306644 0.008897396 0.04537383 0.05291823
000090 fc b5 83 3d c4 2b ad ba 20 75 3d 3c c8 10 43 3d
       0.06431195 -0.0013211896 0.011563569 0.047623426
0000a0 1e 62 3c 3c 33 48 8c 3c d2 59 a4 bd e8 22 f3 bc
       0.011498002 0.017124271 -0.08024944 -0.02967973
0000b0 03 f2 b0 bd 87 30 80 bd e6 06 36 3d 28 5c bf bd
       -0.0863991 -0.06259256 0.044440173 -0.09343749
0000c0 3c b4 47 bd 5e 44 8d bc a5 b7 cd bd 28 7d 04 3d
       -0.04875587 -0.017244514 -0.10044793 0.03234592
0000d0 9b 15 4d bd 6c da 50 3d 5b 33 d3 3d 94 2d de 3d
       -0.050069433 0.050989553 0.1031253 0.10848537
0000e0 35 db e4 3d a8 9a 41 3d a2 24 06 bd 6a e3 d4 3c
       0.11174623 0.047266632 -0.03274978 0.025987346
0000f0 ab 92 71 bd 6b f6 b5 3d a7 54 bd bd 4a f7 b8 3c
       -0.058977764 0.08884891 -0.09244662 0.022578854
000100 90 30 ab bc 85 19 4e 3d 9d f3 57 bd 4e 21 f9 3c
       -0.02089718 0.050317306 -0.052722562 0.030411389
000110 c1 8a 94 3d cf 43 c0 bd 29 a2 a6 bd 76 02 b3 bd
       0.07253028 -0.093879335 -0.08136398 -0.08740704
000120 b3 f3 30 3c 9c 97 c8 3c 17 37 9b 3d 8f d1 80 ba
       0.01080029 0.024486355 0.07578867 -0.0009828078
000130 a3 a7 b5 3d 1d 5e 78 bc 81 1b 8d ba 51 38 84 bd
       0.08869865 -0.015159157 -0.0010765643 -0.06456054
000140 47 65 d8 ba 6e bf b1 3d 71 c7 8c 3d 48 0d 00 3d
       -0.0016509675 0.086790904 0.06873978 0.031262666
000150 aa 98 22 3d 96 31 5e bc e2 2b 83 bd 19 c3 de b9
       0.039696373 -0.013561627 -0.06404854 -0.000424885
000160 b7 b7 61 3d 42 13 43 bd 60 f1 dc 3c 9e 77 9f bd
       0.055106845 -0.047625788 0.026970565 -0.07786487
000170 d5 ca 56 3d 5d 06 55 3d 6d de 15 bc cf 44 08 3d
       0.05243953 0.05200802 -0.009147269 0.033268746
000180 d3 b9 a5 3d f1 86 bf 3c 43 ca 59 bb 67 0e 48 bd
       0.08092084 0.023379775 -0.003323213 -0.04884186
000190 da da 42 3d 2c 3c f0 3d 27 40 81 bc 3e a3 81 bc
       0.047571994 0.11730227 -0.01577766 -0.01582491
0001a0 ac b4 18 3d ff 9e f9 bc 35 74 4e bd 2f d9 27 bd
       0.037281677 -0.030471323 -0.050403792 -0.040978607
0001b0 fb 5a cc 3b 8a 57 72 3d 8a 31 12 bd 89 de 52 3c
       0.0062364317 0.059165515 -0.035691775 0.012870439
0001c0 96 08 00 3d 8a f7 2c bd 1f 4b cf bd 13 42 e3 bd
       0.03125819 -0.04222826 -0.1012175 -0.11096587
0001d0 b3 eb 16 3d 45 f7 d6 bc c1 13 7c bd 56 af 65 3d
       0.036845874 -0.026240954 -0.061542276 0.056075417
0001e0 e0 03 58 bb 32 44 c5 3c 29 98 b7 3d b0 87 9c bd
       -0.0032961294 0.02408037 0.08964569 -0.07643068
0001f0 d4 62 28 bc 71 55 d3 bd f8 45 43 3b 71 4d 76 3d
       -0.010277469 -0.10319031 0.0029796343 0.060132448
000200 09 49 fa bc 31 c7 a5 bd 21 2d d6 bc 31 80 6b 3d
       -0.030552404 -0.08094633 -0.026144566 0.0574953
000210 4e 00 da bc a9 01 cf 3d c6 8a 35 3d 3f 67 e5 bd
       -0.026611473 0.101077385 0.044321798 -0.11201333
000220 13 7d a9 3d b9 34 05 3d 6e bf 3a bc 74 d6 71 3d
       0.08275809 0.032520983 -0.011398179 0.05904241
000230 f1 c3 8b 3d 7c 44 72 bc 0c ad 42 3d 3b 81 63 bd
       0.06824482 -0.014786836 0.04752831 -0.055543166
000240 56 18 eb bc 8e b8 82 3d 37 7a 14 bd 48 fd 2b bd
       -0.028698128 0.06382857 -0.036249366 -0.041989595
000250 da 02 e4 3b a5 d7 9f 3c fd cf d8 bc 89 ef e5 3d
       0.0069583477 0.019512007 -0.026466364 0.11227328
000260 b8 f6 72 bd 56 46 14 bd 01 02 28 bc 16 c4 da 3d
       -0.05931732 -0.03619989 -0.010254384 0.10681932
000270 ec 75 b8 bc 3e ca a7 3d c9 af 1e bd 4c dc 43 3d
       -0.022517167 0.081928715 -0.03874186 0.047817513
000280 a3 d9 e4 bd 6c ec 26 bc 00 ed 2b 3d 78 79 6a bd
       -0.111743234 -0.010188203 0.041974068 -0.057244748
000290 99 70 1b bd c0 d1 9d 3d e0 01 36 3d f5 15 9e 3c
       -0.03794918 0.07706022 0.044435382 0.01929758
0002a0 8c 65 f4 bd 91 f1 ec bd a5 ea 6a bd 5b ee 7f bd
       -0.11933431 -0.11569513 -0.05735268 -0.062483173
0002b0 18 d7 79 bd bc 55 64 3d e7 2a b8 bd 94 20 8a bd
       -0.060996145 0.055745825 -0.08992558 -0.06744495
0002c0 8e dc fa 3d 8e 01 1f bb c1 6e d2 bd 1c 78 c1 3c
       0.12249099 -0.0024262401 -0.10275031 0.023616843
0002d0 ee 68 98 3c 91 16 6b 3c b5 25 51 3d 9b 64 89 bc
       0.018604722 0.014348642 0.05106135 -0.016771605
0002e0 a2 05 ab 3c 56 d1 67 bd 09 56 e9 3b ff 7f b6 bd
       0.02087671 -0.056596123 0.007120852 -0.08911132
0002f0 f4 02 c4 bd e6 c4 e8 bd 69 7a 88 bc 93 8d af 3d
       -0.09570876 -0.113656804 -0.016659932 0.08571925
000300 ab 68 17 3d 92 4f 85 39 42 93 e6 3b 50 56 ab bd
       0.036965054 0.0002542702 0.0070365975 -0.08366072
000310 cd 48 d9 3c 88 8e 9f bd a8 93 ae bc 70 c9 ef 3d
       0.026523972 -0.077908576 -0.021310642 0.11708343
000320 a3 67 c1 bd 55 9d 89 3d de ef b0 bc ac ee bc bd
       -0.09443595 0.06719462 -0.021598753 -0.092252105
000330 b2 b0 3c bd 4f 61 1e 3c 36 69 ac bb 2a 13 7e bd
       -0.046066947 0.009666755 -0.0052615656 -0.062029995
000340 61 20 20 3d 62 44 93 3d 71 33 15 bd 6c 6b b7 3c
       0.03909338 0.07190777 -0.03642601 0.02239009
000350 c8 38 b9 3d b4 a9 8a bd fd 3b ae bd ee 19 fa bc
       0.09044033 -0.067706496 -0.085075356 -0.030529942
000360 37 43 ec bd 48 78 af 3d d8 42 88 3d a8 4e c5 3d
       -0.11536258 0.08567864 0.066533744 0.09634143
000370 bc 31 e2 3d 15 28 db 3d e7 1e 37 bd 8b e1 32 3d
       0.11044642 0.107010044 -0.044707205 0.043672126
000380 13 a4 93 bd 06 53 ec 3c a9 18 eb 38 63 d9 0f 3d
       -0.07209029 0.028848182 0.000112102665 0.035119426
000390 1d d3 05 bd d1 89 ce bd 1f 75 41 bd 18 38 9e 3d
       -0.032672036 -0.1008488 -0.047230836 0.07725543
0003a0 4a 7d f3 3d 9a 15 24 bd 56 41 89 3d 12 58 06 bd
       0.11889131 -0.040059663 0.06701915 -0.032798834
0003b0 f2 ca 76 bd 8f 41 61 bd 58 24 16 3d 59 4f 97 3d
       -0.060252137 -0.054994162 0.036655754 0.07388181
0003c0 1d da a3 3d c5 49 06 3d 05 6c 8c bd 2c 14 02 bd
       0.08000586 0.032785196 -0.068565406 -0.03175752
0003d0 0b e3 26 bd 0d 84 cd bc c0 1c 8f bd 39 10 d0 bd
       -0.04074387 -0.02508738 -0.069879055 -0.10159344
0003e0 b9 5e 65 3d 0f 8e 51 3d 6b 8b 5c 3d 9e e5 8e bd
       0.055998538 0.05116087 0.053843897 -0.0697739
0003f0 23 6f 6d 3d 4b bc b8 3c 56 eb 17 bc 02 e9 33 3c
       0.057967316 0.022550723 -0.009272417 0.010980846

rnn.bias_ih_l0 f4 [300]
000000 17 1c 08 bd 50 7a 7e bc 58 96 50 3c bd 1a 34 bd
       -0.033229914 -0.015532091 0.012731157 -0.043970812
000010 a6 1d 00 bc b1 29 a8 3d a3 4f 43 bd 16 f5 4f 3c
       -0.007819569 0.08211077 -0.04768337 0.01269271
000020 8f 18 5d 3d 3e fe 86 3d 09 5b df ba b5 c7 9e bd
       0.0539785 0.065914616 -0.001704068 -0.07752935
000030 ce d1 6d 3b 90 6f e6 3a c6 17 0c 3b 7b 8d 0b 3d
       0.0036288383 0.0017580856 0.0021376475 0.034070473
000040 d0 a1 9c bd 0f 25 81 3d e7 b1 6b bc ec ea 80 bd
       -0.07648051 0.063058965 -0.014385677 -0.06294808
000050 f3 4c 36 bd 6f fd 14 3d c1 67 8a 3d f4 5b f4 bc
       -0.04450698 0.036374506 0.06758071 -0.029829003
000060 82 df 4c 3d 8d ad 16 3d cd 2f da 3d 71 3c 4c 3c
       0.05001784 0.036786605 0.106536485 0.012465582
000070 35 22 a5 bc cc 29 9a bd 33 de 05 3d 18 13 6d 3d
       -0.020157913 -0.07527503 0.03268261 0.057879537
000080 2e 64 bb 3d 6f 26 81 3b 42 4f 67 bc c7 c8 2f 3d
       0.09149967 0.003941349 -0.014118018 0.042916086
000090 cf a9 26 3d df 58 87 bc 45 57 69 3d b2 41 89 3d
       0.040689286 -0.01652187 0.056967992 0.067019835
0000a0 e5 2d 7b bd c9 f7 9e 3c 38 28 9f 3d 05 a7 80 3d
       -0.061323065 0.019405263 0.07771343 0.062818564
0000b0 0e 1d eb 3d 20 fa e3 3a 21 40 9f 3d 25 6f 5b 3d
       0.11480151 0.0017393269 0.077759035 0.053572793
0000c0 e8 78 88 3d af 0d de 3d ed 8a 45 bd 81 27 e0 3d
       0.06663686 0.10842454 -0.048228193 0.10945035
0000d0 ad 60 2c 3d 0e fd fb bc 99 0c de 3d 8a d9 10 bd
       0.042084385 -0.030760314 0.108422466 -0.03536371
0000e0 ac 70 a0 bd c9 1b 3a 3d e3 c0 9f bd b0 4c 62 bd
       -0.078339905 0.045436654 -0.07800462 -0.055248916
0000f0 9e b1 fa bd 54 92 9f bb 77 2a 34 bd 30 91 ae bd
       -0.12240909 -0.0048697386 -0.04398581 -0.08523786
000100 5c e9 d8 bc fa d4 4d 3d 36 98 3f 3b 6c 1c 3b bd
       -0.026478462 0.05025194 0.0029235012 -0.045681402
000110 c8 6b 84 bb ab a7 9f bd 61 bd a0 3d 7f b7 b9 bd
       -0.004041169 -0.07795652 0.07848621 -0.09068202
000120 b2 05 25 bd d9 61 92 3b a4 82 7a 3d 6e 7e 32 bc
       -0.040288635 0.0044672308 0.061159745 -0.010894401
000130 5e a8 d5 3c b7 d7 47 3c 9c ec 77 3d b4 82 8b 3d
       0.02608126 0.0121974265 0.060528383 0.06812039
000140 f1 65 89 3d f4 c3 14 3d 3e 6e 0b 3d bc 6c 7a 3d
       0.06708897 0.036319688 0.034040682 0.061138853
000150 15 49 95 3d 5c bf a4 bb cc 1b 8b bd 93 da 71 3d
       0.0728933 -0.0050276946 -0.06792411 0.05904634
000160 c5 6a 6a bd 4b 35 ae bd 43 d1 b5 3d eb 47 a4 bd
       -0.05723073 -0.085062586 0.08877804 -0.0802153
000170 6b 27 f7 3c 2d 59 2a 3d 52 f3 61 bd e4 ba c5 bd
       0.030170163 0.04158895 -0.05516369 -0.09654787
000180 ae 11 12 3c 2a ab 9d 3d 2a ff 59 3d 30 bd d9 3c
       0.008915348 0.076986626 0.05322186 0.02657947
000190 d3 8c 37 be 48 24 36 be 6d d6 57 bc 3c 38 dd 3c
       -0.17924814 -0.17787278 -0.013173682 0.027004354
0001a0 d9 d8 bf 3d 4a 1e 38 39 9f a4 c4 bd 6f 0d ef bd
       0.09367532 0.00017558891 -0.096017115 -0.11672484
0001b0 b3 8c 00 be f3 30 1e be 75 01 db bb f5 cb 23 be
       -0.12553672 -0.1544836 -0.0066835233 -0.15995772
0001c0 80 3a 8c 3d 3f 1c 26 be be 22 e9 3b 4a a2 8c bd
       0.068470955 -0.16221713 0.0071147373 -0.06866892
0001d0 f2 fd 1d bc ed fc eb bc 4f 0f db bd 49 f2 c7 bd
       -0.009643065 -0.028807128 -0.10696279 -0.09763009
0001e0 b5 b1 29 bd 2e 87 a5 bd d8 e1 90 3c f6 5e c1 ba
       -0.04142924 -0.08082424 0.017685816 -0.0014753032
0001f0 5f dc cc 3c 5a 2a 13 bd 73 9a 0e bd d3 51 f1 bd
       0.025007425 -0.03592906 -0.034815263 -0.11783185
000200 97 e3 4a 3d 71 f0 b1 bd 25 a9 1f bd e5 c9 e4 bd
       0.049533453 -0.08688439 -0.03897967 -0.11171321
000210 e1 85 54 ba 2f ca 82 bd 7f 62 71 bc 99 5b d4 3d
       -0.0008107108 -0.0638622 -0.014732956 0.10369033
000220 66 0e b9 3b 04 87 b6 3d 2d fb 1b 3d 89 91 78 bd
       0.0056474684 0.08912471 0.038081337 -0.06068567
000230 f6 98 2e 3c 30 d6 c3 bd 5f f2 88 3c 2c c0 22 be
       0.010656586 -0.095623374 0.016717134 -0.1589362
000240 9d 3f ca bc 6a 95 94 bd 89 e7 8d 3c 83 f6 92 bd
       -0.024688536 -0.07255061 0.017322319 -0.07175925
000250 49 67 9d bd bf 31 d8 3c 0c 4f 22 be 4a 97 70 3d
       -0.07685716 0.026390908 -0.15850466 0.05873803
000260 ed f7 0e bd 70 25 ca bb bd c2 b5 bd 38 01 a8 bc
       -0.03490441 -0.0061690137 -0.08875034 -0.020508394
000270 d2 e9 07 be 40 01 4a 3d b1 52 fa bd b7 bc ba bd
       -0.13272789 0.0493176 -0.122228034 -0.09118026
000280 65 e5 0b be 66 69 7a bd 7b 08 d8 3b 48 17 00 be
       -0.13661726 -0.061135672 0.006592808 -0.12508881
000290 f1 a2 ca 3d 44 e5 06 be e8 ac b4 bd 40 8d 8d bd
       0.0989436 -0.13173395 -0.08822042 -0.06911707
0002a0 0c 8d 3a bd ae 81 5a bd be 62 f1 3c 5b fd d5 bd
       -0.04554467 -0.05334633 0.02946603 -0.10448714
0002b0 14 d1 98 bd 98 13 d9 bc 56 cc 7d bd e0 95 f3 39
       -0.074617535 -0.0264986 -0.061962448 0.00046460237
0002c0 06 39 cb bd 6b 7f 9e bd 5a 45 98 3c 84 7d d2 bc
       -0.09922986 -0.07739147 0.018587757 -0.025694616
0002d0 c5 f0 0d be 05 35 c9 3d 8d b2 03 be 24 5a a7 3d
       -0.13861378 0.09824566 -0.1286108 0.0817149
0002e0 c1 62 ed 3a 20 61 01 be 0d 68 06 bd d4 38 18 be
       0.0018111096 -0.12634706 -0.032814074 -0.14865428
0002f0 51 98 de bd 36 eb 2b bd 7e 97 dd bd 43 9d 81 bc
       -0.10868896 -0.04197236 -0.108199105 -0.015822059
000300 65 98 4e bc 47 75 c7 bd 70 fa fc bd a1 85 d4 bb
       -0.012609576 -0.09739166 -0.12352455 -0.0064856564
000310 28 04 40 3d 46 8d be bc 62 32 3a 3d c4 36 99 3c
       0.046878964 -0.023260724 0.045458205 0.018702872
000320 75 55 b2 bd 82 f8 b5 bc 12 a0 b1 ba 1a 4b 85 3d
       -0.08707706 -0.022213224 -0.0013551733 0.06508465
000330 68 da 29 bc bf 1c 47 bd 20 13 9a bc dd 64 bf 3d
       -0.0103670135 -0.0486114 -0.018807948 0.0934541
000340 b8 52 04 bc 0e 3f 08 bd 8c 9f 7f 3c 68 5f 01 bd
       -0.008076362 -0.03326326 0.015602004 -0.031585127
000350 07 0e 15 bd 84 6d 1a 3c 69 f6 37 bd 57 70 17 bd
       -0.03639033 0.009425525 -0.04491273 -0.03697237
000360 a9 e7 b2 bd 75 96 cf bc c1 45 1f bd 5b 86 5b bc
       -0.08735592 -0.025340298 -0.038884882 -0.013398732
000370 5e f9 84 bc 25 b6 63 ba 00 ce cd bc 6a 37 99 3c
       -0.016232189 -0.00086865044 -0.025122643 0.018703181
000380 b7 41 a2 3d e4 d3 7f bd 39 ba 27 bd b5 81 39 bb
       0.0792269 -0.062457934 -0.04094908 -0.0028306071
000390 15 78 00 3c 95 57 15 bd d0 5b e6 ba 77 fe 1a bd
       0.00784113 -0.036460478 -0.001757497 -0.037840333
0003a0 26 3b 93 bd fc ff 91 bd c0 2f d2 3d ba 19 6c bd
       -0.07189016 -0.07128903 0.10263014 -0.057641722
0003b0 07 35 d0 3c c1 40 ce 3d 76 34 80 bd 0b d9 ad bd
       0.02541591 0.100709446 -0.06260006 -0.08488663
0003c0 4e ed eb 3c 03 6c 8b bd 11 cc 2a 3d 46 12 93 3c
       0.02879968 -0.06807711 0.04169852 0.01795305
0003d0 9b 54 53 bc 3e 61 d4 3c 44 68 d7 3c d1 ef 03 bb
       -0.0128985895 0.025925275 0.026294835 -0.0020131955
0003e0 47 4b a4 3b d0 49 3e bd 5a 27 19 bd 11 c5 b6 3d
       0.0050138566 -0.04645711 -0.037391044 0.08924306
0003f0 c3 c6 4b bd b1 c1 9b bd 20 40 3b bc 8c 03 d4 3c
       -0.0497501 -0.07605303 -0.011428863 0.025880598

rnn.bias_hh_l0 f4 [300]
000000 2f 5c b0 3c d0 7c 03 bd da e8 1c bc 0d 89 00 3d
       0.021528332 -0.032101452 -0.0095770005 0.0313807
000010 a4 03 51 bd 35 29 44 3d 5d ab c2 3d 50 e8 4b 3d
       -0.051028863 0.04789086 0.09505341 0.049782097
000020 28 1c 9c 3d 0c b3 ef 3d ed 3c 92 bd 37 fc 7e 3d
       0.07622558 0.11704072 -0.07140527 0.06225225
000030 e7 61 a3 bd 66 e7 90 bd 3f b3 9b 3d f0 5c bb bd
       -0.07977658 -0.07075386 0.07602548 -0.09148586
000040 6d 3b 3a 3d 10 96 08 bd 8f 42 85 3d 86 48 b1 3a
       0.04546683 -0.033346236 0.06506836 0.0013525642
000050 d4 ba fa 3c 8c 08 4a bd 89 28 a7 3c cc b1 a0 bd
       0.030606665 -0.049324557 0.02040507 -0.07846412
000060 3c 9d ba 3c 79 26 92 3d 3e 48 7b bc 45 24 79 bd
       0.022780053 0.07136244 -0.015337048 -0.060825605
000070 35 03 69 bd 42 ae 39 bc 23 53 f1 3d 81 93 9f bd
       -0.056887824 -0.01133305 0.11783435 -0.07791806
000080 74 49 50 bd b6 c9 3d 3d 59 f2 9f 3d 9e 77 26 bd
       -0.0508513 0.046334945 0.07809896 -0.04064142
000090 bd 40 04 3d d8 f2 92 bb 5c cb 34 bd 48 be 4d bd
       0.0322883 -0.0044845156 -0.04413925 -0.050230294
0000a0 2e f6 e6 3d 8d c0 3b 3d 22 9e 24 3d ae b2 be bd
       0.11277424 0.045837928 0.04018987 -0.09311424
0000b0 cc 19 46 3d d8 f5 9c 3c 22 83 1b bd b3 e1 bd 3d
       0.048364446 0.019160196 -0.037966855 0.09271564
0000c0 7c 01 33 bd 9f c9 b8 3d 4a fc 6d 3b 6b c5 99 bd
       -0.043702587 0.09022831 0.0036313706 -0.075083576
0000d0 5e 71 e3 3c 13 41 9a 3d a5 61 ca bc 5e 17 d6 bc
       0.027764019 0.07531943 -0.024704764 -0.02613419
0000e0 fc a6 8b bc 3f 3a 4a bd 50 80 03 3b 97 40 4f bd
       -0.017047398 -0.049371954 0.0020065494 -0.050598707
0000f0 f4 ce e3 bd 17 21 88 3d 5b fb 2c 3d af 9e 58 bd
       -0.111234576 0.066469364 0.0422319 -0.052885707
000100 2b a1 ce 3d 76 bb a9 3d 5b ab 9a 3c fb 15 7e 3d
       0.10089334 0.082877085 0.018880537 0.06203268
000110 98 f3 82 bd d1 d8 1b 3d 70 58 40 bd e8 10 ab bd
       -0.06394118 0.03804857 -0.04695934 -0.08352834
000120 ab 3f 00 3d 27 ad ad bd 57 17 23 3d d8 d6 f1 3d
       0.03131072 -0.08480292 0.03981718 0.11808556
000130 12 d2 d2 3c dc 33 80 bd a3 d2 c9 3d a9 66 a6 bd
       0.025734935 -0.062598914 0.09854629 -0.081250496
000140 b9 b8 c8 bb 63 da 80 3d bf 4b d9 3c 9c cd a8 3d
       -0.0061255363 0.06291654 0.026525376 0.08242342
000150 df a7 b2 3c 06 60 a6 3b d1 fb 48 3d b8 4b c5 3d
       0.021808563 0.005077365 0.049068276 0.09633583
000160 2c ae ba bd a0 b9 08 3d 34 f8 7f 3c 90 22 5b 3d
       -0.09115252 0.03338015 0.015623141 0.05349976
000170 55 a2 8b bb 63 12 5f bd 9e 6c 89 bd c4 57 c0 bd
       -0.004261295 -0.054460894 -0.0671017 -0.0939174
000180 d2 14 1b 3d c6 96 04 bd ba 73 c3 3d 55 2b 52 bd
       0.037861653 -0.03237035 0.095435575 -0.051310856
000190 e3 65 25 be 2b 1d ce bd a9 63 1c be 93 1c 30 3d
       -0.16152148 -0.10064157 -0.15272392 0.042996
0001a0 21 82 ae bd 9d 12 a0 bd e0 9d a9 bd 08 2e 00 be
       -0.08520914 -0.0781605 -0.082820654 -0.1251756
0001b0 08 af 29 bd dc cc ed bc 24 a3 f1 bd 09 7e 39 be
       -0.04142669 -0.029028349 -0.11798695 -0.18114485
0001c0 e6 bd 4d 3c 88 c2 1a be f7 44 43 3d 87 0d 2a be
       0.012557482 -0.1511327 0.047673192 -0.16606723
0001d0 f6 22 41 bb 52 6b bb 3c 1f 60 38 bc 96 e0 fc bc
       -0.0029470301 0.022878323 -0.011253386 -0.03086881
0001e0 d4 83 27 be 3c 50 92 bd 8a 74 99 bd 47 37 6d bb
       -0.16358882 -0.0714421 -0.07492931 -0.0036196278
0001f0 6c 57 0c be 00 7a 55 bb 92 5c 15 be d5 d0 5b 3d
       -0.13705224 -0.0032573938 -0.14586094 0.053665955
000200 d9 bc 3f 3c bd 30 bc bc cc ed 07 be 0b fd 49 bd
       0.01170274 -0.022972459 -0.13274306 -0.049313586
000210 1c 83 9f 3c 68 c0 ce 3b 34 94 02 bc 19 43 5d bc
       0.019471698 0.0063095577 -0.007969905 -0.013504767
000220 14 82 d9 bd f6 76 9a bd 6a 0d 33 bd f4 8f 67 bd
       -0.106205136 -0.07542221 -0.043713965 -0.05653377
000230 b5 5e 3a 3c c3 d1 ce 3b 9d 8e 0e be d8 3a ff bd
       0.011375119 0.0063116266 -0.1392159 -0.124623954
000240 49 65 25 be 4b e6 04 3d de be 94 bd 99 c1 80 bc
       -0.16151918 0.032446187 -0.072629675 -0.015717315
000250 6d 1b 1d be 68 ea 76 bd 2b ef 55 bc 38 e4 58 3d
       -0.15342493 -0.06028214 -0.01305751 0.05295202
000260 d9 85 af bd 20 17 6a 3c 6b fd 2b bd 62 d4 d9 3b
       -0.08570451 0.01428774 -0.041989725 0.0066476325
000270 d6 cb 24 be 5e 30 ad 3d 6e 65 cb bd 87 4e e4 bc
       -0.16093382 0.08456491 -0.099314556 -0.027869476
000280 b5 9e 1b be 4b ad 76 bd 28 5b 6c 3c 41 c0 08 bd
       -0.1519726 -0.06022386 0.01442603 -0.033386473
000290 5e c1 3c bd ea 29 bc bc 67 3d ea 3c 18 a4 bb 3c
       -0.046082847 -0.022969205 0.028593732 0.022905394
0002a0 4f 7e 6e bd 1a 0d cc bc ff de 7e 3d 00 f7 15 bd
       -0.058225926 -0.024908591 0.062224384 -0.03661251
0002b0 dc 15 82 3c 80 8d b6 bd 1c a4 5e bd 8c 92 0e be
       0.015879564 -0.08913708 -0.054355726 -0.1392309
0002c0 26 2d 2d bd 07 a9 61 3d fe cb 4b bd db 63 ce bd
       -0.042279385 0.055092838 -0.04975509 -0.1007764
0002d0 00 96 16 be 22 96 8c bd 34 68 4c 3c 29 74 67 bc
       -0.14705658 -0.06864573 0.012476016 -0.014126816
0002e0 cc 3e 25 bd 25 a2 2b be 7a 32 b8 bd 35 3e 07 be
       -0.04034309 -0.16761072 -0.08994003 -0.13207324
0002f0 c0 ea 14 bd 02 b7 b5 bd 7e 8b 04 3b 9f e2 15 be
       -0.036356688 -0.088727966 0.0020224745 -0.1463723
000300 aa c2 e7 bd ca 7e 6a 3a 5e c2 04 bd 38 1c f3 bc
       -0.11316426 0.00089452846 -0.032411925 -0.029676542
000310 56 59 80 3c 2f 21 68 bd 5c de cb bd ae 71 bc 3a
       0.015667599 -0.05667227 -0.09954521 0.0014377141
000320 d8 b6 c1 3b 3c 75 4a bd a1 64 9f 3d 5b d5 e2 3c
       0.0059116893 -0.04942821 0.07782865 0.027689626
000330 b1 49 8c 3d 74 ec d7 bc 7f 25 90 bd 41 5f 98 bd
       0.06849993 -0.026357867 -0.07038402 -0.07440043
000340 50 20 1b bd d7 fd 40 3d a0 a2 3e bd b2 1a 9d bb
       -0.037872612 0.04711708 -0.04654181 -0.004794442
000350 ec 7f 98 3c 19 00 73 ba f8 6d 0b 3c 45 80 80 bc
       0.018615685 -0.0009269729 0.008510105 -0.015686164
000360 22 2e 06 3c 95 20 3b bd 8b 9f f7 3c 1e dc a5 bd
       0.00818971 -0.04568537 0.030227443 -0.08098625
000370 0d aa 06 3d 3d 15 a7 bd 14 78 ac 3d 5d 39 f6 bd
       0.032877017 -0.08158348 0.084213406 -0.1202266
000380 80 ca 5c 3d 9b 7a 3a bd e0 13 b2 bd a5 6a 35 3d
       0.053904057 -0.045527082 -0.08695197 0.044291157
000390 80 77 75 3d 53 45 22 3d d3 6b 53 3d fa d0 fc bc
       0.059928417 0.039616894 0.0516165 -0.030861367
0003a0 0f 5c 42 3d 6b 88 02 3d 78 f7 ce 3d 04 41 60 3d
       0.047451075 0.03186838 0.10105795 0.054749504
0003b0 ff 5d 19 bd 93 be b5 bd d5 3e d3 bd ae 81 a5 bd
       -0.037443157 -0.0887424 -0.10314719 -0.08081375
0003c0 56 f1 ac bd e1 36 84 3d ec 39 b7 bd 7d 4d 35 3d
       -0.08444469 0.0645578 -0.089465946 0.04426335
0003d0 44 4d 85 3d 22 8d ac bd 02 2c 09 bd 27 5c 23 bd
       0.06508878 -0.084253564 -0.033489235 -0.039882805
0003e0 e5 ac 1f bd 97 3b d0 3d cd c5 94 bd 30 ff 90 bd
       -0.038983244 0.10167616 -0.0726429 -0.07079923
0003f0 b0 62 d2 3c 74 c9 2d bd b0 52 00 bd 14 14 9f 3d
       0.025681823 -0.04242845 -0.031328857 0.077675015

linear.weight f4 [1, 100]
000000 8e de 8d bd 87 c7 ff 3d 11 ff 61 3d 31 75 1c bd
       -0.069272146 0.12489229 0.05517489 -0.0381977
000010 b2 dd 10 3d 7a 26 e2 3d b9 b7 63 bc 7f 2d a7 3d
       0.035367675 0.11042495 -0.013898783 0.081629746
000020 80 4c 8b bd 13 87 aa bd 71 1c ad 3d dc d6 dc bd
       -0.068017006 -0.083265446 0.084526904 -0.10783169
000030 8f 9e 8c bb 0d 18 bf bc 5a 31 44 3d f2 66 bb bd
       -0.0042913626 -0.023326898 0.047898628 -0.09150495
000040 b9 2a 7e bd 28 b4 c6 3d 2e 23 aa bd fc 4d 0d 3d
       -0.062052462 0.09702331 -0.08307491 0.0344982
000050 2c d5 93 3d 57 af 2e 3d d8 ad 9c 3d ce 3c c2 bc
       0.07218394 0.042647686 0.076503456 -0.023710635
000060 b6 26 af bc 95 dc 30 bd 1d f3 87 bd 88 35 31 3c
       -0.021380764 -0.043179113 -0.06638167 0.0108159855
000070 de 56 62 bb bf 09 c4 bd cf 2a d3 bc d3 7a 3c 3d
       -0.003453664 -0.095721714 -0.025777249 0.04601557
000080 36 e8 9b bd 06 d9 34 3c 98 d6 6b 3c 7d 01 88 3d
       -0.0761265 0.011038071 0.014394425 0.06640909
000090 6b ec 3d 3d 42 47 ae 3c 65 d0 2c bd 8e 75 1a bd
       0.046368044 0.021274213 -0.042190928 -0.037709765
0000a0 09 84 01 3e 9b f2 3c bd 1c eb 2c 3d 47 37 9c 3d
       0.12648024 -0.046129804 0.042216405 0.07627731
0000b0 d8 0d e1 bd 46 1b ca 3b 68 da d9 bd fb 29 f6 bd
       -0.109889686 0.006167802 -0.10637361 -0.12019726
0000c0 96 18 18 bd 66 c1 3d 3d e8 ef 0e 3b 2e dd c6 3d
       -0.037132822 0.046327017 0.0021810476 0.097101554
0000d0 57 10 e7 3d ce ca cf 3d 4b b3 85 3d 30 e4 9e 3d
       0.112824135 0.10146104 0.06528338 0.07758367
0000e0 29 43 c9 3d 94 a6 a0 bd f4 54 da ba ed 69 15 3d
       0.09827263 -0.07844272 -0.0016657398 0.03647797
0000f0 3e 65 77 bc 69 9a 61 bd 5d 85 18 3c 43 02 ef bd
       -0.015099822 -0.055078898 0.00930914 -0.11670353
000100 d7 fc 9d bd cb b4 e6 3d f2 2c 56 bd 74 c1 9f 3d
       -0.07714241 0.11264952 -0.052288957 0.0780057
000110 03 c2 92 bc f2 c0 c4 3c c8 3b ac 3d 1d 84 8e 3d
       -0.017914778 0.024017785 0.0840984 0.06958792
000120 e3 7d ba 3d ca 47 bd bd 81 3b 99 bd 2e 48 ed bd
       0.09106042 -0.09242208 -0.074820526 -0.11586033
000130 49 e2 53 3d 55 4e 6e bd 6c 4d a1 3d fc 30 9b 3d
       0.051729474 -0.058180172 0.07876095 0.075777024
000140 dd e9 86 3d 66 e0 2a 3d 6e c2 87 bd 2e b3 32 3d
       0.06587575 0.04171791 -0.066288814 0.04362791
000150 f0 bd 0a 3c c3 ce a5 3d d5 24 1c 3c 40 23 71 bd
       0.008468136 0.08096077 0.009530266 -0.058871508
000160 72 a1 03 be c0 16 a0 bc ba 5a 5c 3d 31 ba de bd
       -0.12854555 -0.019542098 0.05379746 -0.10875357
000170 c8 03 d1 3c e0 97 f0 3d c8 b9 f3 3d 63 bc b7 bd
       0.025514498 0.11747718 0.11900669 -0.08971479
000180 4b 9b 8e bc 6f ef 80 3d 8c 06 c6 bc 1c 6c ab 3d
       -0.017408034 0.06295668 -0.024173044 0.083702296
