backend/trained_models/GBIME_GRU_model_state_dict.pth (torch, 126732 bytes, 5 tensors)

rnn.weight_ih_l0 f4 [300, 1]
000000 2f 70 a1 3d b3 aa 8a bd cc 74 d2 bb dc 5c 37 3d
       0.078827254 -0.067708395 -0.0064226147 0.044766292
000010 37 f9 31 bd 69 79 bc bd 70 22 b2 bc 01 4c c0 bd
       -0.04345056 -0.09202845 -0.021744937 -0.093894966
000020 e6 1c fd bd 18 d9 53 3a 99 41 bd 3d 87 28 84 bd
       -0.123590276 0.0008081361 0.092410274 -0.064530425
000030 c2 b1 a6 3d 54 d2 f9 bd d3 f9 8e bc 88 30 ee 3d
       0.08139373 -0.1219832 -0.01745311 0.1163035
000040 24 cf 04 3d b4 00 3c bb 46 1c 12 3d ef 58 9f bd
       0.032424107 -0.0028686943 0.035671495 -0.077806346
000050 dd c2 ec 3c 78 c9 b6 3d 42 7e ad 3d c3 44 01 3e
       0.028901512 0.08925146 0.084713474 0.12623887
000060 a6 0d 83 bd c1 82 3c 3d 1f a5 32 bd 01 3a 4d bd
       -0.063990876 0.046023134 -0.043614503 -0.050104145
000070 04 ed 23 3d bc 01 f9 3c 44 0c fc 3c 00 28 15 bd
       0.040020958 0.030396335 0.030767567 -0.0364151
000080 63 f3 c1 3d 2e c8 a5 3c 61 2b 79 bd fb a1 77 bd
       0.094702505 0.020237055 -0.060832385 -0.06045721
000090 4a 55 32 bd 9b dc c2 3d e1 e1 b9 3d 34 02 c1 bb
       -0.04353837 0.095147334 0.09076286 -0.005890155
0000a0 b0 ad b1 3b a4 66 2c 3d 6d 02 72 bd 8b 21 e4 bd
       0.0054223165 0.042090073 -0.059084345 -0.1113921
0000b0 64 91 a6 3d 98 6d 85 3d d4 15 1c bd 1b 9b 8a 3d
       0.081332 0.06515044 -0.038106754 0.06767865
0000c0 85 9d 7f 3c db 6b 5e bd 70 d0 5e bb 4f 4a 08 3d
       0.01560152 -0.054302078 -0.003399875 0.03327399
0000d0 11 64 9a 3d 40 e5 0d 3d 9c 31 6c bd b9 a5 d7 bc
       0.075386174 0.034642458 -0.0576645 -0.02632414
0000e0 31 20 30 bd 81 c7 c8 bd c3 80 8c bc 58 8b 95 3d
       -0.04299945 -0.09803677 -0.017151242 0.07301968
0000f0 ac a2 b8 bd 49 ef cb 3d 2f dd dc 3b 5a fa 9e 3c
       -0.09015402 0.099577494 0.0067402343 0.019406486
000100 64 03 6a bd 67 fd eb 3d 14 ca 1a bd 9f 44 3a 3d
       -0.05713214 0.11522942 -0.037790373 0.0454756
000110 c7 9d be 3d 60 c8 07 3d 4e b6 9f 3d 22 57 09 bd
       0.093074374 0.033150077 0.07798444 -0.033530362
000120 b0 56 c4 bd 6c a5 c9 bc 61 51 65 3d b5 17 c0 3d
       -0.09586847 -0.024615012 0.055985812 0.09379522
000130 8e ac d9 3d 06 57 b6 bb a9 c5 93 3d 31 44 25 3d
       0.10628615 -0.005564573 0.07215435 0.040348236
000140 93 11 a5 bd d2 de 3f bc e6 42 b8 3d 05 b0 f5 3c
       -0.08059993 -0.011710839 0.08997135 0.02999116
000150 da 9b 72 3d 9a eb 8f bd 8b 05 dd bb e0 7b a3 3d
       0.059230663 -0.07027359 -0.0067450455 0.07982612
000160 5a 29 da 3c 7b 9c 9b 3d d0 77 c9 bc c0 71 da bc
       0.026631046 0.07598206 -0.024593264 -0.026665568
000170 70 51 a3 3d 36 22 a8 3c f2 bb 0c 3c c7 37 1a bd
       0.07974517 0.020524126 0.0085897315 -0.03765085
000180 c5 30 20 bc b2 2f c6 3d 97 f4 e3 ba d6 70 e7 bc
       -0.009777253 0.09677066 -0.0017391619 -0.028252047
000190 40 1c fa 3b e3 68 cb 3c 8c 39 a4 3d eb 78 05 be
       0.007632762 0.024830287 0.08018789 -0.13034408
0001a0 98 51 29 bc 17 92 55 3c 1a 87 d8 3c d8 a1 1d be
       -0.010334395 0.013035319 0.026431609 -0.1539377
0001b0 7c 34 1c bc 5a c3 e7 bc 21 ec 01 be de 7b ac bd
       -0.009533998 -0.028291393 -0.12687732 -0.08422063
0001c0 63 84 8d bc bc 18 1c be a6 3f 15 be 6b ad f5 bd
       -0.017275041 -0.1524381 -0.14575061 -0.119959675
0001d0 bb 1f 0b be a3 7f 0c 3c de 2f 32 bd 65 60 7b 3c
       -0.13586323 0.008575353 -0.04350268 0.0153428065
0001e0 04 fa ea bd 28 71 e0 3b 40 b3 d9 bd 78 46 9c bd
       -0.11473468 0.006849427 -0.10629892 -0.07630628
0001f0 c2 12 f1 bd 1b 28 08 bd f7 76 84 3d 80 07 09 bd
       -0.11771156 -0.033241373 0.06468003 -0.03345442
000200 02 cd 4a 3c 04 73 b1 bc 78 56 be bd 80 4e e4 bd
       0.012377979 -0.021661289 -0.09293836 -0.11147785
000210 d0 bf 0b 3c 02 fc 33 be 56 5c 15 bd 01 f5 f8 bc
       0.008529618 -0.17576602 -0.03646501 -0.030390264
000220 6c 1e 83 bd e7 de 1b be 66 a9 a8 bd f7 db 0c be
       -0.06402287 -0.15221749 -0.08235435 -0.13755785
000230 34 2a fd b9 16 c8 da bd de 32 e3 bb 6b 33 fd bd
       -0.00048287364 -0.106826946 -0.006933554 -0.12363323
000240 86 4a 58 bd bc 5a 20 be 5a 9f e6 3c 26 f5 20 be
       -0.052805446 -0.15659612 0.028152157 -0.15718517
000250 17 11 00 be 3a 97 ba 3b 48 c1 2e be 7d 52 9f bd
       -0.1250652 0.005694297 -0.17065918 -0.07779405
000260 da 6d bc 3b 0a d0 1f bd a3 41 72 bd 5b 76 c3 3b
       0.0057504 -0.03901676 -0.059144627 0.005965037
000270 10 77 2f bc c2 e6 54 bd 74 72 c8 bb 6a 60 f3 bc
       -0.010709539 -0.05197788 -0.0061171595 -0.02970906
000280 85 61 26 be 4f 72 61 bd 73 3f 13 be 57 7f 40 bd
       -0.16248138 -0.055040654 -0.14379673 -0.04699644
000290 5f be ab bd 30 fc 47 bd 57 de 13 3c fb 9b 58 3c
       -0.0838592 -0.04882449 0.009025178 0.013220782
0002a0 67 b6 d7 bc 2f 0c 2d bd a0 c0 9b bc 31 b4 9a bd
       -0.026332093 -0.042247947 -0.01901275 -0.075539
0002b0 7e 42 5f bd 2a ef bd bd 9e b8 8a 3c 07 a5 d2 3a
       -0.05450677 -0.092741325 0.016933735 0.001607091
0002c0 03 49 61 bd 30 ba 22 bc 5a ff 95 bc e3 ce 87 bd
       -0.05500127 -0.009932086 -0.018310238 -0.066312574
0002d0 16 4d 0e be 43 b6 56 bd e2 ac 7a bd e2 40 6e 3d
       -0.13896593 -0.052419912 -0.06120003 0.058167346
0002e0 ac 7f b2 bd c7 46 03 3d d4 36 09 be c3 8c 2f bd
       -0.08715758 0.03204992 -0.13399822 -0.04285885
0002f0 35 fe 00 bc 74 62 9f 3c e2 2a f2 bd 7b 41 06 bd
       -0.007873108 0.019456126 -0.118245855 -0.03277729
000300 75 8c 97 bd 19 78 0c be 02 87 b8 bc a3 f2 df bd
       -0.07399837 -0.13717689 -0.022525314 -0.10934951
000310 f5 bc ab bd 75 99 e7 bd 22 03 4c bd ab 3d 6a bc
       -0.0838565 -0.113085665 -0.049807675 -0.014296929
000320 19 31 92 bb 60 1a a9 bd 43 79 26 3d 86 1a fa 3d
       -0.0044614193 -0.08256984 0.040642988 0.1221209
000330 6f 9b e9 bd d6 18 30 bd 55 fa e1 3d 44 39 33 bd
       -0.114066 -0.042992435 0.11034075 -0.043755785
000340 22 78 f1 bd da 78 4e 3d ed 12 e0 bd 0a d9 86 bd
       -0.11790492 0.05040822 -0.1094111 -0.06584366
000350 f3 ba 0b 3d 95 ae 50 3d 7c ff d0 bd 2c c8 5f ba
       0.034113836 0.050947744 -0.1020498 -0.0008536603
000360 cc 67 4e bc 84 05 92 bd 6b 61 93 bd 01 b9 ba bd
       -0.012597989 -0.07129958 -0.071963154 -0.09117318
000370 dc 5f ba 3d 80 db 41 3d db 7d b2 bd ab 69 13 bd
       0.09100315 0.047328472 -0.08715411 -0.035989445
000380 fb a4 2d 3d 4a c9 a7 bd 17 9b 81 bd 2b 4e d3 bc
       0.042393666 -0.0819269 -0.06328409 -0.02579411
000390 90 05 c8 bc 79 63 f0 bd 0b 02 1b bd bf 25 a1 3d
       -0.024416715 -0.11737723 -0.037843745 0.078685276
0003a0 de 78 d2 3d d4 6a bb bd bc 72 a6 3c 21 16 28 bd
       0.1027696 -0.09151235 0.020318381 -0.04103673
0003b0 16 9d e9 bd 8e 7c 1b 3d 44 5c e2 3b c1 82 13 3d
       -0.11406915 0.03796058 0.0069079716 0.03601337
0003c0 fa 8e 93 3c 2f 1b 8b 3d 9f 52 29 bd a3 60 fc bd
       0.018012512 0.06792294 -0.04133856 -0.123231195
0003d0 bf 03 f5 bd ab 32 e0 bd 89 33 bc bd 09 58 f8 bb
       -0.11963605 -0.10947164 -0.09189517 -0.007578854
0003e0 6f c8 52 3d c2 49 7c bd 4d 0a 85 bc 75 d3 f6 3d
       0.05146068 -0.06159378 -0.016240263 0.12052051
0003f0 01 21 d0 bd 83 17 d6 3d 16 5c 52 3d 17 05 fc bc
       -0.10162545 0.10453703 0.05135735 -0.030764146

rnn.weight_hh_l0 f4 [300, 100]
000000 c0 d7 32 3b 8c e4 d9 bc 23 26 53 3d 7d ba a7 3b
       0.0027289242 -0.026598237 0.051550042 0.0051186667
000010 27 d3 1b bd b2 17 c8 bd 84 8c 60 3d b5 05 9b bc
       -0.038043167 -0.097701445 0.054821506 -0.01892362
000020 6e 12 b9 bd 5d 28 4b bd 07 c2 85 3d 37 18 1d bd
       -0.09036718 -0.04959904 0.065311484 -0.03835317
000030 b9 ba 70 bc 12 f0 ee bd b7 22 f3 3c b0 56 65 bd
       -0.014692956 -0.116668835 0.02967964 -0.055990875
000040 81 60 d5 bb 9f 8d 07 bd 32 2e ae 3c 29 39 11 3d
       -0.0065117483 -0.033094045 0.021262262 0.035454903
000050 a4 d6 8a bd 73 b8 76 bd 46 82 95 3d 6f 9c 81 bd
       -0.06779221 -0.0602345 0.07300238 -0.063286655
000060 24 42 7e 3d ba a6 ad bd e6 71 d2 bc f0 54 15 3c
       0.062074795 -0.08479066 -0.025689077 0.009114489
000070 53 1e 1d 3d 56 d0 75 3b de ae 77 ba 95 8e 91 bd
       0.038358998 0.003750821 -0.00094483595 -0.071072735
000080 c7 66 37 bd ef 04 98 3d 94 59 90 bd d9 a5 b0 bd
       -0.04477575 0.07422816 -0.07048336 -0.08625383
000090 db 38 ba bc 20 9b bd 3d d7 05 f4 3d 27 42 dc bd
       -0.022732189 0.09258103 0.11915176 -0.10754805
0000a0 70 1f 68 bd 6a 94 e1 3d 37 f4 5a bb 51 0a 8f bd
       -0.056670606 0.11014636 -0.0033409724 -0.069843896
0000b0 4a 0c a5 bd f3 0e 33 3b 49 25 a8 3d a6 15 f2 bd
       -0.080589846 0.0027322143 0.082102366 -0.11820535
0000c0 0e a7 8b 3d ef 0e 37 3c f0 f4 57 3d 6a 16 98 bd
       0.068189725 0.011172994 0.052723825 -0.0742615
0000d0 0b ca a8 3d 89 be 2b 3d 22 9c 00 bc 43 ce bf bd
       0.08241662 0.041929755 -0.007849725 -0.09365513
0000e0 f1 87 2a bd 8a 46 6f 3d 7a fe fa 3c e0 88 7d bd
       -0.04163355 0.05841688 0.030638922 -0.061898112
0000f0 37 3f e3 3c 3e 1d c2 bd 80 d2 2a bd 73 3a a9 bd
       0.027740104 -0.09478234 -0.041704655 -0.082631014
000100 5b 3c 64 3d dd 12 8c bd 7f bc 78 bb a2 4a 01 bd
       0.055721622 -0.068395354 -0.003795415 -0.031565316
000110 47 6b 8e 3d 27 5f 97 3c f9 5a a6 3d e0 46 95 3d
       0.06954055 0.01847799 0.081228204 0.07288909
000120 b9 2b b6 3c 46 d4 01 bd 31 0c 39 3d da a3 5b 3d
       0.022237645 -0.03169658 0.045177642 0.053623058
000130 3b f6 de bb d9 39 8c bd 5f 10 a0 3d 1e b5 8a 3d
       -0.0068042553 -0.06846971 0.078156225 0.067728266
000140 a7 25 68 3d ff 8d 84 3d af 0d 87 bd e5 9d 06 3d
       0.056676533 0.06472396 -0.06594407 0.032865424
000150 c2 ea d2 bb 4a 83 2c 3d 88 be 27 bd ac 5b c6 bd
       -0.0064366767 0.042117395 -0.04095319 -0.09685454
000160 bd 50 e5 3c ee ca 67 3c 84 d3 c1 3d 70 e6 40 bd
       0.0279926 0.014147503 0.094641715 -0.047094762
000170 3a aa 5e 3d af 87 e4 bd d4 67 d5 3d ef c1 89 bd
       0.05436156 -0.11158692 0.10420194 -0.06726443
000180 36 e2 85 3d 28 f0 2a bd 1f 50 f4 bc 21 d7 29 3c
       0.06537287 -0.041732937 -0.029823361 0.010366232
000190 92 d9 9a bd 30 79 2f bd 23 5e 5c 3c fb 99 83 3d
       -0.075610295 -0.042840183 0.013450178 0.06425854
0001a0 42 15 54 bd 9d 25 75 bd 04 3a cc 3d 75 ee 38 bd
       -0.051778086 -0.059850324 0.09972003 -0.045149285
0001b0 1b 2e 20 bd 2b d3 b3 bc b0 38 a7 3d 73 73 c3 bb
       -0.03910647 -0.021951279 0.08165109 -0.0059646904
0001c0 f7 21 64 bb ba a1 af bc 34 39 99 bc 32 e9 8b 3c
       -0.0034810284 -0.021439422 -0.018704034 0.01707897
0001d0 06 e7 0c bd 62 00 7d bd e1 34 ab bd ad 6e 34 bd
       -0.03440001 -0.061767943 -0.08359695 -0.04405086
0001e0 e1 2d 9e 3c 2f 69 b9 3c a0 1c 08 bd 65 90 46 bd
       0.019308986 0.022633163 -0.033230424 -0.04847755
0001f0 c1 d3 55 bc 7c 89 00 bd 78 46 09 bd 39 da 85 3d
       -0.013050974 -0.031381115 -0.03351447 0.06535763
000200 41 8d c1 bc 4b d1 9a bd 4f 86 a4 3d 14 c0 a8 3d
       -0.023626925 -0.07559451 0.0803343 0.08239761
000210 b3 40 bb bc 08 45 9e bd d4 54 1b bd 33 c4 c8 bd
       -0.022858 -0.077280104 -0.037922695 -0.09803047
000220 40 ce e0 bd 39 18 60 3d 69 02 c5 bc 0d cb be 3d
       -0.10976839 0.0547106 -0.024049 0.093160726
000230 42 9e 00 3d 00 14 86 bc 0b 90 23 bd 67 2f 1b 3d
       0.031400926 -0.016366959 -0.039932292 0.037887003
000240 5b 5d b9 bc 98 6b 47 bd 69 f7 d5 bd 4c fe ba bd
       -0.022627523 -0.048686594 -0.1044758 -0.091305345
000250 e1 3f 94 3d d1 1c b9 bd f7 f3 db bd 0f 4b ac 3c
       0.072387464 -0.090386994 -0.10739892 0.021031884
000260 ab 8d ac bd 55 1d dd 3d d5 e0 8d 3c a3 7b b5 bc
       -0.084254585 0.1079661 0.017319122 -0.022153681
000270 a0 c0 8c 3b 1e dd 81 3d be ed 8b bd 4e 07 ea bd
       0.0042954236 0.06341003 -0.06832455 -0.114271745
000280 c7 36 f1 bb aa fd f2 bc 0d 92 0c bd 09 5d 81 bd
       -0.0073612663 -0.029661972 -0.034318972 -0.06316573
000290 24 b3 18 bd e0 66 4d 3d 60 44 b6 bb 16 50 78 b9
       -0.037280217 0.050146937 -0.00556235 -0.00023680957
0002a0 29 e6 d5 bd 34 4b aa 3d a8 2e 8e bd 0d 63 24 bc
       -0.1044429 0.08315125 -0.06942493 -0.010033381
0002b0 5d 0e 85 bd a3 e4 a5 bd b9 6f a2 bd dc f2 a3 3c
       -0.0649688 -0.081002496 -0.07931466 0.020013265
0002c0 e5 56 4c bc 53 ed 2f 3d c0 18 30 3d 02 1b 9e bd
       -0.012471889 0.04295094 0.042992353 -0.07719995
0002d0 6e 07 d0 bd f7 cc aa 3d 11 02 71 3d 95 68 44 bd
       -0.10157667 0.08339875 0.05883986 -0.0479513
0002e0 a0 ad ae bd 04 e8 e9 3d 48 41 8b ba d1 6b b9 3c
       -0.0852921 0.114212066 -0.0010624314 0.022634419
0002f0 0e 22 c7 bc 27 10 cf 3d 64 4b 10 3d 4f c5 5f 3b
       -0.02430823 0.10110503 0.035228148 0.0034144705
000300 e6 02 fd 3c c5 a6 1c 3d 62 9b c9 3c 4e 1d c4 bd
       0.030885171 0.03824498 0.024610225 -0.09575902
000310 03 7d 93 bd aa 90 80 3c cb 1a 7a 3d 5e b6 07 3d
       -0.072015785 0.015693981 0.061060708 0.033132903
000320 d2 d7 b2 bd 05 fe 51 3d 82 c8 ab 3d d7 be 7b 3d
       -0.08732571 0.051267643 0.08387853 0.061461296
000330 ab de de bd d5 d0 84 bd 4e 34 9f 3d 01 85 87 bd
       -0.10882314 -0.06485144 0.07773648 -0.06617165
000340 e6 0f 84 bd 53 51 d3 3d 67 98 a7 bd c5 9b ab bd
       -0.06448345 0.10318246 -0.08183365 -0.0837932
000350 f8 94 d2 3d df 18 07 bd d5 59 e2 bd bc 71 ee 3c
       0.1028232 -0.032982703 -0.1105229 0.029106967
000360 f0 8c 95 bc 75 a7 26 bd ab 65 21 bd b9 61 d7 bd
       -0.01825568 -0.040687043 -0.0394036 -0.10516686
000370 4e 38 4a bd 27 a1 b6 3d fc 29 28 3d 14 fe 2c bd
       -0.049370103 0.08917456 0.041055664 -0.042234495
000380 61 86 98 3c 47 c4 4a bd 4b b0 6f 3d 9d f1 72 3d
       0.018618764 -0.04950359 0.058517735 0.05931245
000390 d0 b8 3e 3d c5 c8 55 3d ad 11 34 bd ce 0c b6 3d
       0.04656297 0.052193422 -0.04396217 0.08889161
0003a0 9d 11 15 3b 16 e8 68 3c f0 55 8c 3d dc d2 bd bd
       0.0022746094 0.01421549 0.06852329 -0.09268734
0003b0 bc 58 13 bd 4e 5a db bc a5 8c 94 3d fe 6c f7 3d
       -0.035973296 -0.026776459 0.07253388 0.120813355
0003c0 cb 63 b3 3d d2 cb 60 3d 05 dd 93 bd 2b 06 76 bd
       0.087592684 0.05488188 -0.072198905 -0.060064476
0003d0 13 27 17 3d eb 21 15 bd 07 fd c3 bc 91 69 88 3d
       0.0369025 -0.0364093 -0.023924364 0.0666076
0003e0 89 31 d3 3d 34 26 e8 3c 72 3d 47 bc ac c3 91 bd
       0.103121825 0.02833853 -0.012160646 -0.071173996
0003f0 bb d8 3c bd 4c 53 f8 bc 5e 0c 06 bd 93 a4 18 3d
       -0.046105128 -0.030313157 -0.032726638 0.037266325

rnn.bias_ih_l0 f4 [300]
000000 ae f0 df 3c 44 8b 79 3d 7e cd 2a bd 61 f7 27 bd
       0.027336445 0.06092383 -0.04169988 -0.041007403
000010 07 5e 64 bc 29 d3 bc 3c 7b a3 50 bd 75 c7 a2 bc
       -0.0139384335 0.023049908 -0.050937157 -0.0198705
000020 7b cb 18 bd 9d c4 43 bd b8 2b 86 3d fe da a9 3d
       -0.03730343 -0.047794927 0.065513074 0.082937226
000030 e1 40 d0 3c 83 bb d3 bc ca aa af bd 82 a1 be 3d
       0.025421562 -0.025846248 -0.08577497 0.09308149
000040 36 15 90 bd 40 c3 cd bc ab 94 52 bd 4d 38 90 bd
       -0.07035296 -0.025117517 -0.051411312 -0.070419885
000050 68 a0 64 3d d8 25 a3 bb ac a4 a0 3d 6c 28 5a 3d
       0.055817038 -0.0049788766 0.07843909 0.053261206
000060 56 dc 79 3c 36 18 b9 bd 39 ea 4f bd 0e df b5 3d
       0.015250286 -0.09037821 -0.05076048 0.08880435
000070 60 21 b9 3c 05 54 a8 3c ce 22 52 3d 5f d6 b1 3d
       0.022598922 0.020547876 0.051302724 0.08683466
000080 b8 5b 32 bd da f2 05 3d 50 34 ef 3d f8 68 93 b9
       -0.0435445 0.032702304 0.116799 -0.00028116233
000090 70 db 1a bb 96 59 62 bd 64 fd e6 3d a7 e1 33 3d
       -0.002362933 -0.055261217 0.11278799 0.04391637
0000a0 06 49 3b 3d 07 13 59 3b c4 11 bf 3b bf 2f 70 bc
       0.045723937 0.0033122913 0.0058309752 -0.014659821
0000b0 03 62 19 bc 7d 29 5e bd 53 50 c1 bc 36 cc 98 3d
       -0.009361747 -0.054238785 -0.023597872 0.07460825
0000c0 8d 2a 3b 39 cc 30 4e 3d 20 c1 c0 3d 83 8e 4d bd
       0.00017849561 0.050339505 0.09411836 -0.050184738
0000d0 49 f0 a6 3d ea 5d d7 3d e8 3a 2a bd 93 b1 02 3d
       0.081512995 0.105159596 -0.041560084 0.03190763
0000e0 6f 6d 91 bd b4 cf 47 3d bc 83 98 bd 82 57 61 3d
       -0.07100951 0.048782066 -0.07447001 0.055015095
0000f0 d2 52 a1 bc 16 ec e6 3b c6 eb 22 bd 2f 78 9f bb
       -0.019692812 0.0070471866 -0.039775632 -0.004866622
000100 e5 ab d8 ba a4 30 3b 3d dc 3f aa bd 1e a1 fc bc
       -0.0016530721 0.045700684 -0.083129615 -0.030838545
000110 52 e6 bc 3d 9b 82 9a 3d 14 3c e9 3c e3 c6 4b bd
       0.092236176 0.07544442 0.02847103 -0.04975022
000120 88 a4 a8 bd d7 93 8a bd ba bd 2b 3d 29 c5 73 3a
       -0.08234507 -0.067664795 0.041928984 0.00092990935
000130 24 ef 86 bd db d7 0e 3d 3c 14 61 bd f5 7c 3a 3d
       -0.06588581 0.034873825 -0.054950938 0.045529325
000140 e2 90 8d 3d 8b 99 89 bd 64 50 df 3c ff 5b d4 bc
       0.069124 -0.06718739 0.027260013 -0.025922773
000150 39 9f 98 bd 52 9d d6 bc 59 c3 d5 bc f2 ec af bd
       -0.07452244 -0.026198063 -0.026094126 -0.085901156
000160 b8 c1 31 3d e3 d7 96 bd 6d 3c b5 bd 24 21 f4 bc
       0.043397635 -0.07365396 -0.08849416 -0.029800959
000170 a5 ca c1 3c 79 12 c6 3d 6f 1a c8 3d a7 af 6c bd
       0.023656199 0.09671492 0.09770667 -0.057784703
000180 7c 66 bd bd bb b8 c8 3d f0 f7 2a 3d 75 1e d6 3d
       -0.09248063 0.098008595 0.041740358 0.10455028
000190 ee 9c 80 bd 73 7e 20 bd 44 cb 34 3d 3d 1b 9b bd
       -0.06279932 -0.03918309 0.04413916 -0.07573555
0001a0 6a be 27 be af a7 27 3c 30 73 23 be c6 6b e3 bd
       -0.16381231 0.01023285 -0.1596191 -0.111045405
0001b0 e0 bc 2a be de aa b3 bd 64 e9 3d bd e3 9d 3d be
       -0.16673613 -0.08772825 -0.046365157 -0.1851726
0001c0 a5 27 2b be d4 9f 0d bd 72 d1 c7 bd 3f d3 8a bd
       -0.16714342 -0.034576252 -0.097567454 -0.06778573
0001d0 e8 78 e5 3c 49 f8 92 3c d4 97 37 be 04 2e f1 bd
       0.028011754 0.017940657 -0.17929012 -0.11776355
0001e0 2d a7 14 be 10 b6 a1 bd 6c cc d6 bd 28 51 d9 3b
       -0.14516897 -0.07896054 -0.10488209 0.006631989
0001f0 b6 4e 40 bb 38 70 09 3c 5e ac 9d 3d 7a 68 a9 3d
       -0.002934379 0.008388571 0.07698892 0.082718804
000200 95 4a ba 3c 7e a4 56 bd 4a a3 f1 bd 34 ab 9e bb
       0.022740642 -0.052402966 -0.11798723 -0.0048421863
000210 11 58 aa bd 6b 40 f7 bd 1a 8f 74 3d 34 2a 86 bd
       -0.083175786 -0.120728336 0.059706785 -0.06551018
000220 ed a8 14 be 39 a8 19 be 6a 09 f8 bd 20 3f 72 bc
       -0.14517565 -0.15005578 -0.121111706 -0.014785558
000230 a6 0a fc bd 20 e0 06 be e7 79 1c be 7e 6d 20 be
       -0.123067185 -0.13171434 -0.15280877 -0.15666768
000240 d9 c1 12 be 87 d5 0a be 07 d6 1a be 20 03 19 bd
       -0.1433176 -0.13558017 -0.15120707 -0.037356496
000250 4b 1c 05 be 56 a3 03 bd 9b 14 4b 3c 7d 28 28 be
       -0.12999074 -0.03213819 0.012395049 -0.16421695
000260 5e 11 66 bd 52 e7 cd bd 40 76 05 be 0c b7 a2 bd
       -0.056168906 -0.100538865 -0.1303339 -0.0794507
000270 3e 0d 09 bd 8d 81 b0 bc 02 91 94 bd c8 b7 a7 bd
       -0.033459894 -0.02154615 -0.072542205 -0.0818935
000280 dd 58 2e be d1 68 94 3d 40 d0 1c be 42 72 4e bd
       -0.17026086 0.07246555 -0.15313816 -0.050401933
000290 69 d5 5a 3d 35 33 32 be 77 f7 ea ba c7 13 1f be
       0.05342618 -0.17402346 -0.0017926533 -0.15534888
0002a0 4b c6 a9 bd 1e 80 b0 bd 02 ed 20 be 85 8a 67 bd
       -0.082897745 -0.086181864 -0.15715411 -0.056528587
0002b0 ff cb 75 3d 8a d3 ad 3c 35 90 a5 bc 63 b7 c8 3c
       0.060009 0.021219034 -0.020210365 0.024501508
0002c0 39 43 c8 bd 63 4c bb bd ea e1 d2 3c 89 ab 33 be
       -0.09778447 -0.09145429 0.02574249 -0.17545904
0002d0 5c 01 d3 bd 46 37 ff bd 7e e4 04 be a5 86 91 bd
       -0.10302994 -0.124617144 -0.12977788 -0.071057595
0002e0 9c 35 9f bd 2f 8c 25 3d d0 d8 a4 bd f4 d9 40 bd
       -0.07773897 0.040416893 -0.08049166 -0.047082856
0002f0 0d e8 bf bd 5c d7 9e bd 36 89 84 bd e7 d8 87 bd
       -0.09370432 -0.0775592 -0.064714834 -0.06633168
000300 b7 c0 c9 bc be d4 9e bb e7 a8 e8 bc 97 f0 85 bb
       -0.024628026 -0.004847138 -0.028400851 -0.0040875184
000310 25 69 9b 3d 36 d1 9c bd 4d 4a 73 bc 20 73 e4 bc
       0.07588414 -0.07657091 -0.014849258 -0.027886927
000320 4f b9 8c bd ce 63 84 bc 98 e4 bf bc be 6a eb 3c
       -0.06871282 -0.016160872 -0.023424432 0.028737422
000330 3b 0e b9 3d 9f 95 c9 3c 2f 01 0b 3d c4 e8 1c bd
       0.09035917 0.024607478 0.033936676 -0.03830792
000340 0a 59 be bd f3 27 aa bd ec 69 8a bc 14 b2 e6 3b
       -0.092943266 -0.08308401 -0.01689621 0.0070402715
000350 d6 e9 83 3d b5 f4 a8 bd b7 7f aa 3d 3e 35 ab bd
       0.06441085 -0.08249799 0.08325141 -0.083597645
000360 98 ca 9f bc e5 53 b1 3d 5b 95 af bd 4c 62 20 3d
       -0.019505784 0.0865858 -0.08573409 0.039156243
000370 26 e3 bc 3d ee 9b 18 3d 2b 09 91 bd 75 48 b4 bd
       0.092230126 0.03725808 -0.07081827 -0.088028826
000380 ef 8b 11 3d 03 d0 28 3d 8b 23 2f 3d c4 60 59 3d
       0.03553384 0.041214 0.042758506 0.0530708
000390 87 b0 3b 3d be e7 de 3c 35 82 bc bd f3 65 9d 3d
       0.045822646 0.027210113 -0.092045225 0.07685461
0003a0 42 95 6d bc 61 d1 7e 3c c6 d2 99 bd 51 2f 00 bd
       -0.014500918 0.0155528495 -0.07510905 -0.031295124
0003b0 74 2a 7f 3d 8c 5b 82 bd 96 27 6c 3d 9b 5c 97 bd
       0.062296346 -0.063651174 0.05765494 -0.0739071
0003c0 f9 8d 59 3c 88 49 7e 3d 9d 39 c0 bc f3 b7 97 3d
       0.013278478 0.062081844 -0.023464972 0.074081324
0003d0 06 d1 a5 bc 46 12 1f bc bb 5a 81 bc b0 28 0e bc
       -0.020241272 -0.009708947 -0.015790334 -0.008676693
0003e0 31 45 91 3d 5f df 95 3c 1a d3 c2 bd 17 62 1b 3c
       0.07093275 0.018294988 -0.09512921 0.009483836
0003f0 0b 04 2a bd 4c 23 b6 bd 28 bf 40 3d 19 1a e4 bc
       -0.041507762 -0.08893451 0.0470573 -0.027844476

rnn.bias_hh_l0 f4 [300]
000000 32 3f c9 3d 94 4d d5 bc a0 b1 9a 3d 00 65 b4 bd
       0.09826507 -0.026037969 0.075534105 -0.08808327
000010 dc 4b 9f 3d 1a 52 0f bd 55 4f 28 3d 31 bb d5 bb
       0.07778141 -0.034990408 0.041091282 -0.006522559
000020 6d 54 6f bc 80 2a c8 3d b5 cf 81 3d 04 94 75 bd
       -0.014607531 0.09773731 0.06338445 -0.05995561
000030 98 a4 19 3c 09 69 8a 3d 60 ed 2f 3c 97 93 c5 3d
       0.009377621 0.06758315 0.010737747 0.09647291
000040 fa e1 c7 bc e0 a9 fa bd b2 cc 2f bd 45 7d 86 bd
       -0.024399746 -0.12239432 -0.042919822 -0.06566862
000050 8e 1a 8b bd 8b 8a 41 bd ba 13 9c 3d 07 71 ae bd
       -0.06792174 -0.047251265 0.0762095 -0.08517652
000060 34 69 90 bd d0 6b 98 bb e5 4a 30 3d a2 8d 55 bd
       -0.07051316 -0.004651524 0.043040175 -0.052137025
000070 61 91 86 bd 5b 16 65 bd 54 af a9 bd 18 5d 38 3d
       -0.065706976 -0.055929523 -0.08285394 0.045010656
000080 51 0b 79 3d 6a 97 ea b9 e5 40 27 3d 75 02 22 3d
       0.060801808 -0.0004474477 0.040833373 0.039553124
000090 4f b0 04 3d 82 15 8f 3d b3 e7 6b bd 42 c2 b1 bc
       0.032394703 0.06986524 -0.057594012 -0.021699075
0000a0 dd 80 e7 3c a8 d5 01 bd bc 15 49 3d 11 17 a0 3d
       0.028259689 -0.0316979 0.049092993 0.078168996
0000b0 01 c7 98 3d 87 e9 62 bd 26 ce 94 3c cc 7d e9 3c
       0.07459832 -0.05539849 0.018164705 0.028502367
0000c0 99 0d 63 3d cd 2a f7 3d 83 d5 0f bd cf 6e 75 3d
       0.05543289 0.120687105 -0.03511573 0.05992013
0000d0 ed 8a b3 3d c6 ae b8 bd 14 b7 ed 3c 76 5d 54 bd
       0.08766732 -0.090177104 0.029017963 -0.051846944
0000e0 88 e1 af 3d 09 af 0c bd be 32 db 3b de 43 5d bc
       0.085879385 -0.034346614 0.0066893985 -0.01350495
0000f0 8a 83 c8 3d 99 73 42 bd 26 6d 96 3c d8 e1 80 bd
       0.09790714 -0.047473524 0.018362593 -0.06293076
000100 82 f7 37 bd 66 36 46 3d 11 fe e9 bc de 87 ac bd
       -0.044913776 0.048391722 -0.028563531 -0.08424352
000110 2c 11 68 3c 8c dd 89 bc ad 8b 9a 3d bb a0 a1 3d
       0.01416425 -0.016829275 0.07546172 0.07891985
000120 0a 17 89 bd 4b a0 4c 3c a0 b0 37 bd e2 29 a3 bd
       -0.066938475 0.012489389 -0.044846177 -0.07966973
000130 64 14 23 3d 7a 70 b3 3d d4 57 c6 3c a4 f5 8c 3d
       0.039814368 0.087616876 0.024211802 0.0688279
000140 98 49 9a 3d 05 dc bf bc be 03 bb bc db d0 69 3d
       0.07533568 -0.023420343 -0.022828933 0.057083946
000150 27 21 94 bd f2 93 b3 3d 0f d1 9d 3d 10 ed c6 bd
       -0.07232886 0.08768453 0.077058904 -0.09713185
000160 18 a2 a0 bd ec 5c 33 bd 1f af bb 3d d3 20 12 3d
       -0.07843417 -0.04378979 0.09164261 0.035675835
000170 10 77 2a bd 85 79 6d 3d 79 61 bb 3d 89 c6 73 3c
       -0.041617453 0.05797722 0.09149451 0.014878877
000180 c8 3d 7c bc 73 10 b3 3d 3b e6 76 bd 0f 24 0e bd
       -0.015395589 0.08743372 -0.06027816 -0.034702357
000190 16 6e 1b be 05 e1 c5 bd 3f f0 22 3d 97 3e ba bd
       -0.15178713 -0.0966206 0.039779898 -0.09093969
0001a0 55 ce 37 bc 4b 14 85 3c 60 88 8e bd b7 3e 16 be
       -0.011218627 0.016245028 -0.06959605 -0.14672361
0001b0 c2 aa 84 bd 0f 12 23 bc 08 c4 5b 3c 29 1d 28 be
       -0.06477882 -0.009953036 0.013413437 -0.16417374
0001c0 f2 05 a6 bd 9d 88 f9 bd d0 5d 20 be 5f 4b 4d bd
       -0.08106603 -0.1218426 -0.15660787 -0.050120708
0001d0 b6 45 04 be 85 7b c8 bd 62 d4 9b bd 7d ac 22 bc
       -0.12917218 -0.097891845 -0.07608868 -0.00992882
0001e0 91 71 38 bc 83 92 48 bd b0 a3 d4 ba e6 1e b5 3d
       -0.011257545 -0.04896785 -0.0016223099 0.08843784
0001f0 d3 34 83 bd 57 8b ac bc 18 c8 3a bd d5 60 98 bd
       -0.0640656 -0.021062536 -0.04560098 -0.07440344
000200 ba 91 e3 3d 2d f4 99 bc 18 60 05 be fe 58 c1 bd
       0.111117795 -0.01879319 -0.13024938 -0.09440802
000210 ee 1a 3f be 0b a9 97 bd 39 9e 1c bd 54 7f cf bc
       -0.18662617 -0.07405289 -0.03823683 -0.02532927
000220 a5 14 4c bd 1f bf ce 3b b9 84 18 bd 70 6c 37 be
       -0.049824376 0.0063094045 -0.03723595 -0.1791246
000230 92 79 36 be 77 1b 6d bd 89 5f b4 bc 85 f5 cf 3a
       -0.17819813 -0.05788752 -0.022018211 0.0015866017
000240 8d c0 a7 bd fa af 3a be 17 5b f0 bd 7b 98 2a bc
       -0.08191023 -0.18231192 -0.11736124 -0.010412331
000250 ce a4 25 be 55 3b 1d 3d 06 aa b8 3c 4a c5 13 be
       -0.16176149 0.03838666 0.022542011 -0.14430729
000260 9a 89 c3 bd 8a 34 21 be cd b3 dd bd 27 1e 09 bd
       -0.0954773 -0.15742698 -0.1082531 -0.03347602
000270 e7 7c bb bb ce 73 81 bd 06 0f 1f be e8 51 91 bc
       -0.0057216766 -0.06320916 -0.15533075 -0.017739251
000280 9c 2c 82 bd 67 17 98 3b 75 81 c3 bd cb 34 2e 3c
       -0.06356165 0.0046414617 -0.09546176 0.010632704
000290 94 6a c3 3d f7 b9 01 be ff d6 63 3d dc 6a 16 be
       0.095418125 -0.12668596 0.055624958 -0.14689201
0002a0 94 13 e3 bd 08 a5 7d 3d 06 16 0e be 69 d7 5c 3c
       -0.110877186 0.061924964 -0.13875589 0.013479092
0002b0 d7 9b ee bd bb 12 4b 3d a9 e2 65 3c 04 23 4a 3c
       -0.11650818 0.04957841 0.014031091 0.01233745
0002c0 29 5a ae 3d 5f aa ce bc 2a e5 de bd 4b aa c2 bd
       0.085132904 -0.025227724 -0.10883553 -0.09505137
0002d0 d8 2a 9d 3c 4c 2b fd bd 6a 32 26 be 06 c8 42 3d
       0.019185469 -0.12361774 -0.16230169 0.04755404
0002e0 16 e6 2d be 56 8f 8d bd 30 2b 85 bd fe 76 0d 3c
       -0.16982302 -0.06912105 -0.06502378 0.008634327
0002f0 58 87 0b be 01 f4 60 bc 88 3c db bd af db 5f bd
       -0.13625848 -0.01373005 -0.10704905 -0.054652866
000300 ef e7 11 be e3 b6 91 bd 9d ea e1 bd 8b 00 02 3b
       -0.14248632 -0.07114961 -0.11031077 0.001983675
000310 e6 92 bf 3a 6a aa 60 3c 5d 24 2f be 39 5f 19 bd
       0.0014615923 0.013712505 -0.17103715 -0.037444327
000320 e5 39 88 3d a2 dd c4 bc d4 22 d4 3c a2 b6 ac 3d
       0.066516675 -0.024031464 0.025895514 0.08433272
000330 4b 51 a6 3d d4 10 e6 bc e3 ba a9 3d b6 01 4c 3d
       0.08120974 -0.028084196 0.08287599 0.04980632
000340 81 17 89 3d 1e ca 07 bd 5c ce be bd 7f 24 b8 3d
       0.06693936 -0.03315174 -0.09316704 0.08991336
000350 8c a9 5d bc 65 bc 7e bd ee 5b c6 bd b1 22 9c 3d
       -0.013529193 -0.062191386 -0.09685503 0.07623804
000360 33 38 c7 3c 78 22 5e bd 3f 31 32 bd bd 25 2d bd
       0.02431879 -0.05423209 -0.043503996 -0.04227232
000370 34 ff 1d 3c 7d 74 07 bd 3b 21 5e bd a7 53 a0 3d
       0.009643365 -0.033070076 -0.05423091 0.078284554
000380 ad 02 95 bd 53 a0 88 bd 0e b2 80 bd c9 ab 81 bd
       -0.07275901 -0.066712044 -0.06283961 -0.063315935
000390 17 cb 24 bc 6d 13 c8 bd e9 66 bc bd 22 5d 60 bd
       -0.010058186 -0.0976933 -0.09199316 -0.05477632
0003a0 12 21 bc 3d 38 be a2 bc a6 b4 b3 bd 4a 05 5e 3d
       0.09185995 -0.019866094 -0.0877469 0.054204263
0003b0 17 88 11 bd 68 60 ff 3b e1 f0 b0 3d bd bf cb 3c
       -0.035530176 0.007793475 0.08639694 0.024871701
0003c0 55 22 a3 3d cd 7d 66 ba a3 fb ac 3d ce 28 0f 3d
       0.07965533 -0.00087925495 0.084464334 0.034951024
0003d0 72 cc 43 3d 54 77 46 3d d8 4d 51 bc 95 b0 28 bd
       0.047802396 0.048453644 -0.012774907 -0.041184027
0003e0 4c 55 af bb b9 7b 9c bd da 5e b9 3d 9e 2f a0 bb
       -0.0053507444 -0.07640786 0.090512946 -0.004888489
0003f0 eb af 22 3c a2 2b ba 3d 86 74 4a bd 9f 00 0b bd
       0.009929637 0.090903535 -0.04942753 -0.03393614

linear.weight f4 [1, 100]
000000 41 bd ae bd 3d 0a fa bd 75 27 59 bd 26 df da 3d
       -0.08532191 -0.12208984 -0.053016145 0.106870934
000010 0f 83 7b bd 3e 6e 64 3d e7 51 3d 3d 9f f6 b0 bd
       -0.061404284 0.055769198 0.046220686 -0.08640789
000020 29 84 44 bc d8 3e e5 3d 9f 61 f4 bc 0e 01 cb bd
       -0.0119944 0.11193627 -0.029831706 -0.099123105
000030 3a fd d8 3d 91 68 9c 3d 13 06 e4 bd 05 60 3a 3d
       0.10595174 0.07637132 -0.11133971 0.045501728
000040 3f d8 bf bd c5 9e cb bc fe 8e a8 bd 3b fa 87 3c
       -0.093674175 -0.02485598 -0.082303986 0.016598811
000050 d8 b8 da 3d 6a b9 8e 3d 53 2f 08 bd 52 ba 84 3d
       0.106797874 0.06968959 -0.033248257 0.0648085
000060 67 dc 24 bc a2 cf 0c bc db 0b 84 3d 1c 13 71 3d
       -0.010062314 -0.008594425 0.06447574 0.058856115
000070 42 cf fd 3c 58 82 49 bd 8f fc 21 bd 93 7c e1 3c
       0.030982617 -0.04919657 -0.0395475 0.027525222
000080 5a 9e 9d 3d 3f 1d f2 bd 3e 3d ad bc 62 29 47 3d
       0.07696219 -0.118219845 -0.021147367 0.04862345
000090 0e 05 c3 bd 25 36 00 3e b6 52 a0 bd b3 86 4a 3d
       -0.095224485 0.12520654 -0.07828276 0.049444865
0000a0 4e cc ec 3d 6f 6b 65 3c 28 59 b3 bd 7a f8 51 bd
       0.115624055 0.014002665 -0.087572396 -0.051262356
0000b0 4e 0d b1 bd d6 fb c2 bd 2a 13 ca bd c8 dd 0f bd
       -0.08645116 -0.0952069 -0.098669365 -0.035123616
0000c0 c6 bc 1f 3d 84 5a a0 3d 10 a9 9e bd ad 92 be 3d
       0.038998388 0.078297645 -0.0774709 0.0930532
0000d0 f3 cb dc bd 01 60 b4 3d 48 ef 77 3d e4 2a c8 bd
       -0.10781088 0.08807374 0.06053093 -0.09773806
0000e0 78 12 d3 3d 0a 47 d9 3d 08 9a d1 bd 0e 05 81 bd
       0.10306257 0.10609253 -0.10234457 -0.06299792
0000f0 f2 db 73 3d 43 b1 81 bc 1a 6e 8b bd 30 a9 fa 3d
       0.059535928 -0.015831595 -0.068081096 0.12239301
000100 93 4a 63 bc 81 30 d4 bd de f9 2b 3d f9 96 e3 3d
       -0.01387276 -0.10360814 0.04198634 0.1111278
000110 93 4e 43 bd 26 d0 6c bd 3c 73 9f 3d 95 1b 75 bd
       -0.047682356 -0.057815693 0.07785651 -0.059840757
000120 91 67 29 bd 1f 77 5a 3d 07 a1 00 3d 77 f7 46 3d
       -0.041358534 0.05333626 0.031403568 0.048575845
000130 6a 01 2d 3d 49 3c 99 3d 5a b8 86 bd b3 9e c7 3d
       0.042237677 0.074822016 -0.06578131 0.09747066
000140 b4 f9 3a bc 6e c3 9f 3c 7a 73 b2 bd 5f 76 60 bc
       -0.011412073 0.019502368 -0.08713432 -0.013700097
000150 94 9f e5 3c a6 a8 7b bd 01 c3 11 bd 92 2c 71 3d
       0.028030194 -0.061440133 -0.03558636 0.058880396
000160 7b 1c da bc b8 50 9f 3d de c6 0d 3c 7c e2 8b 3c
       -0.026624909 0.07779068 0.008653371 0.01707577
000170 d5 78 26 3d 1c 86 85 bd 9d 7d 99 3d 1f c3 a4 bd
       0.04064258 -0.0651972 0.07494662 -0.08045029
000180 ca 84 71 3d f6 79 76 3d b2 65 88 3d 4b 35 06 bd
       0.05896453 0.060174905 0.06660022 -0.032765668
