backend/trained_models/HBL_GRU_model_state_dict.pth (torch, 126714 bytes, 5 tensors)

rnn.weight_ih_l0 f4 [300, 1]
-0.0270179 0.03447187 -0.05628537 -0.07293551 0.10353013 -0.047537997 0.060215294 0.01629863
0.05301754 -0.0069734543 -0.07111314 -0.008616188 0.1037285 0.043101907 -0.065648206 0.05107446
0.0553415 -0.074646086 0.05660723 -0.06785582 -0.041458588 -0.03228451 -0.047753118 0.04792696
-0.026209608 -0.07186447 0.10956451 0.024709366 -0.0058814175 -0.05060135 -0.07715949 0.061110966
0.018550625 -0.0082774125 -0.055989943 0.052393995 -0.04093283 -0.08030166 -0.039704613 -0.065129876
0.046770394 -0.0391537 -0.06555029 0.011377492 -0.022338906 0.07839372 0.067067266 0.030098615
0.017906968 0.0938657 0.11039427 0.01276403 0.052025475 0.0018937704 0.034418974 0.09850158
-0.043423377 -0.048738237 0.001258608 0.04354775 0.087536775 -0.0695025 -0.06744111 -0.05844381
-0.106649905 0.051500127 0.123061016 0.1055956 0.037625972 -0.009508648 0.042744096 -0.09172604
0.045291625 0.048596777 0.035331074 0.09563351 -0.047238316 0.08448594 0.047619946 -0.08807858
0.091786265 0.03413977 0.09983833 -0.018474637 0.032748826 -0.047118448 -0.057809934 0.0978627
0.052993864 -0.04166877 0.048574418 0.089198366 0.087007225 0.054669313 -0.050816905 0.053324398
0.100971304 -0.06839651 0.084177755 -0.04417887 -0.14503738 -0.050939206 -0.1445582 -0.12966834
0.037742283 0.03824193 -0.06395854 -0.05713998 -0.050353087 -0.10514456 -0.025848715 -0.16538629
0.010941254 -0.018724862 -0.09952324 0.048550867 -0.07752567 -0.14471485 -0.044902682 -0.09224846
-0.0586075 -0.1419302 -0.08781695 -0.06259329 -0.055720862 -0.025606904 0.00094536715 -0.0864376
-0.07049984 -0.065249704 0.028993368 -0.10912105 -0.14847538 0.040033866 -0.09694465 -0.013603601
-0.113125056 -0.037729032 -0.026339997 0.052481 -0.030103099 -0.043028053 -0.00842552 -0.040976245
-0.020030877 -0.005500414 -0.016877566 -0.07994484 -0.075227246 -0.107148506 0.018649967 0.022390084
-0.0838604 -0.10496424 0.07385917 -0.11695872 -0.043321993 0.043132477 -0.066266134 -0.06977505
-0.0007552526 0.060956415 0.065758854 -0.15682912 -0.11078519 -0.15191315 -0.05323025 -0.08313178
-0.11802445 0.064679846 -0.07916946 -0.11136075 -0.032656193 -0.11210901 0.0023511106 -0.11111155
0.052187137 -0.040712338 -0.17589705 -0.0567316 -0.12732315 0.012112855 -0.00986239 0.004019725
-0.120987706 -0.11456569 -0.0066300095 -0.043711074 -0.07460224 -0.015820675 -0.043974258 -0.061549887
-0.054658648 0.026995864 0.0004370075 -0.014698806 -0.11721127 -0.06555541 -0.075956 -0.019947685
0.09992475 -0.04831123 -0.09020338 0.11557688 -0.0049114604 -0.11007928 -0.01307405 0.039712213
0.10989952 0.0726854 0.06413059 0.055973057 0.0933172 -0.078340694 -0.004203534 -0.010376
0.07902365 -0.12541093 0.06214704 0.088980235 -0.09997831 -0.07304228 -0.115909785 0.024832157
0.050819054 -0.040770967 0.010132767 -0.02125854 0.03134461 -0.03928817 0.06215045 -0.04423222
-0.11361288 -0.044005256 -0.11791463 0.030593071 -0.045716178 0.114198044 -0.050106574 -0.09067273
-0.009714737 -0.04184615 0.08729564 -0.009180447 -0.02737006 0.029987268 0.05810965 0.12604122
0.02493654 0.034136288 0.05272693 0.06152234 0.034679312 0.03184517 0.0830951 -0.040124953
00000000: a554 ddbc 6032 0d3d 7d8b 66bd 365f 95bd
00000010: 9b07 d43d 34b7 42bd 50a4 763d b484 853c
00000020: ec28 593d 9381 e4bb c4a3 91bd e92a 0dbc
00000030: 9c6f d43d a08b 303d 9172 86bd 7433 513d
00000040: c5ad 623d 0ce0 98bd fcdc 673d fef7 8abd
00000050: 7bd0 29bd c33c 04bd c698 43bd 0f4f 443d
00000060: 88b5 d6bc ae2d 93bd 5c63 e03d 4c6b ca3c
00000070: e8b8 c0bb 5c43 4fbd cb05 9ebd 7e4f 7a3d
00000080: 7bf7 973c fc9d 07bc b655 65bd 169b 563d
00000090: 2fa9 27bd 3275 a4bd 4ea1 22bd d062 85bd
000000a0: 5092 3f3d a15f 20bd 3b3f 86bd a968 3a3c
000000b0: 1500 b7bc e38c a03d 905a 893d 5f91 f63c
000000c0: a2b1 923c a93c c03d 6416 e23d 3920 513c
000000d0: aa18 553d 6438 f83a e9fa 0c3d 32bb c93d
000000e0: b6dc 31bd bfa1 47bd e0f7 a43a 205f 323d
000000f0: 7b46 b33d 5457 8ebd 911e 8abd c762 6fbd
00000100: 446b dabd ccf1 523d 6a07 fc3d 8242 d83d
00000110: b11d 1a3d 29ca 1bbc 6f14 2f3d ddda bbbd
00000120: b683 393d 6a0d 473d 51b7 103d 80db c33d
00000130: f77c 41bd f706 ad3d 220d 433d 8b62 b4bd
00000140: 70fa bb3d 25d6 0b3d 0a78 cc3d 1f58 97bc
00000150: a223 063d 46ff 40bd 1cca 6cbd 3d6c c83d
00000160: 1810 593d dfac 2abd f8f5 463d a2ad b63d
00000170: d830 b23d eeec 5f3d 6325 50bd af6a 5a3d
00000180: 0bca ce3d 7813 8cbd 6365 ac3d e7f4 34bd
00000190: ae84 14be a1a5 50bd 1107 14be c7c7 04be
000001a0: a797 1a3d 92a3 1c3d b2fc 82bd 9d0b 6abd
000001b0: 0a3f 4ebd 0856 d7bd afc0 d3bc 065b 29be
000001c0: f242 333c e264 99bc d7d2 cbbd 46dd 463d
000001d0: c7c5 9ebd 2130 14be e0eb 37bd c3ec bcbd
000001e0: 6b0e 70bd 2656 11be 60d9 b3bd e930 80bd
000001f0: 8f3b 64bd 92c5 d1bc 84d2 773a 3206 b1bd
00000200: 3862 90bd a3a1 85bd 8083 ed3c db7a dfbd
00000210: ee09 18be 8dfa 233d eb8a c6bd a3e1 5ebc
00000220: 1cae e7bd c289 1abd fac6 d7bc 51f6 563d
00000230: c69a f6bc 2f3e 30bd 310b 0abc b5d6 27bd
00000240: cb17 a4bc d13c b4bb d242 8abc 1fba a3bd
00000250: be10 9abd ad70 dbbd d1c7 983c 696b b73c
00000260: 00bf abbd 7ef7 d6bd 7a43 973d 0e88 efbd
00000270: 6772 31bd aeab 303d 8ab6 87bd 39e6 8ebd
00000280: 25fc 45ba 6fad 793d 94ac 863d d097 20be
00000290: 58e3 e2bd 1f8f 1bbe f607 5abd ff40 aabd
000002a0: ceb6 f1bd de76 843d 9923 a2bd 1b11 e4bd
000002b0: 80c2 05bd 6999 e5bd 1715 1a3b 748e e3bd
000002c0: 2ec2 553d fbc1 26bd 5b1e 34be 655f 68bd
000002d0: 0061 02be ff74 463c dd95 21bc e6b7 833b
000002e0: 67c8 f7bd 6ba1 eabd 8d40 d9bb 620a 33bd
000002f0: 0fc9 98bd 5c9a 81bc 5a1e 34bd bc1b 7cbd
00000300: bfe1 5fbd 6e26 dd3c 271e e539 43d3 70bc
00000310: 760c f0bd ea41 86bd d28e 9bbd 5469 a3bc
00000320: 59a5 cc3d ffe1 45bd 8dbc b8bd 92b3 ec3d
00000330: 51f0 a0bb 3f71 e1bd 8a34 56bc 46a9 223d
00000340: 0013 e13d 15dc 943d e656 833d 0144 653d
00000350: 171d bf3d 1671 a0bd cdbd 89bb 1900 2abc
00000360: 27d7 a13d b96b 00be e58d 7e3d 453b b63d
00000370: 6ec1 ccbd 3197 95bd 1c62 edbd cf6c cb3c
00000380: a427 503d 75ff 26bd e803 263c 6426 aebc
00000390: 3563 003d a2ec 20bd 7891 7e3d d82c 35bd
000003a0: dfad e8bd db3e 34bd 3a7d f1bd 529e fa3c
000003b0: e340 3bbd aae0 e93d 8d3c 4dbd a0b2 b9bd
000003c0: 8f2a 1fbc de66 2bbd 0ec8 b23d 9669 16bc
000003d0: 2d37 e0bc dca7 f53c 6204 6e3d f310 013e
000003e0: b747 cc3c 7ed2 0b3d 31f8 573d d9fe 7b3d
000003f0: e50b 0e3d 1570 023d c42d aa3d 105a 24bd

rnn.weight_hh_l0 f4 [300, 100]
-0.00040042703 -0.02706672 0.07841043 -0.04907005 0.0069881994 -0.084691636 -0.01980687 -0.0727854
0.050970748 0.09946189 -0.08549724 0.04708796 0.11493 0.04524846 0.033770185 -0.03752499
-0.07441573 -0.030874634 0.088079095 0.053252593 0.0870079 -0.10352913 0.0747627 0.037933394
0.10977955 -0.0475351 0.02700166 -0.08765678 -0.08076321 -0.068828195 -0.0017654028 -0.05648961
0.08572222 0.006001826 0.07208016 -0.040174674 -0.059707012 -0.02434022 -0.0074632294 -0.09718609
0.070223965 -0.04001296 -0.012764498 0.058587123 -0.024088303 -0.054455537 0.10786262 -0.0564054
0.09978474 -0.018162351 -0.03837667 -0.017097423 -0.090501085 0.073306546 -0.05301219 -0.0006049482
-0.10121902 0.035174437 0.06957149 -0.04507138 -0.062708534 -0.02163238 -0.003597919 -0.045747176
-0.040322043 -0.08304903 -0.07836283 0.072474375 -0.076742806 -0.032173596 -0.034919973 -0.075462684
0.022135388 -0.051279165 0.015532727 0.02261042 -0.07615704 0.081339635 -0.072440706 -0.038217317
0.03704074 0.08079291 -0.053669352 0.011866033 -0.08010719 -0.08199509 0.034803215 -0.031919304
0.119606934 -0.081964016 -0.029869528 0.015427874 0.020048255 -0.039202675 -0.10748252 -0.077307045
0.030202208 -0.06340118 0.072216384 -0.049211543 0.06602754 -0.07639961 0.02688305 0.10595949
-0.094960995 0.022512795 0.0041380012 0.056059994 0.102307424 -0.080280975 0.03327642 0.076065674
-0.022756439 -0.04270957 0.025730597 -0.069498226 0.0041494216 -0.054655295 -0.050284993 0.056676712
0.06331782 0.006974596 0.051013518 0.0046774046 -0.046244144 -0.043286216 0.047686763 -0.0331946
-0.041514438 0.013349867 -0.0035766468 -0.028514907 -0.08207004 -0.052068003 0.052938335 0.104280956
0.009876144 0.05760409 -0.005069194 0.03732084 0.04657864 0.06630716 0.083209395 0.05679721
-0.059699737 -0.052818336 0.021707991 -0.008269308 0.034507606 -0.0023847292 0.061090168 0.05117127
0.08196005 -0.024758393 -0.01110013 -0.006896055 -0.08058384 0.0127024045 -0.062043965 0.094263114
-0.024277702 0.06268721 0.014292523 0.018421056 0.040967654 -0.08194411 -0.009978979 -0.02674835
-0.04992757 0.06831533 -0.054271158 -0.058538236 0.012941253 -0.05165572 -0.05442773 0.07395002
0.08768301 -0.070716515 0.069031134 -0.00026526814 0.023325568 -0.084311046 -0.07325486 0.06713401
0.01592344 -0.03250911 0.07422616 -0.08351038 0.030096399 0.100555055 -0.029695718 0.07523681
0.052876104 0.05087174 0.058696676 0.040094815 -0.046414305 0.03735922 -0.06277572 0.020879311
0.025228195 -0.041805107 0.02691658 -0.007907653 -0.06704375 -0.122399375 0.031225283 -0.0022756048
0.044742998 0.01912722 -0.075752504 0.08752403 0.0077628377 -0.12099167 0.060590427 -0.06409867
0.067625575 -0.10300931 0.044084784 -0.07516184 -0.115885705 -0.09179515 0.07387475 0.050733678
0.027975403 0.081726745 0.07668305 0.02901613 -0.0705022 0.021987287 -0.0027127096 -0.09540144
-0.0013462205 -0.05314356 -0.062967464 0.10002911 -0.10850661 0.12636755 0.06538919 -0.061287735
-0.06765505 0.024539627 -0.041493908 -0.055654984 -0.0025738513 -0.036815885 0.042171467 -0.02369731
0.056054592 0.04555625 -0.014131699 0.024816042 -0.072476834 -0.03631706 0.09806854 0.06123767
00000000: 68f0 d1b9 07bb ddbc a695 a03d adfd 48bd
00000010: 44fd e43b cf72 adbd 0442 a2bc 8310 95bd
00000020: b4c6 503d adb2 cb3d 2d19 afbd 4edf 403d
00000030: 6b60 eb3d 7356 393d 9b52 0a3d ceb3 19bd
00000040: 4667 98bd cdec fcbc d062 b43d 641f 5a3d
00000050: 3331 b23d 1507 d4bd 301d 993d 0c60 1b3d
00000060: 1ad4 e03d 2ab4 42bd 9632 dd3c 6685 b3bd
00000070: 2f67 a5bd ccf5 8cbd 1765 e7ba a661 67bd
00000080: 228f af3d f7aa c43b c39e 933d 338e 24bd
00000090: 578f 74bd 2465 c7bc 1b8e f4bb 8009 c7bd
000000a0: 95d1 8f3d a1e4 23bd 2f22 51bc 0df9 6f3d
000000b0: d554 c5bc c50c 5fbd 14e7 dc3d 5909 67bd
000000c0: f15b cc3d 36c9 94bc db30 1dbd e50f 8cbc
000000d0: a258 b9bd be21 963d 4f23 59bd 6395 1eba
000000e0: eb4b cfbd 1213 103d 7f7b 8e3d c49c 38bd
000000f0: 556d 80bd 6436 b1bc 10cb 6bbb 6461 3bbd
00000100: ba28 25bd 9c15 aabd b17c a0bd 726d 943d
00000110: 552b 9dbd 76c8 03bd 3f08 0fbd 2e8c 9abd
00000120: 4655 b53c 1a0a 52bd fb7c 7e3c 7d39 b93c
00000130: 39f8 9bbd 6595 a63d cb5b 94bd c389 1cbd
00000140: 08b8 173d c176 a53d 65d4 5bbd c069 423c
00000150: 3d0f a4bd 0bed a7bd d18d 0e3d d1bd 02bd
00000160: 7bf4 f43d c0dc a7bd f1b0 f4bc 32c5 7c3c
00000170: 3d3c a43c fc92 20bd cc1f dcbd 2853 9ebd
00000180: 9f6a f73c 7ad8 81bd 2fe6 933d 0b92 49bd
00000190: 7239 873d 6677 9cbd d839 dc3c 4a01 d93d
000001a0: e97a c2bd c16c b83c 1298 873b 2a9f 653d
000001b0: 8e86 d13d 5a6a a4bd db4c 083d 52c8 9b3d
000001c0: b66b babc 3bf0 2ebd f9c8 d23c 1655 8ebd
000001d0: dff7 873b 3bde 5fbd a3f7 4dbd d725 683d
000001e0: c6ac 813d 278b e43b 8df3 503d ea44 993b
000001f0: 806a 3dbd e34c 31bd 3253 433d 10f7 07bd
00000200: 0b0b 2abd 67b9 5a3c 2d66 6abb 1898 e9bc
00000210: 5614 a8bd 4245 55bd ded5 583d 4191 d53d
00000220: 8dcf 213c 44f2 6b3d 7b1b a6bb bddd 183d
00000230: 3ec9 3e3d 0ccc 873d b069 aa3d 31a4 683d
00000240: b687 74bd 0a58 58bd f5d4 b13c fe7b 07bc
00000250: d957 0d3d 1e49 1cbb af39 7a3d f798 513d
00000260: acda a73d 1dd2 cabc 52dd 35bc 4df8 e1bb
00000270: 2409 a5bd bf1d 503c d021 7ebd 050d c13d
00000280: 08e2 c6bc 2762 803d 302b 6a3c c1e7 963c
00000290: b3cd 273d 50d2 a7bd df7e 23bc 5b1f dbbc
000002a0: da80 4cbd e8e8 8b3d 6f4b 5ebd cac5 6fbd
000002b0: 8d07 543c f394 53bd 9def 5ebd 1c73 973d
000002c0: 2693 b33d d2d3 90bd 3260 8d3d b013 8bb9
000002d0: 4315 bf3c 45ab acbd a506 96bd 8e7d 893d
000002e0: e071 823c 4628 05bd e303 983d 7d07 abbd
000002f0: b98c f63c cfef cd3d 6f44 f3bc c215 9a3d
00000300: 9d94 583d e35e 503d ed6b 703d 763a 243d
00000310: ed1c 3ebd fb05 193d 8f90 80bd 170b ab3c
00000320: 5cab ce3c d53b 2bbd 2980 dc3c 1a8f 01bc
00000330: 3c4e 89bd 86ac fabd 2acc ff3c 5022 15bb
00000340: 6f44 373d b0b0 9c3c 2124 9bbd cc3f b33d
00000350: 675f fe3b 7bca f7bd ab2d 783d 2a46 83bd
00000360: 477f 8a3d 8cf6 d2bd 3f92 343d 73ee 99bd
00000370: 7c55 edbd 18ff bbbd a54b 973d 1ece 4f3d
00000380: ac2c e53c 5a60 a73d 010c 9d3d 3cb3 ed3c
00000390: 7563 90bd af1e b43c b7c7 31bb d561 c3bd
000003a0: aa73 b0ba 10ad 59bd 16f5 80bd 10dc cc3d
000003b0: b738 debd 7f66 013e c5ea 853d d908 7bbd
000003c0: bb8e 8abd 5407 c93c 84f5 29bd 7bf6 63bd
000003d0: 0fae 28bb 41cc 16bd fdbb 2c3d dc20 c2bc
000003e0: 8099 653d 3199 3a3d a488 67bc 034b cb3c
000003f0: bc6e 94bd 33c1 14bd 29d8 c83d 5ad4 7a3d

rnn.bias_ih_l0 f4 [300]
0.10614247 -0.010548156 0.08298073 0.048475776 0.03382969 -0.061361603 0.052471064 0.09443793
-0.08038029 0.043983005 0.09100796 -0.05476844 -0.003402652 0.04880551 -0.07878175 0.029380083
0.036356606 0.08137254 0.0126301125 -0.028158244 0.09379233 -0.062398862 0.050422195 0.0473401
-0.07768603 -0.0020355463 0.040784683 0.052641757 -0.07589621 -0.06930229 0.06521168 -0.037990294
-0.07968868 -0.03777834 -0.04928985 -0.051743686 -0.030798594 -0.10057114 -0.027554672 0.048877638
-0.09365418 -0.014881147 0.07749577 0.071485445 -0.03079772 -0.019652551 -0.05706618 -0.0052049533
-0.029538019 -0.010772072 -0.033110846 0.026154153 -0.10061749 0.055500213 -0.017006269 -0.021602107
0.040691074 -0.009143615 0.027452767 -0.017711183 0.034798358 -0.08870333 0.10483413 -0.032956876
-0.06571028 -0.031228408 -0.04440621 0.011296134 -0.011541026 0.036083 0.0070817666 -0.0056227376
0.034374025 0.078768186 0.074827515 -0.07440106 0.08351431 -0.09887386 -0.07011966 0.06645765
0.029852415 -0.10196936 0.029653883 0.068702415 0.019304013 -0.017551403 -0.021874277 0.08855661
0.04820335 -0.0882627 -0.07874874 -0.03499044 -0.02643839 -0.079875 -0.069217466 -0.017574878
0.048624165 -0.017104086 0.065684505 0.043683592 -0.074775174 -0.11500533 -0.16947486 0.000934098
-0.011617381 -0.056906637 -0.10901749 -0.06318175 -0.118073456 -0.07009746 -0.0110437805 -0.05716887
-0.026723998 -0.031959727 0.023009736 -0.003198006 -0.100866035 -0.14195834 -0.10639939 -0.051271196
-0.0600695 -0.055363756 -0.12492186 -0.14348762 0.0036933906 0.09303352 -0.08501999 -0.17924826
-0.01390399 -0.019047335 0.021484025 -0.1704953 -0.16297206 0.023165992 -0.1786371 -0.0400312
-0.05450516 -0.0758611 -0.009562352 -0.12075391 0.049494084 -0.077752195 -0.030185606 0.036127627
-0.11617541 0.011917197 -0.039157342 -0.11526886 -0.16062877 -0.054098677 -0.0301857 -0.008406701
0.009527283 -0.11122073 -0.09769113 -0.0019725433 -0.09993622 -0.04789168 -0.053989433 -0.07853754
-0.063575946 0.059148308 0.0019512661 -0.042561017 -0.1211599 -0.04638327 -0.08818241 -0.15475668
-0.021629127 0.054034945 -0.10366761 -0.1513074 -0.057232738 -0.1705281 -0.02591431 0.015625445
-0.042715017 -0.041979738 -0.16326244 -0.14957698 -0.0010046342 -0.13717665 -0.17055151 -0.07651269
-0.045091692 -0.13487321 -0.11521678 -0.16791429 -0.016967606 -0.08128851 -0.03651793 -0.09159444
-0.018264852 -0.09909066 -0.13711165 -0.027925553 -0.096107565 -0.16158308 -0.07642301 -0.089429915
0.09420981 -0.022163238 0.06826447 0.012745395 0.075286284 0.04806005 0.07237784 -0.03854486
0.03184911 0.079686955 0.075001255 -0.056185372 -0.07770397 -0.011950744 -0.014836402 0.004332707
0.08132175 -0.0031815595 0.09135034 0.050690576 0.04127706 0.019558094 0.04887055 -0.081388324
0.023005769 -0.007082971 0.07255152 -0.004225874 0.04524854 0.05297878 -0.06980024 0.08383423
-0.04417748 -0.030634863 -0.006381168 0.042405453 0.011113473 -0.061290935 0.065730296 -0.009469483
-0.03001498 -0.035628654 -0.058441747 -0.01586765 0.058528673 0.05551187 0.079129845 0.032625634
0.08515457 -0.08659178 0.023028301 0.022960072 0.006168519 -0.055642158 0.07229819 -0.08382967
00000000: 3961 d93d 2cd2 2cbc cdf1 a93d 898e 463d
00000010: 0091 0a3d 4e56 7bbd e6eb 563d ac68 c13d
00000020: 6c9e a4bd 8627 343d 6262 ba3d df54 60bd
00000030: 07ff 5ebb 49e8 473d 5358 a1bd 80ae f03c
00000040: aaea 143d a5a6 a63d 88ee 4e3c 1eac e6bc
00000050: 3116 c03d f395 7fbd 8187 4e3d b1e7 413d
00000060: da19 9fbd cd66 05bb d70d 273d e29e 573d
00000070: 796f 9bbd 5cee 8dbd b48d 853d b69b 1bbd
00000080: d233 a3bd 76bd 1abd 27e4 49bd 30f1 53bd
00000090: 554d fcbc 3ef8 cdbd 56ba e1bc eb33 483d
000000a0: c3cd bfbd 0ed0 73bc 1ab6 9e3d f666 923d
000000b0: 804b fcbc 63fe a0bc 3abe 69bd 508e aabb
000000c0: b7f9 f1bc 587d 30bc 3d9f 07bd 3c41 d63c
000000d0: 8b10 cebd 3154 633d bb50 8bbc e7f6 b0bc
000000e0: afab 263d 1acf 15bc a0e4 e03c 0b17 91bc
000000f0: b988 0e3d 17aa b5bd 47b3 d63d cafd 06bd
00000100: 1c93 86bd b8d2 ffbc 49e3 35bd 6c13 393c
00000110: 9216 3dbc c5cb 133d 2a0e e83b f13e b8bb
00000120: c7cb 0c3d 3751 a13d 2b3f 993d 955f 98bd
00000130: 8d09 ab3d 617e cabd e59a 8fbd f31a 883d
00000140: 0d8d f43c 50d5 d0bd b3ec f23c dab3 8c3d
00000150: 7323 9e3c f6c7 8fbc af31 b3bc 2b5d b53d
00000160: e070 453d 13c3 b4bd 0547 a1bd 2352 0fbd
00000170: 5395 d8bc 8195 a3bd e3c1 8dbd 31f9 8fbc
00000180: 222a 473d de1d 8cbc 9985 863d 91ed 323d
00000190: ba23 99bd ea87 ebbd d18a 2dbe 41de 743a
000001a0: d456 3ebc ef16 69bd 9044 dfbd 6f65 81bd
000001b0: 7fd0 f1bd 428f 8fbd f9f0 34bc e829 6abd
000001c0: 49ec dabc 34e8 02bd ea7e bc3c a395 51bb
000001d0: da92 cebd 875d 11be ece7 d9bd bf01 52bd
000001e0: 700b 76bd 1bc5 62bd 08d7 ffbd 6bee 12be
000001f0: d00c 723b 5c88 be3d f61e aebd db8c 37be
00000200: 90cd 63bc 2809 9cbc 44ff af3c 5296 2ebe
00000210: 26e2 26be 9bc6 bd3c a5ec 36be c1f7 23bd
00000220: cd40 5fbd 105d 9bbd 69ab 1cbc d34d f7bd
00000230: 4fba 4a3d 8b3c 9fbd ce47 f7bc 90fa 133d
00000240: 60ed edbd 5940 433c 7363 20bd 1412 ecbd
00000250: de7b 24be 9396 5dbd 0048 f7bc 42bc 09bc
00000260: 5218 1c3c b2c7 e3bd 4a12 c8bd c945 01bb
00000270: 5cab ccbd 112a 44bd 0624 5dbd 4ad8 a0bd
00000280: 1b34 82bd 7f45 723d a0c1 ff3a 7654 2ebd
00000290: af22 f8bd 62fc 3dbd fb98 b4bd 8978 1ebe
000002a0: 912f b1bc bf53 5d3d af4f d4bd 54f0 1abe
000002b0: e06c 6abd eb9e 2ebe 3f4a d4bc ef00 803c
000002c0: f1f5 2ebd f2f2 2bbd 452e 27be b52a 19be
000002d0: eead 83ba 0978 0cbe 0ea5 2ebe afb2 9cbd
000002e0: 11b2 38bd 341c 0abe c6f6 ebbd b9f1 2bbe
000002f0: a6ff 8abc 977a a6bd d393 15bd de95 bbbd
00000300: 2ca0 95bc 0bf0 cabd ff66 0cbe 21c4 e4bc
00000310: 0bd4 c4bd 0976 25be ab83 9cbd 0827 b7bd
00000320: 13f1 c03d ae8f b5bc 3ece 8b3d 10d2 503c
00000330: b22f 9a3d 9dda 443d d53a 943d 37e1 1dbd
00000340: 3674 023d ea32 a33d 429a 993d a222 66bd
00000350: 4223 9fbd 0ecd 43bc 6114 73bc 61f9 8d3b
00000360: 058c a63d b681 50bb e315 bb3d eca0 4f3d
00000370: 2212 293d 4c38 a03c 7c2c 483d ecae a6bd
00000380: 9876 bc3c 4418 e8bb e495 943d 3379 8abb
00000390: 8856 393d 4700 593d 6ef3 8ebd 48b1 ab3d
000003a0: 72f3 34bd f7f5 fabc 1e19 d1bb 57b1 2d3d
000003b0: 4915 363c 340c 7bbd 9b9d 863d e425 1bbc
000003c0: fae1 f5bc 5aef 11bd 9d60 6fbd e0fc 81bc
000003d0: c3bb 6f3d 6a60 633d d40e a23d 75a2 053d
000003e0: 8565 ae3d 0857 b1bd d9a5 bc3c c316 bc3c
000003f0: 4a21 ca3b 08e9 63bd 1311 943d e4ae abbd

rnn.bias_hh_l0 f4 [300]
0.044313405 0.084275596 -0.060282286 -0.12256403 0.0705033 -0.0240225 0.10013912 -0.04130968
-0.07808022 0.016141051 0.025231093 0.07192417 0.07218718 0.033105113 -0.035359696 -0.07834222
0.0072143176 -0.00034040833 0.0577403 -0.052791577 -0.039266847 -0.046291776 0.10433315 0.10439148
0.090245344 0.073827766 -0.055206966 0.04845485 0.039207768 0.08464461 -0.057993717 0.06502123
-0.005642531 -0.055525113 0.035630737 -0.034409445 -0.012495101 -0.0024429988 -0.03501761 -0.06795339
-0.10699672 -0.06287768 -0.08199446 -0.06369328 -0.027226908 0.0831671 0.004116157 -0.08452068
0.008065965 -0.029941577 -0.08967588 -0.04829809 0.032417133 0.054923765 0.07303157 0.053805068
-0.0037297362 0.041634236 -0.07079286 0.05865578 0.08687145 -0.10915191 0.10225959 -0.036323432
0.040307276 -0.0031167045 -0.052839898 -0.071159184 -0.053631175 0.006792539 -0.059964303 -0.050684974
0.063342944 0.067314096 -0.053125978 -0.0013468196 -0.025582036 0.079784065 -0.06570121 -0.00024241753
-0.06450242 0.003522106 0.02369248 -0.08965436 0.09664884 0.059794825 -0.025454005 0.063033104
0.06491765 0.028222902 0.076063216 -0.045193627 -0.069626026 0.0899923 -0.09257164 0.048811637
0.057622034 0.006155145 0.053450122 -0.018483462 -0.16283338 -0.04631886 -0.018580737 -0.061787155
-0.1430086 -0.010199545 -0.046057813 -0.06141295 0.012814811 -0.14665787 0.044750575 -0.14316842
-0.047451913 -0.038555566 -0.043928213 -0.10293999 -0.08138173 -0.10519165 -0.116122134 -0.13073944
-0.17733653 -0.028235355 0.0043015736 -0.014935997 -0.08641247 -0.0775261 0.02421718 0.0011948108
0.0047255126 -0.07995425 -0.07889904 -0.09500971 -0.016732967 0.02843719 -0.15740809 0.009083405
-0.07808521 -0.157061 -0.0736775 -0.05427157 -0.066229954 -0.13025258 -0.0023782982 -0.038005456
-0.124019675 0.10385729 -0.17903829 -0.1108839 -0.06272158 -0.046723977 -0.04849078 -0.057144903
-0.07705172 -0.08702218 -0.10919763 -0.11224716 -0.14966857 0.074339725 -0.053226907 -0.037926987
-0.10600775 -0.07635584 -0.03412066 -0.012796853 -0.13172995 -0.09842308 -0.066999815 -0.0699077
-0.13182184 -0.06657925 -0.17114384 -0.1171792 -0.106770046 -0.0027932825 -0.17639141 0.044756614
-0.013480786 -0.0027320788 -0.10362817 -0.012813315 -0.09436006 -0.16809052 -0.07561714 -0.12994888
-0.12077161 0.00058508676 -0.17441505 0.0077254665 -0.118439555 -0.11326044 -0.11573055 -0.13616195
-0.083275 0.009501663 -0.1356265 0.04926709 -0.14865033 0.0054482864 0.011206914 -0.11776668
-0.03307603 -0.08905516 -0.014265344 0.049527153 -0.047094923 -0.018900877 0.003156011 -0.08926024
0.04704506 -0.048006326 -0.07410364 -0.056706667 -0.046787497 0.040796597 0.03251733 -0.0846083
0.051094763 0.07989546 -0.03612908 -0.010988316 -0.03501574 -0.0066673425 -0.026962891 0.09261862
0.06227588 0.056188848 0.09100988 0.024360655 -0.05721787 -0.07137302 0.05881311 0.019495668
0.04699887 0.09583418 -0.055672433 -0.0052794223 -0.08663974 0.06331636 -0.054995522 0.011625496
-0.023613589 0.052663397 -0.05991918 -0.044894956 0.013684968 0.028057985 -0.03575051 -0.00024992047
0.09009954 0.036173288 -0.04230701 0.009917634 0.06818991 -0.05175235 0.058689695 0.053363703
00000000: f981 353d af98 ac3d 8fea 76bd da02 fbbd
00000010: 0964 903d d5ca c4bc bd15 cd3d 5734 29bd
00000020: 86e8 9fbd 3d3a 843c 70b1 ce3c fb4c 933d
00000030: dfd6 933d 3a99 073d 54d5 10bd e371 a0bd
00000040: 1566 ec3b d578 b2b9 1881 6c3d fb3b 58bd
00000050: 46d6 20bd 729c 3dbd 9eac d53d 33cb d53d
00000060: 8dd2 b83d 0333 973d b320 62bd 9878 463d
00000070: 5398 203d 275a ad3d d28a 6dbd da29 853d
00000080: fbe4 b8bb 4d6e 63bd 89f1 113d ebf0 0cbd
00000090: 41b8 4cbc b81a 20bb a06e 0fbd 262b 8bbd
000000a0: 1921 dbbd 03c6 80bd b6ec a7bd 9f71 82bd
000000b0: f70a dfbc 8353 aa3d d4e0 863b 2e19 adbd
000000c0: 1c27 043c 0a48 f5bc fda7 b7bd 38d4 45bd
000000d0: d4c7 043d bef7 603d 9391 953d b462 5c3d
000000e0: 976e 74bb a988 2a3d d9fb 90bd 0b41 703d
000000f0: a9e9 b13d 098b dfbd 7a6d d13d e1c7 14bd
00000100: 3e19 253d a041 4cbb a66e 58bd e8bb 91bd
00000110: 5dac 5bbd f293 de3b 219d 75bd 0c9b 4fbd
00000120: f2b9 813d f9db 893d a09a 59bd c487 b0ba
00000130: 6b91 d1bc d465 a33d 5b8e 86bd 7631 7eb9
00000140: d819 84bd 22d3 663b bb16 c23c b59c b7bd
00000150: d4ef c53d 6beb 743d eb84 d0bc 8017 813d
00000160: 8bf3 843d b733 e73c 08c7 9b3d f41c 39bd
00000170: 1798 8ebd e24d b83d 3396 bdbd b6ee 473d
00000180: 1505 6c3d 19b1 c93b 84ee 5a3d a16a 97bc
00000190: cbbd 26be d8b8 3dbd a136 98bc 8714 7dbd
000001a0: d970 12be fe1b 27bc 1ea7 3cbd 258c 7bbd
000001b0: 37f5 513c 7b2d 16be 614c 373d be9a 12be
000001c0: f05c 42bd 71ec 1dbd 12ee 33bd 34d2 d2bd
000001d0: 77ab a6bd b86e d7bd 71d1 edbd 8fe0 05be
000001e0: b597 35be d54d e7bc 37f4 8c3b 1db6 74bc
000001f0: 05f9 b0bd 01c6 9ebd 1c63 c63c 339b 9c3a
00000200: 79d8 9a3b 0ebf a3bd d295 a1bd 7394 c2bd
00000210: 9313 89bc 1cf5 e83c 962f 21be 90d2 143c
00000220: 23eb 9fbd 99d4 20be 3be4 96bd de4b 5ebd
00000230: 92a3 87bd ef60 05be 39dd 1bbb 9cab 1bbd
00000240: 07fe fdbd 22b3 d43d d055 37be 1917 e3bd
00000250: 2c74 80bd a461 3fbd 459e 46bd c610 6abd
00000260: 4bcd 9dbd af38 b2bd 02a3 dfbd d7e1 e5bd
00000270: b842 19be 6d3f 983d 7504 5abd 5459 1bbd
00000280: 971a d9bd 7360 9cbd 1bc2 0bbd e4a9 51bc
00000290: 37e4 06be 0a92 c9bd 3337 89bd c52b 8fbd
000002a0: 4efc 06be b45a 88bd 5540 2fbe a6fb efbd
000002b0: 41aa dabd 810f 37bb f39f 34be b652 373d
000002c0: 84de 5cbc ad0c 33bb 023b d4bd f0ee 51bc
000002d0: d93f c1bd ec1f 2cbe 29dd 9abd 5211 05be
000002e0: 1b57 f7bd 8260 193a dc99 32be e925 fd3b
000002f0: 7090 f2bd 17f5 e7bd 2304 edbd 0a6e 0bbe
00000300: 158c aabd ddac 1b3c ace1 0abe 4acc 493d
00000310: cb37 18be 8a87 b23b 349d 373c a82f f1bd
00000320: bb7a 07bd 8d62 b6bd 30b9 69bc fcdc 4a3d
00000330: 9be6 40bd 03d6 9abc 14d5 4e3b 13ce b6bd
00000340: 52b2 403d 48a2 44bd a6c3 97bd 4045 68bd
00000350: 3fa4 3fbd 551a 273d e430 053d 1e47 adbd
00000360: be48 513d 3ba0 a33d 16fc 13bd 5608 34bc
00000370: aa6c 0fbd b979 dabb 48e1 dcbc d5ae bd3d
00000380: fe14 7f3d 4726 663d 6363 ba3d ff8f c73c
00000390: 495d 6abd 052c 92bd 04e6 703d 61b5 9f3c
000003a0: e381 403d b644 c43d c708 64bd 01ff acbb
000003b0: 2d70 b1bd 02ac 813d fc42 61bd dd78 3e3c
000003c0: 4971 c1bc 93b5 573d d06d 75bd c6e3 37bd
000003d0: eb36 603c dcd9 e53c 206f 12bd c207 83b9
000003e0: 1c86 b83d 712a 143d 1e4a 2dbd 927d 223c
000003f0: 27a7 8b3d 46fa 53bd 9b64 703d e693 5a3d

linear.weight f4 [1, 100]
0.06693378 -0.10822184 -0.054755982 0.083373256 -0.0184797 -0.037330016 -0.08276825 0.012704848
0.06322919 0.091874905 0.0012602138 0.036383133 0.10419232 0.0530511 0.076188736 -0.0757496
0.0077598533 -0.09783644 0.039472193 0.110792816 -0.04449693 -0.09189528 -0.09037308 0.090498775
0.068252265 0.017693333 0.092199355 -0.09431018 -0.05536196 0.03819658 -0.024102023 -0.019371472
-0.11438246 0.057759836 -0.07252917 -0.07982275 -0.035661697 0.09501401 0.0349607 0.0139572155
0.0029576407 -0.021733105 0.031851873 0.03825235 -0.064746484 -0.020543333 0.12427422 0.03331379
0.09321378 -0.05039386 0.0071301945 0.009333611 -0.008879284 0.09662879 -0.02195849 -0.050550286
-0.057623435 -0.07275727 -0.08094308 0.057075698 0.11270053 -0.022792937 0.02867452 -0.09434629
0.12188215 0.08766962 0.07302028 0.068520956 -0.0076363655 -0.051890995 -0.07391736 -0.10095668
0.0013371336 0.09637556 -0.117577724 0.055832505 -0.04309111 0.059391756 -0.07223208 -0.08636953
-0.07779709 0.11415005 0.045761883 -0.08160824 0.011107123 0.07372175 -0.112563565 -0.019436149
0.052911058 0.0894569 -0.12763771 0.07519258 0.122331075 0.040702373 -0.061500642 -0.07519587
0.11521313 0.02501406 0.10482581 -0.09096917
00000000: 9414 893d 69a3 ddbd cf47 60bd 99bf aa3d
00000010: bd62 97bc 5ce7 18bd 6682 a9bd ff27 503c
00000020: 4e7e 813d e928 bc3d c22d a53a 7b06 153d
00000030: c862 d53d 1c4c 593d d708 9c3d 9b22 9bbd
00000040: 5e46 fe3b 795e c8bd 98ad 213d 58e7 e23d
00000050: 6a42 36bd 9833 bcbd 8515 b9bd 6c57 b93d
00000060: d8c7 8b3d 9cf1 903c 04d3 bc3d b225 c1bd
00000070: 39c3 62bd 0474 1c3d 9b71 c5bc ecb0 9ebc
00000080: 5a41 eabd 9495 6c3d 2c8a 94bd 1c7a a3bd
00000090: 0012 12bd b596 c23d f332 0f3d ceac 643c
000000a0: fad4 413b a009 b2bc 1c77 023d 7fae 1c3d
000000b0: ce99 84bd 7e4a a8bc 7b83 fe3d 0a74 083d
000000c0: dee6 be3d cb69 4ebd 68a4 e93b 00ec 183c
000000d0: 6b7a 11bc 51e5 c53d 4be2 b3bc d10d 4fbd
000000e0: 8d06 6cbd c301 95bd 7cc5 a5bd 35c8 693d
000000f0: 89cf e63d 41b8 babc d4e6 ea3c a138 c1bd
00000100: 599d f93d 218c b33d a88b 953d b754 8c3d
00000110: 7a3a fabb a78b 54bd fc61 97bd 60c2 cebd
00000120: c242 af3a 8d60 c53d 97cc f0bd a0b0 643d
00000130: 4e80 30bd c544 733d 6aee 93bd 82e2 b0bd
00000140: 1554 9fbd 80c7 e93d d070 3b3d 3922 a7bd
00000150: a7fa 353c 6efb 963d ba87 e6bd 8f38 9fbc
00000160: 44b9 583d 2e35 b73d 76b3 02be 91fe 993d
00000170: b788 fa3d 88b7 263d 19e8 7bbd 4b00 9abd
00000180: ddf4 eb3d 49ea cc3c eaae d63d 0b4e babd
