backend/trained_models/KBL_GRU_model_state_dict.pth (torch, 126714 bytes, 5 tensors)

rnn.weight_ih_l0 f4 [300, 1]
0	0xbb049ac0	-0.002023384
1	0x3cab7e6e	0.02093431
2	0xbdc09527	-0.094034486
3	0xbc334019	-0.010940575
4	0x3d39599b	0.04525147
5	0x3c50c2cb	0.012741755
6	0xbd07b19b	-0.033128362
7	0x3bee8e01	0.007280112
8	0x3d58d762	0.05293978
9	0x3dcf73d4	0.10129514
10	0xbd6a9b3a	-0.05727694
11	0x3de671b5	0.11252157
12	0xbd2d217d	-0.042268265
13	0xba8bf24d	-0.001067707
14	0xbd7e0f76	-0.062026463
15	0xbcd47707	-0.025935663
16	0xbc12ac46	-0.008952206
17	0x3d6e1578	0.058125943
18	0x3dc0de6a	0.09417422
19	0xbd96d5b5	-0.0736498
20	0xbd3da857	-0.04630312
21	0x3c6ef72d	0.0145852985
22	0x3dd7d192	0.10538019
23	0x3ddccdbd	0.10781429
24	0x3dc53ac9	0.09630353
25	0x3d0d20a9	0.034454975
26	0x3dad6a61	0.08467556
27	0x399d7371	0.00030031384
28	0xbdd84b4a	-0.10561235
29	0x3daf7d13	0.08568778
30	0xbb20f8d2	-0.002456237
31	0xbd5129eb	-0.051065367
32	0x3dda27e5	0.106521405
33	0xbc5915e9	-0.013249853
34	0xbd56ff44	-0.052489534
35	0x3d8db360	0.06918979
36	0x3cd0bb27	0.025479866
37	0x3d23a41d	0.039951432
38	0x3bb3bd18	0.005485188
39	0xbd2d07bf	-0.042243715
40	0x3db2e3aa	0.0873483
41	0x3daabda3	0.083369516
42	0xbc43b8c8	-0.011945911
43	0x3cd94fc3	0.026527291
44	0x3c6a1a9c	0.014288571
45	0x3decc922	0.115618005
46	0xbd5b3092	-0.053513117
47	0xbd8482f4	-0.0647029
48	0x3d666dc2	0.056257017
49	0xbd405ad7	-0.04696163
50	0x3d91503d	0.07095382
51	0xbc827c8b	-0.015928527
52	0xbc9e4515	-0.01932005
53	0xbd0122e5	-0.03152742
54	0xbba7ecdf	-0.005124673
55	0xbdc70699	-0.09718055
56	0xbd0373ac	-0.032092735
57	0x3d12f938	0.035882205
58	0x3d5a15c6	0.05324342
59	0x3db8608e	0.09002791
60	0xbd3d420f	-0.046205577
61	0x3d8ca91c	0.068681926
62	0x3de1e1b5	0.11029378
63	0xbde71778	-0.11283773
64	0x3d930794	0.0717918
65	0xbd19c535	-0.037541587
66	0x3d157f99	0.03649864
67	0x3c001f79	0.007820004
68	0xbcdf7b14	-0.027280368
69	0xbada1470	-0.0016638171
70	0x3c147ae0	0.009062499
71	0xbc892a1c	-0.016743712
72	0x3d02d875	0.03194471
73	0xbd42a26d	-0.047518183
74	0x3c0aa86f	0.008463009
75	0x3d9512a7	0.07278948
76	0x3d7ea96d	0.062173296
77	0x3d780492	0.060551234
78	0xbcc5d029	-0.02414711
79	0x3dc73287	0.09726434
80	0xbc50c7c4	-0.01274294
81	0x3db1d8c5	0.08683924
82	0xbd4d5c08	-0.050136596
83	0x3d88837f	0.06665706
84	0x3d1232d9	0.035693023
85	0xbcf43929	-0.029812412
86	0x3cd04f18	0.02542834
87	0xbddfda1a	-0.109302714
88	0xbc2fc1cb	-0.010727356
89	0x3dc2ccfc	0.09511754
90	0xbbd904df	-0.006622895
91	0xbc9c95fc	-0.019114487
92	0x3d820b2f	0.06349789
93	0xbdb98758	-0.09059018
94	0x3e047538	0.1293534
95	0x3b96874e	0.0045937663
96	0x3d94e2eb	0.07269844
97	0xbca61c98	-0.020277306
98	0x3cc527dc	0.024066858
99	0xbc130cac	-0.008975189
100	0xbdee462f	-0.1163448
101	0xbe09d4f7	-0.13460146
102	0x3d30536d	0.04304831
103	0xbd7dcf86	-0.061965488
104	0xbc8d01c6	-0.01721276
105	0x3adfee5b	0.0017084585
106	0xbd3c1a7c	-0.045923695
107	0xbccf3539	-0.025293933
108	0x3d070fa3	0.032973897
109	0xbd8f557e	-0.06998728
110	0xbc9cc5bb	-0.019137254
111	0xbdc3b453	-0.095558785
112	0xbd0303e4	-0.031986132
113	0xbc651c0a	-0.013983736
114	0xbddf5857	-0.10905521
115	0xbe3142ec	-0.17310685
116	0xbdb71ad4	-0.08940664
117	0xbdf4dd22	-0.1195624
118	0xbdf2fa81	-0.11864186
119	0xbe1cb877	-0.15304743
120	0xbd9ee5a8	-0.07758647
121	0x3c17b514	0.009259481
122	0xbc6e7f37	-0.014556698
123	0x3a72cbed	0.00092619547
124	0x3ded847c	0.11597535
125	0xba677df1	-0.00088307174
126	0x3c244660	0.010026544
127	0xbdcfeedf	-0.10152983
128	0xbe06924b	-0.13141744
129	0xbcf9cb60	-0.030492485
130	0xbddb9ab9	-0.107228704
131	0xbdf37e85	-0.11889366
132	0x3d76bdf3	0.060239743
133	0xbde118a9	-0.10991032
134	0xbe1ed5c0	-0.15511227
135	0x3db259cc	0.08708534
136	0xbe11dfb3	-0.1424549
137	0xbd85f9c0	-0.06541777
138	0xbdc05c1a	-0.09392567
139	0x3d12cc31	0.035839263
140	0xbdbe8ac9	-0.09303815
141	0x3cf21dfc	0.029555313
142	0xbd0de367	-0.034640696
143	0x3d3de0b9	0.04635689
144	0xbd6f11cd	-0.058366586
145	0x3d23172b	0.039817017
146	0xbe263844	-0.16232401
147	0xbd154625	-0.03644385
148	0xbe26aa56	-0.16275916
149	0xbd287ca2	-0.041134484
150	0xbc1c28ea	-0.009531239
151	0x3d809602	0.06278612
152	0xbd8c6bca	-0.06856497
153	0x3d6cdeac	0.057829544
154	0xbd9e1e67	-0.077206425
155	0xbde75d07	-0.112970404
156	0xbad0e61d	-0.001593772
157	0x3dedb919	0.1160757
158	0x3d9a5384	0.075354606
159	0xbd39e335	-0.045382697
160	0xbd9c44a9	-0.076302834
161	0xbc940128	-0.018066958
162	0xbc147433	-0.009060907
163	0xbccddb10	-0.025128871
164	0xbdc02918	-0.09382838
165	0xbd660a6f	-0.056162294
166	0xbdb6390b	-0.08897599
167	0xbe0cca10	-0.13748956
168	0x3c7ba14f	0.015358283
169	0xbaf00a61	-0.001831364
170	0x3c001513	0.0078175245
171	0xbe20e029	-0.1571051
172	0x3da61113	0.081087254
173	0xbdb2f6a8	-0.08738452
174	0xbe08b36c	-0.13349694
175	0x3cf96594	0.030443944
176	0xbd0513fa	-0.032489754
177	0xbdd7fcc7	-0.1054626
178	0xbd99a13e	-0.07501458
179	0xbd619da1	-0.055081967
180	0xbce93507	-0.028467668
181	0x3d9414cb	0.072305284
182	0xbe14e7d5	-0.14541562
183	0xbdfbf368	-0.123022854
184	0xbc1df2c4	-0.009640399
185	0x3cd115be	0.025523063
186	0xbd3825ea	-0.044958033
187	0xbc389642	-0.011266293
188	0x3de546bb	0.111951314
189	0xbd2e662d	-0.04257791
190	0xbcab30d3	-0.020897305
191	0xbe09198c	-0.13388652
192	0xbc56c130	-0.013107583
193	0xbd0c119e	-0.03419649
194	0xbd2f7f60	-0.042846084
195	0xbd7ec775	-0.062201936
196	0x3ca07957	0.01958911
197	0xbd3753c3	-0.044757616
198	0x3e1f1b89	0.15537848
199	0xbcaeadb7	-0.021323068
200	0x3da8ad81	0.08236218
201	0x3d3ab02f	0.045578178
202	0x3d1366eb	0.035986822
203	0xbda54311	-0.080694325
204	0xbde288fa	-0.110612825
205	0x3d9dba50	0.07701552
206	0xbe04c158	-0.1296438
207	0x3d52fef5	0.051512677
208	0x3dd64394	0.10462108
209	0x3da81227	0.08206587
210	0x3e09082e	0.13382027
211	0xbda1c78f	-0.07899391
212	0xbd4e825c	-0.05041729
213	0xbb455d7f	-0.0030115542
214	0x3c34823f	0.011017381
215	0xbd8c22eb	-0.068425976
216	0xbccdcde5	-0.025122592
217	0xbd5c0f65	-0.05372562
218	0xbd9d5e78	-0.07684034
219	0xbda40c7a	-0.08010192
220	0x3d8a0dbb	0.067409
221	0x3baa5928	0.0051986165
222	0x3d6f21f2	0.058381982
223	0xbd31739e	-0.04332315
224	0x3d806463	0.06269147
225	0x3dcf4788	0.101210654
226	0x3e00a686	0.12563524
227	0xbd8e7811	-0.069564946
228	0x3ddb90c2	0.1072097
229	0x3d463d94	0.04839857
230	0xbdb48715	-0.08814827
231	0x3d9ecd2b	0.077539764
232	0x3d76890f	0.060189303
233	0x3bd6b30f	0.006552107
234	0xbdf9340f	-0.121681325
235	0xbd97d1b4	-0.074130446
236	0x3b6eba82	0.0036427085
237	0x3d4da847	0.05020931
238	0x3c7eb227	0.0155454045
239	0x3d70899f	0.058724996
240	0xbd9935df	-0.07480978
241	0xbe0870d4	-0.1332429
242	0x3d8df7de	0.069320425
243	0x3cf5c58d	0.030001426
244	0xbcbdb399	-0.023156928
245	0x3cca56e6	0.02469964
246	0xbd571b12	-0.05251605
247	0xbdde08f6	-0.10841553
248	0xbd831f40	-0.06402445
249	0x3d8bdace	0.06828843
250	0x3bd5a178	0.0065194927
251	0x3d400c43	0.046886694
252	0x3dbe5fc4	0.092956096
253	0x3d771829	0.060325775
254	0xbd555881	-0.052086357
255	0x3d4b94e6	0.049702547

rnn.weight_hh_l0 f4 [300, 100]
0	0xbd78ef0a	-0.06077484
1	0xbcd6908f	-0.026191978
2	0xbd8110e9	-0.063020535
3	0xbdd64970	-0.10463226
4	0xba84a8dd	-0.0010121126
5	0xbc457b93	-0.012053388
6	0x3d31324f	0.04326087
7	0x3c0a0362	0.008423658
8	0x3dd7aadb	0.10530635
9	0x3da55cfb	0.08074375
10	0x3d90840b	0.07056435
11	0x3c15bb93	0.009138959
12	0xbe0290b5	-0.12750514
13	0x3d20b925	0.039239068
14	0x3d4aa50d	0.04947381
15	0xbc9346a5	-0.017978022
16	0x3ce9e7d8	0.028552935
17	0xbdc9fcf9	-0.09862704
18	0x3d86df6c	0.06585583
19	0xbd0cb4d1	-0.034352127
20	0x3d336856	0.043800674
21	0x3d080f64	0.033217803
22	0x3dbe128d	0.09280882
23	0xbdcadb81	-0.09905148
24	0x3dcd5edd	0.10027859
25	0x3dc77239	0.09738583
26	0xbd015cef	-0.03158277
27	0xbccc4bc1	-0.024938466
28	0x3bba7b6f	0.005690984
29	0x3d8e3818	0.06944293
30	0xbcb13f1a	-0.021636534
31	0x3c9764d0	0.018480688
32	0x3df371cb	0.11886939
33	0x3c06075f	0.008180468
34	0x3d589e22	0.052885182
35	0x3d24cbe2	0.0402335
36	0x3ddcd04d	0.10781918
37	0x3c5915f9	0.013249868
38	0xbd7a960d	-0.061178256
39	0x3d17d8d6	0.037072025
40	0x3d25e424	0.040500775
41	0xbd508d35	-0.050915916
42	0x3d099dc6	0.03359773
43	0xbd8cc30a	-0.06873138
44	0x3c76b702	0.015058281
45	0x3dc8e9ca	0.09810217
46	0x3d821018	0.06350726
47	0xbdb7ff95	-0.08984295
48	0xbdfb16b0	-0.12260187
49	0x3c562e84	0.013072614
50	0xbd11df8c	-0.03561358
51	0x3d5a0f6b	0.05323736
52	0xbc8936b4	-0.016749717
53	0x3dc04be8	0.09389478
54	0xbd59f4ad	-0.053211857
55	0xbd16a022	-0.03677381
56	0xbdcfe875	-0.101517595
57	0xbd3b75cb	-0.045766633
58	0x3d81c6b5	0.063367285
59	0x3d97ec42	0.074181095
60	0xbd63cedf	-0.05561721
61	0xbd592a1b	-0.05301867
62	0x3cb7ac53	0.022421038
63	0xbd519e49	-0.051176343
64	0xbdda6de4	-0.10665491
65	0x3d1000e4	0.0351571
66	0x3d90601f	0.07049584
67	0x3df031c9	0.11728246
68	0x3ccbb2f8	0.024865612
69	0xba4420cb	-0.0007481693
70	0xbd0ed048	-0.0348666
71	0x3dfb2013	0.12261977
72	0x3dd535a0	0.10410619
73	0xbd8bfd5c	-0.06835434
74	0xbd693d8e	-0.05694347
75	0xbd7481f5	-0.05969425
76	0xbc81f2e3	-0.015862888
77	0xbcc0f038	-0.023552045
78	0xbcde0664	-0.027102657
79	0xbcbb8837	-0.0228921
80	0xbdaae583	-0.08344557
81	0xbddea186	-0.10870652
82	0x3dea309c	0.11435053
83	0xbc945abe	-0.018109675
84	0xbcf00464	-0.029298969
85	0xbda52088	-0.080628455
86	0x3d895b32	0.06706847
87	0x3d96842e	0.0734943
88	0x3d65086e	0.055916242
89	0x3c92944c	0.01789298
90	0xbdf2281f	-0.11824059
91	0x3b39556d	0.0028279677
92	0xbd64d2ae	-0.055864982
93	0xbe0149b5	-0.12625773
94	0x3d829f2e	0.06378017
95	0x3da9e7dd	0.082961775
96	0xbd93a706	-0.072095916
97	0x3d54591c	0.051842794
98	0xbe040328	-0.12891829
99	0x3dceb02a	0.100921944
100	0x3d025e94	0.031828478
101	0x3c6fbeb4	0.0146328695
102	0xbdc16068	-0.09442216
103	0x3d6b60a6	0.057465218
104	0x3c3e0395	0.011597534
105	0x3d50255b	0.050816875
106	0x3ca159eb	0.019696197
107	0xbd2afedf	-0.04174697
108	0xbdc74565	-0.09730033
109	0xbde86b7c	-0.11348626
110	0xbc7fb30b	-0.015606652
111	0xbd7584bf	-0.05994105
112	0xbc90943a	-0.017648805
113	0xbd44e192	-0.048066683
114	0xbd27369c	-0.040823564
115	0xbdaf794b	-0.08568057
116	0x3bf3a5af	0.0074355225
117	0xbd71b0c4	-0.059006467
118	0x3d94250d	0.072336294
119	0xbd65a367	-0.056064036
120	0x3c8dcdea	0.017310102
121	0x3c5a44c4	0.013322059
122	0x3cff2a2a	0.031148035
123	0x3c956280	0.018235445
124	0xbdce0d59	-0.100611396
125	0xbd94ecea	-0.0727175
126	0xbdcdddbe	-0.100520596
127	0x3d084409	0.03326801
128	0xbcb47975	-0.022030571
129	0xbdc74a26	-0.097309396
130	0x3d9a7837	0.075424604
131	0xbcb3c39a	-0.021943856
132	0x3d70a117	0.058747377
133	0x373b9b5d	1.1182242e-05
134	0x3d3d7ee5	0.046263594
135	0x3d3b2986	0.045693897
136	0xbd4184d5	-0.04724582
137	0xbddc32f0	-0.10751903
138	0x3dc80276	0.097660944
139	0xbd7309e0	-0.05933559
140	0xbd076795	-0.033057768
141	0x3d388380	0.045047283
142	0xbdd97b04	-0.106191665
143	0x3de5f85d	0.11229012
144	0x3daf2fef	0.085540645
145	0x3d95541e	0.07291435
146	0x3d442e1c	0.047895536
147	0xbbe654b0	-0.0070291385
148	0xbd83868d	-0.06422148
149	0xbd440a0f	-0.047861155
150	0xbd60d5f0	-0.054891527
151	0xbd876c90	-0.066125035
152	0x3d8c9657	0.068646125
153	0xbd71ac28	-0.05900207
154	0x3dbba8e6	0.09163074
155	0x3dd0c745	0.10194258
156	0xbd9b0345	-0.07568983
157	0x3d871ebe	0.065976605
158	0x3d07dc1b	0.033168893
159	0xbc484d89	-0.012225517
160	0x3d2e4d01	0.042553905
161	0x3ccb0035	0.024780372
162	0xbbe26b6e	-0.0069097793
163	0xbdb57751	-0.088606484
164	0xbd38b164	-0.045091048
165	0x3d812f78	0.06307882
166	0xbd86b6c1	-0.06577826
167	0x3b92b9f8	0.0044777356
168	0x3db466d2	0.08808674
169	0x3db40aef	0.08791148
170	0x3d84e774	0.06489459
171	0xbccc07dc	-0.024906091
172	0x3db1285c	0.08650276
173	0xbbbeafa5	-0.0058192783
174	0xbce65929	-0.028118687
175	0x3d800855	0.06251589
176	0x3db5c54a	0.088755205
177	0xbd10d8a8	-0.03536287
178	0xbdc3d8a0	-0.09562802
179	0x3d141c7e	0.036159985
180	0x3d890fd6	0.066924736
181	0xbd15b6c0	-0.036551237
182	0x3d8500d5	0.06494299
183	0xbd18e6e2	-0.037329562
184	0x3d825691	0.063641675
185	0xbd084324	-0.033267155
186	0x3d93516d	0.07193265
187	0xbd20133b	-0.03908084
188	0x3d527552	0.051381417
189	0xbcdc6075	-0.026901463
190	0xbd7a4b6c	-0.061107084
191	0x3b3e547c	0.0029042056
192	0x3d1c202d	0.038116623
193	0xbce1fd9a	-0.027586747
194	0x3d36fae9	0.04467288
195	0xbdbbd874	-0.091721445
196	0xbdb7a7f2	-0.0896758
197	0x3d8b3661	0.06797481
198	0x3cd92a04	0.026509292
199	0xbc5a2810	-0.013315216
200	0x3da43077	0.080170564
201	0x3db45a2b	0.08806261
202	0xbce8c097	-0.028412146
203	0x3ce4823d	0.027894134
204	0x3cb7b591	0.022425445
205	0xbd938192	-0.07202448
206	0xbda95197	-0.08267515
207	0x3dabd8f5	0.08390991
208	0x3c116f06	0.008876568
209	0x3d52df37	0.051482406
210	0xbcf5be28	-0.0299979
211	0x3bf87f79	0.0075835553
212	0x3d261c03	0.040554058
213	0xbd0638aa	-0.032768883
214	0x3dbc0da2	0.09182288
215	0xbcf06997	-0.029347224
216	0xbd87438c	-0.066046804
217	0xbc9992a8	-0.018746689
218	0xbce50efb	-0.027961245
219	0x3daf52a1	0.08560682
220	0xbdb83dfe	-0.08996199
221	0xbcb0818e	-0.021546151
222	0x3dc946a0	0.09827924
223	0x3cb7fe60	0.022460163
224	0x3cd4bec1	0.025969865
225	0xbcf8a470	-0.030351847
226	0xbd20264c	-0.039099023
227	0x3d919ff4	0.07110587
228	0xbd7df4eb	-0.06200115
229	0xbceff933	-0.029293632
230	0xbd5afd7a	-0.05346439
231	0xbd796ffe	-0.06089782
232	0xbc584c94	-0.013201851
233	0xbd83ab77	-0.06429189
234	0xbcd0d875	-0.02549384
235	0xbd9c4281	-0.07629872
236	0x3dc91af7	0.09819596
237	0x3d5a17ee	0.053245477
238	0xbd017d46	-0.03161361
239	0xbc62e875	-0.013849367
240	0xbd88460b	-0.06653985
241	0x3ca36df8	0.019949898
242	0xbd6bd789	-0.057578597
243	0x3d8a5ce1	0.067559965
244	0xbc59390f	-0.013258233
245	0xbd78d159	-0.060746524
246	0x3dbeca86	0.09315972
247	0xbd353a42	-0.044245012
248	0x3d35c598	0.044377893
249	0x3d550bda	0.052013256
250	0x3d15c198	0.03656158
251	0x3d728b8b	0.05921511
252	0x3dd52cb2	0.104089156
253	0x3de9114b	0.113802515
254	0xbca92223	-0.02064616
255	0x3d1c1e05	0.038114566

rnn.bias_ih_l0 f4 [300]
0	0xbc8a8ef8	-0.016913876
1	0x3d9c0891	0.076188214
2	0xbcd0262c	-0.025408827
3	0x3d7717db	0.060325485
4	0x3db226af	0.086987846
5	0xbb8105d4	-0.0039374623
6	0x3cc96fdc	0.024589472
7	0x3d641475	0.05568357
8	0xbd6e1ab4	-0.058130935
9	0x3d30f71d	0.043204416
10	0xbd8c68b7	-0.0685591
11	0xbc81f2dd	-0.015862877
12	0x3d2b1285	0.04176571
13	0x3de35f7f	0.11102199
14	0x3d8c84cf	0.06861269
15	0xbd8fac83	-0.07015326
16	0xbcaa3ac6	-0.020779978
17	0xbd99def4	-0.07513228
18	0x3cf5568c	0.029948495
19	0xbd78df05	-0.060759563
20	0xbd76df58	-0.06027159
21	0x3da27469	0.0793236
22	0x3dbbde50	0.09173262
23	0x3d897aec	0.067128986
24	0xbd73b81d	-0.059501756
25	0x3d62e710	0.05539614
26	0x3d7c84a0	0.06164992
27	0x3d9e10d7	0.07718056
28	0x3d094416	0.033512197
29	0x3d7e2b45	0.062052984
30	0x3d7216aa	0.059103645
31	0xbd98acc9	-0.07454831
32	0xbd1afccc	-0.037838742
33	0xbd141980	-0.03615713
34	0xbcea944f	-0.028635172
35	0x3dd4d5d0	0.10392344
36	0x3d9e59fa	0.077320054
37	0x3d52cb92	0.05146367
38	0x3d80d580	0.06290722
39	0x3d44bf20	0.048033834
40	0x3d2dfac5	0.04247548
41	0xbc845024	-0.016151495
42	0xbcbd067b	-0.02307438
43	0x3ce21d42	0.027601842
44	0xbd35d7c1	-0.044395212
45	0x3d381c5b	0.044948917
46	0x3dfa908e	0.12234603
47	0x3d944bd4	0.072410256
48	0x3d604035	0.054748733
49	0xbd00ca20	-0.03144276
50	0x3bf44d25	0.0074554854
51	0xbd71d110	-0.05903727
52	0xbda7cf92	-0.08193888
53	0x3d93a045	0.07208303
54	0x3d7d7717	0.06188115
55	0x3dba0dda	0.09084673
56	0xbcd8a350	-0.026445061
57	0xbc440ea5	-0.011966382
58	0xbda785e3	-0.08179834
59	0xbd1e25e3	-0.03861035
60	0xbd625cea	-0.05526439
61	0xbde7f75b	-0.11326476
62	0xbaed9693	-0.001812654
63	0x3d83dd89	0.06438739
64	0xbd990826	-0.07472257
65	0x3d43a08b	0.047760528
66	0xbc0a851c	-0.008454587
67	0x3d39b80b	0.045341533
68	0xbd87df23	-0.06634357
69	0x3af05923	0.0018337112
70	0x3d198707	0.037482288
71	0x3d47aeaa	0.048750557
72	0xbbe67f13	-0.0070341914
73	0x3dd6494a	0.104631975
74	0xbc944aa3	-0.018101996
75	0xbd665027	-0.056228783
76	0xbd5596e0	-0.05214584
77	0xbd85e79e	-0.06538318
78	0x3db17526	0.086649224
79	0x3ca4c32d	0.020112598
80	0xbd8223f0	-0.06354511
81	0xbce12cc6	-0.02748717
82	0x3d0effdb	0.03491197
83	0xbe066b16	-0.13126788
84	0x3d7e27cf	0.062049683
85	0xbc6d4850	-0.014482573
86	0x3d231c0a	0.039821662
87	0x3d2c9d15	0.042141993
88	0x3dd775e2	0.10520531
89	0xbcdcf6a2	-0.026973072
90	0xbd957bc0	-0.07298994
91	0x3d6558aa	0.05599276
92	0xbc67fd99	-0.0141595835
93	0x3a22a025	0.0006203673
94	0xbd190165	-0.037354846
95	0x3dd3ced7	0.10342186
96	0xbc8182a0	-0.015809357
97	0xbddb72d6	-0.107152626
98	0x3d8a20ab	0.06744512
99	0xbc1c3813	-0.0095348535
100	0xbe16f503	-0.14741902
101	0xbd34b7a4	-0.044120446
102	0xbdee1777	-0.11625569
103	0xbce1f05e	-0.027580436
104	0xbc9578cd	-0.018246079
105	0xbdee467e	-0.11634539
106	0xbdc46ace	-0.09590684
107	0xbe32eca4	-0.17473084
108	0xbd73b99e	-0.05950319
109	0xbc0f41e8	-0.008743741
110	0xbdbc7c08	-0.092033446
111	0xbd979ad7	-0.0740258
112	0xbe143a72	-0.1447542
113	0xbd0bbdb0	-0.034116447
114	0xbe0a7758	-0.13522089
115	0xbe31d7eb	-0.17367522
116	0xbcec6471	-0.028856488
117	0xbdaa9366	-0.08328895
118	0xbde54f3c	-0.111967534
119	0xbde4978a	-0.11161716
120	0x39dc681f	0.00042039246
121	0xbe193c45	-0.14964397
122	0xbd4916c3	-0.049093973
123	0xbdd1645e	-0.10224222
124	0x3de4915b	0.11160537
125	0xbe1ca727	-0.15298139
126	0x3c062202	0.008186819
127	0xbbdb10de	-0.0066853603
128	0xbd39ba5a	-0.045343734
129	0xbb590c1a	-0.0033118785
130	0xba600cf7	-0.0008546854
131	0xbe145eb4	-0.14489251
132	0xbde3daff	-0.111257546
133	0x3c8f70f7	0.01750992
134	0xbe057881	-0.1303425
135	0xbc05e22a	-0.0081715975
136	0x3c2fd177	0.010731093
137	0xbd93c8ef	-0.072160594
138	0xbc065c45	-0.00820071
139	0x3d2c5355	0.04207166
140	0xbdc39674	-0.09550181
141	0xbccac492	-0.024751935
142	0xbe061997	-0.13095699
143	0x3ca784ae	0.020449009
144	0xbdfffec5	-0.12499765
145	0xbdbfc87c	-0.09364411
146	0xbe1b6bad	-0.15177794
147	0xbe3d8758	-0.18508661
148	0xbe3bed02	-0.1835213
149	0xbdd3e7cc	-0.10346946
150	0xbe1ca695	-0.15297921
151	0x3d909df9	0.07061381
152	0xbe2375ea	-0.1596295
153	0x3dc76711	0.09736455
154	0xbd989ecc	-0.07452163
155	0xbcc664fd	-0.024218077
156	0xbd1b93bf	-0.0379827
157	0xbd80f8df	-0.062974684
158	0xbd4a214a	-0.049348153
159	0xbe2d22ad	-0.16907759
160	0xbe31db83	-0.17368893
161	0xbe00e6b0	-0.12588
162	0x3be470c7	0.006971452
163	0x3d06d9ae	0.03292244
164	0xbe0c27d6	-0.13687071
165	0xbdd1d771	-0.1024617
166	0xbe207232	-0.15668562
167	0xbdc54d93	-0.09633937
168	0xbdbcedc6	-0.09225039
169	0xbd7fc69a	-0.06244526
170	0xbdcee5b8	-0.10102409
171	0xbd6c4af8	-0.057688683
172	0xbcb95813	-0.022625005
173	0xbd9931aa	-0.07480176
174	0xbd45ee62	-0.048323043
175	0xbc04fdec	-0.00811718
176	0xbda6f32b	-0.08151849
177	0xbe1edd87	-0.15514193
178	0xbdecdaa9	-0.115651436
179	0xbbbd201e	-0.005771651
180	0xbdc96461	-0.09833599
181	0xbc36bd6b	-0.011153559
182	0xbd886086	-0.066590354
183	0xbcc39115	-0.023872891
184	0xbd7152f1	-0.05891699
185	0xbd083693	-0.03325517
186	0x3c1e3b74	0.009657729
187	0x3db3d5fe	0.0878105
188	0xbd48d53f	-0.049031492
189	0xbd8a070a	-0.06739624
190	0x399ee6b5	0.00030307999
191	0xbe3dfefb	-0.18554299
192	0x3c31252d	0.010812086
193	0xbe230abf	-0.15922068
194	0xbd684523	-0.05670656
195	0xbd8e34f0	-0.06943691
196	0xbde92063	-0.113831304
197	0xbce1f21a	-0.027581263
198	0xbcfef560	-0.031122863
199	0xbcb46807	-0.02202226
200	0xbc43a374	-0.011940826
201	0xbd246baa	-0.04014174
202	0xbd17a0e8	-0.037018687
203	0xbda10d5f	-0.078638785
204	0x3db027d2	0.08601345
205	0xbd7c4d08	-0.0615969
206	0x3d33b8b6	0.043877326
207	0x3dd38506	0.103281066
208	0xbda2ddb3	-0.07952442
209	0x3c69efdd	0.014278379
210	0xbd2ba591	-0.041905943
211	0xbdc9b69e	-0.098492846
212	0x3c5e6eeb	0.01357625
213	0xbdcc5588	-0.09977251
214	0x3c380cdb	0.011233534
215	0x3cfa41b4	0.030548908
216	0x3d87c9f4	0.066303164
217	0x3d78cfee	0.060745172
218	0x3cdb85a3	0.026797121
219	0xbd807670	-0.0627259
220	0x3d398ce2	0.045300372
221	0xbc2fb123	-0.010723385
222	0xbd0b818d	-0.034059096
223	0xbdde0e9d	-0.10842631
224	0xbd0fb43b	-0.03508399
225	0x3d26cf96	0.040725313
226	0xbcfbfa5f	-0.030759035
227	0xbdc1e996	-0.09468381
228	0xbdbd9684	-0.09257224
229	0x3cface12	0.03061584
230	0xbd42157b	-0.047383767
231	0x3d8c0c6e	0.06838308
232	0xbdbcb44e	-0.09214078
233	0xbd559215	-0.052141268
234	0xbd9af4ef	-0.075662486
235	0x3dd857e1	0.105636366
236	0xbda415c6	-0.080119655
237	0xbddbc352	-0.10730614
238	0x3d8ca4d3	0.06867375
239	0xbc87319a	-0.016503144
240	0x3d4dedc6	0.050275587
241	0x3d815504	0.063150436
242	0xbd8e92b5	-0.06961576
243	0xbce227aa	-0.027606804
244	0x3c9d5a3c	0.019208066
245	0xbd390eda	-0.04518018
246	0x3c7dbd3c	0.0154870115
247	0xbda1b60c	-0.07896051
248	0x3d502d0b	0.050824206
249	0x3cab6e2f	0.020926563
250	0xbd34faeb	-0.044184607
251	0x3c88d096	0.016701024
252	0xbd0b0e42	-0.033949144
253	0xbde2878e	-0.11061011
254	0x3d99ee85	0.07516197
255	0xbcf45d75	-0.02982972

rnn.bias_hh_l0 f4 [300]
0	0x3d5faad2	0.054606266
1	0xbc934ac4	-0.017979987
2	0xbd14dead	-0.036345173
3	0x3d6839b5	0.05669566
4	0x3b0d1586	0.0021527722
5	0xbd07e1ce	-0.03317433
6	0x3da25a11	0.07927335
7	0xbd0a3194	-0.033738688
8	0x3dc06ac6	0.093953654
9	0xbc811788	-0.01575829
10	0x3d7756cd	0.060385514
11	0xbd805e60	-0.062680006
12	0xbe01418d	-0.12622662
13	0xbd4c2f4b	-0.04984979
14	0x3d3bbc43	0.045833837
15	0xbd35a1d1	-0.044343773
16	0xbc3c09dd	-0.011476961
17	0xbcdd206c	-0.026992999
18	0xbd3d0a79	-0.046152566
19	0xbd8373ed	-0.064185955
20	0x3d43754a	0.047719277
21	0x3d8b9687	0.0681582
22	0x3dbb7ccb	0.09154662
23	0xbd9959b8	-0.074878156
24	0x393c01e6	0.00017929784
25	0xbd9200f6	-0.071290895
26	0x3ccd66df	0.025073467
27	0x3d9b08ea	0.075700596
28	0xbe062f25	-0.13103922
29	0x3d7e0925	0.06202044
30	0xbd0a625c	-0.03378521
31	0x3dc72a00	0.09724808
32	0x3dbe440d	0.092903234
33	0x3dd25e24	0.10271862
34	0x3d9ee5b9	0.0775866
35	0x3deeec3a	0.116661504
36	0xbd88303c	-0.06649825
37	0x3dde2826	0.108475015
38	0x3c58c563	0.013230654
39	0xbd5b0dc8	-0.05347994
40	0x3deb6b2c	0.11495051
41	0x3daa78d9	0.08323831
42	0x3d41cb31	0.04731292
43	0xbcd03cee	-0.025419679
44	0x3d54a599	0.05191574
45	0xbd8a8f6e	-0.06765638
46	0x3d9904f0	0.07471645
47	0xbda565e0	-0.08076072
48	0xbbca3c35	-0.006171728
49	0x3d1291af	0.035783466
50	0xbd64c00a	-0.055847205
51	0x3d5b2f1e	0.05351173
52	0xbcdef15c	-0.027214698
53	0x3da6a366	0.081366345
54	0x3d9e1a50	0.077198625
55	0xbb8706e4	-0.0041206945
56	0x3d62f33d	0.05540775
57	0xbca7227d	-0.020402187
58	0x3d7a1137	0.061051574
59	0xbdced837	-0.100998335
60	0x3dcc1f64	0.09966925
61	0x3d1ec839	0.038765166
62	0xbd90ed84	-0.070765525
63	0x3b275a93	0.0025536164
64	0xbd438b56	-0.047740303
65	0xbdcbc302	-0.09949304
66	0x3c9e08b7	0.019291265
67	0x3d97db33	0.07414856
68	0x3dd00af9	0.10158343
69	0xbcbabe86	-0.022795927
70	0x3cffc440	0.031221509
71	0xbd8cba11	-0.06871427
72	0xbda11d6b	-0.07866939
73	0x3cde16be	0.027110454
74	0x3d010924	0.031502858
75	0xbdec2948	-0.11531311
76	0xbdb7166a	-0.08939822
77	0x3daae95c	0.08345291
78	0x3cd9bf3d	0.026580447
79	0x3d985189	0.074374266
80	0xbd8b140b	-0.06790932
81	0xbd85a358	-0.06525296
82	0xbddc092e	-0.107439384
83	0xbd64591b	-0.05574904
84	0x3c751703	0.0149591
85	0x3d6fe413	0.058567118
86	0xbc213761	-0.0098398635
87	0x3d81627a	0.06317611
88	0x3d857dfa	0.06518169
89	0x3da38017	0.079834156
90	0x3d1316b4	0.035910323
91	0xbd8ba885	-0.06819252
92	0xbca254e6	-0.019815873
93	0xbd2e8551	-0.04260761
94	0xbc71f7dc	-0.014768567
95	0x3d2af29d	0.04173528
96	0x3d8af1e4	0.06784418
97	0xbde54e24	-0.11196545
98	0xbd04788b	-0.03234152
99	0x3daf5e7b	0.085629426
100	0xbdbe7312	-0.09299292
101	0xbe2473de	-0.16059825
102	0xbd9ce86c	-0.076615185
103	0xbc4343e8	-0.011918046
104	0x3c7d61cc	0.015465211
105	0xbdafb638	-0.08579677
106	0xbe399664	-0.18123776
107	0xbdf8df06	-0.12151913
108	0xbcdbdfb0	-0.026840061
109	0x3d9a6922	0.07539584
110	0xbdf78e3a	-0.120876744
111	0xbbda7ec0	-0.006667942
112	0xbdecd482	-0.1156397
113	0xbd97d103	-0.07412913
114	0xbdd85701	-0.1056347
115	0xbe044f12	-0.12920788
116	0xbd0798ec	-0.033104822
117	0xbe1018c3	-0.14071946
118	0xbd417248	-0.047228128
119	0xbc075e3f	-0.008262216
120	0x3cfd7365	0.030938813
121	0xbd899881	-0.06718541
122	0x3db35df8	0.087581575
123	0xbe03b235	-0.1286095
124	0xbd457dd5	-0.048215706
125	0xbe406db5	-0.1879185
126	0xbe006a10	-0.1254046
127	0xbde1ed71	-0.110316165
128	0x3c917a45	0.017758498
129	0xbd8dc523	-0.069223665
130	0xbcf6f4ea	-0.030146081
131	0xbb2c2393	-0.002626632
132	0xbd92b279	-0.07162947
133	0xbd376f8d	-0.044784117
134	0xbe122f7f	-0.14275931
135	0x3cf1fe3e	0.029540177
136	0xbdc30161	-0.095217474
137	0xbd8ed0e9	-0.0697344
138	0xbdcaccd0	-0.09902346
139	0x3da2d62b	0.079510055
140	0xbe340a37	-0.17582022
141	0xbc8adcc7	-0.016950978
142	0x3d043fff	0.032287594
143	0xbde48559	-0.111582465
144	0xbdefebae	-0.11714874
145	0xbe1d446c	-0.15358132
146	0xbe26822b	-0.16260593
147	0xbe2ce946	-0.16885862
148	0xbe3d91ea	-0.18512693
149	0xbe0f7722	-0.1401029
150	0xbcdd0a53	-0.026982462
151	0x3c72d27f	0.014820694
152	0xbe354944	-0.1770373
153	0x3d298fb9	0.04139683
154	0xbd02e6c9	-0.031958375
155	0xbe1334be	-0.14375588
156	0xbe0e497f	-0.13895224
157	0xbd28d731	-0.041220848
158	0xbcab0b24	-0.020879336
159	0xbdd93aa1	-0.10606886
160	0xbe2b5b70	-0.167341
161	0xbdde5e4d	-0.1085783
162	0xbd4b6116	-0.049653135
163	0xbd8d83f8	-0.06909937
164	0xbccc8344	-0.024964936
165	0xbe35b2ee	-0.17744038
166	0xbdd527a1	-0.10407949
167	0xbcc6cf33	-0.024268722
168	0x3c4b3450	0.012402609
169	0xbd4123ad	-0.047153164
170	0xbdbe4765	-0.09290961
171	0xbdd64d87	-0.10464006
172	0xbd9f2eaf	-0.07772576
173	0xbdd67c2a	-0.10472901
174	0xbdafaaa7	-0.08577471
175	0x3c66fa79	0.014097803
176	0x3d2565e5	0.040380377
177	0xbdec30fe	-0.11532782
178	0xbcf0b63a	-0.029383767
179	0xbd291b59	-0.041285846
180	0x3b2536b8	0.0025209617
181	0xbb9e6b22	-0.0048345486
182	0xbdab6f67	-0.08370858
183	0xbd4b1c1a	-0.049587347
184	0xbd7161fb	-0.058931332
185	0xbbc6e433	-0.006069684
186	0x3b2f5fcf	0.0026759987
187	0x3d3e95f8	0.04652974
188	0xbd6e3c36	-0.05816289
189	0xbcd9376d	-0.026515687
190	0xbda75f45	-0.08172468
191	0xbd975aa8	-0.07390338
192	0xbd5cefff	-0.053939816
193	0xbaf47484	-0.0018650447
194	0xbe2c3a50	-0.1681912
195	0xbdad8c05	-0.08473972
196	0x3bcfd004	0.006341936
197	0xba300bdd	-0.0006715635
198	0x3e1add32	0.15123442
199	0xbe2ae798	-0.16689909
200	0x3de865e5	0.1134756
201	0xbd91d37d	-0.07120416
202	0x3c47f559	0.0122044915
203	0x3d874cf4	0.066064745
204	0xbd8525a4	-0.0650132
205	0xbc41f325	-0.011837755
206	0x3cc5da71	0.024152013
207	0x3cea3321	0.028588833
208	0x3de785ec	0.113048404
209	0x3d465b6b	0.048427027
210	0x3da130cd	0.07870636
211	0xbd95f12e	-0.07321392
212	0xbd2f3fec	-0.04278557
213	0xbcd18fe2	-0.025581304
214	0xbd129c4b	-0.035793584
215	0xbd1e136f	-0.038592752
216	0x3d408366	0.04700031
217	0xbb594530	-0.0033152811
218	0xbb589cf7	-0.0033052543
219	0x3c57e01a	0.013175989
220	0x3d3903f6	0.045169793
221	0xbd9609cc	-0.07326087
222	0xbca76e27	-0.020438267
223	0xb8deb7d0	-0.00010620023
224	0xbd91a41c	-0.071113795
225	0x3d8317c5	0.06401018
226	0xbb9ea298	-0.00484116
227	0xbd2724c2	-0.04080654
228	0x3ce36569	0.027758317
229	0xbd9ea941	-0.07747126
230	0x3dbfda16	0.093677685
231	0x3dea21ce	0.11432229
232	0xbdcb0d79	-0.09914679
233	0xbd8c0ba3	-0.06838157
234	0xbd15095d	-0.036385883
235	0x3c71da2a	0.014761487
236	0x3d006d59	0.031354282
237	0xbdc5dfb0	-0.09661806
238	0x3c2a4091	0.01039137
239	0xbdd59ad5	-0.104299225
240	0x3cc5757a	0.024103869
241	0x3c681e1e	0.014167337
242	0xbc758e82	-0.01498759
243	0xbcc2702a	-0.023735125
244	0xbdae706b	-0.08517536
245	0x3dc15e51	0.094418176
246	0xbd78b49f	-0.06071913
247	0x3d6c189b	0.057640653
248	0xbd075c92	-0.033047266
249	0xbdb73574	-0.08945742
250	0xbd15a89a	-0.036537744
251	0xbdb66f01	-0.08907891
252	0xbd009d3a	-0.031399943
253	0x3d8f6427	0.070015244
254	0xbdc0de17	-0.0941736
255	0xbdaa80a7	-0.0832532

linear.weight f4 [1, 100]
0	0x3e05a46e	0.13051006
1	0x3d9acd88	0.07558733
2	0xbcbb9e37	-0.022902591
3	0xbd19badc	-0.03753172
4	0x3bbf25e3	0.005833374
5	0x3d2b2898	0.04178676
6	0xbdf04833	-0.11732521
7	0x3cf272b1	0.029595705
8	0x3d387d93	0.045041632
9	0xbd2f2c0e	-0.042766623
10	0x3d7dfdd4	0.062009647
11	0xbd73b248	-0.059496194
12	0xbb49131a	-0.0030681551
13	0xbde0e997	-0.10982054
14	0x3cee06da	0.029056001
15	0xbda21c8c	-0.07915601
16	0xbd8faa58	-0.07014912
17	0xbd81f996	-0.06346433
18	0xbdf5bfef	-0.11999499
19	0xbd36584e	-0.044517808
20	0x3c2701fc	0.010193344
21	0x3d23b389	0.03996614
22	0xbd7ee338	-0.06222841
23	0xbdb8bf61	-0.09020878
24	0xbd9f339b	-0.07773515
25	0x3d7176ff	0.058951374
26	0x3dfbe2f3	0.122991465
27	0xbe05f87a	-0.13083068
28	0x3cbccf2f	0.023048012
29	0xbd87c841	-0.06629992
30	0xbc1e0276	-0.009644141
31	0x3d840d9e	0.0644791
32	0xbd8ea970	-0.069659114
33	0x3d3f1831	0.04665393
34	0xbdce2415	-0.10065476
35	0x3d54fe2f	0.05200022
36	0x3d0726fd	0.032996166
37	0xbd844c67	-0.06459885
38	0x3ce7a1d2	0.028275404
39	0xbd1e566a	-0.03865663
40	0xbccaf425	-0.02477462
41	0xbd0e7a73	-0.034784745
42	0xbbbb5d55	-0.005717913
43	0x3d947de2	0.07250573
44	0xbda5b031	-0.080902465
45	0x3dd640ed	0.10461602
46	0xbdf60e22	-0.12014414
47	0xbdee391f	-0.11631989
48	0xbda24b91	-0.079245694
49	0x3ca1ce29	0.019751625
50	0x3d2e5679	0.042562936
51	0xbd257b9c	-0.040401086
52	0x3dee8185	0.11645798
53	0xbc3ac7d6	-0.011400184
54	0xbdb06f7d	-0.08615015
55	0x3cb2550c	0.02176907
56	0xbde984e1	-0.11402298
57	0xbd94af73	-0.07260027
58	0x3cb00956	0.021488827
59	0x3d393f41	0.04522634
60	0x3da51e73	0.08062448
61	0xba0b5106	-0.00053145026
62	0xbaea2191	-0.0017862787
63	0x3d847ef4	0.06469527
64	0xbde42cbd	-0.11141346
65	0x3d9ad490	0.07560074
66	0xbdf99d39	-0.12188191
67	0x3df2d4d6	0.118570015
68	0x3d8684fe	0.06568335
69	0x3d5d69c1	0.054055933
70	0xbceb8a98	-0.02875261
71	0x3dc08979	0.09401221
72	0xbcc570ee	-0.0241017
73	0x3dce8468	0.10083848
74	0x3e090664	0.13381344
75	0xbcf9b68b	-0.030482551
76	0x3c3863e5	0.011254285
77	0xbdecb771	-0.11558426
78	0xbb925710	-0.004465945
79	0xbdade4ad	-0.08490882
80	0xbd854623	-0.06507518
81	0x3d353604	0.044240966
82	0x3d5ad7ef	0.053428587
83	0x3b093b0b	0.0020939733
84	0x3cfaaf90	0.030601293
85	0xbdf109c4	-0.11769441
86	0x3dd1ac92	0.10237993
87	0xbd0f1903	-0.034935962
88	0xbd6eeed3	-0.05833323
89	0xbd45d66d	-0.048300195
90	0xbcd68e1f	-0.026190815
91	0xbd16ecd7	-0.03684696
92	0xbddb4218	-0.10705966
93	0xbc953059	-0.01821153
94	0x3dfda055	0.123840965
95	0xbcca58ab	-0.024700483
96	0xbddabc5a	-0.106804565
97	0x3bf6d592	0.007532784
98	0x3c9eb545	0.019373545
99	0x3c363fb5	0.011123587
