backend/trained_models/MBL_LSTM_model_state_dict.pth (torch, 167939 bytes, 5 tensors)

rnn.weight_ih_l0 f4 [400, 1]
00000000: d05e f13d 34a2 0fbc 3d26 19bc 23b8 e9bc
00000010: bec6 6dbd c947 9c3c 96c0 123c 1bad b4bd
00000020: 6f82 b53d 4cec b3bd 4cd2 a53d 2854 31bd
00000030: 937b 813d 5400 13bd 3cb8 77bd da15 ce3d
00000040: 02a9 e7bc 1627 a6bd a652 833d 71a8 b73d
00000050: 0fe4 ff3c 20a5 ef3d 5613 853d 7aff d03d
00000060: b773 9d3d 7f76 423d 84fb 943d 4930 7a3c
00000070: 7ce9 b43d 27a0 0d3d a77e 433d 386f 1e3c
00000080: ec95 71bd b5ce 84bc 56f4 81bd 355c c53d
00000090: 6bd7 e2bd 5a3b 7cbc b653 c6bd 9f99 353d
000000a0: 14f5 9f3d 16ac debb d839 1dbd c19a e63d
000000b0: a09c 713d e3c3 58bd b6a5 a3bd 88b3 e8bc
000000c0: 7f13 853d 0be0 623d b6a2 87bd 0d47 943d
000000d0: beb4 e23d 2c58 553d 4840 68bd 7f4b 03be
000000e0: 9da5 bc3d df61 32bd f6e1 713d a7ad 593c
000000f0: 539e 443c 9183 5d3d d39a de3d f6c5 39bc
00000100: 9f17 d03d 6253 dabc 8393 1c3d a2e3 fc3c
00000110: f485 c73d e237 21bd 7c30 f2bd 5292 d43d
00000120: 442b 3bbd cb44 f13c eb9b 1f3c 42e5 053d
00000130: d014 433d dfb0 91bd 2f06 083d d242 84bd
00000140: 0bcc 7b3d 9c19 4bbd 1384 84bd ee10 de3c
00000150: da32 97bd 17d1 b8bc 496d 2c3d ebf1 bc3c
00000160: 529c 9b3c a5e3 f93d 5bfd 23bd aece e73d
00000170: aee8 64bd 0192 f4bb 618e e63b acfa 913d
00000180: b891 81bd 7836 d73c 446d e9bc a28e 953d
00000190: f223 c43d d4da 113e 85fb a0bc 6635 06bd
000001a0: 5401 af3b c0a8 923d 1a4e 9b3d 45f0 1bbd
000001b0: 008b 65bd 2cc1 ffbd 612d 2fbd 1abb 42bd
000001c0: 4143 0ebc e240 b33d 8093 1c3d e692 e13c
000001d0: 6702 753d e007 f1bd 2eef c53d 2a11 83bd
000001e0: 77a4 2fbc 1ce4 913c ba58 943d f4d0 c4bc
000001f0: c311 c83d 01d3 9b3d 538c af3c 72b7 123c
00000200: 8a50 aebb 783d 7bbb 5659 c43c 272d 103d
00000210: 5aa9 1fbd c939 0d3d 5552 92bc b768 0fbd
00000220: 1571 f3bd 6015 973c 50f7 a63d aaea 593d
00000230: eda2 abbd 7f4e 62bd 343e 323c 3d5d 2fbd
00000240: 8f2e f9bb e787 71bd a443 24bd e87d 813d
00000250: 1300 fdbc b45d 783d b6b5 d8bd b460 8fbd
00000260: c34b ef3d b568 bf3b 68b5 f0bb 69d7 5cbd
00000270: 50bd 83bd 6c1b 8fbc 185c d1bb c3ce 60bd
00000280: 7082 a53d cfd2 f93d 55ee 893d 0cd7 2e3d
00000290: d1de e0bc 212d 89bc d9b6 a83b ff9d 663b
000002a0: 6d96 c93d 0201 843d eb06 7a3b 55eb f13b
000002b0: 6404 163e b27a babd 88c8 e2bd 44cd bd3d
000002c0: e032 943d cf50 4cbd 5b28 a43d 614c 8e3d
000002d0: e1bd a23c 3808 ce3d 7bfc 0dbd c397 873d
000002e0: 7fe4 7dba 4b4b e23d c661 833d b2c6 853d
000002f0: e31d f23c 7552 02bd 97d1 8c3d 7ebd bbbc
00000300: bd9c e93b 728e a63d f588 893d a153 29bd
00000310: a562 9abd 184f 09bd a526 dcbd d06a e03d
00000320: 32bf 95bc 9639 0d3c d93e 843c b92e 503d
00000330: a179 973c c714 0fbc 43ce 8e3d ea0a d93d
00000340: a3af 01be 83b5 c6bd ef6f 77bd 7f13 f7bc
00000350: a0a6 99bc b24a 69bd 0fb6 733d 1b05 fe3d
00000360: b266 b13c f8ce 5cbc 1f3e 593d 51cc b9bd
00000370: 8b3b a53d f216 f53d fd91 0abe 601a aebd
00000380: 7658 a4bb c292 b93d 4651 a23d 1434 043d
00000390: 8374 8c3c 8a2c b03d 3ad5 003e 3d25 fabd
000003a0: cc25 75bd 9b6b 923d 9767 c7bc be57 0abe
000003b0: 76cd 1a3d 08c6 83bd ae7e 713d a529 2abd
000003c0: e5ff 01be 8657 ad3d 65aa 9cbd 4d6b c43d
000003d0: 8b1e 82bc 975b 1bbd f55b 75bd e065 e43d
000003e0: 800b 90bd c8bf f03d 6989 c03c 6804 ec3d
000003f0: 2b33 a6bd df31 133d 3049 fd3c 857e dcbd
0.11785662 -0.0087667 -0.009347496 -0.028530186 -0.058050863 0.019077199 0.008957049 -0.0882208
0.08862769 -0.087853044 0.080967516 -0.04329315 0.06322398 -0.035888985 -0.060478434 0.100627616
-0.028278831 -0.08112924 0.06412248 0.089676745 0.031236676 0.11701417 0.06497829 0.10204978
0.076880865 0.047476288 0.07274535 0.015270301 0.08833596 0.03457656 0.047728207 0.009670071
-0.058980867 -0.016211847 -0.063454315 0.09636728 -0.11076244 -0.01539501 -0.09683935 0.044335958
0.07810417 -0.0067954166 -0.038385242 0.11259986 0.05898726 -0.052921187 -0.07990591 -0.02840592
0.06497859 0.055389445 -0.066228315 0.07240114 0.1106963 0.05208604 -0.05670193 -0.12821768
0.09211276 -0.04355037 0.059053384 0.013286031 0.012000638 0.05408055 0.10869374 -0.0113387015
0.10160755 -0.026651088 0.038226616 0.030870263 0.097423464 -0.039359935 -0.11825654 0.10379471
-0.04569556 0.029451748 0.009741764 0.03268934 0.04762727 -0.071138136 0.033209022 -0.064580575
0.061473887 -0.04958497 -0.06470504 0.027107682 -0.07382746 -0.02256064 0.04209641 0.023064574
0.018995438 0.12201623 -0.04003654 0.11318718 -0.055885963 -0.007463694 0.007036016 0.0712789
-0.06326622 0.02627109 -0.028494485 0.07302596 0.095771685 0.14243633 -0.019651184 -0.03276577
0.0053407345 0.07161093 0.07583256 -0.038070936 -0.056040764 -0.124880165 -0.042767886 -0.047541715
-0.008683027 0.0875261 0.038226604 0.027535867 0.059816744 -0.1176908 0.096647605 -0.06399758
-0.010720364 0.017808966 0.07243486 -0.024025418 0.09769013 0.07608605 0.021429216 0.00895487
-0.0053196596 -0.0038336199 0.02396838 0.03519931 -0.038979866 0.034478936 -0.017861525 -0.035011973
-0.11886803 0.01844281 0.0815264 0.05320231 -0.08380685 -0.05525064 0.010879088 -0.04281353
-0.007604427 -0.058967497 -0.04010357 0.06322843 -0.030883824 0.060636237 -0.105815336 -0.070008665
0.11684372 0.0058413395 -0.007345844 -0.05391637 -0.06432593 -0.01746913 -0.0063891523 -0.054884683
0.080815196 0.12198412 0.06734911 0.042685553 -0.027449997 -0.016745152 0.0051487503 0.0035189388
0.098431446 0.06445505 0.0038151096 0.00738279 0.14650112 -0.091054335 -0.110734046 0.09267667
0.07236266 -0.049881753 0.0801551 0.06948162 0.019865932 0.10060161 -0.034664612 0.06620743
-0.00096852327 0.11049517 0.06415133 0.06532039 0.029555267 -0.03181692 0.068759136 -0.022917505
0.0071292804 0.08132638 0.067155756 -0.04133952 -0.07538346 -0.033522695 -0.10749558 0.10957873
-0.018279646 0.008619687 0.01614325 0.05082581 0.018490614 -0.008732981 0.06972935 0.10597785
-0.12664656 -0.09702589 -0.060409483 -0.030160664 -0.01875621 -0.056956 0.059499796 0.124033175
0.021655414 -0.01347708 0.05303776 -0.090721734 0.080679975 0.11967267 -0.13532253 -0.085011244
-0.005015428 0.09061195 0.07925658 0.032276228 0.0171454 0.08602245 0.1258134 -0.12214134
-0.0598505 0.0714943 -0.024341388 -0.13510033 0.0377936 -0.06434256 0.0589587 -0.04154362
-0.12695272 0.084639594 -0.07649688 0.095907785 -0.015883705 -0.037929144 -0.05990215 0.111522436
-0.070334435 0.11755329 0.023503022 0.11524278 -0.08115228 0.035936233 0.030918688 -0.10766319

rnn.weight_hh_l0 f4 [400, 100]
00000000: 13f4 903d 811f 463d 946a 653d 405f b63d
00000010: 5fd1 c43d f699 d53c 44fa 9f3d 90a4 9f3d
00000020: aea3 efbc 8542 71bc 8756 9b3d 8b85 1b3d
00000030: 01b4 6ebd 279d 643d 37ce cc3d eaaa 893d
00000040: e161 9cbd 1364 45bc 180c 2bbd 1557 9d3d
00000050: 8d84 4ebd b13e 84bc 2946 28bd dd53 a03d
00000060: 6010 a1bd be1f 98bb d3cf 973d 7d3b d7bb
00000070: 1864 833d e16e 98bb 178e 83bd 9cc8 d3bd
00000080: 59c6 07bd 647d ccba a78f 52bd 31f7 98bc
00000090: dc24 523d 14ab 6abc 9f26 99bd eecd 0d3d
000000a0: 1e92 ef3c f216 1abd b7b2 33bc 23e8 b2bd
000000b0: 0362 91bd 211b aabd cc62 2bbd 6758 be3c
000000c0: 27c2 b2bd 9bda c33d 03cf c8bd f310 0fbd
000000d0: ebec dd3b dd35 9f3d d768 0d3d a0da 1dbd
000000e0: 8606 9d3d caba f4bc f59f 01bc 2695 cb3d
000000f0: 17c0 79bd 72db 473d db48 b7bc f79f 073d
00000100: 702c 27bd a3b4 c1bd c4fb 073d b60e a9bc
00000110: 5998 99bd 4d11 b43d 8a14 833d 00f8 633d
00000120: 49b3 77bd 635d 24bd f9db 76bc a16a 78bd
00000130: 4bf5 483c 5a39 debc 0d68 2ebd 0d3a 8cbc
00000140: f1a9 073d 20dc 5d3c c227 adbc ead5 893d
00000150: ad10 17bd ff3b 5bbc d85b b73d 8e8a fa3b
00000160: 0f88 0bbc a7b8 19bd 4de8 afbc 72b9 42bd
00000170: 1815 863d 716b dd3b 07bb 1a3d a4bc b2bd
00000180: ef7a bdbd 0b5b 8c3d 6a28 1b3d fd0a 7b3c
00000190: e369 40bd afb6 33bd ad11 913d b9e9 9fbc
000001a0: 13ba 333c ab87 9fbc 0ae8 a2bd efac a93b
000001b0: af43 82bd f7f9 a5bd 5b5f fcb9 23f3 febc
000001c0: 911d b4bd a08d aa3d c88f a8bc 693e 29bd
000001d0: 3bdb c73d dce2 d83c eb51 7b3c f4e1 00be
000001e0: c5bb 60bd d533 1d3b e06a b2bc fef2 663c
000001f0: 0f59 b7bb 136e b93d 9cd8 c3bc 716f 6bbd
00000200: e75e 96bc 673a 07bc 8d02 ba3d 227d 853d
00000210: 574c 8a3d edf3 89bd 6689 7f3d e644 4fbd
00000220: 6a5c abbd 498a 333d 1080 a63c 343f 9bbd
00000230: 0797 d3bd cb10 eb3d 62a0 993d e55e 353d
00000240: a1c3 9e3d 5f7a 38bd 7652 d0bd 237d 82bc
00000250: e414 d6bc 6bcf bd3c 4cc2 963d 4b5e e2bc
00000260: 4bfa 9cbd 26b4 a6bd eadc a4bd b818 09be
00000270: 74f2 c03d 8984 b83d 5ddc adbd 6949 493c
00000280: cb44 99bd 38f1 4b3d f1ac ea3c 32f2 acbc
00000290: 804d 9c3d 7dbb de3d b9e7 9f3d 9166 c73d
000002a0: b73f 7fbd 2fab 373d 1ec4 ccbc 5797 c33d
000002b0: 0e04 afbd e140 ed3c 78a1 9f39 4685 e53d
000002c0: e3f3 6a3d 69a9 c83d 5c07 d2bc 4281 73bd
000002d0: b246 23bb 3816 9fbd 19bb 993c 1cce c63d
000002e0: 0738 613c 7658 6fba 743b 8ebc 018a df3d
000002f0: 1b13 003d 5609 933d d5dc 893d d052 4cbd
00000300: 9679 3abd a312 32bd 0d51 ea3d 4561 84bd
00000310: 4fbf fabd e2b0 a63d 5f03 743d 609a 2bbd
00000320: 6239 e23d 953b 16bc a08e a3bd 921c 873d
00000330: 8d8f 16bd 4ce9 b5bd c6ce a63d b5e5 b33d
00000340: 122c 9f3d 2874 2fbd 174a 8ebd e4b8 bf3d
00000350: a1ee 9abd 64dc 62bd 7cef 143d e7e1 60bd
00000360: a1d5 e53c 836a dbbb 3d39 12bc 64ca ea3d
00000370: e19a 8cbd 44a5 873d e624 213c 8c69 a2bd
00000380: afd6 723c 8f8d 3e3d 16e1 853d a3c5 1d3d
00000390: e756 27bd c6e2 a53d 3d2a 963b d445 a5bc
000003a0: e176 59bd 8bd9 61bd dd17 53bc fa58 ce3d
000003b0: 1fa4 61bd 8184 fa3c 7f76 5c3c b5b7 1bbb
000003c0: f3b7 cc3c ce5c 733d 9443 093c 1fa7 41bd
000003d0: c227 c2bd 8a7a 86bd 39de 00bd cb7a 053d
000003e0: ae2f 123d 735a dbbc e97e 8b3d 3e5f 66bd
000003f0: 5c41 a43d a3db 8f3d b0e1 bebd 7ca9 53bd
0.070778035 0.04836989 0.056009844 0.08904886 0.09610247 0.02607439 0.07811406 0.0779506
-0.029252853 -0.014725332 0.07584863 0.037969153 -0.058277134 0.055813935 0.1000027 0.067220524
-0.076358564 -0.012047785 -0.04175958 0.07682625 -0.05041938 -0.016143175 -0.041082535 0.07828496
-0.078644514 -0.004642456 0.07412686 -0.006568371 0.06415576 -0.0046518897 -0.06423586 -0.103409976
-0.033148143 -0.0015601334 -0.05140653 -0.018672558 0.051304683 -0.014323015 -0.074780695 0.034620218
0.029244479 -0.03761954 -0.010967902 -0.08735683 -0.070987724 -0.08305956 -0.041842267 0.023235513
-0.08728438 0.0956318 -0.09805109 -0.034928273 0.0067726276 0.077739455 0.03452381 -0.038538575
0.0766726 -0.029874224 -0.007911672 0.09940557 -0.060974207 0.048793264 -0.022373607 0.03311154
-0.040813863 -0.09458282 0.033199087 -0.020636898 -0.07499761 0.08792362 0.06400402 0.055656433
-0.060473714 -0.040128123 -0.015067094 -0.060648564 0.012265514 -0.027126957 -0.0425797 -0.017117525
0.033121053 0.013541251 -0.021137122 0.06730254 -0.036881138 -0.013381003 0.08953065 0.0076459115
-0.008516326 -0.037529614 -0.021473074 -0.047540136 0.06546992 0.006757193 0.03777602 -0.087273866
-0.09251963 0.068533026 0.03788034 0.015322444 -0.04697598 -0.043875393 0.070834495 -0.019520627
0.0109696565 -0.019473871 -0.07954414 0.005178086 -0.06360566 -0.08104318 -0.0004813623 -0.031121796
-0.08794702 0.08327794 -0.020576373 -0.041319285 0.09758612 0.026475362 0.015339355 -0.12586194
-0.05486657 0.0023987193 -0.021779478 0.01409602 -0.0055953334 0.09054198 -0.023906998 -0.057479326
-0.0183558 -0.00825367 0.09082518 0.06518008 0.06752842 -0.06735978 0.062386893 -0.050602816
-0.08367236 0.04383305 0.020324737 -0.075804144 -0.103315406 0.114778124 0.07501294 0.04427995
0.07752157 -0.045038577 -0.10171978 -0.01592881 -0.026133008 0.023170194 0.07361278 -0.027632853
-0.07664927 -0.08139829 -0.080499485 -0.13388336 0.09421244 0.09009654 -0.084892966 0.012285569
-0.07483824 0.04979059 0.028646918 -0.021111581 0.076319695 0.10875604 0.078078695 0.0973636
-0.062316623 0.044840988 -0.02499586 0.0955035 -0.08545695 0.0289616 0.00030447147 0.112070605
0.057361495 0.097979374 -0.025638275 -0.05944944 -0.0024913964 -0.0776791 0.018765973 0.09707281
0.013746268 -0.0009130308 -0.017362334 0.10914994 0.03126822 0.07179515 0.067315735 -0.049883664
-0.04552611 -0.043474805 0.114412405 -0.06463865 -0.122435205 0.081392065 0.059573527 -0.04189527
0.11046101 -0.009169479 -0.07986188 0.06597246 -0.036757994 -0.088823885 0.08144908 0.087840475
0.077720776 -0.042835385 -0.06947725 0.09361437 -0.07565046 -0.055385962 0.036361203 -0.054902937
0.028055968 -0.006696047 -0.0089247795 0.11464384 -0.06865478 0.06623319 0.009835457 -0.07930288
0.014821692 0.04652172 0.06537072 0.03851856 -0.04085436 0.08099894 0.004582672 -0.020174898
-0.053091887 -0.055139106 -0.012884107 0.10075565 -0.05508816 0.03058076 0.013455986 -0.002376062
0.024990058 0.059414677 0.008377928 -0.04727852 -0.094802395 -0.06566341 -0.031461928 0.032587808
0.035690002 -0.026776528 0.068113156 -0.056243174 0.08020279 0.07024314 -0.0932039 -0.051675305

rnn.bias_ih_l0 f4 [400]
00000000: cd21 b83d ea38 d7ba 39ec 943d 41ec 4abd
00000010: b0a0 fbbc 3440 7d3c 709e afbd 9586 94bc
00000020: fff9 823d adb1 5c3d a776 e93d 10cb 99bd
00000030: d29b 393d 58fa f03b a808 49bc d788 e23d
00000040: 6574 cfbc f1f6 91bd 0f93 d3bc 5268 d43d
00000050: 7b7a 653c 34ed 473d 704d 2a3d aaeb 8abc
00000060: c958 f43c 0483 eb3d 24fc 3abc bf2f 003e
00000070: 9904 12bb a28d c13d 75b8 603d 9afc 05bd
00000080: 2223 7fbd ceea 65bb d0fb fa3c 7c78 f8bc
00000090: c9ea a8bc d18f 46bd 9240 a6bd 4987 c63b
000000a0: fb51 203d 4b8b 49bd bd1b 15bd 53e0 24bd
000000b0: 421e 03bd daaa 84bd d20a 5cbc 9f5f ea3a
000000c0: 5ea5 22bd 994f 3abd 870a 50bd 6dca 7a3c
000000d0: 8361 43bd 6c60 b8bc e25d 043d 337b 52bd
000000e0: cc1a 203d a47b b23d c898 713d 036c daba
000000f0: 8885 debd a6db ff3d 11aa 6f3c ae40 74bd
00000100: 228c a03d cabe 84bc 1eff 83bc 0807 4cbd
00000110: 54de 7b3b 7757 8cbd ed21 c2bd cc3e 843d
00000120: 6a8d 003e d69a c4bd 2d0d 9ebd ad51 6abd
00000130: b030 76bd c460 a73d e0ae 42bb 488d bf3d
00000140: 274e 4dbd 6c48 5c3c f058 d23d 82cf 69bb
00000150: 5e0b e1bd b1f5 9bbd 53c2 cc3d 3e8e a13d
00000160: adee 613d b0bc f5b9 f7d7 f33d c358 cf3d
00000170: cfe4 7d3d a2d8 323d fb3a b8bd 3a3a 72bd
00000180: 7e51 82bd 0ffd ff3c 9563 cebb e0c2 1ebd
00000190: f3f5 59bd 6338 cd3d a612 afbd 15ab 16bd
000001a0: 2ec8 9a3d 828e ae3d bb6a 8e3d c0f7 c43d
000001b0: bc23 ef3d 5fe6 953d 53ea 87bd 5f5b 453d
000001c0: 2d56 d9bc a9f4 3bbd de51 8fbd 7396 c73d
000001d0: 32cf 073d ffe8 aabd f2ab fe3c 86c0 74bd
000001e0: 61fa 273d d300 903c 3851 d4bc 7757 893d
000001f0: 8901 a1bd 3658 853d fd05 a3bd 2e98 83bd
00000200: de0d 83bd bf0d a93d 85e3 1cbd 5062 36bc
00000210: 23bb d23c 95f6 f53d f579 5f3d df28 053c
00000220: abd6 b73d f942 e33c 911c b5bd 6cae b23c
00000230: 5623 7ebd f931 863c 4dab d7bd 6974 cf3c
00000240: 4236 9a3d d8f2 9f3d 5df5 f0bc 2f13 62bc
00000250: 26ee 313c eee4 213d 467e 56bd 0dea ccbc
00000260: 37a5 383d 64ec 9c3d 741b 9c3d 18f0 053d
00000270: 0c42 b8bd 85fb 283d e068 f23d 701a 5c3c
00000280: f15e 73bd d2ea 43bd d2ab 8abd a069 acbd
00000290: df67 4d3d 4028 623d 5a1a 5abd 7607 713c
000002a0: 22d8 17bd 7f55 d43d dd8b 833a a50c 79bd
000002b0: 33ef 85bd ce92 4f3d ad2c 3abd 5ab9 81bd
000002c0: c608 d63d 109a dd3c 32cc 0fbc db25 99bc
000002d0: ec8a c63d 0bce 59bd c314 53bd 3824 9c3c
000002e0: fc16 69bd 8a12 81bc 3f3c 00bd 7672 2abc
000002f0: cfac 88bd f7e5 a63c 5de5 75bc 5079 72bd
00000300: 28f1 af3d 81eb 2fbd 4acc a93d 6c06 7c3d
00000310: 57aa 53bd 3e34 54bd 0e80 9dbd c29f 9a3d
00000320: b288 ccbd 12c3 273d 8429 a43d 004d 97bb
00000330: 18e4 3bbd 5d59 5f3d b010 e0bc d0b4 a6bd
00000340: 228a a5bc 677f d73d 04de c23d b73b cebb
00000350: 63e9 693d e946 b23d 9baf 983c 3dee d93d
00000360: 741c 5a3c 00c4 773d 63b3 15bd 55d6 baba
00000370: 0e3a 873d 85c4 9fbd 70fe b5bd fec3 973d
00000380: b7b8 903d 2233 4b3b dda7 823d d10a 33bd
00000390: e840 683b 2bde a03d df5d e33c 670a 51bd
000003a0: 3e9c a0bd cfd0 7f3c be10 8dbc 080a 333d
000003b0: af3b 423d 9dc4 25bd 4486 c4bb 4da5 543d
000003c0: 9c80 3fbd 74b4 8ebd 54bc 7ebd b1f8 153d
000003d0: a0e0 ad3d 7a5c 9abd 286a 1c3d 4cad 65bd
000003e0: 3b27 9d3d 71da 7e3d 4f77 0f3d 04ac 453d
000003f0: 89e1 dcbc 40ff 013c 105f 9abd 3aad db3d
0.08990822 -0.001642016 0.072716184 -0.049541716 -0.03071627 0.015457202 -0.085751414 -0.01813058
0.06395339 0.053880382 0.11399584 -0.07509434 0.045314617 0.007354062 -0.01227013 0.110612564
-0.025324056 -0.071271785 -0.025826959 0.1037146 0.014006252 0.0488102 0.041577756 -0.016958077
0.029827492 0.114995986 -0.011412654 0.12518214 -0.0022280572 0.094508424 0.054863412 -0.032711603
-0.062289365 -0.0035082581 0.030637652 -0.030330889 -0.020619767 -0.048476998 -0.081177846 0.0060586077
0.039140683 -0.049205106 -0.036403406 -0.040252995 -0.032011278 -0.064779 -0.013430314 0.001788128
-0.039708488 -0.045486066 -0.05079129 0.015307051 -0.047700416 -0.022506915 0.032316096 -0.051387023
0.039088055 0.08714989 0.058983594 -0.001666427 -0.10865313 0.124930665 0.014627949 -0.059631996
0.07839228 -0.016204257 -0.01611286 -0.049811393 0.0038432078 -0.0685262 -0.09479127 0.0645729
0.12553945 -0.09599845 -0.07717357 -0.0572068 -0.060105026 0.081727535 -0.0029706284 0.09353119
-0.05012336 0.013445001 0.1027087 -0.0035676663 -0.10988496 -0.07615221 0.09998002 0.07888459
0.05515926 -0.00046870625 0.119064264 0.10124352 0.061985787 0.04366363 -0.08995625 -0.05913756
-0.063632 0.031248597 -0.006298492 -0.038760066 -0.05321307 0.100205205 -0.08548479 -0.03678425
0.075577125 0.08523275 0.06953951 0.09617567 0.11676738 0.073193304 -0.06636491 0.04818284
-0.02653035 -0.045887623 -0.06998037 0.09745493 0.03315658 -0.08345222 0.03108785 -0.059753917
0.041010264 0.017578518 -0.025917634 0.06706136 -0.07861621 0.065109655 -0.079601265 -0.0642551
-0.06399129 0.08254575 -0.038302917 -0.011131838 0.025724 0.120099224 0.054559667 0.00812742
0.089764915 0.027741896 -0.08843339 0.021811686 -0.062045418 0.01638125 -0.1053072 0.025324063
0.0752988 0.07809991 -0.029413873 -0.013798519 0.010860002 0.039524965 -0.052366517 -0.025013948
0.045079436 0.076622754 0.07622424 0.032699674 -0.089969724 0.041255493 0.118364096 0.013434038
-0.059416715 -0.047831364 -0.067710534 -0.08418584 0.050147887 0.055214167 -0.053247787 0.0147112515
-0.037071355 0.103678696 0.0010036189 -0.060803074 -0.06539764 0.050677113 -0.045452762 -0.06334181
0.10450892 0.027051002 -0.008776711 -0.018694809 0.09694466 -0.053175014 -0.05153347 0.01906024
-0.056906685 -0.01575591 -0.031307455 -0.010403266 -0.066735856 0.020373328 -0.015008298 -0.059197724
0.08590919 -0.042949203 0.08290918 0.061529562 -0.05167612 -0.051807635 -0.0769044 0.07550003
-0.0998701 0.040957518 0.08015731 -0.0046173334 -0.045871824 0.054528583 -0.027351707 -0.08139956
-0.020207468 0.10522347 0.09515002 -0.0062937397 0.05710734 0.08704931 0.018638423 0.106411435
0.013312448 0.060489655 -0.03654803 -0.001425455 0.0660287 -0.07801155 -0.08886421 0.074104294
0.070664816 0.003100582 0.06379674 -0.043711487 0.0035439078 0.07854875 0.027754722 -0.05103531
-0.07842301 0.015613749 -0.017219897 0.04371074 0.0474202 -0.04047071 -0.005997451 0.051915456
-0.04675351 -0.069680125 -0.062191322 0.036614124 0.084901094 -0.0753717 0.038187176 -0.056073472
0.07673498 0.06222004 0.03502589 0.04825975 -0.026963012 0.0079343915 -0.07537663 0.107264

rnn.bias_hh_l0 f4 [400]
00000000: 7162 c4bc d48b c33d cb07 f3bd 6049 ad3a
00000010: fe80 a23d d465 8bbd 9e28 7fbd 4839 12bd
00000020: cb33 c73c c2dc b03d 6968 b73d 672d c43c
00000030: 4400 c3bb 922a b03c 0457 a83d 9990 943d
00000040: 2656 62bd 023c 523d 6a9e adbb ed38 8f3d
00000050: 2320 a2bd 350e a53d bc26 e23d bc5f cc3d
00000060: df8b 723d 4adc e73d 9563 6f3c 5324 5a3d
00000070: f18e b8bc 2d9f a03d 25b2 9abd 339b 143b
00000080: b170 053d c072 dd3d 24e1 71bd 432f 253c
00000090: e727 a73c a9f1 403d 012b 56bd 9c85 ab3d
000000a0: d825 a13d 58ef 033e 33b0 24bd 24be 983d
000000b0: 69bd 833d 32cd aa3c f87b bfbd fd5f 8a3d
000000c0: 2de6 143d 326b 003e 8400 99bd 9a59 babc
000000d0: 0145 afbc 5df2 b33d 9a16 9c3c b631 33bd
000000e0: 505c b33d a45b 72bb f9e7 acbc d885 b63d
000000f0: 9c96 5abd 2421 df3d cee1 a33d dcbf 1f3d
00000100: 5d62 3ebd e890 a13d a282 96bd 41bf 0d3d
00000110: c9e3 453d 329d 45bd 07eb 2cbd f9c1 ec3c
00000120: e430 d83c 2a2f a5bd 1fa4 c33d c339 5c3d
00000130: a861 853d c899 86bd 1820 4cbd 170e 3d3d
00000140: 1987 b43c 047a 183c c550 2c3c 2251 8b3c
00000150: 9ab9 7fbd 53cb 533d e22d 19bd 1eb8 8bbc
00000160: 255d 933c 10a6 573d 82a0 0bbd 8cae 05bc
00000170: 6e16 e9bc b89e 9bba 7c81 653d 16dc 923d
00000180: 7193 6dbc 486f 0f3d 87f0 4a3d ea9b a7bc
00000190: f15c 91bd 391e 94bd 901a 98bd 8da3 69bd
000001a0: 8ab6 aebd fe30 bcbd f9e4 a63c 8286 15bd
000001b0: e9ff 45b7 2766 6bbd 4c13 a53d d436 9fbd
000001c0: eeae 713d 1dac 833d f7db 2a3c 0d01 a339
000001d0: 84f1 d53d 3878 12ba 4e77 d83d 6263 943d
000001e0: 60cc 133d 84bf edbc 8469 4fbc 75ed 0cbd
000001f0: 6500 b3bd e67f d93d 34e3 41bc 5743 44bc
00000200: 6604 5cbd e11f b93d 0f58 c53d 8001 dbbc
00000210: f296 8d3d 4e25 c73c f087 a4bd d482 c73b
00000220: 892d 533d 008c d2bd bfd3 80bd 1e86 95bd
00000230: 2f3d 873c 8907 ceb8 eedd 163d 1a76 be3d
00000240: cd57 14bc 730a 0c3c 77c5 893d 15e6 9cbd
00000250: 35dd d43d 03c5 4f3d 6331 69bd aee8 39bd
00000260: 3fdf 1c3d cd8e 3abd 190e 893b 2662 9d3c
00000270: 1a29 2e3d 9ec3 e0bc 3ca7 2fbd 6625 48bd
00000280: 4820 833d 3fd3 213c b331 9a3c 7c33 90bd
00000290: b616 cfbc 389d a63b 9096 4a3d 6006 01bd
000002a0: 55da 713d 3d6a 7f3d 5958 91bd 17e7 a33d
000002b0: 23a1 89bd 2c45 6f3d 4348 58bd 0932 e83d
000002c0: 0336 003d 83ff 8ebc 6df1 1a3c 6300 4a3c
000002d0: ea64 c43b 35d6 e9bc 855c 64bd 3052 a6bd
000002e0: cb87 963d 7407 51bd fece 8abd e2ce d53d
000002f0: f82b bd3c 902d 39bc 7702 64bd e775 f6bc
00000300: 294a 433b 5e0f 9fbd df0a e3bd 046d dabd
00000310: 4281 333d 2228 2b3d 167b babd a563 893d
00000320: ccaa 93bd 063d 0fbd d0ce 433d 07fa 663b
00000330: d967 2cbd 64ee 2cbd cd08 3b3d 9426 8dbd
00000340: a23d 92bd ac71 cd3c 4abf 05bd 1123 3cbb
00000350: 9e2c a6bd 8e4b c63d bbb5 003c e05b adbd
00000360: 1b68 8cbd 18f3 4a3b 5fd8 be3c b594 083d
00000370: e95a 903d d341 adbc 89ba a83c 391f 39bd
00000380: 71d2 b3bc 0e49 9e3d 1cc3 6f3d 17e1 52bd
00000390: 4a61 f4bc 21c9 d13b 1c63 a63d 6272 17bc
000003a0: bc31 8d3d 688c 743d e47c 573c 3e0a abbd
000003b0: aaf9 ce3d 6126 bcbd 149c 353d aa1c b9bd
000003c0: 3b48 6c3d 26e2 233d 573e 513d 157b a73d
000003d0: ac9d d53c 41da 05bc 341d b5bd 0a9e a23d
000003e0: 8be9 1c3d f35a a1bd 1b33 9c3d 0d32 4bbd
000003f0: ec1d a43d 1938 ab3c ef6d 8fba 135b fe3c
-0.023972722 0.095481545 -0.11866721 0.001322072 0.079347596 -0.068065315 -0.062294595 -0.03569916
0.024316689 0.08635856 0.089554615 0.02394743 -0.0059509594 0.021504674 0.08219722 0.07254142
-0.05525794 0.05132676 -0.0052984254 0.069932796 -0.07916286 0.080593504 0.11042544 0.099791974
0.059215423 0.11321314 0.014611145 0.053257298 -0.022529097 0.0784286 -0.075535096 0.0022675514
0.032578174 0.108129025 -0.0590526 0.010082069 0.02040477 0.047105465 -0.052287105 0.08375093
0.07868546 0.12884271 -0.0402071 0.074581414 0.064326115 0.020849798 -0.09349817 0.067565896
0.036352325 0.12540892 -0.074708015 -0.022747803 -0.021395208 0.087864615 0.019053746 -0.04374858
0.087578416 -0.0036980892 -0.021106707 0.089122474 -0.05336629 0.10894993 0.08002053 0.03900133
-0.046480525 0.07888967 -0.07349135 0.034606222 0.048312936 -0.048245616 -0.042216327 0.028901087
0.0263905 -0.080656365 0.09552788 0.053766023 0.06512767 -0.065723 -0.049835294 0.046156015
0.022037076 0.009306435 0.010517304 0.01700646 -0.062432863 0.051707577 -0.037397273 -0.017055567
0.01798875 0.052648604 -0.03408862 -0.008159291 -0.028453078 -0.0011872863 0.05603169 0.07170884
-0.014500485 0.035018235 0.04954579 -0.020460088 -0.07097805 -0.07232327 -0.074269414 -0.05704074
-0.0853091 -0.09189032 0.020372855 -0.03650523 -1.1801699e-05 -0.057470467 0.08060321 -0.077741295
0.059004717 0.064293124 0.01042842 0.00031090566 0.10446456 -0.0005587372 0.105696306 0.07245518
0.03608358 -0.029021986 -0.012659434 -0.034406144 -0.087403096 0.10620098 -0.011833955 -0.011978946
-0.053715132 0.090392835 0.096359365 -0.026734114 0.06913556 0.02430978 -0.080337405 0.006088594
0.051557098 -0.10280609 -0.06290387 -0.073009714 0.016508667 -9.824249e-05 0.036832742 0.0929987
-0.009054136 0.008547413 0.067271166 -0.07661072 0.103937544 0.050724994 -0.056931864 -0.045387916
0.03829884 -0.04554634 0.004182589 0.01921184 0.042519666 -0.027437028 -0.042884097 -0.04886379
0.064026415 0.009877025 0.018822527 -0.0704107 -0.025279384 0.00508466 0.049459994 -0.03150022
0.05904611 0.062357176 -0.07096929 0.08003061 -0.067201875 0.058415577 -0.05280329 0.113376684
0.03130151 -0.017455822 0.009456974 0.012329194 0.005993475 -0.028544525 -0.055752296 -0.08121145
0.07350119 -0.0510325 -0.06777762 0.104398504 0.023092255 -0.011302367 -0.055666413 -0.030085517
0.0029798842 -0.07766603 -0.11086058 -0.10665324 0.04382444 0.04178632 -0.09105508 0.06708459
-0.07210311 -0.034970306 0.047804654 0.0035244243 -0.042091224 -0.042219535 0.04566269 -0.06892124
-0.07140662 0.025078617 -0.03265313 -0.0028707425 -0.08113979 0.0968238 0.007855828 -0.084647894
-0.06855794 0.003096765 0.023296533 0.033344943 0.0704859 -0.021149551 0.02059676 -0.045195792
-0.021950932 0.07728778 0.05853568 -0.051484194 -0.029831547 0.0064021503 0.08124372 -0.00924358
0.06894252 0.059704214 0.013152335 -0.08351563 0.101062134 -0.09187008 0.0443383 -0.0903867
0.05768607 0.040010594 0.051084843 0.08177773 0.02607616 -0.008169712 -0.08843461 0.079403
0.03830866 -0.07878675 0.07626935 -0.04960828 0.0801352 0.020900773 -0.0010942797 0.031049287

linear.weight f4 [1, 100]
00000000: 77ce d2bc b838 acbd 0e78 80bd d553 95bd
00000010: 9ede 723d 4e47 adbd 5017 9ebd 178b a73d
00000020: f59e 07be ce32 f5bc 5093 0abe 385b e33c
00000030: 2ada 8b3d 7747 043d bd18 973d 2bee 2b3d
00000040: 7c6a 973d 16a8 a0bd 9416 553d d451 6abd
00000050: 3734 cb3d 5252 9d3d f3bf cdbd fb8a 5ebd
00000060: f5b6 91bd 2b1c d33d 0f33 b73d 19a5 fa3d
00000070: bb52 e33d e04b f63d 379c 983d 9485 78bd
00000080: 507e 83bd 724f e93d ff16 a23c ef41 6abc
00000090: 1767 a6bd 9f99 a13d 24bb cabc 7d10 b5bd
000000a0: 64da acbc 373b c13d b8d2 08bd d35c a23d
000000b0: 7898 b5bd 69f4 33bd 00e0 643d d3e9 7c3d
000000c0: abed 99bd 984a 0e3e 71a9 6ebd bd5e 453c
000000d0: 9f00 dcbd 5a5a e6bc 43da 08bd 013f 1b3d
000000e0: 9bf3 8abb b46f 2a3d 8778 8ebd 10d9 ae3d
000000f0: b8e9 bfbd 1d61 8b3d 0f1c e7bd e519 c5bc
00000100: 0fe8 cd3d ae4b f73d df73 d4bd ccea bd3d
00000110: 1c2e 8c3d 3bd2 cbbd bc96 a63c fd0c 113e
00000120: 49da aebd a634 0f3d 36c5 36bd 0913 e73d
00000130: abb4 113e 55ec fb3b 27c3 debd bc96 143d
00000140: 96ae d8bd 1217 0b3d 2575 8fbd 0f21 77bc
00000150: 7786 9abd 51ce 83bd 2c96 083e ce0d fa3d
00000160: d6fe b3bd 7bef 5bbd 3402 d33d 1f84 d5bd
00000170: 1571 a2bd b4b8 0d3d f043 85bd c53d ae3c
00000180: e7dc febc 0a85 b9bc 76bc e63c eea8 cebd
-0.025733216 -0.08409256 -0.062728986 -0.0729138 0.059294336 -0.08460866 -0.0771929 0.08180826
-0.13244231 -0.029931452 -0.13532758 0.027753457 0.06828721 0.032294717 0.07377765 0.04197518
0.07393357 -0.0784456 0.052023485 -0.057206944 0.099220686 0.07681717 -0.10046377 -0.05433176
-0.071149744 0.10308107 0.089452855 0.12238521 0.11099764 0.12026191 0.074516706 -0.060674265
-0.064205766 0.11392106 0.019786356 -0.014297946 -0.081251316 0.07890629 -0.024747439 -0.088410355
-0.02110023 0.094351225 -0.033404082 0.07927861 -0.08866972 -0.04393426 0.055877686 0.06174643
-0.07516035 0.13895643 -0.05826706 0.012046513 -0.10742306 -0.028119255 -0.033411276 0.037901882
-0.004240466 0.041610435 -0.069565825 0.08537495 -0.0937075 0.06805632 -0.112846486 -0.024060199
0.10054027 0.12074982 -0.10373663 0.092732996 0.06844732 -0.09952208 0.020335548 0.14165111
-0.08537728 0.03496232 -0.04462167 0.112829275 0.14229076 0.007688085 -0.10877066 0.036276564
-0.105801746 0.03395755 -0.070047654 -0.015083565 -0.075451784 -0.06435836 0.13338536 0.12209664
-0.087888405 -0.053695183 0.103031546 -0.10425591 -0.07931725 0.034599975 -0.06507099 0.021269688
-0.031111194 -0.022646446 0.028166037 -0.100908145
