backend/trained_models/MBL_GRU_model_state_dict.pth (torch, 126714 bytes, 5 tensors)

rnn.weight_ih_l0 f4 [300, 1]
0.05679854 -0.021745833 0.07370103 0.09661105 0.036990903 -0.039956108 0.116097845 0.05781091
-0.03459639 0.039590906 0.0057448973 -0.04899068 0.09057935 0.015770368 -0.012323076 0.0028677383
0.055302408 0.054495893 -0.025196146 0.04473163 -0.027488163 0.06978707 -0.060040463 0.072849564
0.00868811 0.07445338 0.040009007 0.030013172 0.0123866955 0.08020586 0.11895574 0.0050430987
0.08610476 -0.086487606 -0.10193205 0.0705071 0.0950624 -0.050512556 -0.09518824 -0.023680776
-0.0015841429 0.05002863 0.029492866 -0.031195017 -0.08475777 0.05016649 -0.023343878 -0.040619727
-0.06009068 0.021862576 0.13808104 0.063241385 0.007295341 -0.012365556 0.04038156 0.082659826
0.05929664 0.058000013 -0.08276763 0.00072111306 0.08960076 0.06262815 -0.034980394 -0.087338366
-0.10119536 0.0844795 0.04657234 0.06707325 0.011610934 0.07675191 -0.014375671 0.055946175
0.055558346 -0.084942855 0.055381272 -0.007190558 -0.056029726 0.10452207 -0.073646195 0.045118693
-0.07892613 0.012230119 -0.005509695 -0.06789544 -0.028520914 0.030858686 0.023388242 0.017663393
0.10126705 0.023114538 -0.010727664 0.08041739 -0.03459954 0.05709648 0.016918357 -0.06884134
0.12520869 -0.02500568 0.029010795 0.11670905 -0.061454713 -0.037900776 0.039429136 -0.09590722
-0.1154469 -0.00523375 -0.119996734 -0.10959304 -0.017817518 0.018125953 -0.01877978 0.034169048
-0.05116141 -0.077058285 -0.078839734 -0.08429136 -0.15462515 -0.013221223 -0.08045925 -0.06970363
-0.12381857 -0.09318247 -0.053098988 -0.035639595 -0.10646747 -0.123345315 -0.09528571 0.02774578
0.023383532 0.08754971 0.062055543 -0.0931357 0.03895448 -0.13466826 -0.16111033 -0.016971344
-0.004626601 -0.064882986 -0.14212458 -0.12269614 -0.13528168 -0.012281862 -0.08854023 -0.08099867
0.0044501876 -0.020508608 -0.0032523395 0.03400709 -0.1428909 -0.06341651 0.043670367 -0.0057692495
0.046053242 -0.15875249 0.09791549 0.079376884 -0.11963383 -0.050568894 0.047171935 -0.048209444
-0.15235645 0.0293431 -0.0057931873 -0.008627653 -0.12780693 -0.045110505 0.07362834 -0.01687018
0.020585261 -0.1188548 -0.049770657 -0.0130238645 -0.033343583 0.09341982 -0.09873905 -0.1180252
-0.11987356 -0.021928782 -0.046656955 -0.14649585 -0.07129143 -0.045286454 -0.027795902 -0.04541412
-0.11389964 -0.16650487 -0.011990448 -0.15264457 0.018712105 -0.13950025 -0.001954375 -0.13505356
-0.12942927 -0.030664992 -0.15422289 0.053986967 -0.021322569 -0.020142183 0.0086660115 -0.0010681873
-0.0768191 -0.029735489 -0.07378561 -0.08255599 0.03141055 -0.022713723 0.09701081 -0.092715956
-0.122965045 0.11660124 -0.09516981 -0.12326443 0.015147559 -0.12872122 -0.06134565 -0.07124094
-0.057616472 0.10293256 -0.11775992 -0.03052411 0.12743191 0.045701664 -0.1254137 -0.014648454
-0.0286663 -0.12036095 0.09968311 -0.0982365 0.00011964671 -0.059053957 -0.053677358 -0.0016326698
-0.126366 -0.03449169 0.09343256 0.07235462 0.037093688 -0.024555847 0.07616559 0.03198184
0.09508745 0.046684455 -0.026084514 0.11969555 0.072940305 -0.037049524 -0.06631237 0.045635685
0.029622292 -0.041693065 0.023884458 0.07291599 -0.06297582 0.09094337 0.01792321 -0.02090335
00000000: 96a5 683d 5124 b2bc 91f0 963d 04dc c53d
00000010: c683 173d 04a9 23bd b5c4 ed3d 22cb 6c3d
00000020: f2b4 0dbd 132a 223d b13f bc3b 74aa 48bd
00000030: ab81 b93d dc30 813c bae6 49bc aaf0 3b3b
00000040: c784 623d 1637 5f3d 2668 cebc 8338 373d
00000050: db2e e1bc 86ec 8e3d fdec 75bd 2732 953d
00000060: 9358 0e3c 047b 983d 7ce0 233d 2fde f53c
00000070: 91f1 4a3c f842 a43d 119f f33d 9440 a53b
00000080: b157 b03d 6a20 b1bd c0c1 d0bd 0766 903d
00000090: 13b0 c23d 41e6 4ebd 0df2 c2bd 30fe c1bc
000000a0: 04a3 cfba d2ea 4c3d 069b f13c b18c ffbc
000000b0: 7b95 adbd 617b 4d3d a93b bfbc df60 26bd
000000c0: a521 76bd 2519 b33c 1e65 0d3e b384 813d
000000d0: c20d ef3b e798 4abc 2267 253d 8e49 a93d
000000e0: 09e1 723d 6c91 6d3d 1382 a9bd 1409 3d3a
000000f0: 9a80 b73d 3043 803d 9a47 0fbd 75de b2bd
00000100: 833f cfbd 9703 ad3d a3c2 3e3d b35d 893d
00000110: c93b 3e3c 1b30 9d3d ef87 6bbc d127 653d
00000120: 2691 633d 85f6 adbd 79d7 623d c69e ebbb
00000130: 6d7f 65bd ab0f d63d d1d3 96bd 61ce 383d
00000140: 06a4 a1bd d660 483c ac8a b4bb c40c 8bbd
00000150: b1a4 e9bc 5bcb fc3c b398 bf3c d2b2 903c
00000160: 1965 cf3d b35a bd3c 16c3 2fbc dfb1 a43d
00000170: 3fb8 0dbd 00de 693d 5e98 8a3c b0fc 8cbd
00000180: b536 003e b6d8 ccbc 0ca8 ed3c 2805 ef3d
00000190: f0b7 7bbd d83d 1bbd 7280 213d 016b c4bd
000001a0: 6d6f ecbd e17f abbb d9c0 f5bd 5172 e0bd
000001b0: 0bf6 91bc e17c 943c 0ed8 99bc d8f4 0b3d
000001c0: a08e 51bd bcd0 9dbd ba76 a1bd f3a0 acbd
000001d0: 0e56 1ebe d49d 58bc d2c7 a4bd c7c0 8ebd
000001e0: 9794 fdbd 73d6 bebd 537e 59bd d3fa 11bd
000001f0: 9e0b dabd 789c fcbd 2825 c3bd 1e4b e33c
00000200: d28e bf3c 434d b33d f42d 7e3d eebd bebd
00000210: bc8e 1f3d 7ae6 09be 1bfa 24be 7d07 8bbc
00000220: be9a 97bb 5fe1 84bd 1b89 11be 1d48 fbbd
00000230: 4887 0abe dd39 49bc 9554 b5bd a1e2 a5bd
00000240: e1d2 913b ab01 a8bc 3425 55bb 054b 0b3d
00000250: fe51 12be 84e0 81bd b3df 323d f90b bdbb
00000260: 53a2 3c3d 0390 22be eb87 c83d 5990 a23d
00000270: 9502 f5bd 5421 4fbd 5c37 413d 4477 45bd
00000280: 5403 1cbe f160 f03c c7d4 bdbb 005b 0dbc
00000290: d2df 02be cbc5 38bd 75ca 963d 5533 8abc
000002a0: 6ca2 a83c 256a f3bd 51dc 4bbd 0c62 55bc
000002b0: 4893 08bd e452 bf3d b337 cabd 32b7 f1bd
000002c0: 4580 f5bd fda3 b3bc 5d1b 3fbd 0203 16be
000002d0: 3e01 92bd 4a7e 39bd 3bb4 e3bc 2804 3abd
000002e0: 3744 e9bd 4180 2abe 9673 44bc dc4e 1cbe
000002f0: 214a 993c 27d9 0ebe f914 00bb 7b4b 0abe
00000300: 1b89 04be 2635 fbbc 9bec 1dbe 7021 5d3d
00000310: abac aebc 3801 a5bc e3fb 0d3c 6b02 8cba
00000320: 5553 9dbd d797 f3bc e91c 97bd 1d13 a9bd
00000330: 59a8 003d 2112 babc 9bad c63d dde1 bdbd
00000340: 19d5 fbbd a2cc ee3d 64e8 c2bd 1072 fcbd
00000350: 782d 783c 7fcf 03be 9445 7bbd c5e6 91bd
00000360: 40ff 6bbd 4ece d23d 1d2c f1bd b30d fabc
00000370: 837d 023e ab31 3b3d 736c 00be 1200 70bc
00000380: 97d5 eabc cd7f f6bd a926 cc3d 3830 c9bd
00000390: d7ea fa38 90e2 71bd cadc 5bbd 4fff d5ba
000003a0: 1766 01be 2947 0dbd 9259 bf3d a92e 943d
000003b0: 8def 173d 5829 c9bc b4fc 9b3d 64ff 023d
000003c0: 36bd c23d 3338 3f3d 31af d5bc f122 f53d
000003d0: ba61 953d 3ec1 17bd c8ce 87bd 7cec 3a3d
000003e0: 73aa f23c 59c6 2abd 57a9 c33c fb54 953d
000003f0: 77f9 80bd 8440 ba3d b2d3 923c 813d abbc

rnn.weight_hh_l0 f4 [300, 100]
0.06601674 -0.07743107 -0.011730673 -0.011582359 0.038706463 0.062239554 0.06673638 -0.078583926
0.0733638 -0.019267118 0.027285015 0.08576176 -0.09192029 0.014145785 -0.055157553 0.020400722
0.10948863 0.027222488 0.049971487 -0.014737019 0.0603117 -0.103899695 0.03563363 0.04810026
0.07914236 -0.11925332 0.037477233 -0.03355626 0.10627376 0.12834007 0.038393952 0.04982051
0.008457782 -0.02839845 -0.049809076 0.008217169 -0.05696193 0.11392549 0.048119053 0.07118765
0.034820322 0.0991942 0.052486204 -0.01539851 0.036211614 0.122295976 0.052055873 0.0008311543
-0.08422285 -0.039711684 -0.06285703 -0.05632782 0.0118691735 -0.010350672 -0.029709121 -0.04058947
0.00021661629 -0.011277757 -0.0026845068 0.050722484 -0.09911607 0.039938357 0.0467719 -0.08419263
0.046576597 -0.10491245 -0.058282636 0.032177925 -0.050138794 -0.10037545 -0.047446974 -0.048397645
-0.08722011 -0.06306521 0.04019868 -0.040543865 -0.033669364 -0.014284832 0.07920689 -0.069160216
-0.03092184 -0.024137527 0.03501142 -0.04665989 -0.071774185 -0.09800228 -0.031332955 -0.105524786
0.07848234 -0.0663306 -0.041471645 -0.05330084 -0.01241813 0.026163977 -0.044515308 0.037174724
0.07999304 -0.020047361 -0.0317685 0.011828643 0.025831243 0.11544018 -0.069410935 -0.11960289
-0.03742138 -0.059446003 -0.048057087 0.031644695 -0.045594543 0.005484777 0.025475325 -0.035477925
0.1081259 -0.033592544 -0.011694849 0.03694289 0.0494137 0.04233286 -0.016003933 -0.004029707
0.10083307 0.01901048 0.0029939509 -0.110791996 -0.14548351 0.04974647 0.04359123 -0.1423729
0.034279842 -0.052689962 -0.003356547 -0.03693208 -0.037202507 -0.029663937 0.14345078 -0.018562855
0.0005211085 -0.118386544 0.1127817 0.024735298 0.09033614 -0.008395585 -0.05583178 0.054717217
-0.004163212 -0.13069774 -0.027663102 -0.01954378 0.058565963 0.005472411 -0.086598225 -0.039048623
-0.09116339 -0.008733954 0.04224554 -0.045980938 -0.011004554 0.14477357 0.074900575 0.087760314
-0.036035184 -0.030546242 -0.045520633 0.11970116 0.08853805 0.09141697 -0.06348641 -0.0104004415
0.076001056 0.00079894735 -0.105641484 -0.07645423 0.104428716 0.06837634 0.13646497 -0.1271641
0.027335193 0.021674259 0.08930266 -0.037527107 0.06644569 0.07438762 0.035966724 0.06127797
-0.03882277 0.092743434 0.13332541 -0.115405485 -0.13514636 -0.01927402 -0.04707509 -0.047361203
-0.11775267 0.11127146 0.051085807 0.04069506 -0.09949406 0.047985964 0.11844091 -0.047740426
0.032865178 0.007177829 0.04336598 -0.075691104 0.006199031 0.025017817 0.08416484 0.08825726
-0.047012303 0.039354134 -0.05350954 0.08684701 -0.07300742 -0.021432519 0.067923404 -0.060873386
-0.07454415 0.07366171 -0.09762731 -0.05148047 -0.09447759 0.11110233 0.08692874 -0.027937364
0.0063543567 0.024530366 0.017856574 -0.06865331 -0.1101342 -0.031091187 -0.082851045 0.04219216
-0.10422181 0.0058626696 -0.03993716 -0.08185315 0.081549354 0.081202306 0.03725883 -0.09628567
0.08339441 -0.061121777 -0.011015375 -0.02563595 -0.020641841 0.020198915 -0.001117802 -0.022612888
0.005672943 -0.011759362 -0.09211368 -0.07474621 -0.00029246387 0.012860955 -0.06946702 0.039040446
00000000: c933 873d 2e94 9ebd 0232 40bc efc3 3dbc
00000010: ab8a 1e3d e7ee 7e3d 15ad 883d 9cf0 a0bd
00000020: c33f 963d 13d6 9dbc d384 df3c dda3 af3d
00000030: b440 bcbd b9c3 673c e3ec 61bd 6a1f a73c
00000040: 933b e03d b201 df3c e7ae 4c3d 8a73 71bc
00000050: 6709 773d 5dc9 d4bd 92f4 113d c704 453d
00000060: 6415 a23d 163b f4bd ba81 193d 4a72 09bd
00000070: 0fa6 d93d 946b 033e fa42 1d3d 9710 4c3d
00000080: 8292 0a3c dea3 e8bc 9a04 4cbd 4ea1 063c
00000090: ea50 69bd c451 e93d 7c18 453d d5ca 913d
000000a0: c19f 0e3d 5426 cb3d c6fb 563d 084a 7cbc
000000b0: a152 143d 5076 fa3d 8a38 553d d2e1 593a
000000c0: 087d acbd b8a8 22bd 30bb 80bd 00b8 66bd
000000d0: ec76 423c dd95 29bc 8b60 f3bc 2541 26bd
000000e0: 7e23 6339 57c6 38bc 8dee 2fbb 61c2 4f3d
000000f0: 5efd cabd 6796 233d e493 3f3d 306d acbd
00000100: 1ac7 3e3d 57dc d6bd c6b9 6ebd 00cd 033d
00000110: 565e 4dbd a591 cdbd c257 42bd 9c3c 46bd
00000120: 75a0 b2bd 5528 81bd 5fa7 243d 5311 26bd
00000130: e3e8 09bd ee0a 6abc 3937 a23d dfa3 8dbd
00000140: cc4f fdbc 10bc c5bc 2268 0f3d 711e 3fbd
00000150: 58fe 92bd 6bb5 c8bd fc56 00bd 611d d8bd
00000160: 59bb a03d 56d8 87bd 2cde 29bd fb51 5abd
00000170: 6a75 4bbc d655 d63c af55 36bd 8644 183d
00000180: 64d3 a33d 5d3a a4bc b01f 02bd edcc 413c
00000190: 0b9c d33c e76b ec3d 5227 8ebd 5cf2 f4bd
000001a0: 2947 19bd a77d 73bd 82d7 44bd de9d 013d
000001b0: 58c1 3abd a5b9 b33b a1b1 d03c 4d51 11bd
000001c0: 1d71 dd3d 5698 09bd c09b 3fbc 6e51 173d
000001d0: 0566 4a3d 3965 2d3d ae1a 83bc a20b 84bb
000001e0: 9281 ce3d debb 9b3c 2936 443b eae6 e2bd
000001f0: a1f9 14be f4c2 4b3d b88c 323d 34ca 11be
00000200: 0569 0c3d 6ed1 57bd 84f9 5bbb 1846 17bd
00000210: a861 18bd c901 f3bc c3e4 123e 2111 98bc
00000220: 009b 083a a574 f2bd 18fa e63d aea1 ca3c
00000230: 2702 b93d a38d 09bc ddaf 64bd 291f 603d
00000240: 8e6b 88bb a1d5 05be bb9d e2bc 471a a0bc
00000250: dde2 6f3d e951 b33b 695a b1bd 73f1 1fbd
00000260: dfb3 babd dc18 0fbc a909 2d3d 8256 3cbd
00000270: 724c 34bc 863f 143e 7965 993d aebb b33d
00000280: a199 13bd 1d3c fabc d873 3abd e225 f53d
00000290: 7053 b53d d238 bb3d 2a05 82bd 9d66 2abc
000002a0: 71a6 9b3d 7370 513a 905a d8bd 0994 9cbd
000002b0: b9de d53d e508 8c3d 79bd 0b3e 4e37 02be
000002c0: 0eee df3c 378e b13c 50e4 b63d 06b6 19bd
000002d0: ae14 883d 8958 983d d851 133d 9cfe 7a3d
000002e0: a004 1fbd 45f0 bd3d 7586 083e b659 ecbd
000002f0: cf63 0abe 8de4 9dbc cfd1 40bd d2fd 41bd
00000300: 5028 f1bd 4be2 e33d 5a3f 513d ddaf 263d
00000310: 8bc3 cbbd ee8c 443d 2691 f23d 778b 43bd
00000320: a39d 063d fe33 eb3b 87a0 313d f003 9bbd
00000330: 3e21 cb3b 2af2 cc3c 9e5e ac3d 39c0 b43d
00000340: f98f 40bd cd31 213d d22c 5bbd d8dc b13d
00000350: ea84 95bd 4093 afbc 6d1b 8b3d 5f56 79bd
00000360: 9aaa 98bd f3db 963d d4f0 c7bd 2fdd 52bd
00000370: 777d c1bd 9e89 e33d b207 b23d e6dc e4bc
00000380: 3538 d03b e8f3 c83c f347 923c 1b9a 8cbd
00000390: 0a8e e1bd f2b2 febc cfad a9bd b0d1 2c3d
000003a0: 3f72 d5bd a31b c03b 2695 23bd a0a2 a7bd
000003b0: 5903 a73d 654d a63d b79c 183d 6c31 c5bd
000003c0: b0ca aa3d d45a 7abd d579 34bc 7c02 d2bc
000003d0: 1419 a9bc 3278 a53c 3683 92ba aa3e b9bc
000003e0: 18e4 b93b 57aa 40bc 19a6 bcbd 8a14 99bd
000003f0: d655 99b9 c1b6 523c ba44 8ebd e0e8 1f3d

rnn.bias_ih_l0 f4 [300]
-0.10763965 0.096171476 0.0030787461 0.08686723 -0.038242087 0.078523025 0.0948422 -0.03250387
0.055648085 0.04021019 2.7104137e-05 0.102012366 0.07573636 -0.0695805 0.11967653 -0.006252445
0.06536389 -0.035354447 0.077812195 0.039992776 0.107847795 0.078413546 0.0745649 -0.030733794
-0.09855206 0.10497283 0.05034504 -0.09873392 0.04081724 -0.05279092 0.035592392 0.1049249
0.10209461 -0.0063866205 0.052226465 -0.0366461 0.07155679 0.056754176 -0.03132962 0.051488724
0.048677854 0.06034569 0.024150494 -0.04203387 0.031704787 0.04164458 -0.031075612 -0.0034151212
0.0832894 0.009142825 -0.047546748 0.030519921 0.1080116 -0.03416118 -0.07846425 -0.013943088
0.11795246 0.048769485 0.0025519512 -0.013597952 -0.0088293 0.036253374 0.04987438 -0.08094716
0.08309334 -0.0668113 0.0058234315 -0.06191126 0.05470769 -0.075629205 -0.05841059 0.084621176
-0.046514757 0.09298254 -0.05309553 0.06892895 -0.040306643 0.084343635 -0.09532221 -0.06221655
-0.018105047 0.001951395 -0.018482408 0.028410075 0.0294819 0.0062422818 0.025023088 0.10231681
-0.03289975 0.028329562 0.07828563 -0.056061946 -0.03985009 -0.05108401 0.06762735 0.0036259317
-0.023603829 0.06748413 -0.058949962 0.052676167 -0.07788124 -0.09448421 -0.13164844 -0.03448272
-0.04569747 -0.074303605 -0.093172126 -0.15464616 -0.14758246 -0.15169525 -0.16232903 -0.010397208
-0.03256584 -0.054487366 -0.04818437 -0.10131653 -0.0307198 -0.03342526 -0.06791467 -0.14222609
-0.021529794 -0.10353626 -0.08750667 -0.007920195 -0.1243005 -0.03152476 -0.044376045 -0.13957685
-0.11041853 0.03197381 0.030720992 0.0034374266 -0.022671092 -0.07850137 -0.097010724 -0.038163636
0.11133167 -0.06447035 0.00067874196 -0.119360104 -0.08504092 -0.019933613 -0.06325635 -0.009979805
-0.011881996 -0.04847386 -0.10012012 -0.0026499315 -0.14398165 -0.12193779 -0.123215206 -0.109259196
0.0072984276 -0.18621416 -0.05291915 -0.1255705 0.00030452452 -0.15101612 -0.06699894 -0.12813614
-0.09039901 -0.04359919 -0.1251829 0.014303294 -0.05677833 -0.13138725 -3.835745e-05 -0.122766905
0.045346912 -0.025387406 -0.15799132 -0.041998286 0.0017267794 0.071412034 -0.028714882 -0.06558577
-0.1069007 -0.012706652 0.055627335 -0.11751466 -0.08421524 -0.13754342 -0.12204476 -0.040110923
0.0016984161 -0.011339864 -0.12820368 -0.16011792 -0.13689643 0.004929343 -0.009982083 0.0067509087
0.040391766 -0.07864546 -0.13693602 0.043080762 -0.15180211 0.0053885626 0.00907472 0.0008523609
-0.020206263 0.030578613 -0.022156397 0.0018455652 0.05912678 -0.07392635 0.029470837 0.07981154
-0.056970526 0.06569062 -0.0775527 -0.022084432 0.09041005 0.05705069 0.018930845 0.063124046
-0.09358773 -0.008162023 -0.052628536 0.056901738 -0.050104313 0.08045412 0.03459492 0.015880305
-0.050458018 0.07442342 0.0074094087 -0.042002454 -0.07898423 -0.036409874 -0.03322228 0.047212295
0.013995095 0.018779531 0.010323368 0.064449064 0.04137293 -0.0145820435 -0.059422985 -0.07052799
-0.039871134 0.009332948 0.08988883 -0.004046011 0.050029576 -0.059704795 0.08652244 -0.00680778
0.0045696096 -0.069382176 0.011881123 -0.030550435 -0.082149446 0.0543872 -0.084885366 -0.010260823
00000000: 2d72 dcbd 8df5 c43d cac4 493b 72e7 b13d
00000010: bca3 1cbd aed0 a03d a13c c23d c722 05bd
00000020: 3fef 633d 71b3 243d b15d e337 dceb d03d
00000030: aa1b 9b3d 3980 8ebd f818 f53d 4fe1 ccbb
00000040: 81dd 853d d3cf 10bd 005c 9f3d 77cf 233d
00000050: 4edf dc3d 4897 a03d 7bb5 983d 70c5 fbbc
00000060: aad5 c9bd fffb d63d 9a36 4e3d 0235 cabd
00000070: fa2f 273d 4b3b 58bd 54c9 113d dee2 d63d
00000080: fb16 d13d db46 d1bb 6beb 553d 391a 16bd
00000090: 5e8c 923d 1177 683d 7d53 00bd d7e5 523d
000000a0: 6e62 473d 0b2d 773d 42d7 c53c b52b 2cbd
000000b0: e1dc 013d 8293 2a3d 4892 febc 3ad0 5fbb
000000c0: a293 aa3d cacb 153c 61c0 42bd ea04 fa3c
000000d0: 3035 dd3d 98ec 0bbd ddb1 a0bd 8d71 64bc
000000e0: 0f91 f13d 83c2 473d a33e 273b f2c9 5ebc
000000f0: c5a8 10bc 6b7e 143d 1449 4c3d a0c7 a5bd
00000100: d72c aa3d 5dd4 88bd 7cd2 be3b a996 7dbd
00000110: 2c15 603d 7ce3 9abd f13f 6fbd de4d ad3d
00000120: 4286 3ebd a16d be3d b37a 59bd 9f2a 8d3d
00000130: 9418 25bd 5bbc ac3d 4a38 c3bd c8d6 7ebd
00000140: 0951 94bc f3c5 ff3a 6b68 97bc 3fbc e83c
00000150: 0784 f13c 0e8c cc3b 38fd cc3c 7a8b d13d
00000160: e3c1 06bd 6613 e83c 3754 a03d 36a1 65bd
00000170: d939 23bd 783d 51bd 3580 8a3d 0aa1 6d3b
00000180: d15c c1bc 1f35 8a3d 8475 71bd f7c2 573d
00000190: 3380 9fbd f080 c1bd d9ce 06be c13d 0dbd
000001a0: 452d 3bbd 7d2c 98bd 07d1 bebd 905b 1ebe
000001b0: db1f 17be 0056 1bbe 9539 26be 0d59 2abc
000001c0: c263 05bd 252e 5fbd f95c 45bd 0a7f cfbd
000001d0: 17a8 fbbc ede8 08bd d916 8bbd b7a3 11be
000001e0: 405f b0bc d20a d4bd b236 b3bd b5c3 01bc
000001f0: 4391 febd 1b20 01bd a8c3 35bd 3ced 0ebe
00000200: 1c23 e2bd f8f6 023d 97aa fb3c 7346 613b
00000210: bab8 b9bc 54c5 a0bd 8fad c6bd 7951 1cbd
00000220: dc01 e43d 0809 84bd 9aed 313a 1273 f4bd
00000230: ef29 aebd d14b a3bc 8c8c 81bd 5682 23bc
00000240: b4ac 42bc 878c 46bd c70b cdbd 79aa 2dbb
00000250: ed6f 13be 85ba f9bd 4158 fcbd 49c3 dfbd
00000260: a627 ef3b edae 3ebe c0c1 58bd 8e95 00be
00000270: 97a8 9f39 f8a3 1abe be36 89bd 1f36 03be
00000280: 1e23 b9bd 1095 32bd f22f 00be 5d58 6a3c
00000290: 6590 68bd 618a 06be 00e2 20b8 376d fbbd
000002a0: afbd 393d 40f9 cfbc 7ac8 21be 6506 2cbd
000002b0: 1a55 e23a 7940 923d 793b ebbc d551 86bd
000002c0: c1ee dabd 902f 50bc 7dd9 633d 87ab f0bd
000002d0: 0a79 acbd 2fd8 0cbe 9af2 f9bd 5a4b 24bd
000002e0: 639d de3a d6ca 39bc d347 03be f4f5 23be
000002f0: 942e 0cbe 5386 a13b e48b 23bc ba36 dd3b
00000300: d671 253d df10 a1bd f538 0cbe 7475 303d
00000310: 0372 1bbe 8a92 b03b 22ae 143c f970 5f3a
00000320: 9b87 a5bc 0080 fa3c 5581 b5bc e4e6 f13a
00000330: ec2e 723d b366 97bd d36c f13c 3c74 a33d
00000340: ed59 69bd ce88 863d f3d3 9ebd 69ea b4bc
00000350: e728 b93d fcad 693d dc14 9b3c 2e47 813d
00000360: ecaa bfbd 01ba 05bc 0591 57bd cc11 693d
00000370: 2e3a 4dbd 21c5 a43d 67b3 0d3d 6a17 823c
00000380: 11ad 4ebd 4e6b 983d a0ca f23b c40a 2cbd
00000390: 7cc2 a1bd 8522 15bd 1614 08bd ae61 413d
000003a0: af4b 653c 88d7 993c 5823 293c dffd 833d
000003b0: a976 293d 86e9 6ebc 8465 73bd fb70 90bd
000003c0: ea4f 23bd 39e9 183c a317 b83d 6694 84bb
000003d0: d0eb 4c3d 048d 74bd ad32 b13d cc13 dfbb
000003e0: aabc 953b 3e18 8ebd 0ba9 423c e844 fabc
000003f0: f83d a8bd 1dc5 5e3d 61d8 adbd 031d 28bc

rnn.bias_hh_l0 f4 [300]
-0.09847509 -0.031355113 -0.05766244 -0.092498936 0.10450731 0.032645706 -0.09575561 0.10966479
0.07407272 -0.105047785 0.050996944 0.064020716 0.074838005 0.004023814 -0.042183187 -0.033377897
0.08569513 0.062668346 -0.0044049793 -0.06789239 0.023745889 -0.008387129 0.008990741 0.117407136
0.001031986 0.0119390115 -0.03621757 0.03517779 0.023437615 -0.029955234 0.008663742 -0.076623455
-0.028051905 0.042975534 0.03998551 0.045848545 -0.07723683 -0.02578898 -0.027652685 0.030885998
-0.039132338 0.024076333 -0.070606865 0.03220634 0.069524795 0.068221524 -0.041319765 0.032643843
0.04637027 0.069863476 0.0053000688 -0.023757955 0.06485676 0.05098172 -0.06843158 -0.08786673
0.074288554 -0.06704526 0.08448008 0.0617077 0.070727155 0.07370778 -0.029366983 -0.030905476
0.07790299 0.007872297 0.025210842 -0.048539605 -0.03372756 0.059809007 0.111924246 -0.02334391
0.07210517 0.045971807 -0.006225548 0.07963646 0.110744625 -0.024584178 -0.078665525 0.11627256
0.015302133 0.026024248 0.051989302 -0.046125226 -0.08379144 0.028573977 -0.08045519 -0.042870164
0.044702195 0.048853386 -0.037422404 -0.022962514 0.086741 0.10778798 -0.023068761 -0.02255327
0.019979635 0.05529897 -0.10430617 -0.06629313 -0.08781794 0.0659942 -0.13230173 -0.13577293
-0.08539268 -0.027484123 0.016919171 -0.17771573 -0.13215947 -0.12881878 -0.08386447 0.013753512
-0.019375484 -0.040616088 -0.08775086 -0.12521897 -0.11144695 -0.0892893 -0.10750263 0.030870464
-0.08463334 -0.10360245 -0.022771377 -0.13167961 -0.015353507 -0.045950368 0.011577963 0.0028900306
-0.104484946 0.031401917 0.040828418 -0.056924064 -0.13827811 -0.028239135 -0.11853542 -0.15763246
-0.072269335 -0.10322243 -0.1822946 0.03198313 -0.14193778 0.057024784 -0.10572126 -0.16686603
-0.06361435 0.05485383 -0.12433483 -0.053306673 0.0042381035 -0.028466187 -0.14915794 0.0210091
-0.089934655 -0.059442196 -0.045717385 -0.07314255 -0.16713744 -0.1297104 -0.048204746 -0.010284645
0.024308736 -0.09990833 -0.12070996 0.064190544 -0.051177364 -0.13488057 0.024114389 -0.18014893
0.03608936 -0.06857693 -0.14662041 -0.024405995 -0.17755145 -0.11016459 -0.07516542 -0.110453576
-0.034602195 -0.04108826 -0.036432847 -0.010632655 -0.086184144 -0.06599224 0.015780684 -0.052811835
-0.040021338 -0.13611707 -0.14196433 -0.075934045 -0.04965634 -0.037010852 -0.06631156 -0.11449752
-0.09596662 -0.08570076 -0.045146216 -0.03513733 -0.07263078 -0.06617799 -0.021769702 -0.04020948
-0.031304047 -0.031031838 0.058960028 -0.0037485817 0.08103064 -0.013218666 -0.030877162 0.028565539
-0.024153274 0.049127173 0.07453915 0.027152512 0.07364464 0.053124156 -0.04946495 0.09134594
-0.09300261 -0.031451814 -0.018994689 -0.047894496 -0.016407022 -0.062171854 -0.08950884 -0.10653395
-0.04096018 0.075206764 -0.07265367 0.014557879 -0.018920185 -0.06707019 0.101801395 0.025042582
0.01566052 0.08223336 -0.017840859 -0.08343196 -0.07979706 -0.10325909 -0.035291526 -0.017247034
0.081137024 -0.10113451 0.038107794 -0.0365813 -0.030077752 0.015964143 -0.020835137 0.03374122
0.07713931 -0.05834523 -0.046559624 0.022825554 -0.01354286 0.08506281 -0.052536443 0.06988345
00000000: 4fad c9bd 386e 00bd 732f 6cbd 1570 bdbd
00000010: ee07 d63d 81b7 053d 841b c4bd ef97 e03d
00000020: 70b3 973d 4b23 d7bd 2ce2 503d 4b1d 833d
00000030: ab44 993d 33da 833b 47c8 2cbd 43b7 08bd
00000040: ee80 af3d 4358 803d a557 90bb 2a0b 8bbd
00000050: bd86 c23c 2b6a 09bc e74d 133c 2773 f03d
00000060: b443 873a d89b 433c e058 14bd 9616 103d
00000070: 3e00 c03c ae64 f5bc 5ef2 0d3c c2ec 9cbd
00000080: 1ccd e5bc 1d07 303d d9c7 233d afcb 3b3d
00000090: 582e 9ebd 6943 d3bc e287 e2bc a204 fd3c
000000a0: 3b49 20bd bb3b c53c 559a 90bd ccea 033d
000000b0: 0463 8e3d bab7 8b3d ea3e 29bd 8db5 053d
000000c0: c1ee 3d3d 9514 8f3d 33ac ad3b 0ba0 c2bc
000000d0: 9fd3 843d 35d2 503d db25 8cbd 79f3 b3bd
000000e0: 9924 983d 064f 89bd e403 ad3d 37c1 7c3d
000000f0: 66d9 903d 1bf4 963d 0793 f0bc 7b2d fdbc
00000100: 9a8b 9f3d cffa 003c f886 ce3c 77d1 46bd
00000110: e925 0abd 4afa 743d 8a38 e53d ba3b bfbc
00000120: e0ab 933d ef4c 3c3d afff cbbb 7118 a33d
00000130: 14ce e23d c264 c9bc 641b a1bd 4f20 ee3d
00000140: ccb5 7a3c ce30 d53c bcf2 543d ceed 3cbd
00000150: d99a abbd f913 ea3c b1c5 a4bd a098 2fbd
00000160: a619 373d 7d1a 483d 3c48 19bd e21b bcbc
00000170: 44a5 b13d f2bf dc3d b3fa bcbc a3c1 b8bc
00000180: 55ac a33c 2c81 623d 799e d5bd b1c4 87bd
00000190: e4d9 b3bd f827 873d 1b7a 07be 0f08 0bbe
000001a0: 5be2 aebd 6226 e1bc 139a 8a3c 1dfb 35be
000001b0: d054 07be 12e9 03be 23c1 abbd 6956 613c
000001c0: 56b9 9ebc 0e5d 26bd b9b6 b3bd 6739 00be
000001d0: 4c3e e4bd 4fdd b6bd 572a dcbd 0ee4 fc3c
000001e0: 3f54 adbd 852d d4bd 0a8b babc 05d7 06be
000001f0: 478d 7bbc 7436 3cbd 7fb1 3d3c ab66 3d3b
00000200: 34fc d5bd 4c9f 003d b33b 273d 3529 69bd
00000210: c798 0dbe c255 e7bc b3c2 f2bd 676a 21be
00000220: f201 94bd 4866 d3bd 70ab 3abe be00 033d
00000230: 2358 11be d292 693d 6384 d8bd eede 2abe
00000240: 3e48 82bd 69ae 603d 42a3 febd 1958 5abd
00000250: cadf 8a3b ec31 e9bc dcbc 18be 471b ac3c
00000260: a92f b8bd a979 73bd 2742 3bbd c3cb 95bd
00000270: 1426 2bbe ced2 04be 5772 45bd ed80 28bc
00000280: 1d23 c73c bd9c ccbd c936 f7bd 5576 833d
00000290: 5b9f 51bd 221e 0abe 8a8b c53c f678 38be
000002a0: 70d2 133d 1072 8cbd a923 16be 15ef c7bc
000002b0: 0cd0 35be f99d e1bd 54f0 99bd 7c35 e2bd
000002c0: 08bb 0dbd 2a4c 28bd 9c3a 15bd 9634 2ebc
000002d0: 5081 b0bd f126 87bd 7e46 813c 3951 58bd
000002e0: 6aed 23bd 4662 0bbe 195f 11be 4f83 9bbd
000002f0: 7264 4bbd b198 17bd 5bce 87bd ad7d eabd
00000300: 268a c4bd e183 afbd 3deb 38bd 29ec 0fbd
00000310: 72bf 94bd 5388 87bd 6056 b2bc b2b2 24bd
00000320: ac38 00bd 7b36 febc 1280 713d c4aa 75bb
00000330: 64f3 a53d 1b93 58bc 1af2 fcbc 4702 ea3c
00000340: 16dd c5bc 9339 493d fba7 983d f26e de3c
00000350: 00d3 963d b798 593d c29b 4abd 9513 bb3d
00000360: 2778 bebd 9ed3 00bd c09a 9bbc 052d 44bd
00000370: 0568 86bc eaa7 7ebd 6950 b7bd 792e dabd
00000380: ddc5 27bd 0106 9a3d 73cb 94bd 2c84 6e3c
00000390: 81fe 9abc 195c 89bd 407d d03d 1a26 cd3c
000003a0: 7e4a 803c f769 a83d fe26 92bc 60de aabd
000003b0: a46c a3bd 8079 d3bd d98d 10bd a749 8dbc
000003c0: 2b2b a63d 9c1f cfbd eb16 1c3d 46d6 15bd
000003d0: 9e65 f6bc 3cc7 823c 73ae aabc 3c34 0a3d
000003e0: 37fb 9d3d 68fb 6ebd 4eb5 3ebd a8fc ba3c
000003f0: dfe2 5dbc 6935 ae3d 7430 57bd 0e1f 8f3d

linear.weight f4 [1, 100]
-0.054042306 0.08728641 -0.08457399 -0.020941725 0.086899556 -0.09007752 0.039370768 -0.047564216
-0.032390676 0.116480544 -0.08077896 -0.110481985 0.03396873 -0.084412746 0.071809106 -0.04821759
-0.094718635 0.068605565 -0.10529551 -0.10165325 0.043675758 0.033781536 -0.040102474 -0.10303386
-0.10262894 -0.035978947 0.027704222 -0.0073157684 -0.123631276 0.055707883 0.043075066 0.07236727
-0.10994484 0.00595883 0.03594183 0.03603418 -0.030579487 -0.12097321 0.053508148 -0.08315534
0.065282606 -0.04799292 -0.045907192 0.099323094 -0.025879998 0.036092505 -0.101926684 0.108047046
0.094090626 -0.049003713 -0.034510706 -0.022393622 -0.022924792 0.07278691 -0.08164918 -0.05212706
-0.08161102 0.058138378 0.038658522 0.087153904 0.058898948 0.111754395 -0.066024624 -0.008043198
-0.013454664 0.08995431 -0.029866613 -0.080388464 0.014510087 0.030891027 -0.07906241 -0.014792932
0.06384892 -0.03660137 0.09041873 -0.0314815 0.06697309 0.07060719 -0.014000311 0.11403529
0.024304735 0.05414535 -0.102374166 -0.0020295875 0.1052557 0.11547845 0.03766703 -0.037757892
-0.07908509 0.07251594 0.09018438 0.06489345 -0.00011728744 0.12729077 -0.08128655 -0.06892351
-0.08545587 0.03620907 0.01953902 -0.08017059
00000000: 775b 5dbd 38c3 b23d 2135 adbd fb8d abbc
00000010: 65f8 b13d 907a b8bd 3e43 213d b2d2 42bd
00000020: 16ac 04bd 5a8d ee3d 706f a5bd 6144 e2bd
00000030: cc22 0b3d 97e0 acbd a710 933d cf7f 45bd
00000040: d8fb c1bd 1381 8c3d 2ca5 d7bd 942f d0bd
00000050: 5ae5 323d 825e 0a3d 7e42 24bd 6b03 d3bd
00000060: 1f2f d2bd a95e 13bd f7f3 e23c 1db9 efbb
00000070: 6532 fdbd f32d 643d 7b6f 303d 4b35 943d
00000080: c32a e1bd 4a42 c33b be37 133d 9498 133d
00000090: d581 fabc cdc0 f7bd 5c2b 5b3d 594d aabd
000000a0: e3b2 853d 3994 44bd 2e09 3cbd e869 cb3d
000000b0: 4a02 d4bc bcd5 133d f0be d0bd c547 dd3d
000000c0: 96b2 c03d 1eb8 48bd 195b 0dbd d472 b7bc
000000d0: c6cc bbbc 4e11 953d af37 a7bd 2f83 55bd
000000e0: ae23 a7bd 8222 6e3d 6658 1e3d bf7d b23d
000000f0: 0640 713d 7ddf e43d eb37 87bd 9ec7 03bc
00000100: f370 5cbc f739 b83d d4aa f4bc b5a2 a4bd
00000110: b7bb 6d3c 2e0f fd3c 79eb a1bd 0e5e 72bc
00000120: 39c3 823d 51eb 15bd 752d b93d bff2 00bd
00000130: 3029 893d 819a 903d 8f61 65bc 568b e93d
00000140: b91a c73c 84c7 5d3d 8ca9 d1bd d402 05bb
00000150: 4d90 d73d f77f ec3d be48 1a3d 05a8 1abd
00000160: 5df7 a1bd 3d83 943d 97b2 b83d dbe6 843d
00000170: 37f8 f5b8 8358 023e 9079 a6bd c527 8dbd
00000180: 7d03 afbd f64f 143d 4b10 a03c 7a30 a4bd
