backend/trained_models/NABIL_GRU_model_state_dict.pth (torch, 126732 bytes, 5 tensors)

rnn.weight_ih_l0 f4 [300, 1]
000000 54 12 92 3d 7f fd c2 3b 5e ad b3 3d f5 22 f6 bc
       0.07132402 0.0059506292 0.087733015 -0.030045966
000010 30 ca d6 3d e2 35 95 bd 99 36 bc 3b 12 13 25 3d
       0.10487783 -0.07285668 0.0057438132 0.04030139
000020 25 ec e7 bd 2f 5a a1 bd 95 45 b6 3d 53 ff 98 bd
       -0.11324338 -0.07878529 0.088999905 -0.07470574
000030 88 e3 64 3d 0f 0b be bc fa ad 31 bd 4a 8a eb bc
       0.055881053 -0.023198633 -0.043378808 -0.028752465
000040 42 1a ad bd 0a ba 3d 3d d2 9b fc bb d8 70 52 bd
       -0.08452274 0.04632 -0.007709005 -0.051377147
000050 b1 cb 33 3d 25 7d 8b 3d a2 7e 81 3c 57 39 07 bb
       0.043895427 0.06810979 0.015807454 -0.0020633542
000060 ca b7 9a bc d5 16 b4 3d d7 21 99 3d 6a 61 89 3d
       -0.018886466 0.08793417 0.074771576 0.067080334
000070 87 06 97 3d 9d fe e4 3b de 62 9e 3c 25 17 bf bd
       0.07374292 0.00698836 0.019334253 -0.09330586
000080 a2 46 93 3d b7 8c a3 bc 04 ab 75 3b ff 7f 15 bd
       0.071912065 -0.019964559 0.0037485966 -0.03649902
000090 97 63 7c bd 32 88 87 3d ed f3 0a bc 7b 39 b1 bd
       -0.061618414 0.06617774 -0.008481008 -0.08653542
0000a0 82 04 fb 3c 81 60 ed bc 5d 82 af bb ed 17 a9 3d
       0.030641798 -0.02897668 -0.0053561167 0.082565166
0000b0 3c 9d 86 bc f7 59 26 3d 20 d6 23 bd 1c fb 07 3c
       -0.016432397 0.04061314 -0.039999127 0.008299615
0000c0 0f 38 78 3d 30 ea 46 3d 44 82 d9 bc 9a 9f c8 bd
       0.060600337 0.048563182 -0.026551373 -0.097960666
0000d0 7a 85 ca 3d fc 88 97 3d 7a 0c 8c 3d 9f 83 35 3d
       0.0988874 0.073991746 0.06838317 0.044314977
0000e0 4e 52 00 3d 19 b8 aa bd 57 93 7b bd 32 28 b1 3c
       0.031328492 -0.08335895 -0.06141981 0.021625612
0000f0 17 6f 9a 3d e0 2d 85 3d 3e ac 90 3c fc c7 a3 3c
       0.0754072 0.065028906 0.017660256 0.01999282
000100 7b 93 89 3d 1f fa 4b 3c 08 80 54 bc db 0e f4 3b
       0.06717583 0.01244977 -0.012969978 0.00744806
000110 9f b5 e5 bc 1d 04 5a 3d 4a 25 73 bd 34 0c 7e bd
       -0.028040705 0.05322658 -0.059361733 -0.062023357
000120 c2 ef 3f bd 81 77 cb bb 92 63 bb bd 74 0b d8 3d
       -0.04685951 -0.0062093143 -0.09149851 0.105490595
000130 e0 05 f8 3a 44 64 24 bc ce dc 1c bd 51 e9 b4 bd
       0.0018922649 -0.010033671 -0.038296513 -0.08833564
000140 3e b7 3b bd f5 1d f2 3d cb f8 84 3d 6f fd 97 3d
       -0.04582905 0.1182212 0.06492766 0.074213855
000150 6f e3 4d bd a6 76 45 bc 54 96 93 3d 0c 60 6c 3d
       -0.050265726 -0.012052214 0.07206407 0.057708785
000160 21 11 84 bd 30 e3 96 3c 4b 36 20 bd 24 b6 90 3d
       -0.064485796 0.018418878 -0.039114278 0.070659906
000170 de b6 9d 3d bd 30 b5 ba 35 36 9a 3d 02 81 88 3d
       0.07700895 -0.0013823729 0.075298704 0.06665231
000180 9b 3e a4 bd 1f 11 59 bc cc 06 15 3d 63 9b a0 bc
       -0.080197535 -0.013248711 0.036383435 -0.019605344
000190 ff ec 16 bd 29 3c 8b bd a7 37 07 be 74 94 ac bd
       -0.03684711 -0.06798584 -0.13204823 -0.08426753
0001a0 20 67 87 3c 97 aa fa 3b aa b6 e4 bd 04 a6 1b be
       0.016528666 0.0076497304 -0.11167653 -0.15200049
0001b0 8f fa bb bd c3 ef 02 be 73 16 71 bd f9 59 c3 bd
       -0.0917865 -0.12786774 -0.0588593 -0.09538645
0001c0 3a 00 68 bb e9 8a 00 3d 54 63 73 bd 69 46 ba 3c
       -0.0035400526 0.031382475 -0.0594209 0.022738652
0001d0 b3 c5 9b bc b5 87 3a bd 56 51 94 bd 97 d4 a8 bc
       -0.019015169 -0.045539577 -0.07242076 -0.020609183
0001e0 5b 04 22 3d 0d 9c 87 bd 61 4b 36 3d 6e 81 a7 bc
       0.039554935 -0.06621561 0.04450548 -0.02044746
0001f0 c3 af 2b be 4c 8e 46 bd 8a 4d ad bd fc 3f c1 bd
       -0.16766267 -0.04847555 -0.08462055 -0.09436032
000200 50 c7 0b bd 14 d9 13 3c ca 0a 00 bd 33 2d 21 bd
       -0.034125626 0.009023923 -0.03126029 -0.039349746
000210 f4 46 0a 3d ac 4f 63 3c fb 5d c4 bd ef 94 5f 3d
       0.033759072 0.013873976 -0.09588238 0.054585394
000220 ac bf f6 bd 41 6c 0d be 09 08 37 3d df 78 58 bd
       -0.12048277 -0.13810827 0.044685397 -0.052849647
000230 ef 00 d8 bd 66 3e 22 3c 98 09 cf 3d e9 3d cb bc
       -0.10547053 0.009902572 0.10109252 -0.024809795
000240 fb 16 a8 bd b1 bc ac bd cd 81 75 bd bd d5 19 3d
       -0.08207508 -0.084344275 -0.05993824 0.037557352
000250 0f 51 70 3c 62 39 2a bd a7 ff b2 3d eb f3 4e 3d
       0.014667763 -0.04155863 0.08740168 0.050525587
000260 8f 8d cb bd 01 25 1a 3d d5 1d a3 bd 73 7c 2c bd
       -0.099391095 0.037632946 -0.079646744 -0.04211087
000270 39 7e e9 bd 16 2c 44 bd 4a 3c 2f bd 90 d1 1a 3d
       -0.11401028 -0.047893606 -0.042782106 0.03779751
000280 da bc 9f bd 3c 20 be bc a0 0e 01 3d ee 91 81 bd
       -0.077996925 -0.02320873 0.031508088 -0.06326662
000290 94 6f 5a 3a ca 04 62 3d b9 33 15 3c a0 8e 12 3b
       0.00083326665 0.05518035 0.00910657 0.0022362843
0002a0 1c 03 76 3d 27 7c d9 3c 7c 91 8f bd dd 06 b0 3c
       0.06006156 0.026548458 -0.07010171 0.021487648
0002b0 83 86 4b bd 0c d0 1b be 46 6b 2d bd af e5 82 3c
       -0.049688827 -0.15216082 -0.042338632 0.015978662
0002c0 54 e1 f8 bc d2 2a 22 bd d0 3e 14 3d a1 01 16 be
       -0.030380882 -0.039591618 0.036192715 -0.14649059
0002d0 3b 76 cf bc c7 c3 da bb bb 41 de 3c 00 0b 64 bd
       -0.025324931 -0.0066761705 0.027130952 -0.055674553
0002e0 3b 36 81 3d 17 35 aa bd f1 d5 33 bd ea e3 11 3c
       0.06309172 -0.08310907 -0.043905202 0.008904437
0002f0 f6 5e 9f bd 74 6f 75 3b a8 c2 1c be 46 86 81 3d
       -0.07781784 0.0037450464 -0.1530863 0.06324439
000300 23 6f 15 be 02 13 45 3d e9 a3 99 bd 0f 31 64 bc
       -0.14593177 0.04811383 -0.075019665 -0.013927712
000310 62 b3 51 bd f9 3b 8b 3c f8 31 c7 bd fc b6 99 bd
       -0.051196463 0.01699637 -0.09726328 -0.075056046
000320 12 83 bc 3d 72 95 87 bd c4 77 9f bd 51 22 7d bd
       0.09204687 -0.06620301 -0.07786515 -0.061800305
000330 a0 ba eb 3d bd cb af bd 0e e5 ff bc 45 0f 90 3d
       0.11510205 -0.08583782 -0.031237151 0.070341624
000340 d6 c1 9f bd c9 53 8d 3d 3f 8d 88 bd f3 18 5b bd
       -0.07800643 0.069007464 -0.066675656 -0.05349059
000350 a5 4d f2 bd 45 65 28 3a aa 4f ac bc 90 24 46 3d
       -0.11831216 0.0006423782 -0.02103408 0.048374712
000360 10 0a 05 3e fd df 7e 3d 5c c2 06 3e ed 70 5c 3d
       0.1299212 0.06222533 0.1316008 0.053818632
000370 90 3b 56 3d bd 45 75 bd a4 09 29 3d 98 f0 8a bd
       0.052302897 -0.05988096 0.04126896 -0.06784171
000380 cb 95 ff bd 6c d4 8e 3b 58 2a 71 bd 25 9f a3 bd
       -0.124797426 0.0043588188 -0.058878273 -0.07989339
000390 44 81 9a 3d 47 48 71 bd 30 34 a8 bd e2 86 cd bd
       0.07544187 -0.05890682 -0.08213079 -0.100354925
0003a0 ac e2 b2 bd aa 32 18 3d d4 47 20 bd b3 f7 8c bc
       -0.087346405 0.037157692 -0.039131 -0.017207956
0003b0 04 9a fa bc b0 53 bc 3d 00 97 ed bc cd 51 bb bd
       -0.030591018 0.091956496 -0.029002666 -0.09146462
0003c0 52 b2 22 bd ec bb f8 bd 64 dd 05 3d 0d 44 6a bc
       -0.03972084 -0.12145218 0.032681838 -0.014298451
0003d0 c2 13 ff 3d 76 43 b6 bc 8a 57 d0 bd ee ce 02 be
       0.124549404 -0.022248965 -0.10172947 -0.1277425
0003e0 39 ab 46 3d 10 59 32 bd 0c cc 6b 3d 7f 84 94 bd
       0.048503134 -0.043541968 0.05756764 -0.07251834
0003f0 95 3b fe 3b b7 45 6c 3d 87 bb 98 3b 0c 00 7c bc
       0.0077585676 0.057683673 0.004661027 -0.015380871

rnn.weight_hh_l0 f4 [300, 100]
000000 13 f4 15 bd 6b e1 1e bd 0e 9f 8b bd 9b 88 2d 3d
       -0.03660972 -0.038789194 -0.06817447 0.042366605
000010 54 d5 d2 3c 08 27 c4 bd 25 3d 21 3d 97 ee 4b 3d
       0.025736488 -0.09577757 0.039364953 0.049788084
000020 ab d2 25 3d 8a a8 21 3b 03 bc 76 3d d1 63 d8 bd
       0.04048411 0.0024667108 0.060237896 -0.105659135
000030 24 14 b3 bd 53 93 86 3d 99 a1 52 bd 6c da 2a bd
       -0.08744076 0.065710686 -0.051423643 -0.04171221
000040 f8 b6 e3 3d 52 d9 2d bd bc c4 9f bc f0 36 44 bd
       0.11118883 -0.04244358 -0.01950299 -0.047903955
000050 4e c1 ec 3c 29 9b 3f 3d a3 6f 15 bd 3d ad b5 3d
       0.028900769 0.04677883 -0.03648342 0.08870933
000060 5b 9f 1f 3c b2 af 0c 3d e8 08 a1 bc 72 72 78 bd
       0.009742583 0.034347244 -0.019657567 -0.06065602
000070 6d 4f 24 bc 3a ff 00 bd cd f0 a3 3c 50 88 3d 3d
       -0.010028702 -0.031493403 0.020012284 0.046272576
000080 4b 8d 9d 3d 3d c2 8b 3d d3 5f 99 3d eb df 0a bc
       0.07692965 0.068241574 0.0748898 -0.008476238
000090 25 61 a7 bd e1 44 ad 3d 66 12 a6 3d 00 72 be bd
       -0.08172826 0.08460403 0.08108978 -0.092990875
0000a0 df 36 9a bd 87 1b 99 3d bc af 8d 3d 9e 3d 41 3c
       -0.07529997 0.074759535 0.06918284 0.011794476
0000b0 f8 31 0c 3d a9 86 d2 bc dc 8e e1 bc 53 d7 f1 bb
       0.03422734 -0.025698977 -0.027533941 -0.007380405
0000c0 58 5c 84 3b 91 4f b3 bd b5 d9 b2 bc 04 76 b0 3d
       0.0040393285 -0.087554105 -0.021832326 0.0861626
0000d0 c6 15 cb 3d 9a e2 27 3d f3 1e 77 3c 0a 56 69 3c
       0.09916262 0.04098759 0.015083062 0.014241705
0000e0 7a 60 e1 3d 51 8e f8 bc 86 11 37 3d f9 66 5c bd
       0.110047296 -0.0303413 0.044694446 -0.05380914
0000f0 fb 8b 5c 3d f1 31 d9 3b 06 18 4b bd a6 8d 47 bd
       0.053844433 0.006628268 -0.049583457 -0.04871907
000100 29 06 5c 3d 84 bd a5 bd 7b 37 83 bc e0 ba 91 bd
       0.053716812 -0.08092788 -0.016017666 -0.07115722
000110 05 b3 41 b9 9c d1 89 3d 3e cf 9f 3d ee b2 8f bd
       -0.00018472604 0.06729433 0.078032 -0.0701655
000120 88 cf ab bd 64 7f ca bc 35 32 86 bd 9c d9 cb 3c
       -0.08389193 -0.024718948 -0.06552545 0.024884038
000130 9f b5 9c 3d b3 f9 c6 bd f6 b2 82 ba 44 00 44 3d
       0.07651829 -0.09715595 -0.0009971547 0.047851816
000140 36 0e 87 b8 86 11 00 3d 86 81 9a 3d c7 e1 d9 bd
       -6.4399486e-05 0.03126671 0.07544236 -0.10638767
000150 98 0e 74 bd ce 4c 7e bd 01 7a 99 3c 4b b8 0e 3d
       -0.05958423 -0.062084965 0.018734934 0.034843724
000160 d1 fe 8d bd 32 d6 c9 bc f0 51 92 bd 69 a9 c7 3c
       -0.06933368 -0.02463827 -0.071445346 0.024372773
000170 39 ce b5 bd 57 1c cb 3c 06 68 aa 3d b9 d3 a1 3d
       -0.088772245 0.024793787 0.08320622 0.07901711
000180 5f 31 16 bd 82 d2 27 bd 6c d7 94 3d f9 f4 95 3d
       -0.036668178 -0.04097224 0.07267651 0.073221155
000190 3a 09 92 bd 07 8d 93 bd c2 80 85 3d 58 43 a5 bd
       -0.07130666 -0.07204633 0.06518699 -0.080694854
0001a0 e4 6f 63 3c bf ce b3 bd b1 62 8a bd 35 07 94 3d
       0.013881657 -0.08779668 -0.06757105 0.07227937
0001b0 e3 1a 99 bd ae da 16 bd 95 77 32 3d 19 fe ab bd
       -0.07475831 -0.036829643 0.043571074 -0.08398075
0001c0 84 e1 95 bc 38 cc e4 bc c2 91 da 3d 86 bc e2 3a
       -0.01829601 -0.02792941 0.10672332 0.0017298616
0001d0 fc a4 88 bc 94 30 81 bb e0 13 55 3c 09 fe 8d bd
       -0.016680233 -0.0039425585 0.013005227 -0.06933219
0001e0 e9 12 98 bd 58 8d 7a 3c 4f 90 80 bd ba fe 87 3d
       -0.07425482 0.015292488 -0.06277525 0.06640382
0001f0 c7 54 33 bd 23 c3 1f 3d 59 cf cc bd c9 51 22 3d
       -0.04378202 0.039004456 -0.10000486 0.039628778
000200 02 c1 cf b9 84 27 35 bc 18 f8 77 bc 40 6b 2e bd
       -0.0003962592 -0.011056785 -0.015134834 -0.04258275
000210 3a cd bb bd f8 f9 49 bd 5e 75 62 bc a4 f3 08 3c
       -0.09170003 -0.049310654 -0.013821928 0.00835887
000220 a7 fa 51 bd 9c 8a b8 3d 24 9c 96 3c e9 21 ad bd
       -0.05126443 0.09010813 0.018385 -0.084537335
000230 a5 6e d1 bd 9d b9 8f bd db 53 88 3d 85 4d 25 bc
       -0.10226182 -0.07017825 0.06656619 -0.010089283
000240 1d 88 cc 3c ba 04 3d bd 18 31 ce 3c db b4 15 3c
       0.024967248 -0.046147086 0.025169894 0.009137358
000250 b2 2b aa 3d 3f 55 b6 bd 48 e3 c6 3d 07 49 aa bc
       0.083091155 -0.08902978 0.09711319 -0.020786775
000260 b1 39 1c 3d b0 98 97 3d f6 d0 74 3d b2 07 7a 3d
       0.038140956 0.0740217 0.059769593 0.061042495
000270 0c 25 99 bd b2 2d e3 3d cf c7 8c bd 9a c1 1c 3d
       -0.07477769 0.110927 -0.06874048 0.03827057
000280 db ba a0 bd bd 90 ce 3c 1f 92 be bc 2a 82 af bd
       -0.0784814 0.025215501 -0.023263035 -0.08569749
000290 18 03 ce 3c 8e 21 42 3d 44 3c 78 3c 45 d7 41 bd
       0.02514796 0.04739528 0.015151087 -0.047324438
0002a0 b8 55 80 bd 6f 7c e8 3d 77 16 ca 3d 98 90 bb 3d
       -0.062663496 0.11351859 0.09867566 0.091584384
0002b0 5f 87 8b bd 9f 9b 09 3c 3f 01 ca bd bd da b4 bb
       -0.06812929 0.008398919 -0.09863519 -0.0055192397
0002c0 5c 8c 73 3c 3a 34 dd bd b5 57 84 3d eb 4a 4b bb
       0.014865007 -0.10800977 0.06462041 -0.0031019996
0002d0 da 14 21 bc 91 85 cd bd ed 32 21 3d 7d 20 a6 3d
       -0.009831632 -0.100352414 0.039355207 0.081116654
0002e0 b3 83 ad 3c e2 b5 00 3c 3d eb 47 3d 98 2a b5 3d
       0.021180963 0.007855864 0.048808325 0.08846015
0002f0 3e 80 35 3d 47 7a 51 bd 72 cb 5e 38 58 f0 df 3d
       0.044311754 -0.051142003 5.3118398e-05 0.10934514
000300 de ed 00 3d 9a 27 e3 bd 89 4b 5e bd c6 df a6 bd
       0.031476848 -0.11091538 -0.054271255 -0.0814815
000310 e8 84 93 3d b9 03 d7 bd 84 9b 3f bd ab 0e e1 3c
       0.07203084 -0.10498757 -0.04677917 0.027472815
000320 8e 53 04 3d 51 6d f0 3c d9 53 f1 3b 26 e4 8b bd
       0.032306246 0.029349001 0.0073647317 -0.06830625
000330 e5 5d 11 3a 4a 21 76 bd c3 0b 6d bd 8a 14 54 bd
       0.00055453024 -0.06009034 -0.057872545 -0.0517774
000340 fd ed e6 bd 83 ed d4 bc 2c 75 de bd c2 04 8b 3b
       -0.112758614 -0.02599216 -0.108621925 0.0042425105
000350 ee 98 93 bd 5c 34 d5 bc cb 63 82 ba b2 ce 3e 3d
       -0.072069034 -0.026025943 -0.0009947954 0.04658384
000360 95 62 33 bd b6 b7 c1 3d 26 ff aa 3d b1 ed ba 3d
       -0.043795187 0.09458868 0.08349447 0.09127367
000370 57 d2 36 3d f4 ec 9a bc 44 ad 3f 3d 9f 25 bc bd
       0.04463419 -0.018911816 0.0467961 -0.09186863
000380 e4 37 51 bb 1d 05 7c 3d 5c 4b 8a bd 00 68 78 3d
       -0.0031924183 0.061528314 -0.06752655 0.060646057
000390 20 4e a0 3d ee 9b d0 bd 70 f1 52 3d 55 4b 7c bc
       0.07827401 -0.10185991 0.051499784 -0.01539882
0003a0 f9 a0 d7 bc 0b a1 a6 3d b9 30 1c bd 57 b3 5d 3d
       -0.026321875 0.08136185 -0.038132403 0.05412611
0003b0 4f 6e 97 3d ea 17 8b 3d 08 f1 c1 3c 12 8e 5c 3c
       0.073940866 0.067916706 0.023674503 0.013461607
0003c0 d1 1b e8 bc 61 6e b9 bd ea d7 25 3d b0 00 77 bd
       -0.028333576 -0.09054256 0.040489115 -0.06030339
0003d0 88 5e d2 bc 99 ca bd bd e8 ed 9e 3d 4b 62 8b bd
       -0.025679842 -0.09267158 0.07760221 -0.06805857
0003e0 b9 84 7e 3d fc e0 9d 3d c4 b1 b7 3c 04 a9 a2 3c
       0.062138293 0.07708928 0.022423632 0.019855984
0003f0 f0 cd af 3d 7a 8d b0 bc a6 a4 10 bd bb 12 2c bd
       0.08584201 -0.021551836 -0.03531327 -0.04201005

rnn.bias_ih_l0 f4 [300]
000000 f6 32 d9 3c ae 7a 82 3d 6b 23 83 3c 79 ed 84 3d
       0.026513558 0.063710555 0.0160081 0.06490607
000010 46 ad a3 bc e1 8d 9f 3d fb f5 6f 3d c9 4c d7 bd
       -0.019980084 0.07790733 0.058584195 -0.105126925
000020 17 b8 98 3d 23 b0 57 bc 79 2a b0 bd 27 21 21 bd
       0.07456987 -0.013164553 -0.08601851 -0.039338257
000030 76 f8 c9 bd 3a 11 b5 bb 34 01 ab bd 65 ea 14 3d
       -0.09861843 -0.005525735 -0.08349839 0.03635635
000040 1b 5d 9e 3d 97 38 4d 3d 72 63 ec bc ec de 9e bd
       0.07732602 0.050102796 -0.028856013 -0.07757363
000050 89 b5 65 bd c7 23 33 bd 8d 8b bd bd d1 8b 98 3d
       -0.05608133 -0.04373529 -0.09255133 0.07448543
000060 cc e5 d3 3d 5f cd 2c 3d 6c f6 2d 3d 2e 17 22 bc
       0.10346565 0.042188045 0.042471334 -0.009893222
000070 f7 31 0a bd fe 40 a8 3c f8 78 63 bd 3a c9 ad bd
       -0.033739056 0.020538803 -0.055535287 -0.084856465
000080 f3 24 27 bd 17 3d 5f bd 7b b9 a7 3d f7 25 f8 3d
       -0.040806722 -0.05450162 0.081896745 0.12116616
000090 91 3a 2c 3d 1a c2 c0 3d a5 83 c0 bc d4 b5 9d 3c
       0.04204804 0.09412022 -0.023500273 0.019251741
0000a0 e7 aa 9f 3d f7 62 c4 3d e9 9f e2 3d 08 a5 a3 3d
       0.07796269 0.095891885 0.11065657 0.079904616
0000b0 81 20 a3 bd de ed e9 3c 96 22 0d bd 3e d0 8b bc
       -0.07965184 0.028555807 -0.03445681 -0.017067071
0000c0 97 96 ee ba 4f ee 97 bd fc f4 8f bd d6 bf 28 bd
       -0.0018202838 -0.07418501 -0.07029149 -0.041198574
0000d0 16 89 08 bc 0f d3 b5 bc af 27 66 3c 88 02 6e bd
       -0.008333465 -0.022195367 0.014047547 -0.058107883
0000e0 93 15 a5 bd ac e6 c1 bd 59 f3 a8 bd ec 6e 0a bd
       -0.080607556 -0.09467825 -0.0824954 -0.03379719
0000f0 d6 92 4e ba c7 04 ba 3c 72 ea 9a 3d 23 a6 c2 3b
       -0.00078801566 0.022707356 0.07564248 0.005940215
000100 63 f6 d6 3d 85 5b af bc 5d 2b 16 3d e7 e6 4f bd
       0.10496213 -0.021405945 0.03666245 -0.050757315
000110 34 c5 17 3c 69 27 95 bd 1f e7 b4 3d fe bc 6b bd
       0.0092633255 -0.072829075 0.08833145 -0.057553284
000120 05 01 81 3c 38 1e 2c 3d a2 f6 41 3d 9b 16 55 bd
       0.015747556 0.042021006 0.047354348 -0.05202351
000130 8d 0c 41 bd b9 57 d4 3d 9f 75 af 3c c8 75 85 3d
       -0.04713111 0.10368294 0.02141839 0.065166056
000140 09 ee c1 3d 9a 54 9d 3c e1 ad 76 bd 78 2b 6a 3c
       0.0946923 0.01920538 -0.060224418 0.01429259
000150 f3 73 8b 3d 04 1f d0 bd bc 9c 39 bd 49 2b 53 bd
       0.06809225 -0.10162166 -0.04531549 -0.05155495
000160 a6 c0 b4 3d a2 7f a9 3c b9 fa f8 3c 31 86 dc bd
       0.08825807 0.020690743 0.030392991 -0.107677825
000170 28 a2 ca bb 05 68 a9 bd b3 87 f2 3d 76 01 af ba
       -0.0061838813 -0.08271793 0.11842289 -0.0013351876
000180 ac 04 a0 3d 52 8f 14 bd 73 d1 cd 3d 19 12 f7 3b
       0.07813391 -0.036269493 0.10049715 0.007539999
000190 df 88 30 be 25 64 ad bd 6d fd 2e be d7 66 43 be
       -0.17239712 -0.08466367 -0.17088862 -0.19082199
0001a0 d2 82 7b bd 30 59 0e be 11 1d 06 be 8a 4c 5c bd
       -0.061404057 -0.1390121 -0.13097025 -0.05378393
0001b0 54 f5 c9 bd 2b 80 0f bc a4 bd 95 bd e4 df 20 be
       -0.09861246 -0.008758585 -0.07311562 -0.15710407
0001c0 34 4e 3e be 44 9b 97 bc d7 36 aa bd 73 dd f4 bc
       -0.1858452 -0.018506654 -0.08311241 -0.029890751
0001d0 a9 af dc bd 49 2d bf 3d 4a fe 37 be 3f 63 8f 3d
       -0.10775692 0.09334809 -0.17968097 0.070013516
0001e0 79 e7 ce bd f5 b2 ed bd 08 28 62 bc b7 2a 39 be
       -0.10102744 -0.11606399 -0.0138034895 -0.180827
0001f0 5d a3 e1 bd b2 e1 09 be ef 38 5f bd 1b 4d 9c bb
       -0.11017487 -0.13465002 -0.054497655 -0.004769934
000200 09 1f 2c 3d 7b b7 05 be 65 98 37 be c6 f7 97 bd
       0.042021785 -0.13058273 -0.17929228 -0.07420306
000210 09 8d 6e bb 38 2a f0 bd ef 61 97 bd 30 18 6c bd
       -0.0036399981 -0.117268026 -0.07391726 -0.057640254
000220 c8 0e 9e bd 89 44 40 bc 06 60 3b bd 87 78 de bd
       -0.07717663 -0.01173509 -0.045745872 -0.108628325
000230 fc a6 00 be 79 95 2e be 31 7b cd bc 22 44 8d bd
       -0.125637 -0.17049207 -0.025083156 -0.06897761
000240 ef b9 46 bc 4f f5 73 bd 6b 14 0b 3d c6 83 48 bd
       -0.012129291 -0.059560116 0.03395502 -0.048953794
000250 35 d1 e4 bc 93 4f 56 3d 9d 1e 8e bd eb 1f 23 bd
       -0.027931789 0.05232198 -0.06939433 -0.03982536
000260 8d e5 8b bd 21 2f ee bd 76 c6 d5 bd dc 96 cd bd
       -0.06830893 -0.11630083 -0.10438244 -0.1003854
000270 2a 53 dc bd a9 9a 1b be 75 a3 2c bd 6a 7c aa 3d
       -0.1075805 -0.15195717 -0.042148072 0.08324511
000280 71 aa 48 bd 96 63 c9 bd 6a c8 14 3c 6a be 45 bd
       -0.04899067 -0.09833448 0.009080986 -0.048277296
000290 92 17 9e 3c 49 98 ec bd 71 9d 80 bd 02 94 29 be
       0.019298349 -0.115524836 -0.062800296 -0.16560367
0002a0 1b 79 aa bd 7f 07 26 bd ad 66 17 be 15 a1 ab bd
       -0.0832388 -0.040534493 -0.14785261 -0.08380333
0002b0 12 c1 ff bd 36 c6 1d bc 2d 60 7f 3d 97 0e 92 bd
       -0.12487997 -0.009629777 0.06234758 -0.07131689
0002c0 0f 35 08 bb 5d db 06 bd 29 47 a4 bd 38 b8 f5 bd
       -0.0020783579 -0.032924045 -0.08021385 -0.119980276
0002d0 b4 70 df bd 09 d1 c0 bd fd 31 24 3c 0b ea 49 bd
       -0.10910168 -0.0941487 0.010021684 -0.049295466
0002e0 6c a5 3d 3d af 0e 1c 3b a3 28 f0 bd 41 5c 1d be
       0.046300337 0.0023812463 -0.11726501 -0.15367223
0002f0 5d ba 33 be c1 17 7c 3d 25 7c ff bd 7b 90 25 be
       -0.1755156 0.06154609 -0.124748506 -0.16168396
000300 50 28 ef bd c8 90 c0 bb db de 0a be a8 92 27 bd
       -0.11677611 -0.0058766343 -0.13561575 -0.040911347
000310 12 2c dc bd 54 6b f2 bd cb b6 7c bd 49 91 8b 3d
       -0.10750593 -0.118368775 -0.061697762 0.0681482
000320 84 76 91 3d 95 da d8 3d 83 f4 4f 3d 14 9c 0c 3c
       0.07102683 0.10588566 0.050770294 0.008582134
000330 9d f7 43 bd b2 33 19 3d 57 3f 98 bc 68 ea c7 bd
       -0.047843564 0.037402816 -0.01858489 -0.09761506
000340 47 43 0c bc 8c 78 86 bd 38 e3 6a bd 1f 18 5c 3d
       -0.008560962 -0.06565961 -0.0573456 0.05373394
000350 ba 1c 0a 3b 0e ad b8 3d 29 ca 18 3d 29 f8 31 bd
       0.0021074251 0.090173826 0.03730217 -0.043449555
000360 50 8f 05 bd cf dc 78 bd 13 81 88 3b e9 79 a1 3b
       -0.032607377 -0.060757454 0.0041657775 0.004927863
000370 e1 39 94 3d f8 89 a1 bd 48 51 f2 bc 33 3b 9a bd
       0.07237602 -0.078876436 -0.029579774 -0.075308226
000380 9b 18 39 3d 49 36 ad bd 22 c4 a0 bd a0 1a 99 bd
       0.04518948 -0.0845762 -0.07849909 -0.074757814
000390 ea cc 68 bd 21 27 a5 3d eb bf 65 3d ba 33 aa bd
       -0.056836046 0.08064104 0.05609123 -0.08310647
0003a0 b6 72 f6 3b fa 66 23 bd 96 b9 0e 3d 83 42 c3 bd
       0.007520999 -0.039893128 0.034844957 -0.095341705
0003b0 0b e8 89 bc 2b 40 bb bd d4 d6 0f bd 39 02 a7 3d
       -0.01683428 -0.091430984 -0.035116985 0.08154721
0003c0 1f a7 14 3d b0 88 18 bd 98 4b 82 3c 9b 66 ff bc
       0.03629219 -0.03723973 0.015905187 -0.031176856
0003d0 c4 23 9d 3d fa 58 c4 bd 7b f7 c6 bc 02 58 8b bc
       0.076728374 -0.095872834 -0.02428793 -0.017009739
0003e0 f4 ee 04 bc ca 38 80 bb 76 32 14 3d e7 10 3f bd
       -0.0081136115 -0.00391302 0.036180936 -0.04664698
0003f0 41 36 fd bc cc 51 30 bd 11 06 c7 bc 49 ea b8 3a
       -0.03090966 -0.043046758 -0.024294885 0.0014107908

rnn.bias_hh_l0 f4 [300]
000000 cc 1c bc 3d c2 f3 cc 3c ac e7 8d 3c b9 5a 80 bd
       0.0918518 0.025018577 0.017322384 -0.06267304
000010 5a 74 02 bb 93 b7 96 bd fc d7 18 bd ca f1 a6 3d
       -0.0019905777 -0.07359233 -0.037315354 0.08151586
000020 95 31 9f bd be f9 03 bd c1 99 a2 3d a2 d7 81 bd
       -0.07773129 -0.032220595 0.079394825 -0.06339957
000030 d6 2c ad 3d ac 99 e2 3d ac 5e 74 3d 84 bf 05 bd
       0.084558174 0.11064467 0.0596606 -0.032653347
000040 fc ea 1c 3c 3d 36 05 3e 45 11 9c 3c 77 5c b3 bd
       0.009577509 0.13008972 0.019051204 -0.08757871
000050 8c 85 94 bd 0e df 68 3d 11 5e 81 bd ec 50 eb bb
       -0.072520345 0.056853347 -0.0631677 -0.0071812775
000060 b7 20 a2 bc 5e bc a8 3d fd 84 85 3d c2 1f 93 3d
       -0.01979099 0.08239053 0.06519506 0.07183792
000070 48 28 02 3d 84 e9 d6 3d 3d c2 43 3d 58 ab 99 bd
       0.031776696 0.10493758 0.047792662 -0.07503384
000080 62 4c 53 bd 71 3f 66 bd 99 a1 a5 3d 43 2f 99 bd
       -0.051586516 -0.056212846 0.08087463 -0.074797176
000090 1c 06 85 3d 0f d4 c1 3d 84 50 7c bd cb b2 60 3d
       0.06495306 0.09464275 -0.061600223 0.05485801
0000a0 4b 73 8b bd 47 e8 d0 3d 4c 11 eb 3d 27 60 91 3d
       -0.068091 0.102005534 0.114779085 0.07098418
0000b0 9f ac bc 3d 65 7a ab 3d 86 c3 69 3b 45 ec 18 3d
       0.09212612 0.08372954 0.003566952 0.0373347
0000c0 29 cc ab bd 89 08 fd 3c 92 0a 66 3d 00 45 a4 bc
       -0.0838855 0.030887859 0.056162424 -0.020052433
0000d0 50 9b c7 3d bd c7 b6 3d 80 36 e7 3d d3 8e b7 bd
       0.097464204 0.08924816 0.11289692 -0.089627884
0000e0 23 db 49 3c f0 a2 c4 bc 89 7d 89 3c b9 fe 58 3d
       0.012320313 -0.024003476 0.016783493 0.052977297
0000f0 88 02 30 bb b6 6c bf 3d fa 9d 49 3c ec 94 a3 bd
       -0.0026856977 0.09346907 0.012305731 -0.07987389
000100 56 32 2e bd bf ad 86 bc f2 74 b0 3d 6c d0 84 3c
       -0.042528473 -0.01644027 0.086160555 0.016212665
000110 b0 27 cd bd 9e 29 ec 3d 6f 5f d9 3d 5f 1c 7d 3d
       -0.100173354 0.11531375 0.10613906 0.061794635
000120 63 22 90 bd 89 45 84 3b cf 48 cb bd c0 96 ce bc
       -0.07037809 0.0040366095 -0.099259965 -0.025218368
000130 fa 61 41 3d 22 8d c5 3c a6 3a 99 bd 71 13 84 3c
       0.04721258 0.024115149 -0.074818894 0.016122552
000140 7b 48 03 ba 64 e8 14 bd b9 05 6f bd f3 94 1b bd
       -0.0005008054 -0.036354437 -0.058355067 -0.037983846
000150 62 0c db bd dd de a8 bc 95 d2 07 bd dd 88 b7 bd
       -0.10695721 -0.020614082 -0.03315981 -0.089616515
000160 7f ab 76 3c 33 21 a4 3d 3d 9d ca 3d a4 a8 ab bd
       0.015055536 0.08014145 0.09893272 -0.08381775
000170 c6 18 91 3c 6d 07 4f 3c 45 76 a9 3d 2a 1d 87 bb
       0.017712008 0.012636048 0.08274511 -0.0041233497
000180 73 2c b4 bd 55 83 80 bd f5 60 8a bd f7 12 6c bd
       -0.087975405 -0.062750496 -0.06756774 -0.057635274
000190 b5 9e 1d 3c 21 df 81 3d c0 2e f0 bd e5 c3 da bd
       0.009620358 0.063413866 -0.11727667 -0.10681895
0001a0 d5 9c 05 be 2f 14 4a bd 90 68 0f be 86 d4 8e bc
       -0.13048108 -0.049335655 -0.14004731 -0.017435323
0001b0 29 5f 87 bd cf 79 cb bd 59 2e 8c bd 01 9e b5 bb
       -0.06609947 -0.099353425 -0.068447776 -0.005542517
0001c0 31 2c 24 be 45 34 0f bd bd ba 66 bd 1d 0c fb bd
       -0.16032483 -0.034961957 -0.05633043 -0.1225817
0001d0 6f 56 93 ba 3e ee c1 3d 79 e2 c6 bd d2 91 de bc
       -0.0011240969 0.09469269 -0.09711165 -0.027169142
0001e0 3e 80 3b be 23 09 8d bd 56 5c 04 be 16 1d 04 be
       -0.1831064 -0.06886508 -0.12925848 -0.1290172
0001f0 62 ed d4 bd 1f 5f 77 bd cd 80 af bd f7 d3 52 3c
       -0.1039684 -0.06039345 -0.08569489 0.012867919
000200 a7 39 ae bd 99 a5 1d be 86 4a 0d be a1 62 88 bd
       -0.0850709 -0.15395202 -0.1379796 -0.06659437
000210 88 0d 2e be 6c 79 1b bd 5f 5c 43 bd d9 d9 1f be
       -0.1699735 -0.037957594 -0.047695514 -0.15610446
000220 67 0d 1a be c7 c4 92 bd 02 c2 18 be b1 c5 f2 bc
       -0.15044175 -0.071664385 -0.14917758 -0.029635282
000230 99 81 25 be 9e 98 df bd c8 a2 c2 3d 9c 2d c6 bd
       -0.16162719 -0.10917781 0.09503704 -0.09676668
000240 d4 4e 36 bc be bc c6 3b 39 0b 9f bd 8d 9b 48 bd
       -0.0111271925 0.0060649803 -0.077658124 -0.04897647
000250 74 7e c1 bd cf d6 6a 3d 9b e5 99 bc ce c5 4a bd
       -0.09447947 0.057333764 -0.018786242 -0.049505048
000260 65 de bf bd 95 cc 08 be 3a 12 a6 bd e2 cd ff bd
       -0.0936859 -0.13359292 -0.08108945 -0.12490441
000270 9a 1d c2 bc 3f df 6a bd dc ed 34 be 43 4a a8 3d
       -0.023695756 -0.05734181 -0.17668861 0.08217289
000280 bd ab 21 be d6 b8 ca 3d d1 84 58 bd 6b 5e 55 3b
       -0.15788169 0.09898536 -0.05286104 0.0032557498
000290 42 64 48 3d 09 51 37 3d c5 60 78 bc e9 68 46 bd
       0.04892374 0.044755016 -0.01515979 -0.048439894
0002a0 ea 64 94 bd c3 a2 81 bd e9 fb 41 bc 4d 0c 16 be
       -0.0724581 -0.063298725 -0.011839845 -0.1465313
0002b0 1a 10 35 bd a8 27 c5 bc 79 2a b1 bd d3 7e a9 bd
       -0.04420481 -0.024066761 -0.08650679 -0.08276143
0002c0 5f 0f 84 3c a0 fc b3 bd 0b cc a4 bd eb 5b e6 bd
       0.01612061 -0.08788419 -0.080467306 -0.11248001
0002d0 c4 4b 8d bd 5c e1 01 be ec e4 90 bc 0a fe 07 be
       -0.06899217 -0.12683624 -0.017687283 -0.13280502
0002e0 96 fd 83 3c af a6 31 bc 51 19 a8 bd 52 ab a1 bd
       0.01611213 -0.010842963 -0.08207954 -0.07894005
0002f0 84 15 6d bd 67 f5 97 3d 75 71 31 be 33 71 15 be
       -0.057881847 0.07419854 -0.17328437 -0.14593963
000300 9e 87 39 bd 51 a7 f4 3c 8c 97 20 bc b8 52 41 bd
       -0.04529535 0.029864939 -0.009801757 -0.047198027
000310 ba 1f b1 bc c1 e9 2b be ff c4 27 be 78 79 12 3d
       -0.021621574 -0.16788389 -0.16383742 0.035760373
000320 04 db 83 3d 60 21 8e 3d fa 45 9e bd 57 84 c9 bd
       0.06438258 0.069399595 -0.07728191 -0.09839695
000330 06 71 e2 3c 01 22 42 3d 47 63 37 3d 79 4b 57 bd
       0.027641784 0.04739571 0.044772413 -0.05256221
000340 a5 f6 a0 3d 8e 0d c4 bd b8 ce 17 3b 1b fa 8d 3d
       0.07859544 -0.09572898 0.0023163985 0.069324695
000350 e9 82 db bd 35 ed cd bd 00 53 20 bd ff 5c ba bc
       -0.107183285 -0.10055009 -0.039141655 -0.022749422
000360 bf db 6f 3c 6d ff 43 3d af 78 ae bd 13 95 e1 bd
       0.014639794 0.047851015 -0.08519112 -0.11014762
000370 a4 eb 07 bd 59 77 55 3d 39 34 89 3d 20 c4 92 bd
       -0.03318371 0.052115772 0.06699414 -0.07166314
000380 8e 71 10 bd b6 63 ab bc e0 bf 8c bc 85 ad e1 39
       -0.035264544 -0.02092157 -0.017181337 0.00043044626
000390 5e dd 57 bd ce 5e 3a bd b4 64 5a 3d fd e8 04 bd
       -0.052701347 -0.04550057 0.053318694 -0.032448757
0003a0 f3 44 e2 bc 8d 04 b3 3d 8e 6b 74 bd 7f b0 e3 3c
       -0.027620768 0.08741102 -0.059672885 0.02779412
0003b0 ea cc de bb 38 7f 27 3d 02 a3 56 3d 6a 72 9f bd
       -0.00679933 0.04089281 0.05240155 -0.077854946
0003c0 ea b6 c0 bd 80 ec 7e 3d 80 6e 56 bc 65 16 9c 3d
       -0.09409888 0.062237263 -0.013087869 0.07621459
0003d0 09 4e 33 3d d1 c2 6c bd 25 d3 65 bd af fc cd bd
       0.043775592 -0.05780298 -0.056109566 -0.10057961
0003e0 22 99 95 3c ce d3 f9 3c b0 78 4d 3d aa 63 5e bd
       0.018261496 0.030496504 0.050163925 -0.054294266
0003f0 c5 20 03 3c 69 43 f2 3c b2 dd 85 bd d2 f5 36 bd
       0.008003418 0.02957316 -0.06536426 -0.044668026

linear.weight f4 [1, 100]
000000 99 9d 27 3c 3e e0 32 3c b2 94 ba bd 9d 80 a5 bd
       0.010230445 0.010917721 -0.09110393 -0.08081172
000010 d9 87 cf 3d 63 d5 25 bc 50 08 35 bd de 95 03 3d
       0.10133333 -0.010121676 -0.04419738 0.032125346
000020 ee 4f ea bd 80 4a 2b 3c d1 b0 00 3d 32 e8 92 bc
       -0.11441027 0.010454774 0.031418625 -0.017932985
000030 d6 f9 a5 bd 4d 8d 8e bd 82 f2 ae bd 96 8b d6 3d
       -0.08104293 -0.06960545 -0.085423484 0.10475843
000040 df 52 d8 3d ea eb 5b bd f6 64 74 3d 1f b6 ee bc
       0.105626814 -0.053691782 0.059666596 -0.029139576
000050 07 3e ea 3d da e3 80 bd 48 0c 09 3d ab 2e df bd
       0.11437612 -0.06293459 0.033458978 -0.10897573
000060 39 55 ca bd 54 43 33 3d 02 12 4b bc 1d eb 30 bd
       -0.09879536 0.04376538 -0.01239443 -0.04319297
000070 9e 7b 55 bd 22 ce 9f bc bd e5 d7 bd 7c 66 03 bc
       -0.052119844 -0.019507471 -0.10541866 -0.00802004
000080 28 51 18 bd 0a 1f 85 3d 33 18 15 bd 64 ab c9 bd
       -0.03718677 0.06500061 -0.03640003 -0.09847143
000090 5d bd 55 bc 03 1d 84 3d 75 d4 9e bd ef 9f c6 3b
       -0.013045636 0.06450846 -0.07755367 0.006061546
0000a0 27 4a 22 bd 16 18 8e bd c8 5a 3e bd 9a 1b 9b 3d
       -0.0396215 -0.06938188 -0.046473294 0.07573624
0000b0 36 d7 7b 3d c7 aa b1 bd 49 19 c5 3c 71 d0 77 bd
       0.061484538 -0.08675151 0.024059908 -0.06050152
0000c0 03 f9 0a 3d 8c 8c 84 3d 59 40 64 bd 70 e0 81 3d
       0.033928882 0.0647212 -0.05572543 0.06341636
0000d0 df 15 b3 bd ca 52 e1 3b f3 96 8a 3d c0 03 83 3d
       -0.08744406 0.0068763243 0.067670725 0.063972
0000e0 83 65 d5 bb 49 c0 8a 3d 56 e3 78 3d f0 de 4e bd
       -0.0065123453 0.06774957 0.06076368 -0.05050558
0000f0 f6 6c df 3c ac 28 8f 3d 08 3d ab 3d b6 dc 2f bd
       0.027273636 0.069901794 0.0836125 -0.042935096
000100 26 3d f3 3c 13 30 50 bd 1a 99 c3 bd eb cc 63 3d
       0.029692244 -0.050827097 -0.09550686 0.055615347
000110 10 ce 2c 3c 17 87 c3 3d f9 fd 39 3d 85 59 a1 3d
       0.010547176 0.09547251 0.045408223 0.078784026
000120 34 59 23 bc 3c cf f9 bd 7b a8 8b 3d a3 64 0d bd
       -0.009969998 -0.1219773 0.068192445 -0.034519803
000130 26 eb bf 3a 8b 5d 58 bd 9d 0c 63 3d 93 dd bc bd
       0.0014642223 -0.052823585 0.05543195 -0.092219494
000140 60 b1 ba 3c b1 4b 11 bd 70 4c 35 bd ab 4a 80 bc
       0.022789657 -0.035472576 -0.04426235 -0.015660604
000150 fb 99 2e 3c 7d 5a c3 ba 99 3c 25 3d fa 37 67 bc
       0.010656829 -0.0014904287 0.040340994 -0.014112467
000160 a0 19 5e 3d 89 02 27 bd 17 8e dd 3d 48 6d bb 3c
       0.054223657 -0.040773902 0.10818117 0.022879258
000170 4e 38 bf bd 97 53 93 3d 8e 2f d7 bd a6 41 d7 3d
       -0.09336911 0.07193678 -0.10507117 0.10510568
000180 a5 11 c7 bc b4 a3 45 bd a3 3f ea bd ee b6 1d 3d
       -0.024300406 -0.048251823 -0.11437919 0.038504533
