backend/trained_models/NBL_GRU_model_state_dict.pth (torch, 126714 bytes, 5 tensors)

rnn.weight_ih_l0 f4 [300, 1]
0.11177548 -0.03524008 0.10708894 -0.007951878 0.044355668 0.12696546 0.034895837 0.101539634
-0.05206068 0.09805845 0.07553274 0.109567665 -0.030754153 0.048669532 0.09166825 0.08310284
-0.06047235 -0.061063502 -0.011031646 0.06726847 -0.001558822 0.023825228 0.008429372 0.044565443
0.003036715 0.07272087 -0.045109626 -0.0037124723 0.081661314 -0.037642926 0.058098502 0.08376895
-0.056986656 -0.07887097 -0.0779002 -0.04455426 -0.004436133 -0.0063911444 0.0037320647 0.11170828
-0.054446112 0.11029458 0.077898614 0.089695655 0.11866006 0.042983383 -0.017938804 -0.018608088
-0.092618905 0.07244524 0.09387833 -0.10130706 0.06795211 0.052490197 0.022340119 -0.09368093
0.025595497 -0.135488 -0.015675504 -0.099275224 -0.032431103 -0.035358287 -0.027844831 0.087240696
-0.031397313 -0.008785702 -0.060715664 0.07877488 0.08335713 -0.054583635 -0.107702576 0.05604686
0.07125749 0.03674701 0.040558163 0.014765285 0.10753005 0.011551553 -0.060559615 0.01777708
0.068558075 -0.00021939081 -0.040564705 -0.034275603 -0.02555633 -0.0127786705 -0.055672288 0.023010544
-0.010636497 0.09146367 -0.04531827 0.082944244 -0.0350969 -0.038805015 0.050276663 -0.08177768
-0.06330182 -0.0022148036 0.03452398 -0.10899583 0.038817782 -0.06044771 -0.044893913 -0.06020194
0.017698158 0.01400373 0.07768427 -0.0015032168 0.117531344 0.034680683 0.05057741 0.076672025
-0.016744554 0.068252124 -0.050471276 -0.024311949 -0.014771926 0.053781215 0.015758324 -0.018601567
0.078133345 -0.03615768 -0.012396353 0.07563062 -0.07666509 0.0376192 0.080059655 -0.046899486
0.09241262 -0.046327624 -0.071591415 0.079465985 0.0068741897 -0.012387781 -0.024989512 0.055058967
0.11023262 0.09938279 0.066661015 0.02890777 -0.054567374 -0.056844167 0.0036165388 0.08096808
-0.046026323 -0.070325874 0.011116503 -0.022148695 0.062836 -0.04146893 0.11721085 0.021585362
0.04765501 -0.034115214 0.06870647 0.05920498 0.0092472425 -0.060187597 -0.028717903 0.055217385
0.0053295684 -0.0208779 0.064826265 0.011274649 -0.020915667 0.02125294 0.0031689736 0.03773108
-0.015254772 0.11974729 0.066778235 0.08084958 -0.013852896 -0.047408674 -0.05896035 0.01767649
-0.029043306 0.016580692 0.06467298 0.013910177 0.09503207 0.09349733 0.058320437 0.04530757
0.040310916 -0.01240024 0.08961952 0.10976724 -0.08429551 0.066603936 0.060024306 0.040745378
0.01144834 0.05051009 0.06160052 0.01778634 -0.03467136 0.07522267 0.08011051 0.045943875
0.010664754 0.012199221 0.11347208 -0.112315 -0.06729526 0.0425919 0.0390614 -0.003990313
-0.09579533 0.062401775 -0.11324376 0.13099705 0.13343358 0.057886776 0.0629721 0.067111045
0.050370965 0.07537778 -0.038834598 0.07928413 0.03221173 -0.05956413 0.06204015 -0.07736259
0.0077523384 0.03231945 -0.016180255 -0.024954962 -0.13330787 -0.041786928 -0.022741176 0.094839595
0.09621752 0.07718152 0.086074024 -0.02141579 0.05441974 0.1215801 0.024289273 0.017464984
-0.018053928 -0.08887109 -0.042581964 -0.09448697 0.011775884 -0.07446002 0.090713225 -0.06920081
-0.06258869 0.03553492 0.030890271 0.08875569 0.08958749 -0.023296654 -0.012809768 0.06378929
00000000: 8bea e43d e757 10bd 7251 db3d 9848 02bc
00000010: 4aae 353d 3c03 023e f0ee 0e3d 03f4 cf3d
00000020: 943d 55bd ded2 c83d e9b0 9a3d 0365 e03d
00000030: 22f0 fbbc b459 473d 90bc bb3d d231 aa3d
00000040: dbb1 77bd b91d 7abd 14be 34bc 0dc4 893d
00000050: 6351 ccba 202d c33c 591b 0a3c 418a 363d
00000060: a003 473b aeee 943d dfc4 38bd f34c 73bb
00000070: 0c3e a73d 782f 1abd b2f8 6d3d 0e8f ab3d
00000080: d76a 69bd 1a87 a1bd 248a 9fbd 877e 36bd
00000090: fb5c 91bb ce6c d1bb a895 743b 50c7 e43d
000000a0: e302 5fbd 20e2 e13d 4f89 9f3d 5bb2 b73d
000000b0: 0c04 f33d 580f 303d 66f4 92bc fd6f 98bc
000000c0: fbae bdbd 2c5e 943d 4843 c03d 137a cfbd
000000d0: 7a2a 8b3d f6ff 563d a002 b73c cadb bfbd
000000e0: a6ad d13c 5ebd 0abe ea69 80bc cf50 cbbd
000000f0: 7ad6 04bd dad3 10bd d81a e4bc 40ab b23d
00000100: 789a 00bd e8f1 0fbc fdb0 78bd b954 a13d
00000110: 25b7 aa3d 1793 5fbd 2b93 dcbd 6491 653d
00000120: 72ef 913d 0884 163d 5120 263d 18ea 713c
00000130: b738 dc3d ba42 3d3c 5c0d 78bd 3da1 913c
00000140: 2d68 8c3d 460c 66b9 2d27 26bd 9364 0cbd
00000150: 825b d1bc a15d 51bc a008 64bd 9c80 bc3c
00000160: b444 2ebc 4e51 bb3d a69f 39bd acde a93d
00000170: c4c1 0fbd 02f2 1ebd e7ee 4d3d 0e7b a7bd
00000180: 62a4 81bd 3d26 11bb 0469 0d3d 3539 dfbd
00000190: 65ff 1e3d 0598 77bd aee2 37bd 4f96 76bd
000001a0: bafb 903c e76f 653c ee18 9f3d 9607 c5ba
000001b0: 46b4 f03d 550d 0e3d 422a 4f3d 3906 9d3d
000001c0: e02b 89bc c5c7 8b3d f8ba 4ebd da29 c7bc
000001d0: f305 72bc b149 5c3d 9a17 813c 5062 98bc
000001e0: 6004 a03d 131a 14bd 131a 4bbc 3ae4 9a3d
000001f0: 9602 9dbd 9716 1a3d 51f6 a33d ad19 40bd
00000200: d442 bd3d 09c2 3dbd 859e 92bd 10bf a23d
00000210: e240 e13b 1ff6 4abc ceb6 ccbc 8385 613d
00000220: a4c1 e13d 3489 cb3d 9285 883d fdcf ec3c
00000230: 0a82 5fbd 6ed5 68bd 7403 6d3b 98d2 a53d
00000240: 1986 3cbd 0307 90bd fe21 363c 2e71 b5bc
00000250: 29b0 803d 53db 29bd 3e0c f03d c9d3 b03c
00000260: e631 433d 65bc 0bbd fab5 8c3d ec80 723d
00000270: bf81 173c 4587 76bd cf41 ebbc a02b 623d
00000280: a9a3 ae3b 2108 abbc a2c3 843d 4eb9 383c
00000290: 5557 abbc a51a ae3c 8eae 4f3b e88b 1a3d
000002a0: 27ef 79bc 113e f53d 07c3 883d 7794 a53d
000002b0: 42f7 62bc 992f 42bd 6880 71bd 49ce 903c
000002c0: 3aec edbc 3bd4 873c 4473 843d 83e7 633c
000002d0: 2da0 c23d 877b bf3d 69e1 6e3d 6e94 393d
000002e0: 0f1d 253d 602a 4bbc 708a b73d a6cd e03d
000002f0: 20a3 acbd a567 883d 0cdc 753d a0e4 263d
00000300: d191 3b3c abe3 4e3d d450 7c3d a9b4 913c
00000310: 8e03 0ebd 580e 9a3d fb10 a43d a52f 3c3d
00000320: 38bb 2e3c 3edf 473c 0d64 e83d 6805 e6bd
00000330: 19d2 89bd d874 2e3d d9fe 1f3d 2cc1 82bb
00000340: 5830 c4bd 0199 7f3d 58ec e7bd 1724 063e
00000350: d0a2 083e af1a 6d3d 84f7 803d 8471 893d
00000360: c951 4e3d aa5f 9a3d 0711 1fbd b85f a23d
00000370: 72f0 033d 84f9 73bd d01d 7e3d 4770 9ebd
00000380: 5407 fe3b 6661 043d 748c 84bc 596e ccbc
00000390: dc81 08be c528 2bbd b44b babc 433b c23d
000003a0: b10d c53d 5811 9e3d 9447 b03d 2b70 afbc
000003b0: 3ce7 5e3d fdfe f83d 4cfa c63c ba12 8f3c
000003c0: d5e5 93bc 0c02 b6bd 6d6a 2ebd 6282 c1bd
000003d0: a3ef 403c 7f7e 98bd dbc7 b93d 27b9 8dbd
000003e0: 802e 80bd 108d 113d 980d fd3c 8bc5 b53d
000003f0: a579 b73d a0d8 bebc 10e0 51bc f6a3 823d

rnn.weight_hh_l0 f4 [300, 100]
0.004140842 0.02606699 -0.005670897 -0.061273087 -0.090965495 -0.049506705 0.07543707 0.058423452
0.028324755 -0.07850188 -0.10580633 -0.022477623 0.11459733 0.077697754 -0.07329119 0.03931843
-0.026396332 0.04056773 -0.070313655 0.0036154357 0.00912825 -0.105153024 0.012767594 -0.030998446
-0.009163637 0.063341625 0.027251834 -0.06919363 0.015314815 0.0043805297 0.07871097 0.007931225
-0.059018772 -0.060694452 0.09947559 -0.054675885 0.06722552 -0.019469123 -0.010278762 -0.09825693
-0.056913678 0.0356673 0.036938444 0.06766847 0.017307809 -0.11146195 0.017786313 -0.08831465
-0.10555984 0.078043535 -0.0013629241 -0.06674795 -0.063044965 -0.0058019613 0.06737532 0.07527079
-0.042004835 0.021664694 0.086196564 0.066479884 -0.038818277 0.0018713376 -0.030283356 0.08708553
-0.086107716 0.013706337 -0.050553758 -0.041699186 0.0348501 -0.07031683 0.09756147 0.08507882
0.08123622 0.05645694 -0.0119862445 -0.028167956 -0.056931295 -0.03533004 0.034013867 0.072193235
0.03529804 0.071061336 -0.020996908 -0.053370442 -0.07909085 -0.0648278 0.00498381 -0.0021038202
-0.08975351 0.07101987 0.07302142 -0.065767616 -0.0958036 -0.021683175 -0.095951684 0.0076822387
-0.039443467 0.014268562 0.018205626 0.06335449 0.0034963673 0.042080704 0.03163106 0.017460624
-0.028192671 0.02521988 0.006728722 0.0026882207 -0.015197035 -0.05060072 0.0072651054 0.11781964
-0.011408751 0.11909408 -0.04825887 -0.03562414 0.09517247 0.08115152 -0.12578955 -0.058328323
0.053023063 -0.0626558 -0.008524751 0.0114489095 0.0060019903 0.05382833 -0.022907052 0.11150865
0.026157113 -0.05956104 0.019996915 -0.01818136 0.038339633 0.08249343 -0.068318255 0.051492438
0.07871129 -0.015600991 0.017774012 0.059563935 0.0054318015 0.011162658 0.074095935 0.029379107
-0.030863363 -0.029827323 0.10971931 -0.11563911 -0.038292587 -0.03445217 -0.055419147 0.02472739
0.079741396 0.09786754 0.1261283 0.09653076 0.063043036 -0.12119504 0.093838915 -0.059905037
-0.07070956 0.009368938 -0.016820047 0.009675173 -0.03134102 0.04877317 -0.11061096 -0.0375335
0.034976766 0.022207554 0.01285028 0.10650852 0.019879658 0.0662475 0.09291132 -0.05109019
0.017689113 -0.08806501 0.065343075 -0.10844699 0.044216227 0.070428856 0.029753717 0.024605319
-0.06723342 -0.100222394 0.068056665 0.020580774 0.011438849 -0.0030291802 -0.0002938307 0.0814127
0.021068688 -0.1070769 -0.050622888 -0.0022500397 -0.11330204 0.0673542 0.048063457 -0.047214314
0.018829186 0.03356112 -0.05128829 -0.10440052 -0.118741535 0.008635966 -0.013766754 -0.05609566
0.028702458 -0.05789082 -0.034942925 0.046527825 0.10325402 -0.0013250912 -0.011299319 -0.022513768
0.09717167 0.029276118 0.023257056 -0.08952345 -0.06394851 0.028692909 0.027062466 0.03699878
-0.05908374 0.08045603 -0.044365462 0.046205074 -0.11826854 0.05440462 -0.037097033 0.0026147447
0.016184647 0.11596323 0.08451412 -0.09483936 -0.011836538 -0.019120032 0.06404454 -0.04391362
-0.08390741 0.05361984 0.049702775 0.075288035 0.06844362 -0.0021185712 0.047024116 -0.07528542
-0.07864109 0.012403006 0.009499324 -0.0040886905 0.028642764 -0.014981152 -0.0025899033 -0.06606434
00000000: e6af 873b 718a d53c efd2 b9bb 7df9 7abd
00000010: 1e4c babd 8bc7 4abd c07e 9a3d 6e4d 6f3d
00000020: 5109 e83c 98c5 a0bd fdb0 d8bd fe22 b8bc
00000030: 01b2 ea3d 0020 9f3d b119 96bd 5d0c 213d
00000040: 1f3d d8bc 592a 263d 9b00 90bd f2f0 6c3b
00000050: a88e 153c 785a d7bd 2c2f 513c 74f0 fdbc
00000060: 1423 16bc 41b9 813d 3d3f df3c 64b5 8dbd
00000070: fdea 7a3c 8c8a 8f3b 3833 a13d f8f1 013c
00000080: abbd 71bd bf9a 78bd dcb9 cb3d d2f3 5fbd
00000090: 89ad 893d b67d 9fbc 4168 28bc ee3a c9bd
000000a0: 511e 69bd e017 123d c44c 173d c495 8a3d
000000b0: 1bc9 8d3c 2a46 e4bd 9ab4 913c 50de b4bd
000000c0: c22f d8bd 4ad5 9f3d 25a4 b2ba 26b3 88bd
000000d0: b81d 81bd 611e bebb 12fc 893d 9227 9a3d
000000e0: 430d 2cbd 287a b13c d387 b03d 9b26 883d
000000f0: eaff 1ebd ac47 f53a cd14 f8bc e659 b23d
00000100: 3e59 b0bd 8b90 603c 7511 4fbd c4cc 2abd
00000110: fabe 0e3d 4502 90bd 4fce c73d ce3d ae3d
00000120: 2d5f a63d 643f 673d f461 44bc 7cc0 e6bc
00000130: ca30 69bd 3bb6 10bd 2052 0b3d 0cda 933d
00000140: ad94 103d 9b88 913d b501 acbc f79a 5abd
00000150: 62fa a1bd 70c4 84bd 3a4f a33b 3fe0 09bb
00000160: b0d0 b7bd de72 913d 418c 953d 2cb1 86bd
00000170: ae34 c4bd eaa0 b1bc 5182 c4bd 4abb fb3b
00000180: 798f 21bd b0c6 693c f723 953c 00c0 813d
00000190: 4f23 653b d15c 2c3d 928f 013d 9509 8f3c
000001a0: 51f4 e6bc ec99 ce3c 9c7c dc3b dc2c 303b
000001b0: fcfc 78bc b342 4fbd 1f10 ee3b 6c4b f13d
000001c0: c5eb 3abc 99e7 f33d 18ab 45bd 9eea 11bd
000001d0: c9e9 c23d c532 a63d face 00be aee9 6ebd
000001e0: b62e 593d af51 80bd 66ab 0bbc 3594 3b3c
000001f0: 58ac c43b 187b 5c3d 92a7 bbbc a65e e43d
00000200: 7147 d63c 47f6 73bd 92d0 a33c 13f1 94bc
00000210: 050a 1d3d 51f2 a83d 71ea 8bbd bce9 523d
00000220: 6333 a13d 4d9b 7fbc ce9a 913c 50f9 733d
00000230: 41fd b13b 95e3 363c 9cbf 973d 74ac f03c
00000240: 2ad5 fcbc 6e58 f4bc 85b4 e03d 33d4 ecbd
00000250: b0d8 1cbd b81d 0dbd 30ff 62bd 1891 ca3c
00000260: 754f a33d c76e c83d c727 013e ebb1 c53d
00000270: b51c 813d 1b35 f8bd 9e2e c03d fc5e 75bd
00000280: 2cd0 90bd 2d80 193c 32ca 89bc 9e84 1e3c
00000290: 715f 00bd 60c6 473d 0088 e2bd babc 19bd
000002a0: cc43 0f3d 9eec b53c fb89 523c 2421 da3d
000002b0: aada a23c c5ac 873d 4a48 be3d f243 51bd
000002c0: c2e8 903c 6e5b b4bd 97d2 853d 7519 debd
000002d0: 131c 353d 013d 903d 11be f33c 1891 c93c
000002e0: adb1 89bd 6641 cdbd 4b61 8b3d 0399 a83c
000002f0: 036a 3b3c 3685 46bb 4a0d 9ab9 b4bb a63d
00000300: 3e98 ac3c 224b dbbd f259 4fbd 6775 13bb
00000310: e60a e8bd 00f1 893d 30de 443d cc63 41bd
00000320: aa3f 9a3c 6377 093d ac13 52bd f1cf d5bd
00000330: c32e f3bd de7d 0d3c f48d 61bc 90c4 65bd
00000340: 6b21 eb3c ed1e 6dbd 5020 0fbd f693 3e3d
00000350: d876 d33d afae adba c720 39bc cb6e b8bc
00000360: f101 c73d 78d4 ef3c 9585 be3c 1258 b7bd
00000370: 70f7 82bd 640d eb3c 1bb2 dd3c 088c 173d
00000380: cb01 72bd 22c6 a43d 8fb8 35bd 8841 3d3d
00000390: c736 f2bd 61d7 5e3d 0ff3 17bd 235c 2b3b
000003a0: aa95 843c 217e ed3d bd15 ad3d 233b c2bd
000003b0: 0aee 41bc 9da1 9cbc c929 833d c5de 33bd
000003c0: a6d7 abbd 7aa0 5b3d 2395 4b3d 9d30 9a3d
000003d0: 2b2c 8c3d bad7 0abb 5c9c 403d 3e2f 9abd
000003e0: 940e a1bd fa35 4b3c 0da3 1b3c 6cfa 85bb
000003f0: 3ba4 ea3c 8173 75bc 5ebb 29bb be4c 87bd

rnn.bias_ih_l0 f4 [300]
0.06604086 0.050355513 0.10852498 0.005322596 -0.055864908 0.073233135 0.049424585 0.008183412
0.05670585 -0.03167178 -0.05573969 0.075434804 -0.023851205 0.045329094 0.056942485 -0.027762169
-0.0059019485 -0.0064335703 0.11835669 0.1047782 -0.031319324 0.071085095 0.02801033 0.006433433
0.099887 0.06516952 0.0078168195 -0.040461 -0.019859307 -0.059175823 -0.07927402 -0.077188596
0.04113306 -0.022681063 0.032293655 -0.08166517 -0.011158618 0.0019858284 0.01011632 0.07550775
-0.027885733 0.11957621 0.045246456 -0.07548185 -0.012078181 0.024804488 -0.0005499703 0.052073266
-0.08831613 0.0646068 -0.015282468 -0.056567293 0.019596508 0.11209535 0.057299685 -0.08268865
0.11843301 -0.06985551 -0.03280244 -0.025038935 0.022736669 -0.0828706 -0.016785843 0.005788177
0.066561684 -0.012987717 -0.08210847 -0.008517565 -0.0892062 -0.081541374 -0.07960356 0.032441743
-0.07869952 -0.00080198434 0.060627222 -0.03939313 0.09312526 0.07822813 -0.057167917 0.1101388
-0.05543652 0.069731385 -0.067664996 -0.06791591 0.087814346 0.058389895 0.059622575 0.10165084
-0.06992058 0.021799216 0.05918498 -0.05612291 0.05340183 -0.036390416 0.024964515 -0.038776007
-0.051939074 -0.06268555 0.034433264 -0.01862767 -0.09518802 -0.057449892 -0.0883 -0.018976824
-0.023412101 -0.013875456 -0.025176408 -0.06433898 -0.052680526 -0.085300244 -0.14738768 -0.093122214
-0.14158048 0.0448312 0.0032437954 -0.13347167 -0.043164987 -0.10923553 -0.116589084 0.1276169
0.0154794855 -0.024365036 -0.063872196 -0.06546473 -0.122194275 0.13791338 -0.13300113 -0.018523324
-0.13706413 -0.002019172 -0.08963836 -0.10215511 -0.13126238 -0.03958956 -0.12940659 -0.049783144
-0.07142115 -0.0028358046 0.075088054 -0.038714975 -0.1603708 -0.0823759 0.12898113 -0.06946855
0.12446324 -0.076698825 0.017323434 0.112394504 0.020408329 -0.115017064 -0.043131165 -0.070924155
-0.12134158 -0.14180306 -0.14228456 0.07856034 -0.11751642 -0.10790023 -0.06700986 0.016742626
-0.055820078 -0.10259482 -0.070134826 -0.11879054 0.013042413 -0.15612152 -0.12869783 -0.06530475
-0.05805974 -0.033444524 -0.1005736 -0.022887824 -0.09242535 0.01639783 -0.044341546 -0.021684838
-0.07423135 -0.050688248 -0.0038072334 -0.1447004 0.009786335 -0.10437938 -0.06690463 -0.10504312
-0.062239498 -0.11753205 -0.12531684 -0.12619032 -0.088362195 -0.11803802 -0.02244963 -0.073258415
-0.10201593 0.10510987 -0.1464388 -0.0011994622 0.0028357578 0.07942335 -0.034153175 0.025178421
-0.06725417 -0.047212683 -0.07115891 -0.023063315 -0.028743722 0.04388519 0.0789581 0.013046228
-0.024399556 -0.002414896 -0.06787683 -0.00091781165 0.09604052 0.057162132 -0.021450184 -0.02263677
0.032784022 0.05689185 -0.07268585 -0.03479635 -0.05812604 0.0293763 0.03152151 -0.048761312
0.081585854 0.05118233 -0.055440232 0.012809625 -0.03434312 -0.06612136 -0.046367966 0.08180609
0.09784626 -0.042460553 -0.06161438 -0.019824313 -0.032654624 -0.023227122 -0.11167755 -0.080893
-0.00465729 -0.0012081824 0.017423574 -0.056925226 0.04427609 0.00552561 0.044227235 -0.037175033
-0.027159411 0.04002388 0.049532928 -0.07461839 -0.03961503 0.020579837 0.04434974 -0.051968005
00000000: 6e40 873d 9541 4e3d 5842 de3d 2c69 ae3b
00000010: 9ad2 64bd 41fb 953d 6f71 4a3d b813 063c
00000020: 6544 683d 45ba 01bd 4d4f 64bd 907d 9a3d
00000030: 9a63 c3bc 00ab 393d 863c 693d 7d6d e3bc
00000040: 2265 c1bb b3d0 d2bb fe64 f23d f495 d63d
00000050: b148 00bd 1095 913d eb75 e53c 8ccf d23b
00000060: 8e91 cc3d 9977 853d 1e12 003c 6fba 25bd
00000070: fcaf a2bc 5962 72bd 6b5a a2bd 0e15 9ebd
00000080: 247b 283d a3cd b9bc 5a46 043d 1240 a7bd
00000090: a3d2 36bc ac24 023b ecbe 253c cfa3 9a3d
000000a0: 9f70 e4bc 5fe4 f43d 5954 393d 3a96 9abd
000000b0: 90e3 45bc c832 cb3c e22b 10ba c74a 553d
000000c0: 16df b4bd 9250 843d 5163 7abc 1bb3 67bd
000000d0: db88 a03c 3f92 e53d 13b3 6a3d ab58 a9bd
000000e0: 028d f23d 6810 8fbd da5b 06bd 741e cdbc
000000f0: 4042 ba3c 10b8 a9bd 7782 89bc bfaa bd3b
00000100: 7e51 883d 6fca 54bc 7c28 a8bd 428d 0bbc
00000110: bdb1 b6bd 2aff a6bd 3107 a3bd a2e1 043d
00000120: 372d a1bd 423c 52ba 4054 783d b15a 21bd
00000130: 75b8 be3d 1236 a03d e828 6abd 7490 e13d
00000140: 6811 63bd 54cf 8e3d f293 8abd 7f17 8bbd
00000150: 02d8 b33d 3e2a 6f3d cd36 743d 512e d03d
00000160: 8532 8fbd 4594 b23c f36b 723d 23e1 65bd
00000170: e1bb 5a3d 1e0e 15bd 6282 cc3c 97d3 1ebd
00000180: 11be 54bd 4861 80bd e509 0d3d 0e99 98bc
00000190: f0f1 c2bd 9450 6bbd a1d6 b4bd 4975 9bbc
000001a0: bcca bfbc e155 63bc c13e cebc 28c4 83bd
000001b0: 89c7 57bd e5b1 aebd ccec 16be dcb6 bebd
000001c0: 79fa 10be eca0 373d db95 543b ccac 08be
000001d0: c5cd 30bd e1b6 dfbd 42c6 eebd 01ae 023e
000001e0: ab9d 7d3c 2f99 c7bc 6dcf 82bd 5f12 86bd
000001f0: fe40 fabd 2a39 0d3e 7331 08be 3abe 97bc
00000200: 8a5a 0cbe 1654 04bb 5194 b7bd b336 d1bd
00000210: a569 06be aa28 22bd 2983 04be 69e9 4bbd
00000220: 4045 92bd e8d8 39bb c4c7 993d 9893 1ebd
00000230: 3e38 24be b2b4 a8bd a113 043e 8745 8ebd
00000240: 95e6 fe3d 4614 9dbd e0e9 8d3c 172f e63d
00000250: 5e2f a73c 118e ebbd 4eaa 30bd af40 91bd
00000260: ef81 f8bd d234 11be 0bb3 11be 3ee4 a03d
00000270: 73ac f0bd ccfa dcbd 773c 89bd d527 893c
00000280: 98a3 64bd 3c1d d2bd d9a2 8fbd 7448 f3bd
00000290: d8af 553c 52de 1fbe 5dc9 03be 7fbe 85bd
000002a0: 0dd0 6dbd 20fd 08bd 88f9 cdbd 3f7f bbbc
000002b0: 8049 bdbd be54 863c 7b9f 35bd 67a4 b1bc
000002c0: 9b06 98bd 7b9e 4fbd c782 79bb 572c 14be
000002d0: dd56 203c dbc4 d5bd 4b05 89bd d920 d7bd
000002e0: d8ee 7ebd a5b4 f0bd 0f53 00be 0938 01be
000002f0: 3df7 b4bd ebbd f1bd 49e8 b7bc 8208 96bd
00000300: baed d0bd d843 d73d 0ef4 15be 4637 9dba
00000310: 1fd8 393b b6a8 a23d 33e4 0bbd fa42 ce3c
00000320: 8ebc 89bd 1662 41bd c3bb 91bd 47ef bcbc
00000330: f477 ebbc f5c0 333d c9b4 a13d d9bf 553c
00000340: 94e1 c7bc 3b43 1ebb 0203 8bbd 4c99 70ba
00000350: e4b0 c43d d722 6a3d 4cb8 afbc bf70 b9bc
00000360: 8a48 063d 6e07 693d 52dc 94bd 9e86 0ebd
00000370: 9215 6ebd 91a6 f03c b31c 013d f1b9 47bd
00000380: 7c16 a73d 90a4 513d 4c15 63bd 76df 513c
00000390: 5fab 0cbd a36a 87bd 56ec 3dbd f489 a73d
000003a0: 9f63 c83d 1eeb 2dbd 5c5f 7cbd 9966 a2bc
000003b0: dbc0 05bd ce46 bebc 33b7 e4bd 3bab a5bd
000003c0: 2e9c 98bb e05b 9eba e2bb 8e3c 6d2a 69bd
000003d0: d85a 353d 2d10 b53b 9e27 353d d944 18bd
000003e0: 6a7d debc 14f0 233d 0ae3 4a3d 87d1 98bd
000003f0: 5f43 22bd 0c97 a83c 13a8 353d 67dc 54bd

rnn.bias_hh_l0 f4 [300]
0.06670184 0.024085624 0.03656437 0.041083384 -0.07738893 -0.020060053 0.020637006 0.06416723
0.04405671 0.08174958 -0.12074394 0.06582222 0.07963549 0.013963655 -0.019184738 -0.06142372
0.0485406 0.06796147 0.10067537 0.101496704 -0.059217416 0.042084962 -0.0012875111 -0.053560983
0.1083119 -0.05101375 -0.068645775 -0.029870208 -0.052986555 -0.053271223 0.08053445 -0.012178474
-0.031393867 -0.0672182 -0.07538866 0.049535997 0.026709137 -0.024300996 0.06298138 0.090914585
0.0872215 0.053962816 -0.048364792 -0.013507077 -0.00058656867 0.10427393 0.061622497 0.087565236
-0.08988602 0.018737184 0.07449389 -0.04404612 0.00608489 -0.044842158 0.068625495 0.011232211
-0.029855436 -0.027671523 0.10806982 0.027130399 0.04028966 -0.017935803 -0.06502106 -0.0043657515
0.055915102 -0.033243045 0.10755995 -0.08400467 0.028630907 0.032476906 -0.04828961 0.12076051
-0.015071813 -0.08157234 -0.07629955 0.08179127 -0.05813788 0.09266257 0.053242527 0.06754436
-0.045603808 -0.03171071 0.024946675 0.108311124 -0.03870634 -0.026111873 -0.051606093 -0.029607393
0.041623272 -0.08448768 0.065085985 0.0410985 0.01111041 -0.03907687 0.05842086 0.028124925
0.13256378 -0.04656958 0.05413797 0.05419644 -0.07117105 -0.1450823 -0.045113873 -0.013310071
-0.07163165 0.037317377 0.004218094 -0.099418536 0.007174714 -0.018895596 -0.16307367 -0.048853856
-0.011108537 -0.08471927 -0.1323253 -0.04390484 -0.06969971 -0.11151571 0.018528735 0.027052464
0.062066473 -0.02805364 -0.116445825 0.03191524 -0.10513123 0.07079937 -0.14435498 0.16549975
-0.15368724 -0.054868452 0.02231693 -0.12784733 -0.13860236 -0.021524897 -0.036717672 0.043537334
-0.019002244 0.016532619 0.065176845 0.022931239 0.010498873 -0.036917336 0.07963305 -0.06637065
0.012900296 0.06622143 -0.17387232 0.017069275 -0.10826406 -0.17443755 -0.10255924 -0.019312104
0.016600277 -0.075505935 -0.06242489 0.035483617 -0.0027607027 -0.034203414 -0.13447672 0.007628003
-0.047640283 -0.16025491 -0.11921736 -0.13535744 -0.12365782 -0.05091086 -0.10888567 -0.06347028
-0.07353127 -0.061866943 -0.09599835 0.029606858 0.0017472323 -0.086740375 -0.021559663 0.030018555
-0.08004463 -0.15804677 -0.0055093276 -0.119296275 -0.08829317 -0.07939528 0.051584218 -0.15798046
-0.12828374 -0.16163276 -0.15261266 -0.16679667 -0.062134393 0.02306999 -0.09300712 -0.08169642
-0.16215454 0.024847873 -0.095537946 0.06580263 -0.029611902 -0.0006701713 -0.0055765277 0.06428701
-0.0065655224 -0.01995465 0.046989925 -0.08043806 -0.07939296 -0.019280728 -0.09084366 -0.10007714
-0.09560012 0.07268259 -0.029279 0.023373535 0.077857845 0.03635143 0.044853628 0.101772614
-0.016663322 -0.033525173 0.01977495 -0.054400265 -0.09275456 0.021464651 -0.09525846 -0.01050298
0.06769043 0.068451546 -0.06677807 0.055260718 -0.018836675 0.04853331 -0.020070842 -0.022786105
0.010047761 0.018039363 -0.0820561 -0.036007784 -0.049636144 0.020946722 0.028575676 0.009873824
-0.01821218 0.04527511 0.03296019 0.075366475 -0.07268968 0.013767646 0.018808294 0.0749569
0.0021573398 -0.0010928368 0.0764402 -0.064860955 -0.10474433 0.0899711 0.105370075 -0.056493178
00000000: f99a 883d 374f c53c 85c4 153d 0d47 283d
00000010: 167e 9ebd fb54 a4bc f00e a93c 1c6a 833d
00000020: cf74 343d 536c a73d 9948 f7bd cdcd 863d
00000030: ef17 a33d d0c7 643c 5029 9dbc 7097 7bbd
00000040: 82d2 463d 622f 8b3d e32e ce3d 81dd cf3d
00000050: f68d 72bd 4861 2c3d b4c1 a8ba c362 5bbd
00000060: a1d2 dd3d cbf3 50bd 2896 8cbd 5eb2 f4bc
00000070: 6e08 59bd ed32 5abd 3fef a43d 3988 47bc
00000080: db96 00bd b2a9 89bd 5f65 9abd 42e6 4a3d
00000090: 1fcd da3c e212 c7bc 62fc 803d 6d31 ba3d
000000a0: 30a1 b23d 1d08 5d3d 291a 46bd c94c 5dbc
000000b0: f5c3 19ba 928d d53d df67 7c3d 6755 b33d
000000c0: 2916 b8bd b97e 993c 4190 983d b469 34bd
000000d0: c263 c73b 69ac 37bd 868b 8c3d 4f07 383c
000000e0: 6393 f4bc 64af e2bc b653 dd3d 9240 de3c
000000f0: c506 253d 1bee 92bc c329 85bd 940e 8fbb
00000100: 3c07 653d dc29 08bd 6448 dc3d a40a acbd
00000110: 5d8b ea3c 8106 053d 53cb 45bd 4951 f73d
00000120: c4ef 76bc 660f a7bd f042 9cbd 2e82 a73d
00000130: fc21 6ebd e0c5 bd3d d614 5a3d b354 8a3d
00000140: 0fcb 3abd 17e3 01bd f85c cc3c 39d2 dd3d
00000150: 8a8a 1ebd 91e8 d5bc e960 53bd 348b f2bc
00000160: 2a7d 2a3d e007 adbd cd4b 853d e756 283d
00000170: 7008 363c 110f 20bd b64a 6f3d 3e66 e63c
00000180: cdbe 073e bebf 3ebd c7bf 5d3d 16fd 5d3d
00000190: 21c2 91bd 7490 14be 53c9 38bd 7c12 5abc
000001a0: 9db3 92bd 1bda 183d f037 8a3b f29b cbbd
000001b0: dd19 eb3b f0ca 9abc c9fc 26be fb1a 48bd
000001c0: 9500 36bc 4c81 adbd 4980 07be 90d5 33bd
000001d0: b9be 8ebd 5962 e4bd 93c9 973c 219d dd3c
000001e0: 6a39 7e3d bfd0 e5bc 267b eebd 8eb9 023d
000001f0: 0b4f d7bd 43ff 903d cbd1 13be c478 293e
00000200: 3060 1dbe bebd 60bd ffd1 b63c 69ea 02be
00000210: c7ed 0dbe fb54 b0bc 4565 16bd 3454 323d
00000220: 98aa 9bbc 6a6f 873c 707b 853d 4bda bb3c
00000230: 7703 2c3c a236 17bd a716 a33d 56ed 87bd
00000240: c35b 533c 1a9f 873d 960b 32be ddd4 8b3c
00000250: 8cb9 ddbd c29f 32be 940a d2bd 6b34 9ebc
00000260: 4efd 873c dba2 9abd 3eb1 7fbd 4557 113d
00000270: e8ec 34bb e118 0cbd 44b4 09be 54f4 f93b
00000280: 7522 43bd dd19 24be 3b28 f4bd 249b 0abe
00000290: 5040 fdbd e887 50bd 73ff debd b5fc 81bd
000002a0: 9097 96bd 3168 7dbd c89a c4bd 158a f23c
000002b0: 6303 e53a f0a4 b1bd e49d b0bc 79e9 f53c
000002c0: 70ee a3bd 03d7 21be 9787 b4bb 9b51 f4bd
000002d0: 0dd3 b4bd fe99 a2bd f949 533d a1c5 21be
000002e0: d05c 03be 0f83 25be 7e46 1cbe bfcc 2abe
000002f0: a280 7ebd 47fd bc3c 847a bebd 7450 a7bd
00000300: d70b 26be c48d cb3c 66a9 c3bd 87c3 863d
00000310: a994 f2bc 6fae 2fba 4ebb b6bb e8a8 833d
00000320: 9823 d7bb ef77 a3bc 8278 403d b6bc a4bd
00000330: c798 a2bd 9ef2 9dbc 3e0c babd 3ef5 ccbd
00000340: ffc9 c3bd 9cda 943d 83da efbc db79 bf3c
00000350: ef73 9f3d 3de5 143d 70b8 373d 296e d03d
00000360: 8581 88bc b151 09bd 13ff a13c d0d2 5ebd
00000370: 1af6 bdbd a3d6 af3c de16 c3bd b114 2cbc
00000380: 48a1 8a3d 5330 8c3d f1c2 88bd 1059 623d
00000390: 5f4f 9abc ddca 463d 9b6b a4bc eda9 babc
000003a0: 5d9f 243c 49c7 933c 070d a8bd e67c 13bd
000003b0: 454f 4bbd 7698 ab3c 8917 ea3c d2c5 213c
000003c0: b631 95bc 6572 393d 4401 073d bd59 9a3d
000003d0: 54de 94bd b191 613c da13 9a3c 0183 993d
000003e0: 2862 0d3b 853d 8fba ae8c 9c3d d2d5 84bd
000003f0: 3284 d6bd c542 b83d 44cc d73d 6465 67bd

linear.weight f4 [1, 100]
0.03416759 0.12265961 0.07757559 -0.007384142 -0.11182437 -0.055843428 0.069533445 -0.045134623
-0.11545466 0.12069161 -0.028424645 0.046378613 0.046733856 0.065275624 0.06552506 0.116774596
0.11593675 0.053519834 -0.07550733 -0.04146913 -0.07491621 -0.06595929 0.086954445 -0.019055257
-0.04668547 -0.054012798 -0.08143818 0.019565867 -0.11069774 -0.0909254 -0.012709359 0.078336425
0.04208444 0.08262008 0.091265805 -0.0039958307 0.12034726 0.13199462 -0.029709537 0.10442295
-0.06085777 -0.05321553 0.020909416 -0.106762975 -0.02529858 0.02141934 0.087021776 0.03484147
-0.0074054217 0.13278544 0.11629846 0.08316011 -0.015144124 0.08576562 0.110825434 -0.041137666
-0.06171885 -0.03846269 -0.04437686 0.013437725 -0.13219573 -0.07262763 -0.124626026 0.075869896
-0.12750946 0.06120635 -0.052258007 -0.04731344 0.121153615 0.07492268 0.09584868 0.09877646
0.029300872 0.09885759 -0.06458255 0.028152099 0.10285337 -0.1043344 -0.08084907 -0.051704716
-0.04281601 0.040925268 -0.054563295 -0.08694496 0.10138151 0.084961146 0.09832413 0.11296804
0.005200188 -0.060071934 0.10833644 -0.100723974 -0.08923699 0.028323403 0.11286555 -0.04788338
0.02878094 0.049041938 0.07543925 -0.015295769
00000000: 51f3 0b3d f634 fb3d f3df 9e3d acf6 f1bb
00000010: 2d04 e5bd 14bc 64bd 8d67 8e3d 15df 38bd
00000020: 7e73 ecbd 2a2d f73d cdda e8bc 80f7 3d3d
00000030: 006c 3f3d 3aaf 853d 0132 863d 8527 ef3d
00000040: 3f70 ed3d 9d37 5b3d 96a3 9abd 89db 29bd
00000050: ab6d 99bd aa15 87bd 2c15 b23d c519 9cbc
00000060: 4339 3fbd 863c 5dbd 0fc9 a6bd 9948 a03c
00000070: 7fb5 e2bd 1937 babd ea3a 50bc d96e a03d
00000080: bc60 2c3d b734 a93d 91e9 ba3d 75ef 82bb
00000090: a078 f63d 9929 073e 6a61 f3bc b3db d53d
000000a0: ff45 79bd 87f8 59bd 394a ab3c 8ca6 dabd
000000b0: f83e cfbc 9d77 af3c 7938 b23d eeb5 0e3d
000000c0: 2ea9 f2bb e8f8 073e e32d ee3d d94f aa3d
000000d0: 0f1f 78bc e3a5 af3d 72f8 e23d f87f 28bd
000000e0: e8cc 7cbd 0e8b 1dbd 83c4 35bd e729 5c3c
000000f0: 515e 07be cbbd 94bd ee3b ffbd ad61 9b3d
00000100: d791 02be 82b3 7a3d 7e0c 56bd bdcb 41bd
00000110: 631f f83d 1071 993d 504c c43d 504b ca3d
00000120: 6208 f03c d975 ca3d db43 84bd 3b9f e63c
00000130: caa4 d23d 46ad d5bd 3294 a5bd 53c8 53bd
00000140: d75f 2fbd 41a1 273d c37d 5fbd 3310 b2bd
00000150: 1ca1 cf3d 1c00 ae3d 295e c93d ca5b e73d
00000160: 5766 aa3b fd0d 76bd 7fdf dd3d 5f48 cebd
00000170: e2c1 b6bd 7b06 e83c 0e26 e73d 5d21 44bd
00000180: 02c6 eb3c 33e0 483d e57f 9a3d 1b9b 7abc
