backend/trained_models/NICA_LSTM_model_state_dict.pth (torch, 167948 bytes, 5 tensors)

rnn.weight_ih_l0 f4 [400, 1]
0	0x3d85e017	0.06536882
1	0x3d152b30	0.03641814
2	0xbba31934	-0.0049773697
3	0x3dda3555	0.106547035
4	0xbbd3895e	-0.0064555844
5	0xbd85fa8d	-0.065419294
6	0x3dd983f5	0.10620872
7	0x3cc56d71	0.024100037
8	0xbe013e6d	-0.1262147
9	0xbd7fe868	-0.0624775
10	0xbd04217a	-0.03225849
11	0x3caa22a5	0.020768473
12	0x3dbe8302	0.093023315
13	0x3c068aeb	0.008211832
14	0xbdaa4106	-0.083131835
15	0xbcdb6afc	-0.026784413
16	0xbd3b4cab	-0.045727413
17	0xbc71c790	-0.014757052
18	0xbd4067c6	-0.046973966
19	0x3da532b6	0.08066313
20	0xbd9a8218	-0.07544345
21	0x3cdc0dbf	0.026862023
22	0x3d89d568	0.06730157
23	0x3c5061b0	0.012718603
24	0xbc97b87f	-0.018520592
25	0xbcba99f6	-0.022778492
26	0x3d72c067	0.05926552
27	0x3d2d69ad	0.04233711
28	0x3ddadf59	0.106871314
29	0x3cb2a093	0.021805083
30	0xbd70ea1a	-0.058817007
31	0x3d2ba3b9	0.041904185
32	0xbda319ed	-0.07963929
33	0xbd9efe4e	-0.077633485
34	0xbacff49c	-0.0015865746
35	0xbd3c52c4	-0.04597737
36	0x3d8f25b0	0.0698961
37	0x3d023a44	0.031793848
38	0xbcb6dd84	-0.022322424
39	0xbd80ff58	-0.06298703
40	0xbcaf40c9	-0.021393197
41	0x3d119e42	0.035551317
42	0x3def7f8d	0.1169425
43	0x3dca6ff1	0.098846324
44	0x3ddf0710	0.10890019
45	0x3dc48203	0.0959511
46	0x3dc702d2	0.09717335
47	0x3d094e1b	0.033521753
48	0x3c48e21b	0.012260939
49	0xbd678ad7	-0.056528892
50	0x3d0db4f3	0.034596395
51	0x3debea76	0.11519329
52	0x3d7527cf	0.059852418
53	0x3c4814e0	0.012212008
54	0xbcd6c325	-0.026216099
55	0x3d888a7a	0.06667037
56	0x3c3ae1bf	0.011406361
57	0xbe056906	-0.13028345
58	0x3d50ab0d	0.050944377
59	0xbcbb878d	-0.022891784
60	0x3da61527	0.08109503
61	0x3d95a863	0.07307508
62	0x3e0124b1	0.12611653
63	0xbcf74df4	-0.030188538
64	0x3ba0df66	0.0049094437
65	0x3c233d2f	0.009963318
66	0xbde41053	-0.11135926
67	0x3b50feaf	0.0031890085
68	0xbd546035	-0.051849563
69	0xbc72edae	-0.014827175
70	0x3dfd9504	0.12381938
71	0xbdb1207d	-0.08648775
72	0xbdb37208	-0.08761984
73	0xbd567cbd	-0.052365053
74	0x3d50726e	0.05089038
75	0x3dab0e34	0.083523184
76	0x3d084792	0.03327138
77	0xbc495508	-0.012288339
78	0x3d73eaec	0.05955021
79	0x3d8ad964	0.06779745
80	0xbdb789f9	-0.08961863
81	0x3d637e24	0.05554022
82	0xbde546e9	-0.11195166
83	0xbc315fb5	-0.010826041
84	0x3d9e84fe	0.0774021
85	0xbd367aef	-0.044550832
86	0x3dbb34aa	0.09140904
87	0xbc839eb6	-0.01606689
88	0xbd9328a0	-0.07185483
89	0x3d3b9b20	0.045802236
90	0x3dc154b7	0.09439986
91	0xbdaf6159	-0.085634895
92	0x3d81b169	0.063326664
93	0x3d6d94dd	0.058003295
94	0x3ce9d5b9	0.028544294
95	0xbc531498	-0.012883328
96	0x3d777619	0.06041536
97	0xbdae53e2	-0.08512093
98	0xbdb65238	-0.08902401
99	0x3da8d169	0.08243067
100	0xbddbc1cf	-0.107303254
101	0xbd8ee883	-0.06977942
102	0x3ca84bbd	0.020543927
103	0xbc8e8713	-0.017398393
104	0x3de8c797	0.11366194
105	0x3d159b34	0.036524966
106	0x3d26e1e7	0.04074278
107	0xbccf8984	-0.025334127
108	0xbe025422	-0.12727407
109	0xbc8c2307	-0.017106546
110	0xbcdb53c5	-0.026773343
111	0x3d988011	0.07446302
112	0xbbaf2834	-0.0053453688
113	0xbc8ee8f9	-0.017445074
114	0xbdeadaa6	-0.11467485
115	0x3d323052	0.043503113
116	0x3af7aa33	0.0018895328
117	0x3d14e1ac	0.03634803
118	0xbd5c4b6e	-0.053782873
119	0xbd81099c	-0.06300661
120	0x3b550f0e	0.0032510194
121	0xbc69b68e	-0.014264716
122	0xbda98c64	-0.082787305
123	0x3c518e84	0.012790326
124	0xbd329b60	-0.04360521
125	0xbcfe3f32	-0.031035993
126	0x3db517f2	0.08842458
127	0xbdd2d216	-0.10293977
128	0xbc6c44c2	-0.01442069
129	0x3dc5c655	0.096569695
130	0xbdb0df4c	-0.086363405
131	0x3e01424e	0.1262295
132	0xbd36b9ff	-0.044610973
133	0xbd9bd822	-0.076095834
134	0x3db09ff4	0.08624259
135	0xbda7283b	-0.0816197
136	0x3d35b4bd	0.04436182
137	0xbdd204fd	-0.10254858
138	0x3de0dba4	0.10979393
139	0xbae68e19	-0.0017589956
140	0xbd3cffac	-0.046142265
141	0x3b3f1e83	0.0029162474
142	0x3db5fdea	0.08886321
143	0x3c398e56	0.011325439
144	0x39d989b4	0.00041492062
145	0x3b9d3d56	0.0047985716
146	0x3d7a991b	0.06118117
147	0x3d4ebef0	0.05047506
148	0xbd37e39a	-0.044894792
149	0xbce113a3	-0.027475184
150	0xbd077a45	-0.03307559
151	0xbd86c076	-0.06579678
152	0xbcdfc52f	-0.027315704
153	0xbd83ed6b	-0.06441768
154	0xbdc49a5e	-0.09599756
155	0xbd7320dc	-0.05935751
156	0x3dcf725c	0.10129234
157	0x3adc3d8a	0.0016803008
158	0x3d69201b	0.056915384
159	0x3cd889de	0.026432928
160	0x3d5ceb78	0.053935498
161	0xbdb3d08e	-0.08780013
162	0xbc3307c8	-0.010927148
163	0x3d48a41a	0.048984624
164	0x3dadba0b	0.084827505
165	0x3cec7312	0.028863464
166	0xbdefd6f9	-0.11710925
167	0x3d3b8a50	0.045786202
168	0x3d4d3e6e	0.050108366
169	0x3cd372a9	0.02581151
170	0x3e01e69f	0.12685631
171	0xbd6ddb1b	-0.058070283
172	0xbd26aa91	-0.04069001
173	0xbd5972a0	-0.05308783
174	0x3cbb30bf	0.022850392
175	0x3cf615bc	0.03003966
176	0x3cafa275	0.02143977
177	0xbd50a1da	-0.050935604
178	0xbcac721c	-0.021050505
179	0x3cceeaa2	0.025258366
180	0xbdfad9a9	-0.12248547
181	0x3dc67f05	0.09692196
182	0xbdddcd51	-0.108301766
183	0x3c052660	0.008126825
184	0xbb8f3a9f	-0.004371002
185	0xbd8108d6	-0.063005134
186	0xbd3e077b	-0.046393853
187	0x3d08d7a9	0.033408795
188	0xbd4ec01b	-0.050476175
189	0x3ce2c398	0.027681157
190	0xbcbd7fd2	-0.023132239
191	0xbd6c2e10	-0.057661116
192	0xbc1d62c6	-0.009606069
193	0xbc58dba8	-0.013235964
194	0xbc9a94a4	-0.018869705
195	0x3d615b46	0.055018686
196	0x3d7b587d	0.061363686
197	0xbdd201bd	-0.10254238
198	0x3da9f30b	0.0829831
199	0xbd26bb83	-0.04070617
200	0xbcef8903	-0.029240137
201	0xbe055dd2	-0.13024071
202	0x3dc87472	0.09787835
203	0xbd64ac4d	-0.05582838
204	0xbc984f04	-0.018592365
205	0x3c24b93a	0.010053927
206	0x3d0194b1	0.031635944
207	0x3d159f76	0.036529027
208	0x3d373244	0.04472567
209	0x3dc199c5	0.09453157
210	0x3d817488	0.06321055
211	0xbdc90a3e	-0.09816407
212	0xbe00e6ce	-0.12588045
213	0x3d929825	0.071579255
214	0x3cefb412	0.029260669
215	0xbd7f70a6	-0.06236329
216	0x3d15854d	0.03650408
217	0xbdefb168	-0.117037594
218	0x3dc88e54	0.09792772
219	0xbc2ec633	-0.010667372
220	0xbde23c60	-0.11046672
221	0xbdb0241a	-0.08600636
222	0x3db7e490	0.08979142
223	0x3d99d126	0.07510595
224	0xbc318700	-0.010835409
225	0x3e01ad26	0.12663707
226	0xbd8fe9ac	-0.07026991
227	0xbdfca1f3	-0.12335577
228	0x3cfa07f6	0.030521374
229	0xbd72d706	-0.059287094
230	0xbd6b044c	-0.057377145
231	0x3dd0e538	0.1019997
232	0x3d007934	0.03136559
233	0xbd4fc330	-0.050723255
234	0xbdb38b21	-0.08766771
235	0x3d939403	0.07205965
236	0x3cc988e2	0.024601404
237	0x3d894d8b	0.06704243
238	0x3c5e1570	0.013554916
239	0xbc3b80c8	-0.011444278
240	0x3d21058e	0.039311938
241	0x3ddd843b	0.108162366
242	0xbdc0fbf2	-0.09423055
243	0xbd22485d	-0.039619792
244	0x3d2d0703	0.042243015
245	0xbdf52e90	-0.11971772
246	0xbc5f43e0	-0.0136270225
247	0x3dfd2d8e	0.123622045
248	0x3da06ee5	0.078336515
249	0x3c4f15a8	0.012639441
250	0x3dc11d4b	0.09429415
251	0xbde31267	-0.11087494
252	0xbd34fb77	-0.044185128
253	0xbd4d8018	-0.050170988
254	0xbdcddb68	-0.10051614
255	0x3d9e1ea6	0.077206895

rnn.weight_hh_l0 f4 [400, 100]
0	0x3dc1b505	0.09458355
1	0x3cfeb8a5	0.031093905
2	0xbd6f9611	-0.058492724
3	0x3d8e956b	0.06962093
4	0xbcbac0d3	-0.022797024
5	0xbda3a7f3	-0.07991018
6	0xbd18e8f3	-0.037331533
7	0xbcbc0bc2	-0.022954825
8	0xbdae04e0	-0.084970236
9	0xbc717db5	-0.014739444
10	0xbdda318c	-0.106539816
11	0xbca250e1	-0.019813957
12	0x3d3bba84	0.045832172
13	0x3ddfe9f3	0.10933294
14	0x3d9bc3ce	0.07605706
15	0xbdb179f6	-0.0866584
16	0x3c7043c6	0.014664596
17	0x3c7916d2	0.015203195
18	0xbda9f099	-0.082978435
19	0x3cb060f0	0.021530598
20	0xbba9deef	-0.0051840465
21	0xbd76158c	-0.060079142
22	0x3c8a1a98	0.016858384
23	0xbd8b9748	-0.06815964
24	0xbde3c551	-0.111216195
25	0xbc7db698	-0.015485428
26	0x3d99b6ae	0.075055465
27	0xbd8bd39a	-0.06827469
28	0xbbbeac8d	-0.0058189095
29	0xbb9a9d33	-0.0047184466
30	0x3d981e8b	0.074277006
31	0xbba91e8c	-0.005161112
32	0x3dc5043e	0.0961995
33	0x3c293531	0.010327623
34	0x3de4b4c8	0.11167294
35	0x3c51a3d2	0.012795405
36	0xbd8ab9e6	-0.067737386
37	0xbcc43953	-0.023953116
38	0xbd823311	-0.063573964
39	0xbd962318	-0.07330912
40	0x3d9692ba	0.073522046
41	0xbd7ac767	-0.06122532
42	0x3d632b17	0.055461016
43	0x3da4d0dd	0.0804765
44	0xbdce113a	-0.100618795
45	0xbd6e97a7	-0.058250096
46	0xbd8ade69	-0.067807026
47	0xbc2785f0	-0.010224804
48	0x3d22bb12	0.039729185
49	0x3c8b7723	0.017024582
50	0xbc784994	-0.015154261
51	0x3c5786e6	0.013154721
52	0xbc46b04f	-0.012126996
53	0xbdb96a0b	-0.09053429
54	0xbdd2a3eb	-0.10285171
55	0x3cfd9387	0.030954136
56	0xbd88214a	-0.066469744
57	0xbd9d8f82	-0.076933876
58	0xbd8d9088	-0.06912333
59	0x3d2dbbf2	0.042415567
60	0xbccde469	-0.025133329
61	0xb9b46886	-0.0003441015
62	0xbc2ab139	-0.01041823
63	0x3de002f0	0.1093806
64	0xbdd18c5f	-0.10231852
65	0x3dcb0b31	0.09914244
66	0xbd69353b	-0.05693553
67	0xbc540296	-0.01294007
68	0x3d9e4166	0.077273175
69	0x3d9a99d7	0.07548874
70	0x3d115a29	0.035486374
71	0x3cc55f15	0.02409319
72	0xbd6d9fa3	-0.05801357
73	0xbd5e74b1	-0.054310504
74	0x3d39c98e	0.045358233
75	0x3c79332d	0.015209955
76	0x3da6d0dd	0.08145306
77	0x3d616e9d	0.05503713
78	0xbd4bdc3c	-0.04977058
79	0xbcf7d4db	-0.030252865
80	0xbc98a1ce	-0.018631842
81	0x3d24e5b8	0.04025814
82	0x3d3a1a8b	0.04543547
83	0x3dbe5cab	0.09295019
84	0x3d79a9c6	0.060952924
85	0xbda72d5f	-0.08162951
86	0x3b737514	0.0037148641
87	0xbcb22d69	-0.021750169
88	0xbd5c8d6e	-0.053845815
89	0x3dde0601	0.10840989
90	0x3d096826	0.03354659
91	0x3d9a168e	0.07523833
92	0xbd93a86a	-0.07209857
93	0x3d966913	0.0734426
94	0x3db67fcb	0.08911093
95	0x3dd26a1d	0.10274146
96	0xbd08ebc1	-0.033427957
97	0xbda8f1b0	-0.08249223
98	0xbdde1419	-0.10843677
99	0x3d9e57b5	0.077315725
100	0xbd4edc6d	-0.050503183
101	0xbd84fa4f	-0.06493055
102	0x3dfd8739	0.12379307
103	0x3d364db4	0.044507697
104	0x3d2c3416	0.04204186
105	0x3d7df014	0.061996534
106	0x3dff9321	0.124792345
107	0xbca000e6	-0.019531678
108	0xbd4aaf71	-0.04948372
109	0x3c85d3f2	0.016336415
110	0x3ca3b06a	0.019981582
111	0xbdeebeef	-0.116575114
112	0xbdf2d9bc	-0.11857936
113	0x3bc4b21e	0.0060026785
114	0x3d97e8c5	0.07417444
115	0xbddebd22	-0.10875918
116	0x3db1afe0	0.086761236
117	0xbbdc5cde	-0.006724938
118	0xbd1eb429	-0.038746033
119	0x3c5a10b4	0.013309646
120	0x3d136bd4	0.035991505
121	0x3b78f5f1	0.003798839
122	0xbc5e248a	-0.013558516
123	0xbd543fe9	-0.051818762
124	0xbd0c9cc1	-0.03432918
125	0x3d9c2141	0.0762353
126	0x3d88487a	0.06654449
127	0xbd923d41	-0.071405895
128	0xbcce03c2	-0.025148276
129	0xbbfc4254	-0.0076983366
130	0x3d7e3aba	0.062067725
131	0x3d6a1932	0.057152934
132	0xbdf09ed2	-0.117490426
133	0x3ba52abd	0.005040495
134	0x3c5f15e4	0.013616059
135	0xbd02df97	-0.031951513
136	0x3d15ff47	0.036620405
137	0xbdd63fea	-0.104614094
138	0xbcb02f24	-0.021506853
139	0x3d9e567b	0.077313386
140	0xbd3a5219	-0.04548845
141	0xbd4c2ee8	-0.04984942
142	0x3cf83f79	0.030303704
143	0xbc93e620	-0.018054068
144	0x3dd26c69	0.10274584
145	0xbd8893f9	-0.066688485
146	0x3df56a20	0.11983132
147	0x3cd3d577	0.025858624
148	0xbd3a4c4c	-0.04548292
149	0x3dd08d90	0.10183251
150	0xbbc7d5b7	-0.006098475
151	0xbdc4f59c	-0.09617159
152	0xbd452e24	-0.048139706
153	0x3d9c7f19	0.076414295
154	0x3de86493	0.11347308
155	0x3d677ebe	0.056517355
156	0xbd3d5cd8	-0.04623112
157	0xbcfb51be	-0.030678626
158	0xbda05123	-0.078279756
159	0x3d83df13	0.064390324
160	0x3d5bb7ce	0.053642087
161	0xbca3923c	-0.01996719
162	0xbba84c1e	-0.005136027
163	0x3d9257e6	0.071456715
164	0xbd56e66f	-0.052465852
165	0x3d1ebb78	0.038753003
166	0xbdfbf013	-0.1230165
167	0x3cb6347b	0.022241822
168	0xbd69ebfd	-0.05710982
169	0x3d8d0817	0.06886309
170	0xb9224d43	-0.00015478306
171	0xbdc0d1f1	-0.09415043
172	0x3ceb2dfb	0.028708449
173	0xbd47b475	-0.04875608
174	0x3d410a5c	0.04712902
175	0xbd4bd0b5	-0.049759585
176	0xbdca96cf	-0.09892046
177	0xbc9eea50	-0.019398838
178	0x3d16be71	0.036802713
179	0xbca54dd1	-0.020178707
180	0x3dd77106	0.105196044
181	0x3d94aba6	0.07259302
182	0xbd1b4595	-0.037908155
183	0xbd1aa334	-0.0377533
184	0x3d8f8082	0.07006933
185	0xbad673e6	-0.0016361445
186	0x3c87c5a6	0.016573738
187	0x3d893ae6	0.06700687
188	0xbccd7e75	-0.025084713
189	0x3d2c1dd1	0.042020623
190	0x3dfc89b4	0.12330952
191	0x3d20f1cd	0.0392931
192	0x3d316b56	0.043315254
193	0xbd4ca64d	-0.049963284
194	0x3da32b39	0.079672284
195	0x3d05246c	0.032505438
196	0xbcd3dced	-0.025862182
197	0xbd749302	-0.05971051
198	0xbc267555	-0.01015981
199	0x3c28c88a	0.0103017185
200	0x3d589fa8	0.052886635
201	0xbccc0faf	-0.024909822
202	0xbdb59d07	-0.08867841
203	0xbda50204	-0.08057025
204	0x3d74e4fa	0.05978868
205	0x3d1a3fd0	0.037658513
206	0x3d3bc83c	0.045845255
207	0x3d1639fd	0.036676396
208	0x3cdedb82	0.027204279
209	0x3d9128ab	0.07087835
210	0x3b2e524c	0.0026599346
211	0xbc233b0f	-0.009962811
212	0xbc5fdff3	-0.0136642335
213	0x3dbc5869	0.091965504
214	0x3d7812f3	0.060564946
215	0x3dc643c8	0.09680897
216	0xbba99143	-0.0051747872
217	0x3daf9ffc	0.085754365
218	0x3ce04104	0.027374752
219	0xbda01c9b	-0.07817956
220	0xbd3b3fae	-0.045715027
221	0xbdb9ab4f	-0.09065878
222	0x3d432422	0.04764188
223	0x3c767a16	0.015043756
224	0x3d48cbc0	0.049022436
225	0xbd9e8501	-0.07740212
226	0x3ddb29aa	0.10701306
227	0x3db7b7fd	0.0897064
228	0x3dcea460	0.10089946
229	0x3c8e32a8	0.01735814
230	0xbcb39073	-0.021919465
231	0xbd8d0bae	-0.06886993
232	0x3db842a7	0.08997088
233	0x3d395764	0.045249358
234	0x3dc246fe	0.09486197
235	0xbdb78179	-0.08960242
236	0xbd361cb6	-0.044460975
237	0xbbbdd6f0	-0.005793445
238	0xbd8eeb10	-0.06978428
239	0x3dab763a	0.08372159
240	0xbd537a5b	-0.05163036
241	0xbc2c7d88	-0.010527976
242	0x3d85ce98	0.06533545
243	0x3d955c1a	0.072929576
244	0x3dc339cf	0.095325105
245	0x3d12c788	0.03583482
246	0xbd7e0a2b	-0.062021416
247	0x3c549fa5	0.012977515
248	0xbd5db3b8	-0.05412647
249	0x3d3b4b9e	0.04572641
250	0x3d6c2909	0.05765632
251	0xbd61e670	-0.055151403
252	0xbd9ea66f	-0.077465884
253	0xbd8854f8	-0.066568315
254	0xbdad257f	-0.084544174
255	0xbcda0e4a	-0.026618142

rnn.bias_ih_l0 f4 [400]
0	0x3c8a87e0	0.016910493
1	0xbd590aac	-0.052988693
2	0x3db75d9f	0.08953404
3	0x3bc6b037	0.006063487
4	0xbc004b66	-0.007830476
5	0x3ce5cbda	0.028051306
6	0xbd5ed696	-0.054403864
7	0x3dba0261	0.09082485
8	0x3bcc6130	0.0062371716
9	0xbd8390de	-0.064241156
10	0xbd112d10	-0.035443366
11	0xbd293714	-0.041312292
12	0xbd1a3b6b	-0.03765432
13	0xbd8d7573	-0.06907167
14	0x3a868882	0.0010264071
15	0xbd230c0a	-0.039806403
16	0x3d909ea0	0.07061505
17	0x3ce11936	0.027477842
18	0x3ba912ec	0.0051597264
19	0xbd1ff98e	-0.039056353
20	0x3db51557	0.08841961
21	0x3d4d1e4b	0.050077718
22	0x3bc27079	0.005933818
23	0xbd7875c9	-0.060659204
24	0xbc049551	-0.00809224
25	0x3de52958	0.11189526
26	0xbd4430b7	-0.04789802
27	0x3db63e40	0.08898592
28	0x3d065088	0.032791644
29	0x3da547ce	0.08070336
30	0x3cf5986f	0.029979913
31	0xbd8e2ad4	-0.069417626
32	0x3dac6a86	0.08418755
33	0x3cb4f78a	0.022090692
34	0xbd8b1e12	-0.06792845
35	0x3daada94	0.08342472
36	0x3d7d076c	0.061774656
37	0xbbdcbc44	-0.00673631
38	0x3dc74fd7	0.09732025
39	0xbcb1a58c	-0.021685384
40	0xbd34c890	-0.044136584
41	0xbbe55aea	-0.006999363
42	0x3d966d09	0.073450156
43	0x3ab2a166	0.0013628423
44	0xbcc3c75a	-0.02389877
45	0x3d582b03	0.052775394
46	0xbdbc393e	-0.091906056
47	0xbd5b12ec	-0.053484842
48	0x3b43f352	0.002989967
49	0xbd9392c4	-0.07205728
50	0x3d981400	0.0742569
51	0x3df9a6b8	0.12190002
52	0x3d5d1460	0.05397451
53	0x3d804ee0	0.06265044
54	0x3df4d55e	0.11954759
55	0xbda525b6	-0.080638334
56	0xbd8154e0	-0.06315017
57	0x3c4ce33e	0.012505351
58	0x3d2ea595	0.04263838
59	0x3da8eed2	0.08248676
60	0xbba73371	-0.005102568
61	0x3dc6d30a	0.09708221
62	0xbd3b0530	-0.045659244
63	0x3d57015d	0.052491535
64	0x3d8d2b36	0.068930075
65	0x3d17887c	0.036995396
66	0xbda0e784	-0.07856658
67	0xbc903440	-0.01760304
68	0x3bd1b395	0.0063995817
69	0x3de8c24b	0.113651834
70	0x3d85be34	0.06530419
71	0xbd79e880	-0.061012745
72	0xbd63b7b7	-0.055595126
73	0xbcf28b62	-0.029607479
74	0x3daab303	0.08334925
75	0xbd954871	-0.07289208
76	0x3dec52c7	0.11539226
77	0xbc1ce44c	-0.009575915
78	0xbd22bdda	-0.039731838
79	0x3da46d05	0.08028606
80	0x3d79a251	0.060945813
81	0x3dc9d257	0.09854572
82	0x3d2c8084	0.04211475
83	0xbd973eb9	-0.0738501
84	0x3d89012b	0.06689676
85	0x3d40b089	0.047043357
86	0x3ad2eb5b	0.001609187
87	0x3d41dffb	0.047332745
88	0xba6b6d17	-0.0008980794
89	0x3ce96f2c	0.028495394
90	0xbd4dffca	-0.050292768
91	0x3da50ef3	0.08059492
92	0x3c911b70	0.017713279
93	0xbd62a1a6	-0.05532994
94	0xbd8e3ab1	-0.06944788
95	0xbce0e037	-0.027450664
96	0x3da3d6c4	0.07999948
97	0x3bb1b2a7	0.0054229083
98	0x3d135d4c	0.035977647
99	0xbd9b4c46	-0.075829074
100	0xbd212d22	-0.039349683
101	0x3dd7567a	0.10514541
102	0xbced3401	-0.028955461
103	0x3d5a6ce0	0.053326488
104	0x3db07436	0.086159155
105	0x3c979d6d	0.018507684
106	0x3ce990de	0.02851146
107	0x3d881776	0.066451
108	0x3cda97f9	0.026683794
109	0x3d885e08	0.0665856
110	0xbddabfd4	-0.106811196
111	0x3cc9ac62	0.024618331
112	0x3cac1f91	0.021011146
113	0x3dca7f23	0.09887531
114	0xbc94b0ae	-0.018150654
115	0xbd2a463d	-0.04157089
116	0x3bc1c513	0.0059133857
117	0x3d9c52d3	0.07632985
118	0x3d8138be	0.06309651
119	0x3d850b4a	0.06496294
120	0xbca296a0	-0.019847214
121	0xbd8a8cc1	-0.06765128
122	0xbd2f2ce8	-0.042767435
123	0xbd9929e2	-0.07478692
124	0xbdadec38	-0.08492321
125	0x3d3478bd	0.044060457
126	0xbd8d4e63	-0.06899717
127	0xbcec7264	-0.02886314
128	0x3d55737e	0.052112095
129	0x3d3a9908	0.0455561
130	0xbd8cc988	-0.068743765
131	0x3dfae3e6	0.122504994
132	0xbcd2cc05	-0.02573205
133	0xbd7639f5	-0.060113866
134	0xbd31fe90	-0.04345566
135	0x3dcb8e6a	0.09939273
136	0xbc0f24d1	-0.008736805
137	0x3d68cce8	0.05683604
138	0xbc4a3c42	-0.012343468
139	0xbda524bf	-0.080636494
140	0xbd637b77	-0.055537667
141	0x3cd5abaf	0.026082842
142	0xbd2adc4b	-0.041713994
143	0xbdc4f738	-0.09617466
144	0xbb85791c	-0.0040732753
145	0xbd4a5faf	-0.049407657
146	0x3dc3a406	0.09552769
147	0x3dc7e142	0.097597614
148	0xbd053208	-0.032518417
149	0xbd752f06	-0.0598593
150	0xbccbcfe7	-0.024879409
151	0x3d674c00	0.056468964
152	0xbc2236ec	-0.00990079
153	0xbca52d2c	-0.020163141
154	0xbd14e579	-0.036351655
155	0xbd48872e	-0.048957042
156	0xbd6c1923	-0.05764116
157	0x3dbb521d	0.09146521
158	0x3ddc995a	0.10771437
159	0x3df721e1	0.12067009
160	0xbd1ff5dd	-0.039052833
161	0xbd9694ee	-0.07352625
162	0xbc0d2875	-0.008615603
163	0x3ddaab5b	0.10677215
164	0x3c209a8d	0.009802473
165	0x3da7286b	0.08162006
166	0x3da2992c	0.079393715
167	0xbd036de5	-0.032087225
168	0x3dba346c	0.0909203
169	0xbd5cd17c	-0.053910717
170	0x3d20fcdf	0.039303657
171	0xbcac8b51	-0.021062525
172	0x3d7f1408	0.062274963
173	0x3db5811e	0.08862518
174	0x3cfa54b2	0.030557964
175	0xbd927879	-0.071518846
176	0x3c12dbe0	0.008963555
177	0xbd667e00	-0.056272507
178	0x3d5412cb	0.051775735
179	0x3dc5f9e5	0.09666804
180	0xbd30deb2	-0.04318113
181	0x3c9ff7ab	0.019527277
182	0xbd3f457f	-0.046697136
183	0x3d7e0a54	0.06202157
184	0xbd9d5d4e	-0.07683812
185	0xbd18f913	-0.03734691
186	0x3cd696da	0.026194979
187	0xbd901506	-0.0703526
188	0xbc7d3aba	-0.015455896
189	0xbcb41c60	-0.021986187
190	0xbd738606	-0.059453987
191	0xbceb1074	-0.028694369
192	0x3d576ed8	0.052595943
193	0xbc81eee8	-0.01586099
194	0x3cefb1a2	0.029259507
195	0x3d2449ff	0.04010963
196	0x3dd0d173	0.10196199
197	0x3dba1851	0.09086669
198	0xbc6979ad	-0.014250201
199	0xbd303db7	-0.043027606
200	0x39f84fa9	0.00047361598
201	0xbde871fc	-0.11349866
202	0x3d7320fb	0.059357625
203	0xbd2d8d0b	-0.042370837
204	0xbd803d7e	-0.06261729
205	0x3ca94d7c	0.02066683
206	0x3d9bb3d9	0.076026626
207	0xbd6881fc	-0.056764588
208	0xbd3a7de3	-0.04553021
209	0x3d062d5a	0.032758094
210	0x3ddb78ff	0.107164375
211	0x3c95c59c	0.018282704
212	0xbd606105	-0.054780025
213	0xbcd31430	-0.025766462
214	0xbd479e34	-0.04873486
215	0xbd687f11	-0.056761805
216	0x3bb5d406	0.005548957
217	0xbb052ef5	-0.0020322178
218	0xbd968658	-0.07349843
219	0x3ccceebe	0.025016185
220	0xbc022c69	-0.0079451585
221	0xbcd38224	-0.025818892
222	0xbd69941d	-0.057026017
223	0x3db28d96	0.087184116
224	0x3d292752	0.041297264
225	0x3d39b6ea	0.045340456
226	0x3d82bf96	0.06384198
227	0x3bf2de40	0.007411748
228	0x3d7a0c2b	0.06104676
229	0xbdd9e850	-0.10640013
230	0xbcb932a9	-0.022607164
231	0x3dd10c7d	0.1020746
232	0xbd5705ec	-0.052495882
233	0x3b9cf83d	0.0047903345
234	0xbd8f173b	-0.06986853
235	0xbadff5eb	-0.0017086839
236	0x3dab41fa	0.083621934
237	0xbced2a3a	-0.0289508
238	0x3c97c3e4	0.018526025
239	0xbd7b620f	-0.061372813
240	0x3da3f160	0.08005023
241	0xbdbbbaf5	-0.091665186
242	0xbd6fd330	-0.058551013
243	0x3d5d6786	0.054053806
244	0x3d0c37e5	0.034232993
245	0xbdaf5324	-0.0856078
246	0x3dae6ffc	0.08517453
247	0x3cf5be08	0.02999784
248	0x3d9138fb	0.07090946
249	0x3dbdb6c2	0.09263374
250	0x3c40b7e7	0.011762596
251	0xbcee24d3	-0.029070294
252	0x3d317332	0.04332275
253	0x3d9a276d	0.07527051
254	0x3d82032b	0.063482605
255	0xbcc93986	-0.024563562

rnn.bias_hh_l0 f4 [400]
0	0x3da2f6b8	0.07957214
1	0x3db308d5	0.08741919
2	0xbd0d3f47	-0.034484174
3	0x3c45221c	0.012032058
4	0x3dca1aff	0.0986843
5	0x3cc85972	0.024456713
6	0x3dca3bf2	0.09874715
7	0xbc91765b	-0.017756632
8	0x3dd510e9	0.10403616
9	0x3d7af529	0.06126896
10	0xbd116c73	-0.035503816
11	0x3d4f951d	0.050679315
12	0x3debe4aa	0.115182236
13	0xbc7846bc	-0.015153583
14	0x3d65d88c	0.05611472
15	0x3d06b356	0.03288587
16	0x3c68bf73	0.014205801
17	0xbcf10546	-0.02942146
18	0xbb6b7e1e	-0.0035933326
19	0xbb828bf1	-0.0039839675
20	0x3d0b675c	0.034034118
21	0xbcf2e050	-0.029647976
22	0x3d5fab13	0.05460651
23	0x3b0f44c7	0.0021861063
24	0x3d3463f5	0.04404064
25	0x3df7f741	0.12107707
26	0xbd2c2f07	-0.042037036
27	0x3d8e39b0	0.06944597
28	0x3bd4778a	0.0064839767
29	0x3db98310	0.09058201
30	0xbdbcaa87	-0.09212213
31	0x3df5b647	0.11997657
32	0xbd83b322	-0.06430651
33	0xbd1017f0	-0.03517908
34	0xbd18f940	-0.03734708
35	0x3d667f78	0.056273907
36	0xbd0fe4ff	-0.035130497
37	0x3d5b2bc7	0.053508546
38	0xbcda77b7	-0.026668413
39	0x3da3520f	0.07974636
40	0x3d972a40	0.073811054
41	0x3c5e1c29	0.013556519
42	0x3dd8e8ca	0.10591276
43	0x3d1881ed	0.037233282
44	0xbcff613b	-0.031174293
45	0xbc8f0049	-0.01745619
46	0xbc938608	-0.018008247
47	0x3cd56227	0.02604778
48	0xbd6b9f58	-0.05752501
49	0x3bc17e3c	0.005904941
50	0x3db72a71	0.08943642
51	0x3da662ea	0.08124335
52	0x3d878f21	0.066190965
53	0x3d65f221	0.056139115
54	0xbbabfe2a	-0.0052488046
55	0x3dbe648a	0.0929652
56	0xbd31813a	-0.04333613
57	0x3cf1a03d	0.029495353
58	0x3b46a3af	0.0030309965
59	0x3d9289b6	0.071551725
60	0xbd5255e9	-0.05135146
61	0xbcf60c76	-0.030035239
62	0xbc199190	-0.009373084
63	0x3d54c02d	0.051941086
64	0x3dd5297c	0.10408303
65	0xbdd86652	-0.10566391
66	0xbd827d59	-0.063715644
67	0x3d9c4d93	0.076319836
68	0x3d662f46	0.056197427
69	0x3c32201a	0.010871911
70	0xbb28ea86	-0.0025774552
71	0x3da2d08e	0.07949935
72	0x3cf6c4ab	0.030123075
73	0x3d24f781	0.0402751
74	0xbd8a0b7c	-0.06740472
75	0x3d6245a9	0.055242214
76	0x3df23235	0.118259825
77	0x3dedcdac	0.116114944
78	0x3da1a214	0.07892242
79	0x3d2df5eb	0.042470854
80	0xbd122dbf	-0.035688158
81	0x3dbc27bd	0.09187267
82	0xbaa660e1	-0.0012693667
83	0xbcf71d6c	-0.030165397
84	0x3c8642e1	0.016389312
85	0xbd2f7441	-0.042835478
86	0x3de574a6	0.112038895
87	0x3cb5d84f	0.02219787
88	0x3cec6b12	0.028859649
89	0x3c83e164	0.016098686
90	0x3da90c5f	0.08254313
91	0x3da96aaf	0.082723014
92	0xbcb16423	-0.021654194
93	0x3ddf1bcd	0.108939745
94	0xbd589021	-0.052871827
95	0xbd0491a0	-0.03236544
96	0x3d54fbee	0.05199807
97	0x3d265fe9	0.04061881
98	0x3da683a5	0.08130578
99	0x3d0f0332	0.034915157
100	0x3d245a61	0.040125255
101	0xbd8d1c2b	-0.06890138
102	0xbdaec387	-0.08533388
103	0x3d898c9f	0.067162745
104	0x3d44331b	0.0479003
105	0x3c41b102	0.011821987
106	0x3d4aa01d	0.049469102
107	0x3d61803c	0.055053934
108	0xbd86d63c	-0.06583831
109	0xbce54c53	-0.027990496
110	0xbdddd67f	-0.108319275
111	0x3d4daf21	0.050215844
112	0xbcda5e45	-0.02665628
113	0x3cff858d	0.031191612
114	0x3db72ead	0.089444496
115	0xbd3c35b7	-0.045949664
116	0xbcf78430	-0.0302144
117	0xbc4de6d9	-0.012567245
118	0x3d005fb1	0.03134126
119	0x3d550606	0.052007698
120	0xbd8cd1c9	-0.06875951
121	0x3d60ffb0	0.054931343
122	0xbd42ab4d	-0.047526646
123	0xbda87da6	-0.082270905
124	0xbd8f6214	-0.07001129
125	0x3ddb9367	0.10721474
126	0xbd379ee4	-0.044829264
127	0xbd60fafc	-0.054926857
128	0xbd4e977c	-0.050437436
129	0x3c1b1d23	0.009467396
130	0x3cd6dd6b	0.026228627
131	0xbd84cc20	-0.06484246
132	0xbdbb443f	-0.09143876
133	0x3d28f34e	0.04124766
134	0xbbb45930	-0.005503796
135	0x3d68bfbb	0.056823473
136	0x3c6226ef	0.013803228
137	0x3dd95573	0.10612001
138	0xbcad74b6	-0.021173816
139	0xbc2d7926	-0.010587966
140	0x3d929811	0.071579106
141	0xbd64c1e1	-0.05584896
142	0x3d0927a4	0.03348507
143	0x3d3be73b	0.045874815
144	0xbda44aa0	-0.08022046
145	0x3c57b027	0.013164557
146	0x3a972af0	0.0011533182
147	0xbcac8546	-0.021059643
148	0x3d69921d	0.05702411
149	0x3cb72f81	0.022361519
150	0x3d5ff63e	0.054678194
151	0x3c0e9fe4	0.008705113
152	0x3d2b4a94	0.04181917
153	0x3d4c9482	0.049946316
154	0x3d48ca80	0.049021244
155	0x3d6678c6	0.056267522
156	0x3d5e867d	0.054327477
157	0xbd2cafdf	-0.04215991
158	0x3dc449da	0.095843986
159	0x3d0dab25	0.034587044
160	0x3ca947c1	0.020664098
161	0x3cf2ca12	0.02963737
162	0x3d3bf9ac	0.045892403
163	0x3daaf8a0	0.08348203
164	0x3c0f8d71	0.00876175
165	0xbd2e7960	-0.04259622
166	0x3bad43d0	0.005287625
167	0x3d0d4985	0.03449394
168	0xbd5c8bdd	-0.05384432
169	0xbce28dff	-0.0276556
170	0x3d79c4d7	0.060978737
171	0xbc9b375d	-0.018947298
172	0x3d996d46	0.074915454
173	0x3d6bcbe8	0.057567507
174	0xbd3d7e8c	-0.046263263
175	0x3d986a89	0.07442195
176	0x3de0977b	0.109663926
177	0xbd68a66b	-0.056799334
178	0x3d86ee2d	0.06588397
179	0x3d9558fa	0.072923616
180	0xbc9bfce9	-0.019041495
181	0x3de6b1e1	0.112643965
182	0xbda3021b	-0.07959386
183	0x3cb932e9	0.022607284
184	0xbd26ae11	-0.040693346
185	0xbd3165a6	-0.04330983
186	0xbd9b0709	-0.07569701
187	0xbd2583e5	-0.040408988
188	0xbd02e1fe	-0.031953804
189	0xbd9c0f11	-0.07620061
190	0x3d10ad1e	0.035321347
191	0x3d8431a7	0.06454783
192	0xbd3a7a8f	-0.045527037
193	0x3d5967fb	0.05307768
194	0x3c06c9c1	0.008226813
195	0x3cd18834	0.025577642
196	0x3d9778c0	0.07396078
197	0x3c839561	0.01606244
198	0x3d8add53	0.067804955
199	0x3d4e8109	0.050416026
200	0x3d410db2	0.0471322
201	0x3d96e7e1	0.07368446
202	0xbd74ca42	-0.0597632
203	0xbdab60ea	-0.08368094
204	0xbd8d8282	-0.06909658
205	0xbdb53d99	-0.088496394
206	0x3dc320c2	0.095277324
207	0x3dc92d4e	0.09823094
208	0xbe040f05	-0.12896354
209	0x3ca8e168	0.020615295
210	0x3bd046bc	0.0063560884
211	0xbd57f5a7	-0.052724507
212	0xbdafdcc7	-0.08587032
213	0xbd148588	-0.036260158
214	0xbd3c6934	-0.045998767
215	0x3ceb5482	0.02872682
216	0x3db762b1	0.08954371
217	0x3c4b4b7c	0.012408134
218	0xba401c5c	-0.00073284446
219	0xbd943061	-0.0723579
220	0x3d95dc2a	0.073173836
221	0xbdaf0025	-0.085449494
222	0x3d98e191	0.074648984
223	0xbdc0324e	-0.09384595
224	0xbd2ad46b	-0.041706484
225	0xbba06106	-0.0048943786
226	0x3ceed947	0.02915634
227	0x3d921670	0.07133186
228	0x3cf86a02	0.030323986
229	0xbddbc206	-0.107303664
230	0x3dea90b7	0.114533834
231	0xbce712e6	-0.028207254
232	0xbd77d204	-0.06050302
233	0x3d333e88	0.043760806
234	0x3dd9922c	0.10623583
235	0xbde103da	-0.10987063
236	0xbd6926e2	-0.056921847
237	0xbd1245a5	-0.03571095
238	0x3deee762	0.116652265
239	0xbcee751d	-0.029108578
240	0xbd50b22e	-0.050951175
241	0xbde8504d	-0.11343441
242	0xbd639366	-0.055560492
243	0x3da0acf3	0.078454874
244	0x3d730102	0.059327133
245	0x3d985154	0.07437387
246	0x3cab0414	0.020875968
247	0xbd6757dc	-0.056480274
248	0x3cacf60d	0.02111342
249	0x3d700b02	0.058604248
250	0xbd90b299	-0.07065315
251	0x3da2b624	0.07944897
252	0xbd81b0c1	-0.06332541
253	0x3dcdca5b	0.10048362
254	0xbd036a6e	-0.03208392
255	0xbbebf2e7	-0.007200587

linear.weight f4 [1, 100]
0	0x3c6c5f6e	0.014427049
1	0xbde3fb56	-0.11131923
2	0x3b9349fb	0.004494903
3	0xbdacfce4	-0.084466726
4	0xbd9d95db	-0.07694598
5	0x3dc011e5	0.09378413
6	0x3da8ce5a	0.082424834
7	0x3df9a29f	0.12189221
8	0x3de1c067	0.11023026
9	0x3c29de36	0.010367921
10	0xbbfe462f	-0.0077598314
11	0xbe070f86	-0.13189515
12	0xbe04eb15	-0.12980302
13	0x3dffe3aa	0.12494595
14	0x3dddcd6f	0.10830199
15	0xbca18eb6	-0.01972137
16	0xbd8a83c5	-0.06763414
17	0xbd8329f9	-0.0640449
18	0x3dd6a4ca	0.1048065
19	0xbd6b838a	-0.057498492
20	0xbcad69dd	-0.021168644
21	0x3c46485b	0.012102212
22	0x3d963109	0.073335715
23	0xbd656cf5	-0.056012113
24	0xbd8aba2d	-0.067737915
25	0x3dbcda64	0.09221342
26	0x3d9b584e	0.07585202
27	0xbd2729dc	-0.040811405
28	0x3cb9904b	0.022651812
29	0xbd658301	-0.05603314
30	0xbbf657bf	-0.0075177844
31	0x3def3e45	0.11681799
32	0x3dab8b19	0.0837614
33	0xbd302abc	-0.043009505
34	0x3d49b9f5	0.049249608
35	0x3ca64118	0.020294711
36	0x3d2b2c9a	0.041790582
37	0x3dd5bf68	0.104368985
38	0x3de237a4	0.11045769
39	0x3dd49d13	0.10381522
40	0x3dfc78cc	0.12327728
41	0x3c3f2c38	0.011668257
42	0xbe05c5b5	-0.130637
43	0x3d8eeb55	0.0697848
44	0x3d47ce3a	0.048780657
45	0xbd667b6b	-0.056270044
46	0x3db425cb	0.08796271
47	0x3db792ae	0.08963524
48	0x3dc27784	0.09495452
49	0xbd3e5be7	-0.046474364
50	0x3dbb8897	0.09156912
51	0xbd553ee3	-0.052061927
52	0xbde8c5c0	-0.11365843
53	0x3d0bf324	0.034167424
54	0xbd50b383	-0.050952446
55	0x3c704f5a	0.014667356
56	0x3df06b15	0.11739174
57	0x3dd563b5	0.10419408
58	0x3cb45ca4	0.02201683
59	0xbdfe5944	-0.1241937
60	0x3d67cbf6	0.056590997
61	0x3da1770c	0.078840345
62	0x3dae851d	0.08521483
63	0xbd94504c	-0.07241878
64	0x3dd91130	0.105989814
65	0xbd291db4	-0.041288093
66	0x3cc06021	0.023483338
67	0xbd0120a9	-0.031525288
68	0x3d91fb8e	0.071280584
69	0xbd32eed7	-0.043684807
70	0xbd9c0773	-0.07618608
71	0x3c9fbd44	0.019499429
72	0x3dc1093d	0.0942559
73	0xbd66e7db	-0.05637346
74	0xbd5bd800	-0.05367279
75	0x3cd3b1f1	0.025841685
76	0xbd865777	-0.06559651
77	0xbdafe161	-0.085879095
78	0xbdc722e8	-0.09723455
79	0x3c0c0d57	0.008548102
80	0xbdca8fff	-0.09890746
81	0x3d8c7760	0.068587065
82	0xbd3336f2	-0.04375357
83	0xbd9598d0	-0.07304537
84	0x3d635e74	0.05551
85	0xbc616e6b	-0.013759236
86	0x3d5f7fdc	0.054565296
87	0xbc92d17d	-0.017922157
88	0xbd94a6a9	-0.072583504
89	0xbc086eca	-0.008327195
90	0x3e05862c	0.13039464
91	0xbdd39af7	-0.103322916
92	0x3d32a39c	0.04361306
93	0xbd6d0c18	-0.05787286
94	0x3c8d34f4	0.017237164
95	0x3dab12a8	0.08353168
96	0xbd83cef1	-0.06435955
97	0x3dc03bfb	0.0938644
98	0xbc1ea14b	-0.00968201
99	0xbdc4ff5d	-0.09619019
