backend/trained_models/NICA_GRU_model_state_dict.pth (torch, 126723 bytes, 5 tensors)

rnn.weight_ih_l0 f4 [300, 1]
00000000: 0e42 ec3d 0612 0f3d b458 843c df3f ed3c
00000010: 2b09 94bd 2301 18bd 4357 73bc b141 a23c
00000020: 5ab8 03bd 37a3 ffbc ebe5 873d 692c 9f3c
00000030: d54d e7bc 1883 edbd 7f51 6f3d 04b7 b43d
00000040: 3077 a43d 5edf 8bbd c5b1 edbd ad34 93ba
00000050: dc0b 323d b4ef dfbd 8c13 a8bd de3a c5bc
00000060: 6116 6abd 93f0 853d c741 fe3b 19da e93c
00000070: 2ded a43b 48dd 21bc 5e24 b8bd 448e 58bd
00000080: c57b 6ebd 796c 8c3d bb39 59bd 2bfa ed3d
00000090: c350 7a3d 3f22 9a3d be98 58bc e31c 9ebd
000000a0: 7882 a0bc f655 8dbd c2a7 a8bd 7d45 8ebd
000000b0: 5920 603d 1e6a d73d b09a e23d caae 71bd
000000c0: 3888 8b3c 5c84 cc3d f9c6 68bd 812c e93b
000000d0: d29d a2bd 546c c7bb 5847 483c ff84 39bd
000000e0: c25b 443d 56c1 d03d 0fe6 a8bd ef34 8a3d
000000f0: b330 d83c 0eec f7bc 6608 603d 697e 4c3b
00000100: bd98 18bd 8bda 9c3c be94 073d f7e6 a43d
00000110: f0de 54bb 1e59 433c 1229 813d 44a3 01be
00000120: 1f74 ec3c e2fd c2bc b150 85bd 5fbc a7bd
00000130: 37ef e7bc 8226 c63c b098 57bd 86fe bb3d
00000140: f583 17bc 53b0 26bd 82a2 953d 94af d7bc
00000150: 57c2 843d 20f3 ca3d 4516 e0bd 3201 febd
00000160: 9941 473c 066f 1d3d 6c36 9fbc 16f0 cdbc
00000170: 9ca7 993d bcc9 933d 38ca c2bc ccc1 b6bd
00000180: 2d3a 8ebc adc9 20bd c6a1 66bd f844 b1bc
00000190: 4dc7 9cbb 8415 65bd 25ea 99bd 2ed5 39bd
000001a0: a564 083c e04e 54bd 9cad 89bd 3393 b1bd
000001b0: c20d 56bd 188a afbd 48c4 1bbd 56f1 db3d
000001c0: f263 fabb aa14 d03c bdf7 8abd 1cbb c53d
000001d0: 08cb 2bbd b5d3 81bd 581c acbd 7b76 cabc
000001e0: 8ce3 eabd f506 dc3b 5182 c43d 2700 93bd
000001f0: 48b2 b3bd b865 8cbd ea6e d4bd ebbd 18be
00000200: 989a df3b 2299 1cbe f340 b8bd b62d 11be
00000210: 1c15 1dbc b26a 8ebd 4a32 a3bd 1053 f7bd
00000220: d75b 20bb 6d25 2b3d 7a2c 5e3b 3b95 debd
00000230: 91ed 0cbe 0009 0e3d 2739 c7bd a8c1 8fbd
00000240: 890e d4bb 66a4 333b 3710 44bd 6372 cfbd
00000250: 2646 65bd 1ff0 14be dc72 a6bd c40b 90bd
00000260: c75d a7bd e3cb 0ebd 5a8a 07be 6e3e 03be
00000270: d513 efbc d23c 0f3d 4278 2e3d d08e 3e3b
00000280: a3b1 3fbd ab50 ac3d 88d6 1cbe 729f 833b
00000290: ed89 d63c bfe3 7c3d 1d26 97bc b7dd e4bd
000002a0: e9b8 33bc 827a aabd 8953 603d b25a 5abd
000002b0: 84ae 05be dba9 753d db3d ad3c cacf 0d3b
000002c0: 9a77 6cbd 3539 26be bdfc 123d d8e1 133d
000002d0: c820 d5bd 94c5 2dbd d74d eebd 6a69 e1bd
000002e0: 6429 f0bd 7c1d 19be 60f1 21be 9c0b f93c
000002f0: bebb 63bd 60ce b1bc 89ed ac3c 90f6 b93d
00000300: b0e7 0dbe 52ee c1bd d4ac 9f3d 0281 6dbd
00000310: cf79 cabd 2ced 033e 4989 c5bd 34b1 b0bc
00000320: 08f8 27bd f9fe 8bbd e3c9 acbd 9fbf 91bd
00000330: 99b3 69bd a82c 97bd 3275 83bd 8e3a aebd
00000340: 47ed 9abd e943 f13d c069 cc3d fda5 133d
00000350: 760f ce3c a5f6 c6bc b64b 03bd 56f7 adbd
00000360: 3d5e d83d c343 c9bd 91c1 f33c 563e 703d
00000370: 5f86 96bd a861 f33c be5d 5fbd 0a40 b33d
00000380: 8bfb 92bd c58a e5bd 6525 ba3d 57ba 24bd
00000390: 4aca 52bd a8f1 d73c 8702 81bd fef3 9d3d
000003a0: ff3e c03d 9583 b53d 415e 223d cb53 cfbd
000003b0: e85b 36bc 06ef 87bd 00f5 993d b8d0 833d
000003c0: 29fc 8fbd 3f09 bfbc f104 73bd c0f2 173d
000003d0: 6c34 9a3d 0565 11bd 4e9d 68bd 8a5a efbd
000003e0: 0da7 aabd b792 f63d a168 483d e194 02bd
000003f0: 6853 fbbd 3adc e73c bedc a93d 7627 053e
0.115360364 0.034929298 0.016155578 0.02896112 -0.07228311 -0.03711046 -0.014852348 0.019806715
-0.032158233 -0.031205757 0.0663565 0.019430356 -0.028235355 -0.1159727 0.05842733 0.0882397
0.08030546 -0.06829713 -0.116061725 -0.0011230909 0.04346834 -0.109343916 -0.08206853 -0.024075922
-0.05715025 0.065400265 0.007759306 0.02854638 0.0050331564 -0.009879418 -0.089913115 -0.05287005
-0.058223505 0.06856627 -0.05303357 0.116199814 0.061112177 0.07526063 -0.01322001 -0.077203535
-0.019593462 -0.069011614 -0.08235122 -0.069468476 0.05471835 0.10518287 0.110646605 -0.059004582
0.017032728 0.09986183 -0.05683038 0.007115901 -0.07940258 -0.0060859118 0.012224041 -0.04529285
0.04793907 0.10193126 -0.08247005 0.067483775 0.02639041 -0.030263927 0.05469551 0.0031203276
-0.037255038 0.019147178 0.033100836 0.080518655 -0.0032481514 0.011923103 0.06306662 -0.12659937
0.028863965 -0.023802701 -0.06509531 -0.08190226 -0.028312309 0.024188284 -0.05263585 0.09179406
-0.00924777 -0.0406955 0.073063865 -0.02632884 0.0648238 0.09909654 -0.109417476 -0.12402572
0.012161636 0.03843596 -0.01943513 -0.025138896 0.07502672 0.07216212 -0.023778066 -0.089236826
-0.017361725 -0.039254833 -0.056306623 -0.021639332 -0.0047845007 -0.055928722 -0.07515363 -0.04536932
0.008324777 -0.051833034 -0.067225665 -0.08670654 -0.052259214 -0.08571261 -0.038028985 0.107393906
-0.007641309 0.025400478 -0.067855336 0.09654829 -0.041941673 -0.06339208 -0.08403844 -0.024714699
-0.11469182 0.0067146965 0.095951684 -0.071777634 -0.08774239 -0.06855339 -0.10372718 -0.14916198
0.006823849 -0.1529279 -0.08996763 -0.14177594 -0.009587552 -0.06953944 -0.07968576 -0.1207639
-0.0024468803 0.04178374 0.0033901022 -0.10868307 -0.137625 0.03467655 -0.09727698 -0.07019359
-0.0064714593 0.0027411222 -0.047867026 -0.101292394 -0.055975102 -0.14544724 -0.081273764 -0.07033494
-0.081721835 -0.03486241 -0.1323637 -0.12816784 -0.029184261 0.034970112 0.042595156 0.0029076822
-0.046800267 0.08413824 -0.15316212 0.00401681 0.026188815 0.061740633 -0.018450791 -0.11175101
-0.010969379 -0.08324148 0.054767165 -0.05330915 -0.13054854 0.05997644 0.021147659 0.0021638745
-0.05773125 -0.1623276 0.03588556 0.036104053 -0.10406643 -0.042424753 -0.116359405 -0.11006434
-0.11726645 -0.14952654 -0.15814734 0.030401044 -0.055598967 -0.021704853 0.02110936 0.09080231
-0.13857913 -0.09469284 0.07796636 -0.05798436 -0.098865144 0.12883443 -0.09645326 -0.021568872
-0.041008025 -0.068357415 -0.08436944 -0.07116627 -0.057056043 -0.073815644 -0.064188376 -0.08507262
-0.07564788 0.11780531 0.09981108 0.03604697 0.025153857 -0.024287531 -0.032054625 -0.08494441
0.105648495 -0.09827378 0.029755386 0.0586532 -0.07349848 0.029709652 -0.05453276 0.08752449
-0.07176884 -0.11208109 0.09089164 -0.04021677 -0.05146245 0.026360348 -0.0629931 0.077125534
0.093870156 0.08862988 0.03964067 -0.10123404 -0.011130311 -0.06637387 0.07517433 0.06436294
-0.070305176 -0.023319839 -0.059330884 0.03709674 0.0752953 -0.03549673 -0.056790642 -0.11687191
-0.08332644 0.120397024 0.048927907 -0.031880263 -0.12271768 0.028303254 0.08294056 0.13003334

rnn.weight_hh_l0 f4 [300, 100]
00000000: cb40 123d ece3 ebbd 3f07 553d f434 c7bd
00000010: 45b5 b53d ad3c 393c 34cf 86bd 7bc2 193d
00000020: e542 b43b 4a11 733c 7cf9 25bd 1d6c af3d
00000030: 9b2b 0e3d 4e88 99bd 6c51 dcbd 2583 9dbd
00000040: 4172 b53d cfd8 9b3c cca3 663d c13a 2cbb
00000050: 27fe 59bc 36ab 473d 8d59 eebd 6777 e33d
00000060: c81c 91bd 86bd 913c b570 2b3d ce46 f1bd
00000070: 9f40 733d 8fc3 ba3d 23be 80bb 761c f83d
00000080: 24e8 e33d e51b dbbc ad10 d7bd 15fd 843d
00000090: 169f e63d 4f99 d2bd 2a83 8d3c 4918 76bd
000000a0: 27ea 0fbd ffa3 cd3c 2939 cdbd 57ff f5bc
000000b0: 25d9 823d 4328 80bd e3ae 34bd 564d a2bd
000000c0: 7a0f 71ba 649f 89bd a62d 7dbd 8fba 45bd
000000d0: c463 bdbd ddf4 243d 6fa3 bfbc 2505 d7bc
000000e0: 80fe 33bd 4f2d ba3c 0397 6abd 923f 97bd
000000f0: 9846 ba3d 434d ad3c d6e8 0fbd 1e3c 513d
00000100: 6bef b0bd d500 483d 970a bdbb 0220 cdbc
00000110: 4497 ec3d e593 f3bd 5829 34bc 7c88 e5bd
00000120: e274 123d f102 573b af7e 8f3d 96e4 91bd
00000130: 82b1 b3bd 9c3a afbd d674 5dbd e78e 02be
00000140: 8abc 983d cb8f 353c d49d 643d 9118 54bd
00000150: 2639 b03c 4ac1 93ba 59e9 06bd ec20 9bbd
00000160: 1b7a a839 cd01 e0bd b5fd 26bd 2db5 093d
00000170: b709 5abd 8e39 45bc 5a24 673d df36 333d
00000180: 572b 7a3d 9ddb 003d eb25 143c a7bf f73d
00000190: d020 c9ba abf4 71bd cde4 a63d b4ef 963d
000001a0: 5478 84bd c3ef d0bb 0793 5e3d 81e1 ac3b
000001b0: 4d9d 843d d503 293d 9d46 693d a31d 823d
000001c0: c48c aebd 9f2a ec3c 61ec b23d 2f02 d23c
000001d0: 2a9a 873b 0e71 b6bd fbb5 24bd 2cc2 893d
000001e0: 6437 093d f751 4c3d 7cbb c0bd c699 a23d
000001f0: 79eb c9bd 4c17 aebc df7b e13d dead 363d
00000200: 96f6 60bc 9bdd e1bc 3c54 283d 7b7e 2a3b
00000210: 1ad5 993d f60b 983c 7089 033d f345 a3bd
00000220: 06b0 96bd c95f 97bd 4425 06bd 7428 3d3d
00000230: d92b 4fbd 5366 dcbd f7d9 afbc d017 36bd
00000240: 84f6 933c 3c44 473c d6a4 823d 53c7 a3bd
00000250: 7231 853d ac73 a8bd b8eb c73d d191 9dbd
00000260: a80d bdba 44a0 35bd ae31 cebc ae21 ad3c
00000270: 0cab 30bb 9f8a de3d 1612 70bd a838 7a3d
00000280: 442b e6bc 7d65 2fbd f6e9 91bd d3f7 2b3d
00000290: a604 d9bd c044 c7bb b854 53bd ff0b 8fbd
000002a0: 60e4 823d 8b93 c53c 3dfd c13c 884d d9bd
000002b0: f104 05bd d920 7cbd cc55 4d3d ec60 afbd
000002c0: 2f22 7f3d a8b5 c63c 7f26 363d 08ab 47bd
000002d0: 544f cdbd 408c 923c d60b 22bc 3313 953d
000002e0: 0646 163c 232f bd3c 1141 5b3d c56e 8a3d
000002f0: 0cea 283d 0cce 1d3b 00ac cdbd ae14 38bd
00000300: 9506 9dbd 8458 a6bd d5bd 843d dd7c a93d
00000310: 1358 9c3c 301b dd3d 8846 5fbd a86d 1f3d
00000320: 43d8 4e3c b548 933c 6290 7d3d 90d1 8cbd
00000330: d5e3 a2bc 3aee 973c 7a4d a63c a646 303d
00000340: d11d 703d 67b4 bd3d e318 66bb bebb b1bb
00000350: dc84 053c 1311 29bc 69c2 91bc b3d2 25bd
00000360: efb8 35bc 362a d3ba 4d09 cd3d a756 b13d
00000370: 8aec 9a3d 2b8f a3bd b386 cf3d fe1c ed3c
00000380: b018 153c 939c d7bc 9c5b e6bc 85f9 403d
00000390: 91f0 03bd bad0 79bc 101e 0a3d 56e3 f73c
000003a0: 4bf2 343b 7e79 f73c abc4 0bbd 17f6 8a3d
000003b0: 4fbe a73d 8cd5 a13c 1336 b63c 051b a23d
000003c0: d85b 013c a96e 02bd 863a 163d af63 a1bd
000003d0: 0ce1 793d 75c8 3fbd a7dc 263d e0a9 30bd
000003e0: 24b3 a1bd 1b30 e13d c70e 393b bd9f 5c3d
000003f0: b9a1 42bb f3c9 b83d 3b7b c9bd 686d 32bd
0.035706323 -0.11518082 0.052008864 -0.09726897 0.08872465 0.01130597 -0.065824896 0.037538987
0.0055011385 0.014835665 -0.04052113 0.08565543 0.034709554 -0.07496701 -0.107577175 -0.076910295
0.08859683 0.01902428 0.056308553 -0.0026280137 -0.013305224 0.048747264 -0.11638174 0.111067586
-0.07085568 0.017790567 0.041855533 -0.11781083 0.0593878 0.09119331 -0.003928916 0.121148035
0.11128262 -0.0267467 -0.105012275 0.06493584 0.11260812 -0.102831475 0.017274458 -0.060081754
-0.035135414 0.025102613 -0.10020668 -0.030028982 0.06389073 -0.06257679 -0.044112097 -0.07924907
-0.00091957266 -0.067198545 -0.061811112 -0.04827362 -0.092475444 0.040272582 -0.02339336 -0.02624757
-0.043943882 0.022726683 -0.057272922 -0.07385172 0.09095496 0.021155005 -0.03513416 0.051082723
-0.08639415 0.04882892 -0.0057690847 -0.025039677 0.11552289 -0.11893443 -0.010996185 -0.11207673
0.035756 0.003280815 0.07006585 -0.071236774 -0.08774091 -0.08556101 -0.0540665 -0.12749825
0.07457836 0.011081646 0.05581458 -0.05178124 0.021511625 -0.0011272815 -0.03293738 -0.07574639
0.00032134433 -0.109378435 -0.040769298 0.03362005 -0.05323192 -0.012037648 0.056431152 0.0437535
0.06107649 0.03145944 0.0090422435 0.12097102 -0.0015344862 -0.059071224 0.08149109 0.073699385
-0.06468263 -0.006376238 0.054339435 0.0052759056 0.06475315 0.04126342 0.056952108 0.06353309
-0.08522943 0.028828917 0.08736492 0.025635807 0.004138251 -0.08908282 -0.040212613 0.067264885
0.03350009 0.049882855 -0.0941076 0.07939486 -0.09859366 -0.021251343 0.11009955 0.044599406
-0.013730666 -0.02757149 0.041095957 0.002601533 0.07511349 0.01856039 0.032113492 -0.07972326
-0.073577926 -0.073913164 -0.032750383 0.046181157 -0.050578926 -0.10761704 -0.021466238 -0.044456303
0.018061884 0.012162264 0.06379096 -0.079970025 0.065035716 -0.08225188 0.09761757 -0.07693828
-0.0014423626 -0.044342294 -0.025170173 0.021134224 -0.002695742 0.108662836 -0.058610998 0.061089188
-0.028096803 -0.042821396 -0.07124703 0.04198439 -0.1059659 -0.0060811937 -0.051594466 -0.0698471
0.06391215 0.024118206 0.023680324 -0.10610491 -0.032475416 -0.061554763 0.05013065 -0.08563408
0.06228846 0.024256542 0.044470306 -0.048747092 -0.10024896 0.017889142 -0.009890517 0.072790526
0.009171968 0.023093766 0.05352885 0.06759409 0.04123883 0.0024079112 -0.10042572 -0.044941597
-0.07667271 -0.08122352 0.0648152 0.08275769 0.019084966 0.10796201 -0.054510623 0.038922936
0.012624803 0.017979005 0.061905272 -0.068759084 -0.01988403 0.018546212 0.020300616 0.043036126
0.058622185 0.09262925 -0.0035110048 -0.005423992 0.008149352 -0.010319012 -0.017792897 -0.04048414
-0.011091455 -0.0016110602 0.100115396 0.08659106 0.075646475 -0.079862915 0.10133114 0.028944489
0.009100124 -0.026319778 -0.028119855 0.04711296 -0.032211844 -0.015247518 0.033720076 0.03025977
0.0027610238 0.0302093 -0.034123104 0.06785219 0.08190595 0.019755147 0.022242581 0.0791531
0.007895432 -0.031843815 0.036676906 -0.07880341 0.061005637 -0.04682203 0.040737774 -0.043130755
-0.078954965 0.109955035 0.0028237568 0.053863276 -0.0029698445 0.09022894 -0.098379575 -0.04356137

rnn.bias_ih_l0 f4 [300]
00000000: 23f3 d93d 22a6 99bd d6c9 9bbd e9a5 cc3d
00000010: 5a89 983d f534 98bd c112 f53c e845 c93c
00000020: 7ec8 e9bc 744c ac3d eaef b2bd f6b0 14bd
00000030: 8b36 743a c714 923c a45c bfba a25e c13d
00000040: dd7c dc3c 2b4d 2c3d 7a50 483d a033 0ebc
00000050: ff55 84bc deef d53d f369 77bd 97d6 16bd
00000060: 13b4 de3d d61a cabd 00d3 a53c f20b a2bd
00000070: d448 953d 5021 113d 4c72 373d a4f5 183d
00000080: ea2e e73d 7137 c03d 51ce 4e3c f9e0 963d
00000090: e7fe f9bc f840 5ebd 72d2 f73d 83c4 1ebd
000000a0: 4f93 59bd fad1 ecbc 549a 85bd cfa3 d03d
000000b0: 1bb9 1dbd da4b c1bc f712 a23d c6f7 79bc
000000c0: 141a c8bb f4cb 803d fc04 8c3d 77bb 54bd
000000d0: dade 93bc f402 7f3d 8857 b5bd e28b 1a3d
000000e0: 1b38 4abd 6e7a 5cbd 6dd8 a93d 7ecc cc3d
000000f0: d62c a8bd 74f5 5abd fa8d 02bd dace d73d
00000100: f98b 7cbd 66bf a6bd 8989 aebc 3c5e 26bd
00000110: c2ba 8c3d dc35 c13d 7676 953d c893 0a3d
00000120: d6e3 963c 14ad a63c 5907 763d cf67 e33d
00000130: 463a f7bc 37e4 703d d922 03bc 390b e6bc
00000140: fcdf 9c3d de38 c8bc c186 26bd 071b 1bbb
00000150: da14 9cbc 08dd ba3c f673 a4bd 58d5 cc3d
00000160: 26fb 47bd a23e a83d 216d e93d 7cf6 943d
00000170: 3c78 bdbd 2dfd ad3d ee43 653d 16a9 9e3d
00000180: 714d 733d 58bd bbbd de43 833d aec1 15bd
00000190: e198 2c3d 6fce 3dbd 4de1 e3bd db2b 23be
000001a0: e3ba 80bd daa5 2ebe 23e8 33bd bbac 11bd
000001b0: a96e 46bc 897b 30be 4b79 dbbd a2a1 183d
000001c0: 7c4e 65bd e025 19be 9fc2 20bd 6150 533d
000001d0: 6a22 3bbd a28f 1bbe 68dd 65bd 9d46 21be
000001e0: 1b8a e6bd 993e bcbc aad0 c73c b88e fbbd
000001f0: d462 22be 54b2 d1bd 6ae3 d9bb 8cd3 17bd
00000200: cc40 81bd 5043 2bbe 5865 24bd fae7 c7bd
00000210: 4dfd fcbd 6b39 90bc 2209 07be 495a b3bd
00000220: 48fc 99bc 71a7 d73d 43db a13d ee5e a7bd
00000230: 4e9d b0bc 617f 713d bd1f b23c c5da bb3b
00000240: acf2 08bb d2b0 febd c174 1f3d a5dd cebd
00000250: f22a d03c aef1 cebb 680d 24bd 0709 9fbd
00000260: 513d 1abe 9b79 d2bd 9d03 293b ca0c 93bb
00000270: e801 1fbe e886 44bd 61cf eebd 2226 11be
00000280: 48c7 95bd 9867 90bd 4add 12bd d53f fd3b
00000290: 2209 02be cfe6 d4bd 15f8 94bb 02b5 f6bd
000002a0: 5805 4439 7d87 49bd b271 9eba ebb0 eebc
000002b0: 8eff 42be 2ea2 a9bd 2206 82bb fbd4 d9bc
000002c0: bcba c83d f243 f6bd 30d2 d8bd a74d c73d
000002d0: 6a7c ebbb d5ae 27be 618b 95bd 6719 593b
000002e0: cdbc e3bd f754 c0bd cdf2 32be 4684 2cbe
000002f0: 9b6d 3b3c b6a7 c3bc 26a4 9bbc f8b3 a43d
00000300: a379 1bbe 3ba1 2abe 82dc 44bd ba1b 6a3c
00000310: 3731 2cbd 0ffe 003e 2cf0 b3bb 5479 cc3d
00000320: 4555 46bc 025d c33c b830 5ebb 6113 d43c
00000330: a66c d53d e2d0 2e3d 1e0e d33d 0681 a5bd
00000340: 179b 8ebd e7d1 33bd 6f39 ecbc 6fb2 183c
00000350: d236 d6bd 052f 41bd 11e4 11bd 744a 9cbc
00000360: e93f bcbd 5639 86bc 5c34 d6bd 207a 833d
00000370: c78a 1d3d 5e30 303d 276b b93c 2090 973c
00000380: 76a6 f23c ac21 843c e891 e7bc a3b5 913c
00000390: e2b1 1b3d e4b8 7cbd 363f 8ebc 5255 913d
000003a0: 7244 943c 962e 08bd b9b5 973c dd0f ef3d
000003b0: 8502 493d c435 babc 196f 52bd be04 7ebc
000003c0: 8a37 933d 41d1 5cbc 38ae 7fbd df92 0a3d
000003d0: 5d9f 9d3d 28dd 87bd 5021 ac3d 71b1 07bb
000003e0: d5b1 a5bc 087a 9abd 2aab 8a3d 3702 973d
000003f0: 5599 6dbd f5cc 97bd e20b 1a3d 7af8 9e3d
0.10642078 -0.075023904 -0.076068565 0.09992582 0.07448073 -0.07431976 0.02991617 0.024569467
-0.028537985 0.0841302 -0.08737166 -0.036301576 0.0009315989 0.017832173 -0.0014599753 0.09441878
0.026915008 0.04206578 0.048904873 -0.008679301 -0.016154287 0.10446142 -0.060403775 -0.036825743
0.1087419 -0.098684 0.020242214 -0.07912435 0.072892815 0.03543216 0.044786736 0.037343636
0.11288245 0.093855746 0.012622432 0.07367129 -0.030517055 -0.054261178 0.12100686 -0.038761627
-0.053119 -0.028908718 -0.065235764 0.10187494 -0.03850661 -0.02359574 0.079137735 -0.015256828
-0.0061066244 0.06288901 0.06836888 -0.051936593 -0.0180506 0.062258676 -0.08854586 0.03773106
-0.049369913 -0.053827696 0.08293233 0.09999941 -0.08211677 -0.05345674 -0.03187368 0.10537501
-0.061656926 -0.08141975 -0.021305816 -0.040617213 0.06871559 0.09434101 0.07297985 0.03383234
0.018419188 0.020346202 0.0600656 0.11103784 -0.030179154 0.058811393 -0.008003914 -0.028081523
0.07659909 -0.024441179 -0.040655855 -0.0023667233 -0.019052912 0.022810474 -0.0802993 0.100016296
-0.0488235 0.08215071 0.11397768 0.07273576 -0.092514485 0.08495555 0.055972986 0.07747094
0.059400026 -0.09166974 0.06409429 -0.03656166 0.042137984 -0.04633945 -0.11126957 -0.15934698
-0.06285646 -0.17055455 -0.043922555 -0.03556512 -0.012111344 -0.17234625 -0.10716494 0.03726352
-0.05598305 -0.14955854 -0.039248105 0.051590327 -0.045687117 -0.1519151 -0.056119353 -0.15749593
-0.1125681 -0.022979068 0.024391491 -0.12283081 -0.15858012 -0.102390915 -0.0066494243 -0.03706698
-0.06311187 -0.16724896 -0.04013571 -0.09761043 -0.12353001 -0.017605504 -0.13187078 -0.08757455
-0.018797055 0.10529984 0.07903149 -0.08172403 -0.021559384 0.05895937 0.02174365 0.0057328665
-0.0020896597 -0.124360695 0.038929705 -0.10100869 0.025411103 -0.0063154316 -0.040051848 -0.07765394
-0.15062453 -0.10277101 0.0025789507 -0.0044876086 -0.15528071 -0.04798022 -0.11660648 -0.14174703
-0.073134005 -0.07051009 -0.03585557 0.0077285566 -0.12698796 -0.10395586 -0.0045461752 -0.12046243
0.00018694007 -0.049201477 -0.0012088327 -0.029137095 -0.19042799 -0.082828864 -0.0039680162 -0.026590815
0.09801242 -0.12024678 -0.10586965 0.09731608 -0.007186462 -0.16375287 -0.07301975 0.0033126713
-0.11119995 -0.09391206 -0.17475434 -0.16847333 0.011439706 -0.023883682 -0.01899917 0.08042139
-0.1518312 -0.16663067 -0.048061855 0.014288837 -0.042039122 0.12596916 -0.005491277 0.09984079
-0.012105291 0.02384806 -0.003390355 0.025888147 0.10421114 0.042679675 0.10305427 -0.0808125
-0.06963175 -0.04390135 -0.02883598 0.009319886 -0.10459675 -0.047163982 -0.03561789 -0.01907847
-0.091918774 -0.016384762 -0.104592055 0.06419778 0.038462427 0.043014877 0.022634102 0.018501341
0.02962039 0.016129337 -0.028267816 0.017786806 0.03801144 -0.061699763 -0.017364126 0.07096352
0.018099044 -0.033247553 0.01851927 0.116729476 0.04907467 -0.022730716 -0.051375482 -0.01550406
0.071883276 -0.013477624 -0.062422007 0.033831473 0.07696412 -0.06633979 0.08404791 -0.0020705129
-0.020226398 -0.07542807 0.06770928 0.07373469 -0.058007557 -0.07412139 0.03760899 0.07762237

rnn.bias_hh_l0 f4 [300]
00000000: 8432 47bd 3cae c23d b120 a03d 6477 b23c
00000010: 56d4 6e3c 2231 9dbd 1f4f 883d 5169 c13d
00000020: c00d a33c b35d 8abd 5885 7c3d bbe8 ea3c
00000030: 45a4 8dbc f029 78bd d358 dcbc b6f2 1ebd
00000040: aa54 90bc abe8 713d 34f3 3fbd 8e19 a0bb
00000050: d1fc 75bd bf58 c83d 5ac3 903d 24ca fa3c
00000060: 2775 96bd c601 6d3d 0b55 d0bc fb92 633c
00000070: d1e2 9abc c914 ad3d 8847 183c 5f7d eb3d
00000080: 0b8d be3d b76b c23a 6798 62bd 8c75 86bd
00000090: 8961 dabc d461 eb3d 7d79 fc3c fac1 a2bd
000000a0: db18 b7bd 67ec a13d 4841 85bc ce51 d8bc
000000b0: b975 cf3d 8d65 043b 5d8c 1fbd 92a4 65bd
000000c0: 3df9 66bd 0918 e73c f61e 87bd cfdc 893c
000000d0: 0e34 5abc 05f3 ccbb 7063 acbd 71b9 5cbd
000000e0: 7139 d7bb 3667 68bd bd19 8dbd 5f16 a3bc
000000f0: 6adc b13c d4d8 053d 5559 983b 9d1a 3ebd
00000100: 3577 d43d ae42 a2bd 889f 3db9 1969 c63d
00000110: d9a2 833d 3eff 343d c52c b8bd 48c4 95bd
00000120: 736d 663d 4c1c 03bd a1df cfbd 4f7b bf3d
00000130: abe3 353d 9496 5b3d 0fd3 a1bd 58b2 31bd
00000140: 23bf 913d bda2 c73d 370c 843d 8e3d 8bbc
00000150: 8cfd 593d 2d4f 95bc 3c94 9d3d e125 873d
00000160: 0ad5 b83d afc9 a73d 3ce8 4dbd bdc6 8dbd
00000170: d2e8 e9bd b478 dc3c 55f9 f63d af15 b8bd
00000180: e9f5 9b3d 1874 a1bd 9596 923d 5a4c 8f3c
00000190: 70f8 90bd 6d54 dc3b 71f3 e5bd 8ccb 62bd
000001a0: 7c90 1ebd 9b3e 84bd 9fbf 873c a43c 4ebd
000001b0: f97d 5a3b 278b 01bd ba4e 0abe d3bf db3c
000001c0: a48e b3bd e37a 5bbc 19eb 6cbc 352d 143d
000001d0: 7376 04be dce5 1abe 8ccd 04be 8084 a3bd
000001e0: 472a 1abe ad3a f0bd 372a 783d 9e20 1cbe
000001f0: 334a 42bb e5be 0ebe 05a0 9ebc a780 cabd
00000200: d7d6 19bc 0d3f cabb c0d1 15bd bcce e7bd
00000210: 7dc6 dabd 3cf1 aebc 31e2 17bd 8800 47be
00000220: ee05 e9bd 217c d6bc c1dd 9d3d 218e 843d
00000230: e588 a8bd 7754 673d 2176 653d 14db 8d3d
00000240: f6e6 07be b672 8ebc 40e3 9c3d e62e aebc
00000250: 22c9 debb f0f0 2dbe 7a19 ddbd 1cee 8bbd
00000260: e605 2dbe df15 6bbd acd6 d5bd 0fe0 34be
00000270: ef1f dfbd 26d9 3abe 2554 8fbd e77f 34be
00000280: 1726 1cbd 8db7 70bd 1303 e0bd 30b2 34be
00000290: 4332 1dbe ad26 543c 62ff 5bbd 91f9 ffbd
000002a0: efd6 2dbe d8ca a1bd 1631 99bd 8a01 0bbe
000002b0: 3d4b 17bd b818 36bc 15d8 b7bc bd9c 1f3d
000002c0: 3a11 9d3d f837 11bc aedc 00be 11a9 c5bc
000002d0: 94a2 b3bd c2a6 48bd 8c57 81bc 4252 c7bd
000002e0: ca3f b5bd e16a 2cbe 819c af3b 37c8 0abe
000002f0: be1e 643d dcb7 80bb 00ac b8bc 0de8 6bbd
00000300: 3626 c2bd 7627 d5bd c6ec e7bd c594 c53b
00000310: 39a0 f8bc 8a21 83bc 0670 99bd 88b6 a83c
00000320: f696 b23d 1641 79bc 30fc 073d 40d8 883c
00000330: 14b0 b4bb d20e 923d ad7b 0b3d 80ce 1fbc
00000340: e674 5e3c 557f 8dbd ae1a 083d 5e84 193d
00000350: 0603 0abd 4957 fa3d 6584 5d3d f66e 4f3c
00000360: 6b6c e13d bbe1 8dbc 33f2 bfbd 22d8 a13c
00000370: 0abe 38bd 7f10 eebd 53d5 3dbd 4e29 d8bd
00000380: 9546 383c 4453 5fbd 0669 7a3d 86a3 a23c
00000390: 300c 0b3d d45e 813d ee62 6fbd 117d 143d
000003a0: d711 b1bd 453c a6bd 8801 bfbd d62c 91bd
000003b0: e6e0 86bc 2e63 1fbc 17ce f53b c5d7 90bc
000003c0: 1332 93bd 9bea b4bd 0c17 bebd 185c 5f3d
000003d0: ee5b 443c 4f92 b9bd c4f0 693d a5b8 923c
000003e0: bc72 0a3d c411 c83c 4a22 88bd d757 6fbd
000003f0: a1e3 d93d ee06 28bd 294d 3a3c e4f9 043d
-0.04863216 0.09505889 0.078187354 0.021785446 0.014576992 -0.07675387 0.06655716 0.09443916
0.019904017 -0.06756153 0.061650604 0.028675428 -0.017290244 -0.06058687 -0.026897823 -0.038805686
-0.017618496 0.05905978 -0.046862796 -0.004885859 -0.060055558 0.09782552 0.0706851 0.030613966
-0.07346564 0.05786302 -0.025431177 0.013890023 -0.018906983 0.0845123 0.009294398 0.11498522
0.093042456 0.0014833127 -0.055321123 -0.06565389 -0.026657837 0.114932686 0.030819649 -0.07947154
-0.08940288 0.07906418 -0.01626648 -0.026406195 0.10129876 0.002020213 -0.03895222 -0.05606515
-0.056390036 0.028209703 -0.06597702 0.016828923 -0.013318075 -0.006254556 -0.08417404 -0.05388779
-0.006568127 -0.056739055 -0.06889675 -0.019908128 0.021711547 0.032677487 0.004649321 -0.0464121
0.103742994 -0.079228744 -0.00018083875 0.096880145 0.06427545 0.04418873 -0.08992914 -0.07312828
0.056256723 -0.032009408 -0.10150076 0.09349691 0.044406574 0.0536104 -0.07901584 -0.043382972
0.071165346 0.09747837 0.06447642 -0.016997125 0.053220317 -0.01822623 0.07694289 0.06599022
0.09025009 0.08192765 -0.050270304 -0.06922672 -0.1142136 0.026913024 0.12059275 -0.08988511
0.07615263 -0.07883471 0.071576275 0.017492462 -0.07078636 0.0067239315 -0.112280734 -0.0553699
-0.03871201 -0.064572535 0.016570864 -0.0503508 0.0033339246 -0.031626847 -0.13506594 0.026824867
-0.08767441 -0.013395998 -0.0144603485 0.036175925 -0.1293581 -0.15126747 -0.12969035 -0.07984257
-0.1505519 -0.117299415 0.060587134 -0.15246817 -0.0029646277 -0.13940008 -0.019363413 -0.0988782
-0.009389601 -0.006172067 -0.036576986 -0.11318728 -0.1068239 -0.021355264 -0.037080947 -0.19433796
-0.11378084 -0.026182236 0.07708312 0.064724214 -0.082292356 0.056477036 0.05602086 0.069265515
-0.13271698 -0.017388683 0.07660532 -0.021262597 -0.0067988792 -0.16986442 -0.10795875 -0.06832525
-0.16896781 -0.057393905 -0.10441336 -0.17663597 -0.10894763 -0.18246898 -0.06998471 -0.17626916
-0.038122263 -0.058768798 -0.10938086 -0.17646098 -0.15351205 0.012948674 -0.05371035 -0.12498773
-0.16976522 -0.079000175 -0.074800655 -0.13574806 -0.036936987 -0.011114292 -0.022441903 0.038967837
0.07669301 -0.008863442 -0.12584183 -0.024128469 -0.08771244 -0.048987158 -0.015788816 -0.09732486
-0.088500574 -0.16837646 0.005359233 -0.13552938 0.05569338 -0.0039281677 -0.022542953 -0.057594348
-0.094799444 -0.10407917 -0.11324458 0.0060296976 -0.030349838 -0.016007204 -0.0749207 0.02059485
0.087202 -0.015213272 0.03319949 0.016704679 -0.005514154 0.07131733 0.034053493 -0.009753823
0.013577675 -0.06909052 0.03322857 0.03747975 -0.03369429 0.122236796 0.05408134 0.0126607325
0.11007007 -0.01731955 -0.09372368 0.01975638 -0.04510311 -0.1162424 -0.04634602 -0.10554753
0.011247297 -0.054522768 0.061135314 0.019853365 0.03394717 0.06316915 -0.058443956 0.036252085
-0.08645981 -0.08116964 -0.09326464 -0.0708863 -0.016464662 -0.009728236 0.0075013745 -0.017681012
-0.07187285 -0.0883381 -0.092817396 0.054531187 0.011984808 -0.09061109 0.057114378 0.017910311
0.033800825 0.024422534 -0.06647165 -0.05843338 0.1063912 -0.041022234 0.0113709355 0.032464877

linear.weight f4 [1, 100]
00000000: f205 5c3d cddf 66bd 0fcb 8f3c ba6a 3bbd
00000010: 77d0 313d 3f8c d8bd 9ea7 203d a716 fb3a
00000020: 8dc9 afbd fcae 913d 11b0 a43d 04d5 95bd
00000030: ef3f 9a3d 623b 89bd 85d0 973d 3ec2 273d
00000040: 0d7f 5b3d d59a da3b d239 df3a 3403 433d
00000050: ade2 15bd 1eaf 903d 06d4 2d3d f569 9a3c
00000060: 70b9 92bd 8ee8 e6bd b6a7 bd3d 8bc5 a6bd
00000070: 0bcb 03be 7323 ce3d f4c1 053d 3a2d ac3d
00000080: cfd8 853d a648 b83d fc83 6a39 82bb cebd
00000090: 0cf9 203d 5d75 203d 9cef 81bd 984c a3bc
000000a0: a417 f2bd d958 053c 9040 5b3c 4de8 70bd
000000b0: 6d12 ac3d 5b6e 5bbc 4e9d 913d 0a1f 74bd
000000c0: 60ac a038 0daa 823c f6f3 c43d cfe2 643d
000000d0: 2ba1 aabd 5319 343d 5238 713d 5ce4 9f3d
000000e0: 7c5a 3cbc 9989 41bd 2368 743d e8c3 9ebd
000000f0: 3af1 bb3d 3e64 413d b024 f7bd 2798 f03d
00000100: 8d6e b5bb 27c2 93bc 2781 0e3d 713b c9bc
00000110: 9936 e83d 996f 96bd b6b2 61bd 7caf 80bd
00000120: dcd2 cfbd b8b9 0f3d c0af 46bd ab59 babd
00000130: 0be4 7f3d 10e4 7ebd 5092 8fbc e56d 0abd
00000140: 368d dbbd 4245 f1bd 9c05 1fbd 3244 a6bd
00000150: e6b9 cd3d 56d1 913d de5e c6bd 4422 973d
00000160: d2c2 7f3d f172 8aba e637 26bd e1aa 18bb
00000170: 5a9d 9cbd ad58 04be 0b16 663d af14 a6bc
00000180: 4fea 98bd c09d 37bd 370f d0bd f710 8cbd
0.053716607 -0.056365777 0.01755288 -0.04575608 0.0434117 -0.10573625 0.039222352 0.0019156531
-0.08583365 0.07113454 0.080413945 -0.0731602 0.075317256 -0.067007795 0.07412819 0.04095673
0.053587962 0.0066712894 0.0017030782 0.047610477 -0.036593128 0.07064651 0.04243853 0.018849352
-0.07164276 -0.11274825 0.09260504 -0.08143147 -0.12870423 0.10065355 0.03265567 0.08407064
0.065354936 0.089982316 0.00022365147 -0.10094358 0.03930001 0.039174426 -0.0634453 -0.019933984
-0.11820915 0.008138859 0.013382092 -0.05881529 0.08401952 -0.01339301 0.071100816 -0.059599914
7.661502e-05 0.015950227 0.09616844 0.055880364 -0.083315216 0.043969464 0.0588916 0.07807228
-0.0114961825 -0.047250364 0.059669625 -0.0775221 0.0917687 0.04721474 -0.120675445 0.11747771
-0.0055368603 -0.018036915 0.034791138 -0.024564477 0.11338539 -0.07345504 -0.055102073 -0.06283471
-0.1014764 0.035089225 -0.048507452 -0.09099134 0.062473338 -0.062229216 -0.017525822 -0.03379621
-0.10720293 -0.11780788 -0.03882371 -0.08118476 0.10045223 0.07120006 -0.09686063 0.073795825
0.062441655 -0.001056282 -0.040580653 -0.002329521 -0.076472 -0.12924452 0.056173366 -0.020273535
-0.07466566 -0.044828176 -0.10159152 -0.06839173
