backend/trained_models/NIMB_GRU_model_state_dict.pth (torch, 126723 bytes, 5 tensors)

rnn.weight_ih_l0 f4 [300, 1]
0	0x3bb5cecc	0.0055483337
1	0x3d3f6e8b	0.04673628
2	0xbd5f09f2	-0.054452844
3	0xbd12394d	-0.035699178
4	0x3ba4176f	0.0050076763
5	0x3dabc84b	0.08387812
6	0x3ddb4ed1	0.107083924
7	0xbdc00ac8	-0.09377056
8	0x3ca5f59d	0.02025872
9	0xbc54dadd	-0.012991634
10	0xbcae738c	-0.021295331
11	0x3c6aea53	0.014338094
12	0xbdf21213	-0.11819854
13	0xbc94d656	-0.01816861
14	0x3d9644a6	0.073373124
15	0xbd4a470f	-0.049384173
16	0x3bfd969e	0.0077389022
17	0x3d2ab912	0.041680403
18	0x3d9af524	0.07566288
19	0x3bf45331	0.0074562063
20	0x3c6252d6	0.013813695
21	0xbce1a0a0	-0.027542412
22	0xbd412b04	-0.047160164
23	0x3b207fd3	0.0024490252
24	0x3de3ea3d	0.11128662
25	0x3c8c3916	0.017117064
26	0x3de0f898	0.109849155
27	0xbd301ddb	-0.042997222
28	0x3cce36ad	0.025172556
29	0x3d2edc9f	0.04269087
30	0xbdfe3377	-0.1241216
31	0x3dc516ff	0.09623527
32	0x3cae7120	0.021294177
33	0x3db3b487	0.08774667
34	0x3db9aca1	0.090661295
35	0x3e0c5314	0.13703567
36	0x3b9cb3c4	0.004782172
37	0x3c3da048	0.011573859
38	0x3dd9887c	0.106217355
39	0x3d27d2bf	0.040972468
40	0xbbac460f	-0.005257375
41	0x3df75ecf	0.1207863
42	0xbcaf3226	-0.021386217
43	0x3dc56195	0.09637753
44	0x3df4f541	0.11960841
45	0xbd8d1c9b	-0.06890222
46	0xbdad8094	-0.0847179
47	0xbc9b8e61	-0.01898879
48	0x3d6fae8e	0.058516078
49	0x3d6e121c	0.05812274
50	0xbd6a0ef0	-0.05714315
51	0x3c69a16c	0.014259677
52	0x3d9fef04	0.078092605
53	0xbdb66a0d	-0.08906946
54	0x3d4fa0a7	0.05069032
55	0xbc459f1c	-0.01206186
56	0x3c0fa1ce	0.008766605
57	0x3c3b1580	0.0114187
58	0xbdad1cd3	-0.084527634
59	0x3d1a5e81	0.037687782
60	0xbddd6039	-0.10809369
61	0x3e040669	0.1289307
62	0xbd70936f	-0.058734354
63	0x3e081a90	0.13291383
64	0x3d95b4ca	0.073098734
65	0x3cd1bf8e	0.025604036
66	0x3dcadad7	0.09905022
67	0x3d7502e7	0.05981722
68	0x3d85aaa0	0.06526685
69	0xbd211030	-0.03932208
70	0xbd97b4fd	-0.07407568
71	0x3de9f2e7	0.11423283
72	0x3de8bd61	0.11364246
73	0xbd07de79	-0.03317115
74	0x3ca1cfb0	0.019752353
75	0x3da5ac90	0.08089554
76	0x3d72022a	0.059084095
77	0x3cf66758	0.030078575
78	0xbcfb8436	-0.030702692
79	0x3c9558c6	0.018230807
80	0xbdc9f73f	-0.098616116
81	0xbcce83bb	-0.025209298
82	0xbd4e718f	-0.050401267
83	0x3d25bf18	0.040465444
84	0x3d2b5c89	0.041836295
85	0x3d8409c6	0.06447177
86	0x3df240d5	0.11828772
87	0x3dc29004	0.09500125
88	0xb9d0aaa8	-0.000398
89	0x3ce12316	0.02748255
90	0x3db29b3b	0.08721014
91	0xbd3f4eaa	-0.04670588
92	0x3dd71f4c	0.10504016
93	0x3bd8377b	0.0065984107
94	0x3dfce582	0.12348463
95	0xbd9b7a43	-0.07591679
96	0xbd2510a5	-0.040299077
97	0x3ba4b71b	0.0050267107
98	0x3d436e87	0.04771283
99	0xbcc72e4a	-0.024314065
100	0xbc1f8dda	-0.00973841
101	0xbd8ee66d	-0.06977544
102	0xbdff20de	-0.12457441
103	0xbd4e5c11	-0.05038077
104	0xbe03258e	-0.12807295
105	0xbcf4ba11	-0.02987388
106	0xbd7af3d1	-0.061267678
107	0xbd34131d	-0.04396354
108	0x3d467cd6	0.048458897
109	0xbe04e17d	-0.12976642
110	0x3dadacad	0.08480201
111	0xbd8852bb	-0.066564046
112	0x3c4c7864	0.012479875
113	0xbde44202	-0.111454025
114	0xbd9faec9	-0.077970095
115	0xbcf080ba	-0.029358257
116	0x3d516d88	0.051129848
117	0x3da9a951	0.08284248
118	0x3c8f5046	0.017494332
119	0xbdc2e3fa	-0.09516139
120	0xbe1f8c96	-0.15580973
121	0xbd06845a	-0.032841064
122	0xbd446114	-0.047944143
123	0xbd657bc5	-0.05602624
124	0xbdc70d20	-0.097193
125	0xbdacfa2c	-0.08446154
126	0xbdf16e14	-0.11788574
127	0xbe002906	-0.12515649
128	0xbd6b8a79	-0.057505105
129	0x3d3e1276	0.046404324
130	0xbd5e9b18	-0.054347128
131	0xbe026a33	-0.12735824
132	0xbe1441f5	-0.14478286
133	0x3d0dcbc6	0.03461816
134	0xbe2cfa6e	-0.16892406
135	0xbd6b8223	-0.057497155
136	0xbd8f0500	-0.069833755
137	0xbe044c16	-0.1291965
138	0xbb5da7d6	-0.0033821962
139	0xbdd03900	-0.10167122
140	0xbde64885	-0.11244301
141	0xbe1a352a	-0.15059343
142	0xbe1de46c	-0.15419167
143	0xbd86aac9	-0.065755434
144	0xbd99fe83	-0.075192474
145	0xba5dcc86	-0.00084609573
146	0x3d737d34	0.059445575
147	0x3c34866e	0.011018379
148	0xbd4b37d6	-0.049613796
149	0x3d27fc42	0.041012056
150	0xbd03d2a1	-0.032183293
151	0x3cb2b325	0.021813938
152	0xbce94651	-0.028475912
153	0xbc7c8890	-0.015413418
154	0xbe10367f	-0.14083289
155	0xbccb67f8	-0.02482985
156	0xbdfdcfa8	-0.12393123
157	0xbe318c0a	-0.17338577
158	0xbd4d37d3	-0.050102066
159	0xbe0e7dac	-0.13915128
160	0xbe0e1005	-0.13873298
161	0xbe1a39fd	-0.15061183
162	0xbe2acb1e	-0.16679046
163	0xbe080da6	-0.13286456
164	0x3dbc5370	0.09195602
165	0xbccc4915	-0.024937192
166	0xbe16001a	-0.14648476
167	0xbdc44779	-0.09583945
168	0x3bb20cee	0.0054336702
169	0xbb8fdaba	-0.004390088
170	0xbda0a3aa	-0.078437164
171	0x3dba0298	0.09082526
172	0xbc81a737	-0.015826805
173	0x3c49f329	0.01232604
174	0x3d22ee83	0.039778244
175	0x3cedaa9e	0.02901202
176	0xbdd77ca3	-0.105218194
177	0xbda59f3d	-0.08087013
178	0xbd4b2a8f	-0.049601134
179	0x3d206b7a	0.039164998
180	0xbbb8faa2	-0.005645112
181	0xbcdc24a3	-0.026872938
182	0xbc201b40	-0.009772122
183	0xbe2a696a	-0.16641775
184	0x3c944249	0.018098013
185	0xbc8f01dc	-0.017456941
186	0xbe1f91b0	-0.15582919
187	0xbdc63cdd	-0.096795775
188	0xbdb702e8	-0.08936101
189	0xbd2c536f	-0.042071756
190	0xbd11ab3c	-0.035563692
191	0xbe2f6e34	-0.17131883
192	0xbde3ce97	-0.11123388
193	0x3dc2b08e	0.095063314
194	0x3cb1d821	0.021709504
195	0xbd21f8ef	-0.039544042
196	0x3d961f28	0.07330161
197	0xbd524f8e	-0.0513454
198	0xbd329cdc	-0.043606624
199	0xbda685a5	-0.081309594
200	0x3dd17b69	0.10228617
201	0xbdeed908	-0.11662489
202	0x3d845668	0.06461793
203	0xbd091257	-0.033464756
204	0xbcf93613	-0.030421292
205	0xbcb0288a	-0.021503706
206	0x3d0ee281	0.03488398
207	0x3cb8e4b1	0.022569986
208	0xbd79e6ef	-0.06101125
209	0xbd5bd7f4	-0.053672746
210	0x3d993783	0.07481291
211	0xbd16d7b5	-0.036826808
212	0xbe0ac277	-0.13550745
213	0x3d962075	0.073304094
214	0xbdfcb72b	-0.12339624
215	0xbda02f88	-0.07821566
216	0xbc03dda7	-0.0080484515
217	0xbd8b6ead	-0.06808219
218	0x3ca42645	0.02003778
219	0xbc033d7c	-0.0080102645
220	0xbd8439ab	-0.06456312
221	0x3d8664f8	0.06562227
222	0xbd8f5f4b	-0.070005976
223	0x3d9c942e	0.076454505
224	0x3dfe15cd	0.12406502
225	0xbd68de79	-0.05685279
226	0xbc8ce962	-0.01720113
227	0x3da949f3	0.08266058
228	0x3c1e4029	0.009658852
229	0xbdb56f36	-0.088591024
230	0xbd79ffb1	-0.061034862
231	0xbd7d03e8	-0.061771303
232	0x3d87531e	0.0660765
233	0xbd8d5a50	-0.06901991
234	0xbdf50a1a	-0.11964817
235	0xbdb477ea	-0.08811934
236	0xbd4fbda0	-0.05071795
237	0x3db426db	0.087964736
238	0xbc239ee0	-0.009986609
239	0xbc0604fa	-0.008179897
240	0x3d801695	0.06254307
241	0xbe08737f	-0.13325308
242	0xbdd05003	-0.10171511
243	0x3d4754d5	0.048664887
244	0xbd39321d	-0.045213807
245	0x3d4ef006	0.050521873
246	0xbd7d1fdb	-0.061797958
247	0xbc7c4ab6	-0.015398672
248	0x3dc74f31	0.097319014
249	0xbbfa5985	-0.007640066
250	0xbdbd5431	-0.09244574
251	0xbb067ec6	-0.002052234
252	0xbdca63ac	-0.09882292
253	0x3e0697f6	0.13143906
254	0xbdaec73b	-0.08534094
255	0xbd81e547	-0.06342559

rnn.weight_hh_l0 f4 [300, 100]
0	0x3d5e5bff	0.054286953
1	0x39920d5e	0.0002785725
2	0x3c15fcef	0.009154542
3	0xbd131458	-0.035908073
4	0x3bbca5c9	0.005757068
5	0x3d38667c	0.04501961
6	0xbc28e073	-0.010307419
7	0xbdf44f18	-0.119291484
8	0x3d1088d4	0.03528674
9	0x3d76fc62	0.060299285
10	0x3d92248d	0.07135878
11	0xbcafd349	-0.021463053
12	0x3def32a3	0.1167958
13	0xbd86ea48	-0.06587654
14	0x3c89ad6c	0.016806327
15	0xbdecb237	-0.11557429
16	0x3ce1a6c1	0.027545335
17	0x3bcc9fa6	0.0062446175
18	0xbbfad697	-0.0076549756
19	0x3da8094e	0.082049
20	0x3d5545c1	0.052068476
21	0x3d191436	0.03737279
22	0x3dcb3a91	0.0992328
23	0xbbf3a882	-0.007435859
24	0x3d8917bb	0.06693979
25	0x3d9b8753	0.075941704
26	0xbdaf69a0	-0.08565068
27	0xbd8df95b	-0.069323264
28	0xbdb41bf1	-0.08794392
29	0x3d55ea3b	0.052225333
30	0x3de9a2d6	0.114080116
31	0x3de43fca	0.11144979
32	0x3c34e2eb	0.01104043
33	0xba76264d	-0.00093898625
34	0x3ca568d7	0.020191593
35	0xbd64f1c8	-0.055894643
36	0x3dfbee2f	0.12301289
37	0x3d87cd81	0.06630994
38	0x3d04e241	0.032442335
39	0xbb853359	-0.004064959
40	0xbde74582	-0.112925544
41	0x3df24339	0.11829228
42	0x3d60d70c	0.054892585
43	0x3d16d760	0.03682649
44	0xbcfdefec	-0.030998193
45	0x3d020a8e	0.031748347
46	0xbd6162ad	-0.055025745
47	0x3d9203f1	0.07129658
48	0xbd19f679	-0.03758857
49	0x3c39eb65	0.011347626
50	0xbc378d85	-0.0112031745
51	0xbcdf46f2	-0.027255509
52	0xbcf07ea5	-0.029357264
53	0xbdc97dcf	-0.09838449
54	0x3c35cb2c	0.011095803
55	0x3d942e34	0.07235375
56	0x3d443343	0.04790045
57	0xbbc54d32	-0.0060211653
58	0x3d8867c6	0.06660418
59	0x3dbb45a4	0.09144142
60	0xbdeabaff	-0.11461448
61	0xbc3f9c1f	-0.011694937
62	0xbcafa089	-0.021438854
63	0x3daf1b0e	0.08550082
64	0x3d5b7bfc	0.053585038
65	0x3d9969ee	0.074909076
66	0x3d7ae048	0.061249048
67	0xbda5b630	-0.0809139
68	0x3de3bbe2	0.1111982
69	0xbc803be5	-0.01565356
70	0xbd01343a	-0.031543948
71	0x3d2819ca	0.04104022
72	0x3b2b06c4	0.0026096562
73	0xbc5687dc	-0.013093915
74	0xbd622f95	-0.05522116
75	0x3df002f6	0.11719315
76	0xbd83f871	-0.06443871
77	0x3d717e6f	0.058958467
78	0x3d1c3143	0.038132917
79	0x3d857180	0.06515789
80	0x3d9aef33	0.07565155
81	0x3dcca48c	0.09992322
82	0xbda8870a	-0.08228882
83	0x3d8bebf6	0.06832115
84	0x3ba99b0c	0.0051759537
85	0xbd979211	-0.07400907
86	0x3d91ece5	0.07125262
87	0xbd8b2a40	-0.06795168
88	0x3c65c42e	0.014023824
89	0x3d5ad827	0.053428795
90	0xbb8669b9	-0.0041019586
91	0x3d22003c	0.039551005
92	0x3c741b8f	0.014899149
93	0xbcc64e32	-0.024207208
94	0xbd4ab3e5	-0.049487967
95	0xbd31acf0	-0.043377817
96	0xbdd3e16b	-0.103457294
97	0x3d77fed9	0.060545776
98	0xbd7030bb	-0.058640223
99	0x3ddf2838	0.10896343
100	0xbd9a6ff8	-0.075408876
101	0x3dfe62ec	0.124212116
102	0xbd10551e	-0.035237424
103	0xbd858995	-0.06520382
104	0x3c4fd326	0.012684619
105	0xbda3ffe7	-0.08007794
106	0xbc99d42a	-0.018777926
107	0x3c0f85a6	0.008759892
108	0xbd14c97f	-0.036324974
109	0x3df3ac19	0.118980594
110	0x3b557d14	0.0032575773
111	0x3dc32d07	0.09530073
112	0xbd1f74ec	-0.038929865
113	0x3d11d5f5	0.035604436
114	0xbc7786ee	-0.015107853
115	0xbc1147d6	-0.008867225
116	0x3d6a2f83	0.057174217
117	0xbc7eed7b	-0.015559549
118	0x3d961554	0.07328287
119	0xbd5d9c97	-0.054104414
120	0xbc1698ff	-0.009191751
121	0x3c9a62eb	0.018845996
122	0xbcf98a85	-0.03046156
123	0x3cf20c62	0.02954692
124	0x3d33f754	0.043937042
125	0xbcf412c0	-0.029794097
126	0x3da1f12a	0.079073265
127	0xbd77b294	-0.06047304
128	0xbc284251	-0.010269717
129	0x3d96a0ff	0.07354926
130	0x3dd2e628	0.10297805
131	0x3de2261a	0.110424235
132	0x3ca4b749	0.020106928
133	0xbc03d329	-0.00804595
134	0x3d269fa3	0.040679585
135	0xbd52d80e	-0.051475577
136	0xbc493dd7	-0.01228281
137	0xbdce37fd	-0.10069273
138	0xbdc38733	-0.095472716
139	0x3cd1ddeb	0.025618514
140	0x3cefd719	0.029277371
141	0x3bcb336e	0.0062011993
142	0x3ca828e6	0.020527314
143	0xbde63564	-0.11240652
144	0xbd857121	-0.06515718
145	0xbd99ae57	-0.07503956
146	0xbd891b34	-0.06694642
147	0xbbefdc7e	-0.007319986
148	0xbdd9ed92	-0.10641016
149	0x3d14c693	0.036322188
150	0xbd7fb731	-0.062430564
151	0x3d90e0af	0.07074105
152	0x3d4bb174	0.04972978
153	0xbc68f09c	-0.014217522
154	0xbd5cd451	-0.05391342
155	0xbd21b4a2	-0.039478905
156	0x3d16dda9	0.036832485
157	0x3c938efe	0.01801252
158	0x3d153a04	0.03643228
159	0x3dfb5eef	0.122739665
160	0x3d45d60e	0.04829984
161	0x3dbfc79f	0.093642466
162	0xbe02dc67	-0.1277939
163	0x3dcd4353	0.10022607
164	0x3d9370e2	0.07199265
165	0x3dab8361	0.08374668
166	0x3ce6730b	0.028131029
167	0x3d0d3e56	0.034483276
168	0x3beb49c4	0.0071804244
169	0xbd4a4d58	-0.049390167
170	0x3d5b1f67	0.053496744
171	0x3c9eebdc	0.019399576
172	0xbd913182	-0.07089521
173	0x3de041ec	0.109500736
174	0x3d064a10	0.032785475
175	0x3c025721	0.007955343
176	0x3dfb64f3	0.12275114
177	0xbcedc937	-0.02902661
178	0x3d627bad	0.055293728
179	0xbdf8cd85	-0.12148575
180	0x3c24416b	0.0100253625
181	0xbccd4798	-0.025058553
182	0xbd209963	-0.03920878
183	0xbd959ae9	-0.073049374
184	0x3d972be3	0.073814176
185	0x3ba36e18	0.0049874894
186	0xbd13f3c6	-0.036121152
187	0xbca6bb35	-0.02035294
188	0xbd87db04	-0.06633571
189	0xbdf1a5b4	-0.117991835
190	0xbd5aa181	-0.05337668
191	0xbc802350	-0.015641838
192	0x3c715294	0.014729161
193	0x3ca939fc	0.020657532
194	0xbdb1aad8	-0.08675164
195	0x3b80d17b	0.003931222
196	0xbdcfadd3	-0.10140576
197	0x3c2ea643	0.010659757
198	0xbdd25968	-0.10270959
199	0x3de8fb48	0.11376053
200	0xbde948b1	-0.11390818
201	0x3db50ce4	0.08840349
202	0x3d7b8f1e	0.061415784
203	0xbdb5c0e7	-0.08874684
204	0xbd681d15	-0.05666836
205	0x3d0d56f0	0.03450674
206	0xbd06a4ad	-0.03287189
207	0xba552dda	-0.00081321376
208	0xbd2fc07f	-0.042908188
209	0x3d839f43	0.06426861
210	0xbddc7566	-0.107645795
211	0x3c5b0c70	0.013369665
212	0xbcba0848	-0.022709027
213	0x3d36a426	0.044590138
214	0xbd571fa7	-0.05252042
215	0xbdf1a84b	-0.117996775
216	0xbd8151e0	-0.063144445
217	0xbd2c3413	-0.04204185
218	0x3ded3a39	0.11583371
219	0x3dc20f09	0.09475524
220	0x3d818b66	0.06325416
221	0x3ddf4975	0.10902683
222	0xbde1dd55	-0.11028544
223	0x3d328a5b	0.043588977
224	0x3d4c5b1a	0.04989157
225	0xbc7ce324	-0.015435014
226	0x3cbb2a10	0.022847205
227	0x3dd7fbfa	0.105461076
228	0x3d189b98	0.03725776
229	0xbd4829a9	-0.048867855
230	0x3d557f55	0.052123386
231	0xbd05aa48	-0.032633096
232	0x3c5c8a54	0.013460714
233	0xbd10fd69	-0.03539792
234	0x3ca0d4ef	0.019632785
235	0xbcc07c0a	-0.023496646
236	0x3d82ec5c	0.06392738
237	0x3d1a31b1	0.037645046
238	0xbde15dfe	-0.11004256
239	0x3dba869f	0.09107708
240	0x3cc0347b	0.023462525
241	0x3c8c3913	0.017117059
242	0xbd304e1a	-0.043043233
243	0x3d8cf41f	0.068825
244	0xbc76b4cd	-0.015057755
245	0x3db92c2b	0.090416275
246	0xbd801eae	-0.06255852
247	0xbc8e1c06	-0.017347347
248	0x3d471619	0.04860506
249	0x3c480086	0.012207156
250	0x3ad27fbd	0.0016059797
251	0xbdde7604	-0.108623534
252	0x3d1a74a2	0.037708886
253	0xbd9aa17c	-0.07550332
254	0xbdc45b3f	-0.09587716
255	0x3d0dc38b	0.034610312

rnn.bias_ih_l0 f4 [300]
0	0x3ddbdd7e	0.10735606
1	0xbd72e0d8	-0.05929646
2	0x3dd2de3a	0.102962926
3	0x3cdff99e	0.027340706
4	0xbd91ac76	-0.071129724
5	0x3dd38e73	0.103299044
6	0xbd4d1890	-0.050072253
7	0x3dbf8516	0.09351556
8	0x3d7238a0	0.059136033
9	0x3dd64b73	0.104636095
10	0x3bd92ab4	0.006627405
11	0xbdb44d64	-0.088038236
12	0x3cae06e8	0.021243528
13	0x3d81eca4	0.06343964
14	0x3a93800d	0.0011253372
15	0xbde448eb	-0.111467205
16	0xbda2a64a	-0.07941873
17	0x3da0deed	0.0785502
18	0x3dc2752b	0.09495004
19	0x3df2d847	0.11857658
20	0x3ccb17ab	0.02479156
21	0x3db4e2d9	0.0883233
22	0xbc4fca89	-0.0126825655
23	0x3c908d67	0.01764555
24	0x3c991f46	0.01869167
25	0xbdc1309c	-0.094331
26	0x3c96f3e0	0.018426836
27	0x3da6f5a0	0.08152318
28	0x3d89aa84	0.067219764
29	0x3d95efed	0.07321153
30	0xbd016739	-0.03159258
31	0xbd922aab	-0.071370445
32	0x3d3b3532	0.045705028
33	0xbcd065b2	-0.025439117
34	0x3d760186	0.060060047
35	0xbd154ba8	-0.036449105
36	0xbdcc8b1b	-0.0998747
37	0xbd913142	-0.07089473
38	0xbdac0cc2	-0.08400871
39	0xba7beb2a	-0.00096099323
40	0xbd938913	-0.07203879
41	0xbd758098	-0.05993709
42	0xbd722b28	-0.05912319
43	0x3d04db47	0.03243568
44	0x3d918089	0.07104594
45	0xbcf67b6f	-0.030088155
46	0x3d166154	0.036713913
47	0x3c028200	0.007965565
48	0x3cf5ab50	0.029988915
49	0x3cc9c026	0.024627756
50	0x3cafbf12	0.021453414
51	0x3d839df7	0.06426614
52	0xbcef4908	-0.029209629
53	0xbc4dd240	-0.012562335
54	0xbdf73e78	-0.12072462
55	0x3c0da625	0.008645569
56	0xbd1f5581	-0.038899902
57	0x3c05925c	0.008152571
58	0xbd0116ec	-0.031516
59	0x3d78f10c	0.060776755
60	0x3cf83704	0.030299671
61	0x3dbdf71d	0.09275649
62	0xbd23bc74	-0.039974645
63	0xbbfc81dd	-0.0077059106
64	0x3c28a2cc	0.01029272
65	0xbd96fab0	-0.073720336
66	0x3dbae0d8	0.09124917
67	0xbd7c4cea	-0.06159679
68	0x3dfadae2	0.1224878
69	0x3de471ee	0.11154543
70	0xbd1064f2	-0.03525252
71	0xbdcc1a29	-0.09965927
72	0x3c2951e5	0.010334467
73	0xbca0dfdf	-0.019638
74	0xbc9fa897	-0.01948957
75	0xbb341563	-0.0027478568
76	0xbc90a7ca	-0.017658133
77	0xbdc139e1	-0.09434868
78	0x3da0987d	0.07841585
79	0x3ab44bd7	0.0013755512
80	0xbd8f155f	-0.06986498
81	0xbd8c1127	-0.06839209
82	0x3d592ac0	0.053019285
83	0xbce9f1b6	-0.02855764
84	0xbcd9de84	-0.026595362
85	0x3cbe8a3e	0.023259278
86	0x3dc29833	0.09501686
87	0x3dcc0503	0.099618934
88	0xbb690f48	-0.0035562087
89	0xbd8a42eb	-0.06751045
90	0xbd23a52e	-0.03995245
91	0xbd829721	-0.06376482
92	0x3d8d31e6	0.06894283
93	0x3d737406	0.05943682
94	0x3d9180e8	0.07104665
95	0xbdaa6c65	-0.08321456
96	0xbd815cfe	-0.06316565
97	0xbd2f33ea	-0.04277412
98	0x3cf77840	0.030208707
99	0x3d110e92	0.035414286
100	0xbd80ab85	-0.06282715
101	0xbdaf2a9b	-0.08553048
102	0xbe01a493	-0.12660436
103	0xbdbf9eb7	-0.09356444
104	0xbd722277	-0.0591149
105	0xbe0ee5e6	-0.13954887
106	0xbe2290ce	-0.15875551
107	0xbdbc8535	-0.09205095
108	0x3d1d0716	0.038336836
109	0xbd10de4b	-0.035368245
110	0xbd6784fb	-0.056523304
111	0xbd4d3c53	-0.050106358
112	0xbcb7efd1	-0.02245322
113	0xbe303582	-0.17207912
114	0xbe04dbbe	-0.1297445
115	0xbdc017c6	-0.093795344
116	0x3d4da0c0	0.05020213
117	0xbd96b812	-0.073593274
118	0xbdcdbbc7	-0.10045581
119	0x3c058bc0	0.008150995
120	0xbd72956c	-0.05922453
121	0x3cf165a2	0.029467408
122	0x3ce3f603	0.027827268
123	0xbdf993e3	-0.1218641
124	0xbde6edb8	-0.1127581
125	0xbdb30a66	-0.08742218
126	0xbd82583a	-0.06364484
127	0xbe2dbab9	-0.1696576
128	0xbd606185	-0.054780502
129	0x3d1ce22c	0.03830163
130	0xbd8ce066	-0.06878738
131	0xbe26e3f5	-0.16297896
132	0xbde08add	-0.10963986
133	0xbdad40b8	-0.0845961
134	0xbd08dfc5	-0.03341653
135	0xbe0d7ee2	-0.13817933
136	0xbdcf44f3	-0.10120573
137	0xbe0adc0f	-0.13560508
138	0x3d85aade	0.06526731
139	0xbc0615fa	-0.008183951
140	0xbe00f124	-0.12591988
141	0xbe0363ca	-0.12831035
142	0xbdbdc0f5	-0.09265319
143	0xbc70170c	-0.014653932
144	0xb81c1c0c	-3.721942e-05
145	0xbd1a0c40	-0.03760934
146	0xbd742119	-0.059601877
147	0xbdbc914e	-0.09207402
148	0xbd9a415a	-0.07531996
149	0xbdab1a7b	-0.0835466
150	0xbdf99ce1	-0.121881254
151	0xbba17f82	-0.00492853
152	0xbd25a3e1	-0.04043949
153	0xbe12dd95	-0.1434234
154	0xbe234748	-0.1594516
155	0xbdf044a2	-0.11731841
156	0xbd784ffa	-0.060623147
157	0xbdead3a3	-0.11466148
158	0xbd341044	-0.043960825
159	0xbde14edf	-0.110013716
160	0xbe0a88e9	-0.1352879
161	0xbd10afae	-0.03532379
162	0xbd942de1	-0.07235313
163	0xbe2fc044	-0.17163187
164	0xbd3d5cf5	-0.04623123
165	0xbdc17f4b	-0.09448107
166	0xbac1b8ab	-0.0014779767
167	0xbd5bef92	-0.05369527
168	0xbdb82f7b	-0.08993431
169	0xbdaec187	-0.08533006
170	0xbd441b9e	-0.0478779
171	0x3d9a8162	0.07544209
172	0x3d0a483a	0.033760287
173	0xbd15e56e	-0.036595754
174	0x3d169d22	0.036770947
175	0xbd3fdefe	-0.04684352
176	0xbe2600f6	-0.16211304
177	0xbdd71260	-0.10501552
178	0xbe1259e4	-0.14292103
179	0xbd86c57d	-0.06580637
180	0xbdd02d63	-0.10164907
181	0xbe2cfb56	-0.16892752
182	0xbcbc9e93	-0.023024833
183	0x3b320041	0.0027160796
184	0xbe15dedf	-0.146358
185	0xbda8978b	-0.082320295
186	0xbdbf1727	-0.09330588
187	0xbd9e0795	-0.0771629
188	0xbe3b2289	-0.18274893
189	0xbd4edd12	-0.050503798
190	0xbd0aa52d	-0.03384893
191	0xbd0defbc	-0.034652457
192	0xbe2024cf	-0.15639041
193	0x3bdcc9c0	0.0067379177
194	0xbce6a44b	-0.028154513
195	0x3c66890c	0.01407076
196	0x3cd0de12	0.025496516
197	0xbde93c57	-0.11388462
198	0xbdcb5099	-0.09927482
199	0xbddf0a13	-0.108905934
200	0xbbb37649	-0.005476747
201	0x3bff1d9d	0.0077855126
202	0xbd9058ce	-0.07048188
203	0xbced708e	-0.028984334
204	0xbcbaada0	-0.022787869
205	0x3bcf373a	0.006323722
206	0xbd8e757d	-0.06956003
207	0xbd0d0280	-0.034426212
208	0xbdb46d67	-0.08809929
209	0x3dd8c9b4	0.10585347
210	0xbda67910	-0.081285596
211	0xbc3aa4db	-0.011391844
212	0x3d8fda6d	0.07024083
213	0x3d090088	0.033447772
214	0x3db96790	0.09052956
215	0xbd8855a4	-0.0665696
216	0x3d50ac3a	0.050945498
217	0x3d23eed9	0.040022705
218	0x3c46df38	0.01213818
219	0x3dc7dd51	0.0975901
220	0xbcf17089	-0.029472606
221	0x3bf42361	0.0074505066
222	0xbd6a3d97	-0.057187643
223	0xbd36224f	-0.044466313
224	0x3d5bb1f2	0.0536365
225	0x3d93681a	0.0719759
226	0xbddfb17e	-0.10922526
227	0xbb24683a	-0.0025086538
228	0xbdb41c5c	-0.087944716
229	0xbd2b9daa	-0.041898407
230	0x3be58411	0.007004269
231	0x3dda94ab	0.106728874
232	0x3da86760	0.08222842
233	0xbdb57b20	-0.08861375
234	0x3d715de1	0.05892742
235	0x3d91dfbe	0.071227536
236	0x3d790e9d	0.060804952
237	0x3c1a1e6c	0.009406667
238	0xbdc0662b	-0.09394487
239	0x3c0e4e39	0.008685642
240	0xbd8fcd56	-0.070215866
241	0x3dd1a7e5	0.102371015
242	0xbccd36e1	-0.025050582
243	0xbcbbb764	-0.022914596
244	0xbd4c0596	-0.049810015
245	0x3cab0ac8	0.020879164
246	0x3c862ece	0.01637974
247	0x3d8b57d1	0.06803859
248	0x3d751af2	0.05984015
249	0xbddc9c9f	-0.107720606
250	0xbd2f6436	-0.042820178
251	0xbb4650a8	-0.0030260477
252	0xbd69865a	-0.057012893
253	0xbca178d0	-0.019710928
254	0xbccfb5b6	-0.025355201
255	0xbd965b76	-0.073416635

rnn.bias_hh_l0 f4 [300]
0	0x3da3db0f	0.080007665
1	0x3d0b7119	0.034043405
2	0x3d8f7154	0.070040375
3	0xbd824212	-0.06360258
4	0xbc895942	-0.016766194
5	0x3c5ee4ed	0.013604385
6	0xbbab393a	-0.005225328
7	0x3c4fe575	0.012688984
8	0x3da282ee	0.07935129
9	0x3cbdc6ee	0.023166146
10	0x3d3e59e0	0.04647243
11	0xbca0abd7	-0.01961319
12	0xbd2a6273	-0.041597795
13	0x3c453723	0.012037071
14	0xbd5c3266	-0.053759
15	0x3c9651b2	0.018349502
16	0x3ca3b3e7	0.019983245
17	0x3ccbb863	0.024868196
18	0x3ccd13d8	0.025033876
19	0x3ce5727f	0.028008698
20	0x3c4ffb53	0.012694198
21	0xbb77bf69	-0.0037803298
22	0xbde4a5d6	-0.11164443
23	0xba9339da	-0.0011232451
24	0x3be35ce4	0.0069385637
25	0xbcc50369	-0.024049478
26	0xbcbd613d	-0.023117656
27	0x3d91fc3b	0.07128187
28	0xbd8c01f2	-0.068363085
29	0x3cda4149	0.026642459
30	0x3d2b5928	0.041833073
31	0xbd82ff09	-0.063963
32	0x3d4c73ac	0.049915
33	0xbc2ecbdd	-0.010668722
34	0xbd39f28e	-0.045397334
35	0x3dc7e424	0.09760311
36	0x3c811499	0.015756892
37	0xbd4c60ad	-0.049896885
38	0x3bd60e97	0.006532501
39	0x3dcf95e9	0.10136015
40	0xbd975f56	-0.07391231
41	0x3dd7c012	0.105346814
42	0xbd2abaeb	-0.041682165
43	0x3d5fb8b2	0.0546195
44	0xbd0f5d85	-0.035001297
45	0x3da2c3d9	0.07947511
46	0xbd911e4c	-0.07085857
47	0x3cbc98d8	0.0230221
48	0xbdd4f984	-0.10399154
49	0x3ce093f2	0.027414296
50	0x3d98b3b5	0.074561514
51	0x3c6e3109	0.014538058
52	0xbbca84c6	-0.0061803786
53	0xbceb4f9e	-0.028724488
54	0x3d7e6710	0.062110007
55	0xbd9faa88	-0.07796198
56	0x3d837bec	0.064201206
57	0x3d786a90	0.0606485
58	0xbd5e18db	-0.054222923
59	0xbadd9d81	-0.0016907902
60	0x3de60278	0.112309396
61	0x3d8463f9	0.06464381
62	0xbde37d0e	-0.11107837
63	0xbd7cdf97	-0.06173667
64	0x3baf4938	0.0053493045
65	0x3d783ace	0.060602956
66	0x3c6a0489	0.014283308
67	0x3dab9910	0.08378804
68	0x3dfecd94	0.12441555
69	0x3d9b9f0e	0.07598697
70	0x3d91e567	0.07123833
71	0xbd98b809	-0.07456977
72	0xbb634378	-0.0034677666
73	0xbb532ad1	-0.0032221565
74	0xbcf946a8	-0.0304292
75	0x3dbd1d6f	0.0923413
76	0x3d62a5cf	0.05533391
77	0x3d603643	0.054739248
78	0x3d07e463	0.03317679
79	0xbc18a784	-0.009317283
80	0xbd7d79a3	-0.06188358
81	0x3cfd909a	0.03095274
82	0x3e025a5f	0.12729786
83	0xbbbadcb5	-0.00570258
84	0x3d611296	0.054949366
85	0xbd2c0720	-0.041998982
86	0xbd6a4fbd	-0.05720495
87	0xbd2a438f	-0.041568335
88	0x3d101fdc	0.035186633
89	0xbd39d3c4	-0.04536797
90	0x3df37aa0	0.11888623
91	0x3dce9b94	0.10088268
92	0x3dd3645c	0.103218764
93	0xbca884df	-0.02057117
94	0x3da9f0fe	0.08297919
95	0x3d8fb83f	0.07017564
96	0xbd955bb5	-0.07292882
97	0x3d94dc39	0.07268567
98	0x3c90f6de	0.01769584
99	0x3d7f53af	0.062335666
100	0xbe24a653	-0.16079073
101	0xbe1dd3f4	-0.15412885
102	0xbdcc87bb	-0.09986826
103	0xbb589abe	-0.0033051218
104	0xbddfa8fc	-0.10920903
105	0x399d0a40	0.0002995301
106	0xbdccd68a	-0.100018576
107	0xbd49495f	-0.049142238
108	0x3dc6a1bb	0.096988164
109	0xbd85e204	-0.0653725
110	0xbcd5a167	-0.02607794
111	0xbdefaa97	-0.11702459
112	0xbe09d03f	-0.13458346
113	0xbe275da2	-0.16344312
114	0xbe064f04	-0.1311608
115	0xbd6131c3	-0.054979097
116	0x3b2cb4c8	0.0026352871
117	0x3d6c07e9	0.05762473
118	0xbdc63e3c	-0.09679839
119	0x3c0b0220	0.008484393
120	0xbe05889f	-0.13040398
121	0x3dc7161b	0.09721013
122	0xbd8dd71f	-0.06925797
123	0xbe1b6c43	-0.15178017
124	0xbe0650b9	-0.13116731
125	0xbe11b317	-0.14228474
126	0xbc57df0c	-0.013175737
127	0x3af12fad	0.0018401049
128	0xbdbc8c76	-0.09206478
129	0xbd95dd7b	-0.07317635
130	0xbdae312a	-0.08505471
131	0xbe13c41a	-0.14430276
132	0xbd60d152	-0.054887123
133	0x3c08d917	0.0083525395
134	0xbe384f96	-0.1799911
135	0xbde3f6b3	-0.111310385
136	0xbdacc78a	-0.084364966
137	0xbcbc5a71	-0.022992345
138	0xbd63e01a	-0.05563364
139	0xbd9323f8	-0.07184595
140	0xbb014e44	-0.0019730488
141	0xbc6d09d7	-0.014467678
142	0x3c135847	0.008993215
143	0xbd7f291c	-0.062295064
144	0xbe07e335	-0.13270266
145	0x3dde60f7	0.10858338
146	0xbc08b848	-0.008344717
147	0xbdaf12d5	-0.08548514
148	0x3cb06ed8	0.02153723
149	0xbdaf5111	-0.08560384
150	0xbdda013b	-0.10644766
151	0xbd30037d	-0.042972077
152	0xbde9f814	-0.1142427
153	0xbd8b5d33	-0.06804886
154	0x3c980f7a	0.018562067
155	0xbe35b75d	-0.17745729
156	0xbe3227bf	-0.17397974
157	0x3ade129c	0.0016942802
158	0xbce8278d	-0.028339172
159	0xbcaed294	-0.021340646
160	0xbd2814de	-0.041035526
161	0xbe1b97e4	-0.1519466
162	0x3c204fdd	0.009784666
163	0xbe215df8	-0.15758502
164	0xbd7c9d79	-0.061673615
165	0xbde284f4	-0.11060515
166	0xbc8ebeeb	-0.017425021
167	0xbe257cb6	-0.16160855
168	0xbe088580	-0.13332176
169	0xbd1a6309	-0.037692104
170	0xbda32a47	-0.07967048
171	0xbd6d1196	-0.0578781
172	0x3cfd246a	0.030901153
173	0xbcef9f02	-0.029250626
174	0x3c82d329	0.01596983
175	0x3cab666d	0.020922864
176	0xbd973929	-0.07383949
177	0xbd87905b	-0.066193305
178	0xbe2ad49a	-0.16682664
179	0xbe1dc513	-0.15407209
180	0xbde038b9	-0.10948319
181	0xbe024f5c	-0.12725586
182	0x3db62d38	0.088953435
183	0xbdd9dd37	-0.106378965
184	0xbd04a6d5	-0.032385666
185	0xbd99e022	-0.07513453
186	0xbe296bb5	-0.16544993
187	0xbe213ee9	-0.15746655
188	0xbe2565e7	-0.16152154
189	0xbd1e0609	-0.038579974
190	0xbe277280	-0.16352272
191	0xbd71be32	-0.059019275
192	0x3cc9d5b2	0.02463803
193	0xbd01dc62	-0.031704314
194	0xbe1ff9d3	-0.15622644
195	0xbd8e9cf3	-0.069635294
196	0x3d773ff8	0.06036374
197	0xbd59665f	-0.053076144
198	0xbe0e2966	-0.1388298
199	0xbd2491e3	-0.04017819
200	0xbbfd3ef2	-0.007728451
201	0x3db97107	0.090547614
202	0xbdca668f	-0.09882843
203	0xbd914419	-0.07093067
204	0x3dbce453	0.09223237
205	0x3d828ae3	0.06374147
206	0xbce0360a	-0.027369518
207	0xbd812771	-0.06306351
208	0xbd4022eb	-0.0469083
209	0xbd136241	-0.035982374
210	0x3d36ea86	0.044657253
211	0x3d233198	0.03984222
212	0x3dcceb9a	0.10005875
213	0x3da56da1	0.08077551
214	0xbd8b09c2	-0.067889705
215	0xbcb05e43	-0.021529322
216	0x3cfc1eac	0.030776344
217	0xbd849258	-0.06473225
218	0x3de0b5dc	0.10972187
219	0x3d7fe8c4	0.062477842
220	0xbcee52e2	-0.029092256
221	0xbd199acd	-0.037501145
222	0x3cdeb2bd	0.027184838
223	0xbd4b6f16	-0.049666487
224	0x3cbf744f	0.02337089
225	0x3d0265e6	0.03183546
226	0x3d34caad	0.0441386
227	0x3c853fa3	0.016265696
228	0xbdc8d425	-0.09806088
229	0x3a920174	0.0011139349
230	0xbd984c78	-0.0743646
231	0xbceb30fc	-0.028709881
232	0xbd8b9186	-0.06814866
233	0x3d4be8e8	0.049782664
234	0xbd1bee27	-0.038068917
235	0xbd9f1813	-0.07768264
236	0x3d0592aa	0.032610573
237	0xbc9b103c	-0.01892864
238	0x3d2b3331	0.041796867
239	0x3d58a81f	0.052894708
240	0xbd8a56a2	-0.06754805
241	0xbdca533a	-0.098791555
242	0xbc7477b6	-0.014921119
243	0x3cb49f83	0.022048717
244	0xbd246cb0	-0.040142715
245	0xbd128f4a	-0.035781182
246	0xbdb5f5c2	-0.08884765
247	0xbd74d127	-0.059769776
248	0x3dd28f36	0.102812216
249	0xbda98eab	-0.08279165
250	0xbd9ff244	-0.078098804
251	0x3cc84be1	0.024450244
252	0xbbe688d8	-0.007035356
253	0xbd480a7d	-0.048838127
254	0x3d396a86	0.045267604
255	0x3dae6ece	0.08517228

linear.weight f4 [1, 100]
0	0x3dbfeb41	0.09371043
1	0xbdf1a0b0	-0.11798227
2	0x3dc4b59a	0.0960495
3	0x3c8c470d	0.017123723
4	0xbd236926	-0.0398952
5	0x3d2402ce	0.040041737
6	0x3d8524b8	0.06501144
7	0x3da21f00	0.07916069
8	0x3d755bc1	0.059901956
9	0xbdde612c	-0.10858378
10	0xbd15fcc5	-0.036618013
11	0x3c69ba9a	0.014265681
12	0xbd6c523e	-0.05769562
13	0x3cf75b8e	0.030195024
14	0xbd91285c	-0.07087776
15	0xbd0dfa00	-0.034662247
16	0x3ce43f32	0.027862165
17	0x3d289d17	0.041165438
18	0xbce04ab8	-0.027379379
19	0xbdd8755b	-0.10569259
20	0xbde42e23	-0.111416124
21	0xbca81f73	-0.020522809
22	0x3c7cd715	0.015432139
23	0x3de3d97c	0.11125466
24	0x3d889854	0.06669679
25	0xbdd839e7	-0.10557919
26	0x3d8ec335	0.069708265
27	0x3d09c3f2	0.033634134
28	0x3d995f13	0.07488837
29	0x3bd6ceff	0.0065554376
30	0xbd8b9c9e	-0.06816982
31	0xbd9db5e5	-0.07700709
32	0x3d493693	0.04912431
33	0x3c4979a0	0.012297064
34	0xbdcde3bd	-0.10053203
35	0xbd9d35fe	-0.07676314
36	0xbbca4399	-0.006172609
37	0x3d9252e9	0.0714472
38	0x3d4c3aa2	0.049860604
39	0xbc666bd3	-0.014063793
40	0x3ccd1be1	0.025037708
41	0xbdfa855f	-0.1223247
42	0xbdd3ca73	-0.103413485
43	0xbd88de28	-0.06682998
44	0xbe00bd63	-0.12572245
45	0xbd899f54	-0.067198426
46	0xbc4e06e8	-0.012574889
47	0xbd2c2b77	-0.04203364
48	0x3c4f1ed1	0.012641625
49	0x3dd701ae	0.10498367
50	0xbe04fbf2	-0.12986735
51	0xbdabfbae	-0.083976135
52	0xbd85e141	-0.065371044
53	0x3dafa8d0	0.0857712
54	0xbcf0c3f2	-0.029390309
55	0xbc94dd6c	-0.018171988
56	0xbdd6c8ee	-0.10487543
57	0x3e058688	0.13039601
58	0x3c158b3c	0.009127434
59	0xbdd9ea98	-0.10640448
60	0x3dc035cc	0.09385261
61	0xbdd06a77	-0.101765566
62	0x3d23c1f0	0.039979875
63	0xbe05ceb1	-0.13067128
64	0x3d12bba3	0.035823476
65	0xbd29826b	-0.041384142
66	0xbd426d9f	-0.047467824
67	0x3d8b90af	0.068147056
68	0xbdb6f8fd	-0.089342095
69	0xbdc6be39	-0.09704251
70	0x3d85191f	0.06498932
71	0x3c55e897	0.013055942
72	0xba92ef65	-0.0011210261
73	0x3d3cbdfb	0.046079617
74	0x3c68cd8d	0.014209163
75	0xbcf91583	-0.030405765
76	0xbd8845b1	-0.066539176
77	0xbda32ddb	-0.079677306
78	0x3da605e2	0.08106591
79	0x3dae4324	0.085089
80	0x3d614a0c	0.055002257
81	0xbd0efeb0	-0.034910858
82	0x3d76d7aa	0.060264267
83	0xbd40fe04	-0.04711725
84	0x3da43a9c	0.08018991
85	0xbe08533a	-0.13312998
86	0xbdd2e717	-0.10297983
87	0xbd09611a	-0.03353987
88	0xbc887712	-0.01665834
89	0x3de69e6c	0.11260685
90	0xbdafe5a3	-0.085887216
91	0x3d0035ef	0.031301435
92	0x3de6aac4	0.1126304
93	0x3d15ca20	0.036569715
94	0x3d334015	0.043762285
95	0xbb748f51	-0.0037316869
96	0xbd97462e	-0.073864326
97	0xbc0ab5ee	-0.008466227
98	0x3db7115d	0.08938859
99	0xbd06a011	-0.032867495
