backend/trained_models/NIMB_GRU_model_state_dict.pth (torch, 126723 bytes, 5 tensors)

rnn.weight_ih_l0 f4 [300, 1]
000000 d5 45 b3 3d 76 6b bd bd 75 3b a2 3d 0f ec 34 3c
       0.08753554 -0.09249012 0.07921497 0.011042609
000010 d8 a0 9c 3d 02 34 83 bd e0 23 65 3c 51 8c 2a 3d
       0.07647866 -0.06406404 0.013985604 0.041637722
000020 37 07 ee bd c0 4e 1c 3d 6f 81 e6 bc 9b 0a 8f 3d
       -0.1162247 0.03816104 -0.02813789 0.06984445
000030 4f dd 00 3d 70 57 74 bd 56 00 fb 3c 6e 7d bf 3c
       0.031461056 -0.0596537 0.030639809 0.02337524
000040 32 4b d1 bd da 7d 67 3d 7f 4f 9c 3d 67 19 93 bd
       -0.102194205 0.056516506 0.0763235 -0.071825795
000050 12 df 55 3d ec 6d 8c bd 55 0a ed 3d 56 2c ad bd
       0.05221469 -0.068569034 0.11574236 -0.08455722
000060 7b a0 61 3d 80 20 9a 3d ef 45 b3 3b 18 d3 07 bd
       0.055084687 0.0752573 0.005470983 -0.0331603
000070 36 ef b7 3c ea dc 0e bc 25 f8 6c bd 5e 0a 49 3c
       0.022452932 -0.008719662 -0.057853837 0.012270538
000080 59 4f 51 bd 69 c4 ac bd d2 76 07 3d 15 10 01 be
       -0.051101062 -0.084359 0.0330723 -0.12603791
000090 7b b3 17 3d 28 db e8 bc 7e 1c 7f bd e1 14 04 3e
       0.0370364 -0.028424814 -0.06228303 0.1289859
0000a0 53 19 ba 3b dc 57 e4 bc 24 c9 1e bd f9 5e 98 bd
       0.0056792884 -0.027873926 -0.03876604 -0.074399896
0000b0 6e 26 c0 3d b1 29 96 bb 37 9f 84 bd 1e f7 05 3d
       0.0938233 -0.0045826067 -0.0647568 0.032706372
0000c0 51 30 74 3d 2a 43 7f 3d ab bf ac bb c9 23 0a 3d
       0.05961639 0.062319912 -0.005271872 0.033725534
0000d0 6b 30 18 3d 10 ec cb 3d b7 57 e5 3c 86 0d aa bd
       0.03715555 0.09957135 0.027995927 -0.08303361
0000e0 ba d5 c8 3d 68 e7 3f 3d f1 f2 a0 3d 30 77 1f bd
       0.0980639 0.046851546 0.078588374 -0.038932025
0000f0 eb 2b 6b bc 9c 51 b0 3d 9b e0 33 bd da 1a ee bd
       -0.014353733 0.08609316 -0.043915372 -0.11626215
000100 26 82 21 bd 6a 1e 6f ba c7 24 a9 bd 4a d5 c9 3c
       -0.03943076 -0.00091216585 -0.08258968 0.024637837
000110 80 9e 50 bd eb f6 f6 bd a4 60 88 bd 08 d7 cc bd
       -0.050932407 -0.120588146 -0.06659058 -0.100019515
000120 52 65 ac bc 3e a8 06 bd ac cd 92 bc 5e 73 3e bd
       -0.021044407 -0.032875292 -0.017920338 -0.04649674
000130 61 d9 dc bd 1c 10 7d bd a3 e4 51 3d b9 eb 88 3d
       -0.10783649 -0.06178294 0.051243436 0.066855855
000140 26 fd 9c 3d 20 67 45 bd 72 ce 40 bd 7f ca 00 3e
       0.07665472 -0.04819405 -0.04707188 0.12577246
000150 79 08 f5 bd 01 e8 7a 3d 3e 3b 74 3b 92 11 e3 bd
       -0.11964507 0.061256412 0.0037266756 -0.11087336
000160 0c b5 27 bb 56 72 dd 3d e2 4e 1a bd 88 b3 a9 3d
       -0.002559009 0.108128235 -0.037672885 0.08286196
000170 d5 ad eb bd d9 57 15 bd 62 41 08 3d db bb d0 bc
       -0.11507765 -0.03646073 0.03326548 -0.025480201
000180 b9 8b 48 3c 33 8a 9a bd 88 63 c2 3c 9f 0c 5a bd
       0.012240344 -0.07545891 0.0237291 -0.053234693
000190 97 a3 23 be 46 b1 dc 3c 5e a6 a6 bd f5 f9 bc bc
       -0.15980373 0.02694 -0.08137201 -0.023068408
0001a0 4e 0c f6 bc a3 6f fd bd d8 d5 1e bd ab 90 7f bd
       -0.030035164 -0.12374809 -0.038778156 -0.062393826
0001b0 a9 52 02 bc 4f 29 97 bd f9 76 f9 bd 85 4f 60 3c
       -0.007954278 -0.07380926 -0.12180895 0.013690834
0001c0 d6 06 a4 3c 29 d6 67 3d 71 63 8d 3c 12 96 d8 bd
       0.02002279 0.056600723 0.017259331 -0.10575499
0001d0 6b 88 9c bd 42 f4 9d 3c 37 b0 4b 3c f9 fb 2f 3d
       -0.07643207 0.01928151 0.01243215 0.04296491
0001e0 3e 0c 32 be 8e bb c6 bd 20 9d c0 3d 3c ec 05 be
       -0.17387483 -0.09703742 0.09404969 -0.13078398
0001f0 6e 2c 90 bd 6c 9a 37 3d 65 b9 e0 3c 5c bb e3 3c
       -0.07039724 0.044825003 0.027432153 0.0277993
000200 4a 29 90 bc 05 f5 fd bd 15 ce 64 bd 92 01 cd 3c
       -0.017597813 -0.124002494 -0.055860598 0.025025163
000210 bd ea f7 3d 62 ab ed bc 6d f6 9e bd da 9b 30 39
       0.1210532 -0.029012386 -0.07761846 0.00016842727
000220 33 b7 14 be 3d 84 82 3b f9 da e4 3d c2 06 dd bd
       -0.1452301 0.003983049 0.11174578 -0.107923046
000230 fd 55 68 3c c9 67 60 bc 18 8f 15 be 6b 67 1e bb
       0.014180657 -0.013696619 -0.14605367 -0.0024170529
000240 3d 00 22 bc 3e e3 88 bc ae 7a 05 be b3 b3 e7 bc
       -0.009887752 -0.01670992 -0.1303508 -0.02828393
000250 57 e1 83 bd a0 12 cf bd 65 50 90 bd 1f bd fe bd
       -0.064394645 -0.10110974 -0.07046584 -0.12438416
000260 73 bb 0d be 04 34 06 be 3e 37 02 be 10 72 09 be
       -0.13841037 -0.1310578 -0.12716386 -0.13422418
000270 b5 dd 19 be 80 b1 ec b9 47 bb a1 3d 9c 6b 77 bd
       -0.15025981 -0.00045145676 0.078970484 -0.06040536
000280 85 ed ba 3d bd c0 bf bd fd 1d a2 bb b0 5c f3 bc
       0.091273345 -0.09362934 -0.0049474225 -0.029707283
000290 e2 37 3a bd f9 9a 3a bd b2 78 12 bd b4 29 d6 bd
       -0.04546345 -0.04555795 -0.035759635 -0.10457173
0002a0 ab c9 e0 bd 4c 74 b4 bc b7 96 02 3a b0 83 04 be
       -0.10975965 -0.02202811 0.00049815647 -0.1294086
0002b0 bc a8 b5 3d 37 d9 57 3c 5c e6 b5 bd d6 81 26 be
       0.08870074 0.013174347 -0.08881828 -0.16260466
0002c0 ec 3d 72 bd 1f 3d 0b be 47 18 f6 bb 2d e8 df bb
       -0.059141085 -0.13597535 -0.0075102183 -0.0068330974
0002d0 17 11 09 be 25 a3 81 bd b7 92 02 be 3b bd 31 bd
       -0.13385426 -0.063299455 -0.1275128 -0.043393355
0002e0 16 4d a2 bd 63 82 b2 bd f2 fb 31 3c 67 f7 35 bd
       -0.07924859 -0.087162755 0.010863291 -0.044425394
0002f0 e0 1c ca bc 63 f3 ef 3a 35 bb 0d bd 1f fb 11 ba
       -0.024671972 0.0018306788 -0.034602363 -0.0005568731
000300 8e 75 1a 3e 57 87 c7 3a d0 43 33 bc 87 92 65 3d
       0.15083906 0.001522283 -0.010941461 0.056047942
000310 59 3e 7b 3c a0 51 86 bd 57 a0 f8 bd fb 4c c8 bb
       0.015334689 -0.065585375 -0.121399574 -0.0061126924
000320 ad 51 cb 3d 5f 47 fb 3d e7 dc bb bc 88 b1 35 bd
       0.09927688 0.12269472 -0.022932483 -0.04435876
000330 d5 d3 a5 bd 5b 79 ef 3d 17 67 83 3d 8d 8d 10 3d
       -0.080970444 0.116930686 0.06416147 0.035291243
000340 10 f7 09 3d 39 83 b3 3d 4e 28 1e 3c 04 a2 18 3d
       0.033682883 0.08765263 0.009653164 0.037263885
000350 5c 7d 0c 3c d6 b5 8c 3d 44 45 98 bd 5b 61 90 bb
       0.00857481 0.0687062 -0.07435086 -0.004406137
000360 9a b9 5f bd 4f 37 ed 3d f3 7b 6f 3d c2 1f 0d bd
       -0.054620363 0.11582815 0.058467817 -0.034454115
000370 e3 c5 c8 3d 1b f9 5e 3d b5 24 6d bd 85 21 5f 3d
       0.09803369 0.054436784 -0.057896335 0.054475326
000380 6c 6f 79 bd 8d e7 ba 3c cc 43 57 bd 4c 7c 68 bc
       -0.060897276 0.02281549 -0.05255489 -0.014189791
000390 e5 e9 3b 3d cd cd da bc c4 5b 2d 3d 1f 9e a2 bd
       0.045877356 -0.026709462 0.042323843 -0.079403155
0003a0 f1 93 68 bd 40 40 c9 3d ab a4 96 bc 96 bf 0d 3e
       -0.056781713 0.09826708 -0.018389067 0.13842615
0003b0 ce f6 3d 3d 0a 95 75 bc 7a 89 8c bd 57 d1 c0 bd
       0.04637795 -0.014989147 -0.06862159 -0.094149284
0003c0 34 73 e1 3d 64 05 32 bd 26 d5 a4 bd f8 52 95 bd
       0.110083014 -0.043462172 -0.08048467 -0.07291216
0003d0 01 45 81 bd ab 97 0f bc ff a6 85 3d 99 9a 21 bd
       -0.063119896 -0.008764188 0.065259926 -0.039454076
0003e0 81 e8 f4 3d 88 d2 55 bd 92 e8 7c bc 6a 1f e9 3d
       0.11958409 -0.05220273 -0.015436308 0.11382945
0003f0 ae cd a0 bd 47 dd ff 3d 19 7d ba bd e8 db aa 3d
       -0.0785173 0.12493377 -0.09105892 0.08342725

rnn.weight_hh_l0 f4 [300, 100]
000000 ab c2 f9 3a 35 81 92 bc b9 20 a5 3d 1b 68 ad bd
       0.0019055208 -0.017883876 0.08062882 -0.08467122
000010 a6 ab 5a bd 6d ef d5 3d 86 9f 03 3d 84 63 70 3d
       -0.053386353 0.104460575 0.032134555 0.058688655
000020 90 73 1a 3d 68 c4 f9 3c 0f 92 4b 3b 48 cb 65 3d
       0.037707865 0.030489162 0.00310624 0.056102067
000030 03 df c7 bd 66 e7 71 3d c4 91 b1 bc c9 96 98 bc
       -0.09759333 0.05905857 -0.021675952 -0.018626587
000040 25 76 29 3d 00 84 ec 3d e5 33 85 3d 1a 3a 97 bc
       0.041372437 0.115486145 0.06504039 -0.018460322
000050 d3 2f d2 3d 73 90 48 3d 4d 44 28 bd a5 64 27 bd
       0.10263028 0.048965883 -0.04108076 -0.040867466
000060 15 ef 84 3d bd 75 29 bc 77 a9 66 3d 55 54 3e 3d
       0.06490914 -0.010343012 0.056313958 0.046467144
000070 3e 9f 8d 3d d3 57 8a 3d 4b 5e e0 bd 58 61 9d bd
       0.06915139 0.067550324 -0.10955485 -0.076845825
000080 00 d7 58 3d e8 5a d2 3d 80 f5 d3 bd c2 dd ac 3d
       0.052939415 0.10271245 -0.1034956 0.084407344
000090 ad 57 36 3d 84 1e 20 bc e7 20 76 bd fb 66 d5 3c
       0.044517208 -0.0097729005 -0.060089972 0.026050081
0000a0 63 07 4a 3d 09 ff 8b 3d e0 aa 7b bb 09 13 84 bd
       0.04932345 0.068357535 -0.003840141 -0.06448943
0000b0 20 1b 9f bd ab ed f8 bc 86 17 e0 3d 27 ba b3 39
       -0.077688456 -0.030386766 0.10941987 0.00034280235
0000c0 c3 7f 4a bd cc 5e 61 bd 31 5f 44 bd 2b 94 96 3d
       -0.04943825 -0.055022046 -0.047942344 0.073524795
0000d0 2e 49 91 3d 91 1d 81 bb 70 a7 e4 bd 45 9f 82 3d
       0.07094036 -0.003940292 -0.11164749 0.063780345
0000e0 df 9e f9 bc 79 4a 9c 3d 71 ad a3 bc be 3f a2 3d
       -0.030471263 0.07631392 -0.019980164 0.07922314
0000f0 cb 31 92 bd 01 6a 0d 3d 03 a4 73 bd de 29 d3 bd
       -0.071384035 0.03452492 -0.059482586 -0.1031072
000100 be 2d 14 3d ba 16 55 3d 93 db 4c bd b0 a0 8a bd
       0.036176436 0.052023627 -0.05001409 -0.0676893
000110 ea 5e e8 3c 4c f7 e1 bc 93 9c 81 bd 7c 20 93 bc
       0.028365571 -0.02758374 -0.06328692 -0.017959826
000120 19 1a e4 3d 55 f6 02 bd 19 6b cb 3d bc 04 7a bc
       0.1113779 -0.0319732 0.09932537 -0.015259918
000130 85 9d f4 3a d2 97 c1 bb a7 e0 2a bd 83 b8 0d 3d
       0.0018662667 -0.005907991 -0.04171815 0.034599792
000140 9a 10 84 bd e1 0e 91 bd 81 1f e4 bc e5 c4 1e bb
       -0.06448479 -0.07082916 -0.027847053 -0.0024226245
000150 8c 7e a7 3c 44 5a d7 3b 7e f7 07 3c c9 9b 5b bc
       0.020446084 0.00657204 0.008298753 -0.013403841
000160 b4 ee dd 3d 46 a3 a8 bd d1 f8 75 3d 1b ac 43 3c
       0.10836545 -0.08234267 0.060051743 0.011942889
000170 f2 73 93 3d bc 6d 01 bc 97 74 02 3c d2 25 13 3c
       0.07199849 -0.007899698 0.0079623675 0.008981185
000180 d3 66 52 3d 72 3a 64 3d c2 c2 8d bc 51 99 a5 bd
       0.051367592 0.0557198 -0.017304782 -0.080858834
000190 80 7c 8c 3d af 30 41 3d 05 40 67 bb f1 52 6f 3d
       0.06859684 0.04716557 -0.0035285961 0.05842871
0001a0 5e da 1c 3d 3d 42 7a 3b d1 50 95 3d 83 9c 31 bc
       0.03829419 0.0038186454 0.07290805 -0.010840538
0001b0 4a 85 7d 3b 6e b5 a0 bc df 3f a3 3d 12 ab 98 bc
       0.0038684183 -0.019617762 0.07971167 -0.01863626
0001c0 0a 60 6a bd 50 72 86 bc ea ec 40 bd 14 87 46 bc
       -0.057220496 -0.01641193 -0.04710094 -0.012117166
0001d0 eb 26 4d 3d c7 37 52 3c ed 53 1c bd f9 9b e9 3c
       0.050085943 0.012830681 -0.038165975 0.028516756
0001e0 b7 4f 7d 3d 0b fe 15 3a 33 5f 65 3d e8 50 76 bd
       0.0618436 0.0005721754 0.055998992 -0.060135752
0001f0 dc 9f a1 3d c6 a6 8e bd bd c9 4d bd 50 e6 88 3c
       0.07891819 -0.06965403 -0.05024122 0.016711384
000200 5d a6 09 bc 16 dc bd bd 47 fc f6 bd bb 75 d3 3d
       -0.0084014805 -0.09270494 -0.12059837 0.1032519
000210 c8 05 e2 3d 8a 67 fc bd b9 18 76 bd 91 80 cd bc
       0.11036259 -0.12324436 -0.06008217 -0.02508572
000220 9b 58 50 3d 51 83 08 bd 92 a5 8e 3c b4 c7 ca 3d
       0.05086575 -0.033328358 0.017412934 0.099013716
000230 3e 97 0e bc 09 66 de 3b a1 11 23 3d 0a 60 40 bd
       -0.008703051 0.006787066 0.039811734 -0.04696659
000240 3b 76 7c bb b2 4a 9f bd e5 3d 8d bd 66 32 16 bd
       -0.003852262 -0.07777919 -0.06896571 -0.036669157
000250 36 11 9d bd 1a ae dc 3d cb 9a a6 bd b5 90 01 bd
       -0.07669298 0.10775395 -0.08134993 -0.031632144
000260 b9 d2 c6 3d b8 8a 8c 3d 32 b4 46 3d 0f e0 ed bd
       0.09708161 0.06862396 0.04851169 -0.116150014
000270 e2 8d 78 3d e5 78 bd 3d b0 b2 ba bd bc 05 49 bd
       0.060682185 0.092515744 -0.09116113 -0.049077734
000280 92 81 d9 3d b5 9b b6 bc 14 55 e3 bd ab 18 fc ba
       0.10620417 -0.022291044 -0.11100212 -0.0019233426
000290 7f 47 78 bd e2 18 25 bc 29 19 29 3d 34 ed f1 3c
       -0.06061506 -0.010076733 0.04128376 0.029532053
0002a0 e2 e8 c8 3c af 38 40 3d ed ab 17 3d ab 8f 86 3d
       0.02452511 0.046929058 0.037029196 0.06570371
0002b0 ee c8 ce bd 50 0c 79 bb f9 01 82 bd 54 3a ae 3c
       -0.10096918 -0.0038001724 -0.063480325 0.021268047
0002c0 6d ac c1 bd 1b c1 48 3d d8 9e bb bd 06 dc ca bc
       -0.09456716 0.049012285 -0.091611564 -0.024763118
0002d0 fa ca ba 3d 82 cf 6f 3d 23 35 f8 bc 2c 30 cd 3b
       0.09120746 0.058547504 -0.030298775 0.006261846
0002e0 95 6a 2c bd 8e 5d 6a bd 0c c2 c3 3d 44 7f c0 bd
       -0.042093832 -0.057218127 0.09558496 -0.09399274
0002f0 77 87 cb bc bd b6 7c bd f3 8d d2 bc 69 9f 62 3d
       -0.024844868 -0.06169771 -0.025702452 0.055327807
000300 b6 bf 5e bc d8 fd 1c bd 5b 09 a0 3d ee a5 a9 bd
       -0.013595512 -0.03832802 0.078142844 -0.08283602
000310 30 a5 a6 bd 84 af 6a bd 7b c9 72 3c b5 d9 5f 3b
       -0.08136976 -0.05729629 0.0148185445 0.0034156863
000320 ae 86 24 3d c3 ab a7 3d d3 02 9c bd d0 76 a3 bd
       0.040167503 0.08187058 -0.07617726 -0.07981646
000330 b6 44 b2 3c 5f 40 9f 3b 00 42 1e 3d 4b af b8 3b
       0.02176128 0.0048599686 0.03863716 0.005636131
000340 f6 9c 89 bc 9b 60 13 bd 0c 2a ce bd 35 d6 58 3d
       -0.016798478 -0.035980802 -0.100666136 0.05293866
000350 07 8d 71 3d a7 3c 7d bb 72 e7 78 bd 8c f8 37 bd
       0.058972385 -0.0038640888 -0.0607676 -0.044914767
000360 d8 50 69 bc ad 75 42 3d 7b e8 06 3c 75 95 63 3c
       -0.014240466 0.047475506 0.008234139 0.013890614
000370 5d b9 c3 3d 8b d9 6a 3d c0 13 8a 3c 05 6c 08 bd
       0.095568396 0.05733637 0.01685512 -0.03330614
000380 11 99 d2 bd 53 e8 5a 3c 71 2a f2 bd fc 7e 90 3d
       -0.10283101 0.0133610545 -0.11824501 0.0705547
000390 c7 36 98 3d 9f f8 ff 3c df 2a 9f bd 78 10 a5 3d
       0.07432323 0.031246481 -0.07771849 0.08059782
0003a0 a2 5a c4 3c 48 2f 5b 3d e4 cb 81 bd 51 82 67 3d
       0.023968998 0.053511888 -0.06337717 0.056520764
0003b0 6a 3d 9c 3d fe f9 90 bd 83 22 d7 bc 48 49 df bd
       0.07628901 -0.07078932 -0.026261574 -0.10902649
0003c0 af e3 47 bc ab da d6 bc 90 4b 57 bd 80 60 99 bd
       -0.01220028 -0.026227316 -0.052562296 -0.07489109
0003d0 9c 2e c3 3c 45 69 72 3d ea 07 4c 3c 89 7b ab 3c
       0.023825936 0.059182424 0.012453059 0.02093293
0003e0 35 73 c5 3d e7 dc d7 bd 9e 05 e1 bc 5e df 94 bd
       0.096411146 -0.10540181 -0.027468499 -0.072691664
0003f0 3b a0 f0 bd 81 13 ab 3d f2 6e 90 3d 39 7d 34 3d
       -0.117493115 0.083533294 0.07052411 0.044064734

rnn.bias_ih_l0 f4 [300]
000000 d9 6b bb 3d d0 30 32 bd 84 16 a7 3d ea c3 3f 3c
       0.0915143 -0.043503582 0.081585914 0.011704424
000010 69 fc 80 3a c9 3e e5 3d bf 11 3e 3d 71 ef bf bc
       0.0009840849 0.11193616 0.046403643 -0.023429604
000020 c0 63 8c 3d 2b 3c 26 3c b3 ba 8d bd 34 b4 2c bd
       0.06854963 0.010146181 -0.06920376 -0.042164043
000030 86 c2 2a bd d6 25 89 bc e0 c0 9e 3d ad bb ab bd
       -0.04168942 -0.016741674 0.07751632 -0.08385406
000040 04 ce 4c 3d e5 ad 71 bd e0 ed 8d bd b4 20 4e ba
       0.05000116 -0.05900373 -0.06930137 -0.00078631495
000050 f3 c4 9b bc c9 ef 68 3d ca cb 9e bd 1c f5 b9 3c
       -0.019014811 0.056869302 -0.077537134 0.022699885
000060 3a b4 2c bd e6 98 0f bd 92 96 bf 3d db b0 70 3d
       -0.042164065 -0.035057925 0.09354891 0.058762413
000070 7a 58 84 bd a7 9c 99 bd 79 a8 e6 bb 89 1a 68 3c
       -0.06462188 -0.07500582 -0.0070391265 0.014166483
000080 9d ed fc bc ca ed 4d 3d cf 3c e7 3c 99 8b 1b bd
       -0.030875022 0.0502756 0.028227238 -0.037974928
000090 71 fe f0 3d 0a 6d fe bb ca 14 e8 3c 6f df e0 bc
       0.11767281 -0.0077644633 0.028330225 -0.027450291
0000a0 15 57 82 bb 3a 2a 68 bd 40 4c b2 bd ea e9 ff bc
       -0.003977666 -0.056680895 -0.0870595 -0.031239469
0000b0 e6 5e bf 3d 79 03 88 bd f3 f0 a4 bd 53 a4 eb 3c
       0.09344272 -0.06641287 -0.0805377 0.02876488
0000c0 67 32 c3 bd 7c f1 8b bd fd ca 09 bc 0f 1f 84 3d
       -0.09531098 -0.06833169 -0.008410213 0.064512365
0000d0 d9 2f 06 3c 6b 5e d9 3d b6 17 0c bd 21 4e 06 bd
       0.008190119 0.10613712 -0.0342023 -0.032789353
0000e0 9b 5a 8d bd d2 ae 27 3d d5 a8 e5 3d a9 fa 8d 3d
       -0.06902047 0.040938206 0.11213843 0.06932575
0000f0 8a e0 aa bd 9f e1 95 bd a2 af 32 3d 8e f3 35 3d
       -0.08343609 -0.073184244 0.043624528 0.044421725
000100 81 54 12 3d 7c d1 38 bc fd 31 84 bb 72 f3 d1 bd
       0.03572512 -0.011280414 -0.0040342794 -0.10251512
000110 ed 3e 3a bd 48 ad 58 bd 88 6a 99 bd 30 1f 06 bd
       -0.045470167 -0.05289963 -0.07491022 -0.032744586
000120 ee fa 3b bd b7 f3 bd bd 16 21 84 3d e1 e5 9a bd
       -0.045893602 -0.092750005 0.06451623 -0.07563377
000130 b0 c4 b6 bc 2e e6 b5 3c 10 68 7e bd a6 ef 91 3d
       -0.022310585 0.022204485 -0.06211096 0.071257874
000140 df 2b 96 3d d3 c0 cd 3d 33 64 16 3b b1 55 15 ba
       0.073325865 0.10046544 0.0022947907 -0.0005696668
000150 be b6 5b bd 0f cb e6 bd a0 76 9d bd 71 00 94 bb
       -0.053641073 -0.11269199 -0.076886415 -0.004516654
000160 11 66 d5 bc 53 31 00 3d a9 e8 b9 3d 58 46 0f 3d
       -0.026049646 0.03129704 0.090775795 0.034979194
000170 70 63 96 3d 15 79 00 3d 08 ec 2a 3d d6 2b da bc
       0.07343185 0.031365473 0.041729003 -0.02663223
000180 d5 59 30 3d c2 67 51 3d 61 13 c5 bd 00 6f 8d bd
       0.04305442 0.05112434 -0.09622837 -0.06905937
000190 ee 4c 1d bd 15 ef a0 bc 45 2d 27 be c5 69 0a be
       -0.038403444 -0.019645253 -0.16325863 -0.1351691
0001a0 92 7d 6f 3d 7b 93 84 bc b1 4f 83 3c bb 81 df bd
       0.058469363 -0.016183605 0.01602921 -0.10913416
0001b0 87 2a 44 3d f8 1e 36 be d0 df 9d bd 30 7d d5 bc
       0.04789212 -0.17785251 -0.077087045 -0.02606067
0001c0 e7 15 de 3d 77 07 0a bd 35 7c 6c bd a5 f8 80 3d
       0.10844021 -0.033698525 -0.05773564 0.06297425
0001d0 53 29 4f 3a bd de 2e be 08 31 8a bc 7d 76 5e 3d
       0.0007902581 -0.17077155 -0.016869083 0.054312218
0001e0 22 ad 10 be 7b b7 59 bd 66 a7 85 3c 90 f5 93 bb
       -0.14128545 -0.053153496 0.016315173 -0.0045153573
0001f0 b5 80 68 bd 4f 2f b8 bd 6c 0a ee 3b 60 da 67 bd
       -0.05676337 -0.089933984 0.007264426 -0.056604743
000200 c8 f8 15 bd 78 74 c0 bd 69 f0 25 be 22 32 39 3b
       -0.03661421 -0.09397215 -0.1620499 0.0028258641
000210 84 93 7b bd 91 47 84 bd 7b b4 c9 bd 4d 3c c1 bc
       -0.06141998 -0.06458963 -0.09848877 -0.023588324
000220 b5 b2 d7 3b 4f 02 dc bb bb 5d cd 3d 31 5e 18 be
       0.006582583 -0.0067141424 0.10027643 -0.14879681
000230 e4 62 fc bd 42 5c ab bd a9 06 80 bd 40 4d 97 bd
       -0.123235494 -0.08367206 -0.0625127 -0.07387781
000240 66 2a 14 be 4b 92 53 3d e1 86 d4 bd a9 9b ff bc
       -0.14469299 0.051653188 -0.103772886 -0.031202154
000250 83 d9 81 bd f5 2b 28 be 63 a1 87 bd 4d ab 17 bd
       -0.06340315 -0.16423018 -0.06622579 -0.0370286
000260 4b d1 13 be b7 83 0d be bc 05 5f 3c 64 73 02 3c
       -0.14435308 -0.13819776 0.013612207 0.007962082
000270 ab 79 29 be 95 15 41 bd 46 7c aa bd 6d ca 29 bd
       -0.16550319 -0.047139723 -0.083244845 -0.041452814
000280 16 f4 cb 3d a0 12 22 be 21 32 81 bd 7c 6b db bd
       0.09958665 -0.15827417 -0.063083895 -0.107138604
000290 d8 ef c1 bc e5 b5 92 bd 95 07 2e be 6b ff 1f be
       -0.023673937 -0.071636 -0.1699508 -0.15624778
0002a0 5f a9 7c bd e2 54 9b bd 89 f6 b0 bb 85 a2 0c bd
       -0.061684962 -0.075845495 -0.005400483 -0.03433468
0002b0 0e 21 65 bd 73 90 84 3b 6d af 5c 3c de 99 00 be
       -0.055939727 0.00404554 0.013469559 -0.12558696
0002c0 f6 a6 55 3d 22 d1 52 3b 56 34 01 be 6b 3c cc bd
       0.05216118 0.003216811 -0.12617621 -0.09972461
0002d0 1b ea 8b bd 1b be 91 3d e7 73 15 3d bc c6 38 be
       -0.068317614 0.07116338 0.036487486 -0.18044561
0002e0 bb ad e9 bd 10 b6 13 be 4b 6b 45 bd b1 c4 0a be
       -0.114100896 -0.1442492 -0.048198026 -0.13551594
0002f0 83 b0 12 be 4c a5 1d be f5 1c 8d bd 11 9b b5 bd
       -0.14325146 -0.15395087 -0.06890289 -0.08867467
000300 5a ad 0b 3e c6 4f 61 bd a0 06 36 bd 9e 5f 0d 3d
       0.13640347 -0.05500772 -0.04443991 0.034515016
000310 23 3a df 3b a6 34 d4 bd ab 38 9b bc 10 38 2e be
       0.0068123504 -0.103616044 -0.01894792 -0.17013574
000320 57 b0 16 bd dc dc 6e bd ef 8f c8 bd 04 84 1a bd
       -0.036789265 -0.058316097 -0.09793078 -0.037723556
000330 fe ed a3 3d a6 80 8b bd e0 14 67 3d f3 8b 5b bd
       0.08004378 -0.06811647 0.056416392 -0.053600263
000340 52 eb 65 3b e8 85 6d bd f7 b9 3e bc 61 81 8d 3d
       0.0035082889 -0.05798903 -0.011641017 0.06909443
000350 63 d9 3e 3d f8 2a bd bc b8 7f 03 bc 1e 44 03 3c
       0.046594035 -0.023091778 -0.008026056 0.008011846
000360 0a e5 89 bb 81 b0 8a bd 51 98 a8 bd 04 54 ae bd
       -0.004208212 -0.06771947 -0.08232177 -0.085121185
000370 26 fd 84 bd 55 e5 bf bd 97 40 d2 3b a6 28 bd 3d
       -0.06493597 -0.093699135 0.006416391 0.09236269
000380 9e 1a 41 bd a5 ec 4f 3c 26 23 d1 bd db 2a b4 bd
       -0.047144525 0.012690698 -0.10211782 -0.087972365
000390 13 e7 51 3d 74 6a 8d 3d 9e 59 74 bd d6 71 9d 3d
       0.05124576 0.0690507 -0.059655778 0.07687728
0003a0 a7 a1 9a 3c f2 89 9f bd 15 52 b1 bd ad b9 37 3d
       0.01887591 -0.07789983 -0.08658234 0.04485481
0003b0 1d 81 81 3d 84 43 92 3d 94 2c c4 bd d4 64 bf bb
       0.063234545 0.07141784 -0.09578815 -0.005840877
0003c0 a5 da 85 bc d0 aa 84 bb 73 75 d8 39 36 e6 20 3d
       -0.01633961 -0.0040486827 0.00041286237 0.039282046
0003d0 55 4f 1d bc c9 8e a6 bc 52 50 d7 3c 3c c2 a6 bc
       -0.009601434 -0.020331757 0.026283417 -0.02035629
0003e0 5c ee 9b 3d 42 66 44 3d 56 38 ad bc 65 04 f6 3d
       0.07613823 0.047949083 -0.021145027 0.12012557
0003f0 61 7d 85 bd d7 89 39 bd 78 9a 66 3d dc 09 d4 3b
       -0.06518055 -0.04529747 0.056299657 0.006470902

rnn.bias_hh_l0 f4 [300]
000000 f4 91 57 3d 92 af 93 bc 16 59 a2 bd c0 ea b1 3d
       0.052629426 -0.018028054 -0.07927148 0.08687353
000010 1b 88 12 3d b7 fd c7 3c 1b 5b 6a 3c e5 a5 d7 bd
       0.03577433 0.024412973 0.014303948 -0.10529689
000020 81 56 a9 3c 65 b0 7d ba 6c 85 84 bd 4f d3 cd 3d
       0.020671131 -0.0009677469 -0.06470761 0.100500695
000030 45 6e 56 3d 3f e0 07 3d f2 04 81 3d 93 12 92 bd
       0.052351255 0.033172842 0.06299771 -0.07132449
000040 6a 12 84 bc 0c d5 0d bb d7 d8 8d bd dc e2 6e 3d
       -0.016122062 -0.0021641878 -0.069261245 0.05832182
000050 32 45 b5 3d 4d 40 31 3d 37 38 28 3d 1e 8e 8e bc
       0.088510886 0.043274213 0.041069236 -0.017401751
000060 1a f6 88 ba 49 39 82 bd fd f7 24 bd 1c 6a 7c bd
       -0.001044932 -0.063585825 -0.040275563 -0.06162463
000070 28 a5 8c 3d 24 5f d3 3d eb de 69 3d b7 87 8e 3d
       0.068674386 0.10320881 0.057097357 0.06959479
000080 72 ec 80 bd 85 a8 6a bd 9d 02 d5 3d 1e 70 ec bb
       -0.06295098 -0.05728962 0.10400889 -0.007215514
000090 f0 97 b2 3c 54 f9 43 3d ef 4a 0e 3d 02 2f 4b 3d
       0.021800965 0.0478452 0.03473943 0.049605377
0000a0 ab 50 ef bc 9d 29 c8 3d c0 ff 13 3c a6 60 81 bc
       -0.02921327 0.09773562 0.0090331435 -0.015793156
0000b0 1e 88 37 3d 2f 3a 29 bd 6f 64 e8 3d 45 fd d5 3d
       0.044807546 -0.041315254 0.11347281 0.10448698
0000c0 be 7e 85 3d c8 c9 c9 3d b5 4c c3 3d 32 7e 33 bc
       0.06518315 0.0985294 0.09536115 -0.01095538
0000d0 de e8 56 bd 5b 3c d7 3d 93 50 11 bd 03 b7 60 3c
       -0.052468173 0.10509559 -0.035477232 0.013715508
0000e0 cb e7 b4 bd ac a4 56 bd 78 b9 d9 3c 93 aa fc 3d
       -0.088332735 -0.052403137 0.026577696 0.12337222
0000f0 ab 7a 7d 3c 3d 43 d9 3d 87 5f 98 bc 32 09 2e 3d
       0.015471141 0.10608528 -0.018600238 0.042489238
000100 4a 32 0e bd 35 01 9e bd 35 28 95 3d cc a9 ea bd
       -0.034715928 -0.07715074 0.072830595 -0.114581674
000110 4d ab b6 bc 59 84 0a 3d f5 40 06 3b 33 f0 8b bd
       -0.02229848 0.033817623 0.0020485495 -0.06832924
000120 f3 22 a0 bc 24 d6 0b bd 31 31 b4 3d ae 1e 2c 3d
       -0.019547915 -0.034139767 0.08798445 0.042021446
000130 23 e1 c1 3c a0 99 93 bd 8e 3a 9a bd b0 e2 e6 3b
       0.023666924 -0.07207036 -0.075307 0.007046066
000140 05 1c e6 3c 06 a9 be 3d 58 74 3e 3d 8c dc ce 3d
       0.028089533 0.093095824 0.046497673 0.1010066
000150 c3 19 c5 3b 05 90 e7 bc b2 f6 65 3d cb 31 10 3d
       0.006015034 -0.028266916 0.05614347 0.035203736
000160 51 ea be 3c 4e 34 ab bc 3e b3 db 3d 96 2c 66 3d
       0.02330509 -0.020898964 0.10727547 0.056194864
000170 ed 8c d9 3d 81 d7 71 3d 1f 41 6f bd 30 5e b1 bc
       0.106225826 0.05904341 -0.058411714 -0.021651357
000180 93 02 b4 bd fa 01 eb bc b6 31 0f bd ba ad 4e bd
       -0.087895535 -0.028687466 -0.034959517 -0.050458647
000190 32 b7 e2 bc e3 6d 29 bd 7e a8 01 bc 28 d8 04 be
       -0.027675245 -0.04136456 -0.007913707 -0.12973082
0001a0 69 f7 df bd 73 fe 15 be 12 63 fd bc c8 b0 c2 bd
       -0.109358616 -0.14647846 -0.03093103 -0.095063746
0001b0 84 f8 87 3d 4c 71 d2 bd bc f1 0f be ea 86 dd 3d
       0.066391975 -0.10275516 -0.14057058 0.108167484
0001c0 cf d9 93 3d 42 37 f2 3d e0 a9 00 be a0 ea db 3d
       0.07219278 0.11826946 -0.12564802 0.107381105
0001d0 3f 67 e4 bd f8 48 23 be 34 c4 15 be 72 d9 e1 3d
       -0.11152505 -0.15945804 -0.14625627 0.110278025
0001e0 da c7 f4 bd 23 40 8e bd 38 37 cc 3d 01 14 08 be
       -0.11952181 -0.06945827 0.0997147 -0.13288881
0001f0 53 e3 1a 39 f8 64 af bd 33 c0 50 3b 4f 7b da bd
       0.0001477127 -0.0856418 0.003185284 -0.106680505
000200 71 28 fd bb db d8 e4 bc bb 71 55 bc 38 59 21 be
       -0.0077257683 -0.027935436 -0.013027604 -0.1575669
000210 25 f9 6d bd 85 f0 13 be 0d 17 fb bd 01 be 92 bc
       -0.05809893 -0.1444722 -0.12260256 -0.017912867
000220 98 1a 03 be 1e 66 fe 3c 69 51 04 3e 8a e9 c2 bd
       -0.12803113 0.031054553 0.1292168 -0.095172
000230 ad 25 6d bc 7c 03 55 bd ed a7 ef bc 10 2f 39 be
       -0.014474315 -0.052005276 -0.029254878 -0.18084359
000240 48 5a 08 be da bd b6 3d db 57 b6 bd 87 54 8f bb
       -0.1331569 0.0892293 -0.08903476 -0.00437409
000250 b3 c8 32 bc ed 46 30 be 3b 55 e5 bc bf c9 35 bd
       -0.010912108 -0.17214556 -0.027994743 -0.044381853
000260 23 a4 e2 bc 35 53 d9 bd de e6 ed bd 57 ae 25 be
       -0.027666157 -0.106115736 -0.116163 -0.16179787
000270 00 4e f4 bd 46 7c fd bd 85 69 44 3d aa 35 14 bd
       -0.1192894 -0.12377219 0.047952194 -0.03618399
000280 d3 7c d2 3d a7 a4 1f be 2f ed 81 bd 19 c2 95 bb
       0.102777146 -0.15590154 -0.06344067 -0.0045702574
000290 ed 53 76 3c 9f dd 91 bd 0e b6 f8 bd 66 75 57 bd
       0.015034658 -0.07122349 -0.12144099 -0.052602194
0002a0 ff 60 21 bc e4 0a 34 be 6e 7f 18 bd 70 68 26 bd
       -0.009849786 -0.1758228 -0.0372309 -0.040626943
0002b0 2f da 11 3d 5c e2 50 bd 48 12 94 bc 5f a0 4f bd
       0.035608467 -0.050997123 -0.018075123 -0.05069005
0002c0 2b 40 95 3d 81 fc b5 bc 78 6b 39 bd dc b0 d2 bd
       0.0728763 -0.02221513 -0.045268506 -0.102876395
0002d0 ca 66 a2 3c 08 bb 62 3d 3b f1 96 bd 77 1d 26 be
       0.019824404 0.05535415 -0.0737023 -0.16222177
0002e0 7a 5d dc 3c 43 b6 82 bd 83 a5 99 bd 26 57 43 3d
       0.026900042 -0.0638242 -0.07502272 0.047690533
0002f0 fe a6 7d bd de aa 22 be 8f f9 24 bd fd 6c 8e bc
       -0.061926834 -0.15885493 -0.04027706 -0.017385954
000300 d3 74 08 3e 07 6a 38 be 31 9f 32 be 76 47 f2 bc
       0.13325815 -0.18009196 -0.17443539 -0.02957509
000310 68 62 e2 bd c3 46 35 be 3d f8 25 be 46 0b 00 be
       -0.11053926 -0.17702775 -0.16207977 -0.125043
000320 8f 0f c4 3d 80 1c a7 bd 4f 1a 33 bd bd 83 f3 3b
       0.0957328 -0.08159733 -0.04372626 0.007431476
000330 4a cd 1e 3d e8 2f ab bd 87 cc 51 3c cd be b5 3d
       0.038769998 -0.08358747 0.012805111 0.08874283
000340 43 4e 90 3d 61 f3 a7 bd 5b 3b c8 bd 30 a1 29 bd
       0.07046177 -0.08200718 -0.09776946 -0.041413486
000350 d5 01 0a bc fa 66 9a 3d f9 c7 ce bd 33 f2 69 bc
       -0.008423288 0.075391725 -0.100967355 -0.014278936
000360 d8 cb 36 3c 2e d5 46 3d 7c d6 22 bd 84 0f 50 3c
       0.011156999 0.048543148 -0.03975533 0.012699012
000370 83 0d bf 3d f4 36 5a 3c 5c db 79 3c 09 d5 d5 3b
       0.09328749 0.013318766 0.015250053 0.00652564
000380 ed 5c 9a bd 3a 14 32 3b c0 12 98 3d 77 79 5a 3d
       -0.075372554 0.00271727 0.07425451 0.053338494
000390 29 9b be 3d 2c 82 b8 3d 52 fe b7 bd d6 85 eb 3c
       0.09306938 0.09009203 -0.089840546 0.028750341
0003a0 34 95 70 bc 20 67 54 bd fc d3 39 bc 25 ed 94 bd
       -0.01468401 -0.05185616 -0.011342045 -0.07271794
0003b0 47 e2 68 3b 25 b9 77 bc 95 1f b8 bd 49 3b 12 bd
       0.0035535262 -0.0151198255 -0.08990399 -0.03570107
0003c0 2e 9e a0 3d ff fa 91 bc bc 03 b4 3d 09 7d 7e 3d
       0.078426704 -0.01781988 0.08789775 0.06213096
0003d0 51 6f 36 3d e1 47 85 bd 41 4b b4 3d 81 20 cc bd
       0.044539753 -0.065078504 0.08803416 -0.09967137
0003e0 4f e6 aa bd 02 e4 aa bc 9f cb e2 3d da 07 35 bd
       -0.08344709 -0.020860676 0.11073994 -0.04419694
0003f0 6a 36 a3 3d f7 95 bc 3d 49 cd b6 bd 38 dc 20 bd
       0.07969363 0.09208291 -0.08925874 -0.039272517

linear.weight f4 [1, 100]
000000 59 82 9d 3c c3 f0 f5 3d 89 79 69 bd 52 2d a4 bd
       0.019227194 0.12008812 -0.05700067 -0.08016457
000010 ed 39 af 3c 78 10 fc 3d 4a 7f c3 3d 2e 6c c0 3a
       0.021389926 0.12307829 0.09545763 0.0014680678
000020 8c 91 32 bd e5 2c ab 3d d9 b5 bc 3c 04 98 07 bd
       -0.043595836 0.08358172 0.02303593 -0.033103958
000030 ad c0 56 bd 79 54 40 bd 96 02 8c bd ad e8 6b 3d
       -0.052429844 -0.04695556 -0.06836431 0.057594944
000040 ac 5d 6c ba aa d6 f8 3d ba 8e b4 3d 2e a6 c5 3c
       -0.0009016644 0.12150319 0.088162854 0.024127092
000050 15 3d 93 3d b5 12 b0 3d ed 9e 4c 3d 51 4c f4 3d
       0.07189385 0.08597318 0.04995625 0.11928619
000060 6d 05 e2 bd f5 04 a3 bd 7c bd 9a 3d 6c f0 4e bd
       -0.11036191 -0.0795993 0.075556725 -0.050522253
000070 1a d9 4a bd 0e ae 63 3d 13 93 b3 3d 45 78 6d bd
       -0.04952345 0.055585913 0.087682866 -0.057976026
000080 f2 b7 73 3d 03 ba 92 3d 57 36 1c bd 79 57 39 3d
       0.059501596 0.07164385 -0.03813776 0.045249436
000090 38 6c ce 3d 28 81 86 3c c4 29 33 3d 9a 0c 04 be
       0.10079235 0.016419008 0.043741003 -0.12895432
0000a0 78 97 09 3d ce 70 2d bd 7f fb b7 bd e9 17 c2 bd
       0.033591717 -0.042343907 -0.08983516 -0.09477217
0000b0 ff 54 57 bd 94 49 51 3c 9a 5d 9e 3d 8d d3 cb bd
       -0.052571293 0.01277389 0.07732697 -0.099524595
0000c0 d6 a2 eb 3d ab 47 78 bc 0a 1e 65 bd 3a 21 cb 3c
       0.11505668 -0.015153806 -0.05593685 0.024796117
0000d0 8a c5 ff bd 5e aa 04 3e 67 85 d9 bc 6d 74 03 3e
       -0.124888495 0.12955615 -0.026552869 0.12837382
0000e0 d4 27 3b bd 1b 37 e0 bd da b6 27 bd 15 b5 05 3e
       -0.04569228 -0.109480105 -0.040945865 0.13057359
0000f0 73 c8 72 3d e6 af 1d 3d ad 45 22 3d b9 10 2b bd
       0.059273195 0.038497828 0.03961723 -0.041763995
000100 9b 68 e4 bc 19 d5 bc bd 8d af d5 3c a1 dd a3 bd
       -0.027881911 -0.09220333 0.026084686 -0.08001257
000110 48 73 24 bd da 60 89 bd 72 43 81 3d 80 c9 8e 3d
       -0.040149003 -0.06707926 0.06311692 0.06972027
000120 08 80 9e bc 06 15 93 bc cd 58 57 3d ee 3a 9a 3d
       -0.01934816 -0.01795436 0.05257492 0.07530771
000130 f6 76 e8 bb 13 c4 fe bd 35 2c e2 3d f1 60 05 3e
       -0.0070942594 -0.12439742 0.11043588 0.13025261
000140 44 83 88 3d a1 3d 08 bd 25 6c 8b 3d e3 a4 e3 3d
       0.06665662 -0.0332619 0.06807736 0.11115434
000150 65 bc d7 3d 0d 2e b2 bc ce d5 dc bd 32 5b 52 bd
       0.1053398 -0.021750474 -0.107829675 -0.051356502
000160 70 c8 91 3d 85 23 7f 3d 8a d7 1d 3d b3 d6 b7 3c
       0.071183085 0.062289733 0.038535632 0.022441244
000170 12 82 92 bd d7 f4 6f bd 98 8f f6 bd 14 91 5b bb
       -0.07153715 -0.058583107 -0.12039107 -0.0033503221
000180 c0 f3 f5 3d c1 28 02 3e a6 2c df bc 39 26 f9 bd
       0.12009382 0.12710859 -0.02724297 -0.121654935
