backend/trained_models/NMB_LSTM_model_state_dict.pth (torch, 167939 bytes, 5 tensors)

rnn.weight_ih_l0 f4 [400, 1]
0	0x3ca55c63	0.020185655
1	0x3d3cae2b	0.046064537
2	0xbd95611d	-0.072939135
3	0xbcc23339	-0.023706065
4	0xbdbf9cc7	-0.09356075
5	0x3cf260b3	0.029587125
6	0x3d8e83fb	0.06958767
7	0x3d514ada	0.051096775
8	0x3d254cbc	0.040356383
9	0x3daa3ab2	0.083119765
10	0xbdd38415	-0.10327927
11	0x3d592d7c	0.053021893
12	0x3d8d945a	0.069130614
13	0xbdb82abe	-0.089925274
14	0xbdef7908	-0.11693007
15	0xbbf87038	-0.007581737
16	0x3db2e103	0.08734324
17	0x3c8c14c9	0.017099755
18	0xbc1d6647	-0.009606904
19	0xbcb6c41d	-0.022310311
20	0xbdc78e3b	-0.09743925
21	0x3ace812e	0.0015755051
22	0xbd6721ff	-0.056428906
23	0xbc3321db	-0.010933365
24	0xbd84e5c8	-0.0648914
25	0x3df96c17	0.121788196
26	0xbca2aa88	-0.019856706
27	0x3db47d38	0.08812946
28	0x3bd03f54	0.0063552056
29	0xbce6b3c9	-0.0281619
30	0x3aea1f65	0.001786214
31	0xbcfb17be	-0.03065097
32	0xbd877931	-0.06614912
33	0x3de8ea1d	0.113727786
34	0xbb869acb	-0.004107808
35	0x3dbba6b7	0.09162658
36	0xbd91fd5d	-0.07128403
37	0x3ddc8083	0.10766699
38	0xbd99a8b3	-0.0750288
39	0xbd320c1d	-0.043468583
40	0xbcbbfdf5	-0.022948245
41	0xbca98009	-0.020690935
42	0x3d7cefdc	0.061752185
43	0x3d219d8c	0.03945689
44	0xbd08848e	-0.03332954
45	0xbd03d062	-0.03218115
46	0x3a6f9a8a	0.00091401546
47	0x3de31c22	0.1108935
48	0x3d05fa23	0.032709252
49	0x3d3567a6	0.0442883
50	0xbd71ca50	-0.05903083
51	0x3befd135	0.0073186406
52	0xbddbff8c	-0.10742101
53	0xbb4da3bd	-0.0031378113
54	0x3c92902a	0.017891008
55	0x3d897f86	0.06713776
56	0xbdcb7668	-0.099346936
57	0x3de59809	0.11210639
58	0xbda68c3a	-0.08132215
59	0xbd6b4c91	-0.057446066
60	0x3c086e87	0.008327133
61	0xbd7d53bc	-0.061847433
62	0xbd95c72f	-0.07313382
63	0x3cdcfaba	0.026975024
64	0x3cac82de	0.021058496
65	0x3d862270	0.06549537
66	0x3c091cc6	0.0083686765
67	0xbdd44c70	-0.10366142
68	0xbd94cb54	-0.07265344
69	0xbc00e8fd	-0.007868049
70	0x3cf6c29b	0.030122092
71	0x3cad69e4	0.021168657
72	0xbd9ba280	-0.07599354
73	0xbb62f0e0	-0.0034628436
74	0x3d571779	0.05251262
75	0xbd26a7cd	-0.04068737
76	0x3d96c3bf	0.07361554
77	0x3d105add	0.035242904
78	0x3defb42a	0.117042854
79	0x3d463ad6	0.048395954
80	0xbd04ff9f	-0.03247034
81	0xbd3f9801	-0.04677582
82	0xbd29d713	-0.041464876
83	0xbd3c5a36	-0.04598447
84	0xbd4a53c1	-0.04939628
85	0xbdea142f	-0.11429631
86	0x3da2f82c	0.07957491
87	0x3c3397eb	0.010961513
88	0xbd2c87bc	-0.042121634
89	0x3dcccf1a	0.10000439
90	0x3db075fc	0.08616254
91	0xbd9b4fd9	-0.07583589
92	0x3d14a9e5	0.036294837
93	0x3cf5813d	0.029968852
94	0xbdf301ac	-0.11865553
95	0xbcda8313	-0.02667383
96	0xbdd000c1	-0.10156394
97	0xbdcf29cd	-0.10115395
98	0x3de565a1	0.11201025
99	0xbd85e9c5	-0.065387286
100	0x3da1a1a3	0.07892158
101	0x3dee4c12	0.11635603
102	0xbc494bcb	-0.012286137
103	0x3de35075	0.1109933
104	0x3cd32e96	0.02577905
105	0xbc8e926d	-0.017403806
106	0x3da85b59	0.08220548
107	0xbd31468e	-0.043280177
108	0x3dc3e92a	0.09565957
109	0x3de5cbb2	0.112204924
110	0xbd963284	-0.07333854
111	0x3dbe15ad	0.09281478
112	0x3dcec322	0.100958124
113	0xbe158d8f	-0.14604782
114	0xbd8558ad	-0.06511054
115	0xbd332793	-0.043738913
116	0x3d4c15f7	0.049825635
117	0xbcfef1fe	-0.03112125
118	0xbe0d8cf0	-0.13823295
119	0xbcdf783c	-0.027279012
120	0xbd19031f	-0.037356492
121	0x3e028ff6	0.12750229
122	0xbb884fb6	-0.004159893
123	0x3dbf6b8b	0.09346684
124	0x3d2666c0	0.040625334
125	0xbcc2230d	-0.023698354
126	0xbda3f5b7	-0.08005851
127	0xbd536ff5	-0.051620442
128	0x3d133c87	0.035946395
129	0x3d01c7bb	0.03168462
130	0x3d858188	0.06518847
131	0xbcad5716	-0.02115969
132	0x3da20028	0.07910186
133	0xbd210b95	-0.039317686
134	0xbc51069d	-0.012757924
135	0x3cd9c9b7	0.026585443
136	0x3d852d36	0.06502764
137	0x3d0f6e1a	0.03501711
138	0xbda3924b	-0.079868875
139	0x3dd41045	0.10354666
140	0x3dca33bf	0.09873151
141	0xbc9d0dc1	-0.019171597
142	0x3d989f89	0.07452304
143	0xbde58773	-0.112074755
144	0xbbd5791c	-0.0065146815
145	0xbd30cfcd	-0.043166924
146	0xbc2f5185	-0.010700588
147	0x3dcca144	0.099916965
148	0xbc2c231d	-0.0105064185
149	0x3dff7aca	0.12474592
150	0x3bb6b723	0.005576031
151	0x3e0af548	0.1357013
152	0xbdf45ab5	-0.119313635
153	0x3d70a3af	0.05874985
154	0x3d2fd11d	0.042924035
155	0x3d25ec4a	0.040508546
156	0x3c034ec2	0.008014383
157	0xbcd3133b	-0.025766006
158	0x3d41feaa	0.047362007
159	0xbd33404c	-0.04376249
160	0x3d1216c0	0.035666227
161	0x3dbece93	0.09316745
162	0xbda9419f	-0.08264469
163	0xbd10fff6	-0.035400353
164	0xbcfc1347	-0.03077091
165	0xbdab261d	-0.08356879
166	0xbc320f1e	-0.010867862
167	0xbdf7d2cf	-0.121007554
168	0x3d9eef0d	0.07760439
169	0x3ca9b560	0.02071637
170	0xbd643ec2	-0.055723913
171	0xbc34feea	-0.011047104
172	0x3ccb6fe4	0.024833627
173	0x3da2d13c	0.079500645
174	0xbc1b116b	-0.009464602
175	0x3e050321	0.12989475
176	0x3d06025e	0.0327171
177	0x3cc58c79	0.024114834
178	0x3dbe15a4	0.09281471
179	0x3d5ebb21	0.05437768
180	0xbc4fa79e	-0.01267424
181	0xbde2b5c0	-0.11069822
182	0xbd6ee9a7	-0.058328297
183	0x3c04ee9b	0.008113529
184	0xbd3eadb0	-0.04655236
185	0xbddeda29	-0.108814545
186	0x3d463ba5	0.048396725
187	0x3c3b80ed	0.0114443125
188	0xbd0946dc	-0.033514842
189	0x3dd6e330	0.10492551
190	0x3d0fbd6b	0.035092752
191	0xbc88147e	-0.016611334
192	0x3d9d266c	0.07673344
193	0x3db2d5f8	0.087322176
194	0xbe1639bd	-0.14670463
195	0x3cf66246	0.030076157
196	0x3d44a406	0.048007987
197	0xbca906dd	-0.020633155
198	0x3d52e573	0.05148835
199	0xbc2ba5b9	-0.010476523
200	0x3de6af4a	0.112639025
201	0xbd3fad5a	-0.04679618
202	0x3cbc11ad	0.022957647
203	0x3da5f165	0.08102683
204	0xbe162aaa	-0.14664713
205	0x3d4ce650	0.05002433
206	0x3cf2a0b9	0.029617654
207	0x3da6ccb3	0.08144512
208	0x3d8d52a1	0.06900526
209	0x3da83b1b	0.082143985
210	0x3db45198	0.08804625
211	0x3d8b881b	0.068130694
212	0x3dfaebff	0.12252044
213	0x3dc8735c	0.09787628
214	0xbd679a42	-0.056543596
215	0xbd9c0f91	-0.076201566
216	0xbd73995d	-0.05947243
217	0xbd7ee475	-0.062229592
218	0x3d9336e9	0.07188208
219	0x3d9f0cd6	0.0776612
220	0x3c17b899	0.00926032
221	0x3e05d9a0	0.13071299
222	0x3d593f5e	0.053038947
223	0x3ba92081	0.0051613455
224	0x3d914d6e	0.07094847
225	0xbcccc15b	-0.024994543
226	0xbd6c1d54	-0.057645157
227	0xbdd1ea1b	-0.1024973
228	0xbda0fba8	-0.078604996
229	0x3d565119	0.052323435
230	0xbd1eb8bc	-0.038750395
231	0xbddbd489	-0.10733897
232	0xbc7b04e6	-0.015320992
233	0xbda16256	-0.07880084
234	0x3dff5549	0.12467439
235	0x3bfc7bd2	0.00770519
236	0xbd85e324	-0.06537464
237	0x3d0f38a4	0.034966126
238	0x3d76e718	0.060278982
239	0x3d1438b0	0.036186874
240	0xbe095fd0	-0.13415456
241	0xbd5a637e	-0.05331754
242	0x3d89d830	0.067306876
243	0x3dc3cc29	0.09560425
244	0xbd82ea4b	-0.06392344
245	0x3c187542	0.0093053
246	0xbc8ae80b	-0.01695635
247	0x3d7ea179	0.06216571
248	0xbdad66db	-0.08466884
249	0x3d213946	0.03936126
250	0xbe094a82	-0.13407329
251	0x3d9ac6e8	0.075574696
252	0x3d7803f6	0.060550652
253	0xbd973144	-0.073824435
254	0x3d01c9ad	0.031686474
255	0xbddad67d	-0.10685442

rnn.weight_hh_l0 f4 [400, 100]
0	0xbce00005	-0.02734376
1	0x3da56229	0.08075363
2	0x3d3bf78a	0.04589037
3	0x3d91b350	0.07114279
4	0x3da84723	0.08216693
5	0xbc9269d4	-0.017872728
6	0x3ddb6b9e	0.10713886
7	0x3be2b740	0.0069188178
8	0xbcc2b6b5	-0.023768762
9	0xbcc24979	-0.023716675
10	0x3d568c08	0.052379638
11	0x3de083be	0.10962628
12	0xbd9f1356	-0.0776736
13	0xbdd70753	-0.10499444
14	0xbd81d3fd	-0.06339262
15	0x3de1f130	0.11032331
16	0x3d97c7da	0.074111655
17	0x3b3161ce	0.0027066353
18	0xbd83d4c4	-0.06437066
19	0x3da7520a	0.081699446
20	0x3dd26243	0.10272648
21	0x3d5f4d8e	0.05451732
22	0xbd81f949	-0.063463755
23	0x3d8adae8	0.06780034
24	0x3d965279	0.07339949
25	0x3d0f9095	0.035049994
26	0x3d7fa83a	0.062416293
27	0x3d2cf85a	0.042229034
28	0xbd53b7dc	-0.051689014
29	0x3d9d95bf	0.076945774
30	0xbdd46abe	-0.10371922
31	0x3cdbf87d	0.026851887
32	0xbb75beab	-0.003749768
33	0xbd6db9ba	-0.05803845
34	0xbb39fe74	-0.0028380426
35	0xbd3ed7fe	-0.046592705
36	0xbdc94400	-0.09827423
37	0xbdb4beab	-0.088254295
38	0x3dcef0db	0.10104533
39	0x3dc2b599	0.09507293
40	0x3d028152	0.03186161
41	0xbc81b962	-0.015835468
42	0x3d6cd85c	0.057823524
43	0xbd20f74b	-0.039298337
44	0xbd7bede3	-0.061506163
45	0x3abcfb06	0.0014418073
46	0xbdd07706	-0.10178952
47	0xbd909689	-0.07059962
48	0x3c460493	0.0120860515
49	0xbceb7605	-0.0287428
50	0xbd120c09	-0.03565601
51	0x3d2288e9	0.03968135
52	0x3cbe9b3c	0.02326738
53	0xbd959611	-0.073040135
54	0xbd9af967	-0.07567101
55	0x3a8c0ca8	0.0010684924
56	0xbc93dbb2	-0.018049095
57	0xbd60166a	-0.054708876
58	0xbd5068bb	-0.05088113
59	0x3d4d9653	0.05019219
60	0xbd7d0f57	-0.061782207
61	0xbdab1ced	-0.083551265
62	0x3d021c50	0.031765282
63	0x3da1ff97	0.07910078
64	0x3d82f9fd	0.06395338
65	0xbd299a95	-0.041407187
66	0xbdd78128	-0.105226815
67	0xbdbc3d7d	-0.091914155
68	0x3dab634a	0.08368547
69	0x3d81eaf0	0.06343639
70	0xbde69f33	-0.112608336
71	0x3d587c53	0.05285294
72	0x3d7ec743	0.06220175
73	0xbd9f12a2	-0.07767226
74	0xbc9ffef0	-0.019530743
75	0xbc0dfb21	-0.008665831
76	0x3d191d30	0.03738135
77	0xbd86e92b	-0.06587442
78	0xbc99c128	-0.018768862
79	0xbd8ebe16	-0.0696985
80	0xbd958e14	-0.0730249
81	0xbd5f1375	-0.054461915
82	0x3d18f9a4	0.03734745
83	0xbd8391de	-0.06424306
84	0x3bcfe3ca	0.0063442932
85	0xbd42cae5	-0.047556777
86	0xbd284fd3	-0.04109175
87	0xbd99e0ef	-0.07513606
88	0x3cb6f56f	0.022333829
89	0x3d741cac	0.059597656
90	0x3db9b5ac	0.09067854
91	0x3d7c4aa2	0.061594613
92	0xbd0fd263	-0.03511275
93	0x3d726d25	0.05918612
94	0x3d466bdb	0.048442703
95	0x3c7bab4a	0.015360663
96	0xbc23c690	-0.009996071
97	0xbd91a4b4	-0.07111493
98	0xbc90f35f	-0.017694173
99	0xbd38e307	-0.045138385
100	0xbda1daf2	-0.07903089
101	0xbd3c36a1	-0.045950536
102	0x3d87615c	0.06610367
103	0xbc29528f	-0.010334625
104	0xbc9d7953	-0.019222891
105	0xbd94ea97	-0.07271307
106	0xbd4bce32	-0.04975719
107	0x3cb982dc	0.022645406
108	0x3d8c748b	0.06858166
109	0x3d106aa1	0.03525794
110	0x3dc91952	0.098192826
111	0x3dc57fa8	0.09643489
112	0x3cd1c21d	0.025605256
113	0x3bc22f6f	0.0059260647
114	0xbd0cf89f	-0.03441679
115	0x3e0689ff	0.13138579
116	0xbd7234f5	-0.059132535
117	0x3d35b835	0.044365127
118	0xbdbf58a7	-0.09343081
119	0xbdc65d36	-0.09685747
120	0x3de15496	0.110024616
121	0x3db5958b	0.08866414
122	0xbbb76105	-0.0055962824
123	0x3b44dcdc	0.003003887
124	0xbc19c11c	-0.00938442
125	0x3dd52b10	0.10408604
126	0xbd840ac4	-0.06447366
127	0x3d1d656d	0.038426805
128	0x3d34c1b3	0.04413004
129	0xbdab5d34	-0.083673865
130	0xbd07abde	-0.03312289
131	0xbdbf6e25	-0.0934718
132	0x3d7ec21e	0.062196843
133	0xbdb3dc56	-0.0878226
134	0xbd272558	-0.0408071
135	0xbd82de70	-0.06390083
136	0xbcdf1dfc	-0.027235977
137	0xbca8f68e	-0.020625379
138	0xbacd6431	-0.0015670118
139	0x3b9bb635	0.0047519454
140	0x3da7b740	0.08189249
141	0xbbc56ec2	-0.0060251663
142	0x3de59f5e	0.112120375
143	0x3d950efd	0.072782494
144	0xbdbcbd17	-0.092157535
145	0xbc1d2d1a	-0.009593273
146	0xbde0c438	-0.10974926
147	0xbbe4406b	-0.006965687
148	0x3aaefb81	0.00133501
149	0x3dcf2f91	0.101164944
150	0xbc6826c7	-0.0141694015
151	0x3cc01446	0.023447167
152	0x3b6a7c4a	0.0035779648
153	0xbc155696	-0.009114882
154	0xbd2ba15b	-0.041901927
155	0xbdb1f184	-0.086886436
156	0x3a35e242	0.0006938317
157	0x3d9d5070	0.07681358
158	0x3b69e7a9	0.0035691059
159	0xbdb44a8e	-0.08803283
160	0xbbab4f63	-0.0052279695
161	0xbd0d974d	-0.03456812
162	0x3d880dd5	0.06643263
163	0x3d048c37	0.03236028
164	0x3d8fe658	0.070263565
165	0xbd775875	-0.060387094
166	0x3d11d73e	0.03560566
167	0xbdaa4cc4	-0.08315423
168	0x3ce04ab7	0.027379377
169	0x3cb44477	0.022005303
170	0xbdd77c37	-0.10521739
171	0xbc02a98c	-0.007974993
172	0x3b06e1d6	0.0020581386
173	0x3d58085e	0.052742355
174	0x3d4f95d2	0.05067999
175	0xbd9ed0a0	-0.07754636
176	0x3c60fb45	0.013731782
177	0xbcc70483	-0.024294144
178	0x3d8a890d	0.067644216
179	0x3d868dd3	0.065700196
180	0x3d68b372	0.056811757
181	0x3a9eae9c	0.0012106481
182	0x3d7c34a4	0.06157364
183	0x3d5f45f0	0.054510057
184	0x3d93fdac	0.072261184
185	0xbd8949e5	-0.067035474
186	0xbc453ccb	-0.01203842
187	0x3d444ee6	0.047926806
188	0xbca32a56	-0.019917648
189	0x3be898df	0.007098302
190	0xbcc62784	-0.024188764
191	0xbdd18c60	-0.102318525
192	0x3d2f82cf	0.04284936
193	0x3d48454e	0.04889422
194	0x3c386aaf	0.011255904
195	0x3da39350	0.07987082
196	0x3d113602	0.035451896
197	0xbbf424a5	-0.0074506574
198	0x3ddfd0eb	0.1092852
199	0xbdc298bf	-0.0950179
200	0xba60293b	-0.00085510657
201	0x3c931f27	0.01795919
202	0xbb6ebae1	-0.0036427306
203	0x3d4ddc3d	0.050258864
204	0xbd462c8c	-0.048382327
205	0x3c7aa017	0.015296957
206	0x3d9311f7	0.07181161
207	0x3cb85d71	0.022505494
208	0x3c6caedb	0.014445986
209	0x3cb6271c	0.022235446
210	0xbd1bb87f	-0.038017746
211	0x3c958360	0.018251121
212	0x3bdf83d5	0.0068211355
213	0x3d7caa0c	0.061685607
214	0x3d0967e1	0.033546332
215	0x3c4aca81	0.012377382
216	0xbc445ead	-0.011985463
217	0xbc0eb492	-0.0087100435
218	0x3d16660e	0.03671842
219	0xbdbaac57	-0.091149025
220	0xbd279607	-0.04091456
221	0x3db53222	0.08847453
222	0x3c8efbaa	0.017453987
223	0xbda453eb	-0.080238186
224	0x3d870877	0.065934114
225	0x3d274070	0.040832937
226	0x3cc2ab66	0.02376337
227	0xbd19d3c2	-0.037555464
228	0xbc8adefa	-0.016952027
229	0x3c3d60c0	0.0115587115
230	0xbca55500	-0.020182133
231	0x3be32dd0	0.0069329515
232	0x3d38bb65	0.04510059
233	0xbd4511e2	-0.048112758
234	0x3c98882d	0.018619621
235	0x3d386fe3	0.04502858
236	0x3d490857	0.04908022
237	0xbc908f98	-0.017646596
238	0x3d29844e	0.04138594
239	0x3dc2b2e4	0.09506777
240	0x3d3cb997	0.04607543
241	0x3dd2ebc6	0.102988765
242	0x3cde5136	0.027138334
243	0xbdd7a776	-0.105299875
244	0x3ce84564	0.0283534
245	0xbdb3c8f5	-0.08778564
246	0x3d61f2f4	0.05516334
247	0xbd7b062a	-0.061285175
248	0xbd4cb143	-0.049973737
249	0xbd6c9c47	-0.057766225
250	0xbd40f0c1	-0.0471046
251	0xbd4d5eae	-0.05013912
252	0xbde61532	-0.112345114
253	0x3d993fdf	0.074828856
254	0xbc9e8c44	-0.019353993
255	0xbd745b83	-0.059657585

rnn.bias_ih_l0 f4 [400]
0	0xbd7bbf4b	-0.061461728
1	0x3dc198f7	0.09453004
2	0xbcece39b	-0.028917124
3	0xbc97411e	-0.018463667
4	0x3d9edb4f	0.077566735
5	0x3d6f6c37	0.05845281
6	0xbd4e66b7	-0.050390925
7	0x3d122df5	0.03568836
8	0x3d5ce71b	0.053931337
9	0xbd999a1f	-0.075000994
10	0x3cfb6bad	0.030690992
11	0x3d05b4cf	0.032643136
12	0x3d10f42b	0.035389107
13	0xbb070b91	-0.002060626
14	0x3d566f26	0.052352093
15	0x3d240c3a	0.040050723
16	0x3d87dbba	0.066337064
17	0x3db736d1	0.08946002
18	0x3db4fb2b	0.08836969
19	0x3c8fba5a	0.017544914
20	0x3be713a6	0.007051903
21	0x3d8c966f	0.068646304
22	0xbd320bb0	-0.043468177
23	0xbb160ea5	-0.0022896912
24	0x3c29065f	0.01031646
25	0xbdcce64b	-0.100048624
26	0xbd8de826	-0.069290444
27	0xbdbc689b	-0.091996394
28	0xbb432b9b	-0.002978063
29	0x3d37ecec	0.04490368
30	0xbd853a90	-0.065053105
31	0x3b482e74	0.0030545266
32	0xbc78055b	-0.015137996
33	0x3dd4b314	0.10385719
34	0x3ddfa438	0.10919994
35	0x3da90909	0.082536764
36	0x3d1418fb	0.036156636
37	0x3d6e3174	0.05815263
38	0x3c43acb9	0.011943036
39	0xbd060145	-0.032716054
40	0x3dce658f	0.100779645
41	0xbd7c4f64	-0.06159915
42	0xbd781bfc	-0.060573563
43	0x3db0c55b	0.086313926
44	0x3da159e3	0.07878473
45	0x3d86545e	0.065590605
46	0x3d520f3c	0.05128406
47	0x3c80c2ea	0.015717942
48	0xbc3d4e79	-0.011554354
49	0x3d9f4e9f	0.07778668
50	0xbcc39484	-0.023874529
51	0xbd9c2a83	-0.07625296
52	0x3c36987e	0.011144755
53	0x3c0e6a61	0.008692355
54	0xbdc9c85d	-0.098526694
55	0xbcdfc735	-0.027316669
56	0xbcea7a17	-0.02862267
57	0x3a6c8629	0.0009022677
58	0x3dd47789	0.10374362
59	0x3c120a3e	0.008913575
60	0xbd976ddf	-0.07394003
61	0x3ca85a3f	0.020550845
62	0xbc73d140	-0.014881432
63	0xbd8a8563	-0.06763723
64	0x3de1f971	0.11033905
65	0xbdb2b907	-0.087266974
66	0x3d93b835	0.07212869
67	0xbd652781	-0.055945877
68	0xbd2c758f	-0.0421043
69	0x3e00e9ca	0.12589183
70	0xbd2a93a9	-0.041644726
71	0x3c72fbbf	0.014830529
72	0xbcf02f94	-0.029319562
73	0x3d2a114c	0.0415204
74	0xbd75f9d2	-0.0600527
75	0xbde32b80	-0.11092281
76	0xbd7b753f	-0.06139111
77	0x3c239fd4	0.009986836
78	0x3ce1682f	0.027515499
79	0x3db3b05f	0.087738745
80	0x3c9b2a55	0.018941084
81	0xbdc620e3	-0.096742414
82	0x3cf9b14a	0.030480046
83	0x3cd99467	0.026560022
84	0x3e06ff75	0.13183387
85	0xbdb55c34	-0.08855477
86	0x3ddde820	0.1083529
87	0x3d7df696	0.06200274
88	0x3d3916ff	0.045187946
89	0x3c81b700	0.015834332
90	0xbc95c415	-0.018281976
91	0x3bd05cc3	0.0063587143
92	0x3dd6402b	0.10461458
93	0xbc90d46e	-0.01767942
94	0xbd869e1a	-0.06573124
95	0xbd8a8d7c	-0.06765267
96	0x3d4959fe	0.04915809
97	0xbd8ccd79	-0.06875128
98	0xbd63c90c	-0.055611655
99	0xbcb035fa	-0.021510113
100	0x3c26b302	0.010174515
101	0xbd658ddb	-0.056043487
102	0x3dd80e43	0.10549595
103	0x3ddd2891	0.10798753
104	0x3d5ff225	0.054674286
105	0x3b78fce5	0.0037992534
106	0x3bd91883	0.0066252365
107	0xbc762084	-0.015022401
108	0xbce2ff01	-0.027709486
109	0x3d84ee50	0.06490767
110	0xbc59c1b0	-0.013290808
111	0x3dbafb72	0.09129991
112	0x3d8a8225	0.06763104
113	0xbd73f77c	-0.05956219
114	0x3cfa9ae0	0.030591428
115	0xbd15c4fe	-0.03656482
116	0x3dc97762	0.098372236
117	0xbc8165fe	-0.015795704
118	0x3db80f1b	0.08987256
119	0xbcd65e76	-0.02616809
120	0x3c0d44f3	0.008622396
121	0xbd80fbb7	-0.06298011
122	0x3c9194d0	0.017771155
123	0x3d5355b7	0.051595416
124	0x3db3b3a1	0.08774496
125	0xbd7ebdf6	-0.06219288
126	0x3d86478c	0.06556615
127	0x3d7bb936	0.061455928
128	0xbd93c102	-0.07214548
129	0xbcd2c326	-0.02572782
130	0x3d442d3a	0.047894694
131	0x3d8641e0	0.065555334
132	0xbcc90885	-0.024540195
133	0x3cbb79e1	0.022885265
134	0x3d87b2af	0.06625878
135	0x3d6b367f	0.05742502
136	0xbb68d230	-0.0035525672
137	0xbd2097fd	-0.039207447
138	0x3d83508b	0.06411847
139	0xbb68c9cf	-0.0035520678
140	0xbc59b215	-0.013287087
141	0xbb081f0d	-0.002077046
142	0xbcd32e41	-0.025778892
143	0x3d0f2462	0.034946807
144	0xbdd5cb79	-0.104392
145	0x3d9af7ca	0.07566793
146	0xbc9963c6	-0.018724333
147	0x3d947669	0.072491474
148	0xbc8ad319	-0.016946362
149	0x3baedee8	0.005336631
150	0x3a74129b	0.0009310634
151	0x3d8780cf	0.06616365
152	0xbd8d0e29	-0.068874665
153	0x3cbc15e0	0.02295965
154	0x3d52765f	0.05138242
155	0x3cea1685	0.028575191
156	0x3d264e51	0.040602032
157	0x39ccd455	0.00039068112
158	0xbb8cb6c4	-0.0042942483
159	0x3d055388	0.032550365
160	0x3dae33bf	0.085059635
161	0x3c21f03d	0.009883937
162	0xbced6ea1	-0.028983416
163	0x3c3cefb5	0.01153176
164	0x3cd82925	0.026386807
165	0x3cac2928	0.021015719
166	0x3d9fe18a	0.0780669
167	0x3da44c3a	0.080223516
168	0x3cccfeb0	0.025023788
169	0x3a3a87fb	0.00071155996
170	0xbd5c9aac	-0.053858444
171	0x3d95ad99	0.07308502
172	0x3d202af6	0.03910347
173	0x3cf9e9cd	0.030506993
174	0xbd2ad9f6	-0.04171177
175	0xbcba918c	-0.02277448
176	0x3d45c39b	0.048282247
177	0xbd6ae23c	-0.05734466
178	0xbcdb3877	-0.026760323
179	0xbba21b17	-0.004947077
180	0xbcb29998	-0.021801755
181	0x3a59aa45	0.0008303265
182	0x3d30f2c4	0.04320027
183	0x3d1ba296	0.03799685
184	0x3d230d09	0.039807353
185	0xbd11a2ee	-0.035555772
186	0xbcfed9ab	-0.031109652
187	0xbc6d0066	-0.014465427
188	0xbc4e686e	-0.01259814
189	0x3cf15b2f	0.029462425
190	0xbd8078c3	-0.062730335
191	0xbd8df5b0	-0.06931627
192	0xbd6bfbd1	-0.057613198
193	0xbc924fa2	-0.017860238
194	0x3d9a8a81	0.07545949
195	0xbd8a5abb	-0.06755587
196	0x3c50557c	0.012715694
197	0xbc330f30	-0.010928914
198	0xbd7c752b	-0.061635178
199	0x3c7b7806	0.01534844
200	0xbd8fcdb4	-0.07021657
201	0xbdcdf963	-0.10057332
202	0xbca1d4af	-0.019754736
203	0xbda0724a	-0.07834299
204	0x3d5ec4d8	0.054386944
205	0x3d9ea70a	0.07746704
206	0x3d154a2e	0.036447696
207	0xbd62fc25	-0.055416245
208	0x3d601d2f	0.05471533
209	0x3db7114c	0.08938846
210	0x3d71b2f1	0.059008542
211	0x3d294501	0.041325573
212	0xbd93d7de	-0.07218908
213	0xbdc6365c	-0.09678337
214	0xbdaa365e	-0.08311151
215	0x3d9339c6	0.07188754
216	0x3d96c765	0.0736225
217	0xbbfc221f	-0.0076944972
218	0xbd960132	-0.07324447
219	0xbcfd63d2	-0.030931387
220	0x3cfa850b	0.030581018
221	0x3dc6c632	0.097057715
222	0xbd965aa1	-0.07341505
223	0xbdc35262	-0.09537198
224	0x3da5c896	0.08094899
225	0x3d1512e7	0.03639498
226	0x3c8b0925	0.016972134
227	0xbd09cb22	-0.03364099
228	0xbdb9a50d	-0.09064684
229	0xbd2ad6c7	-0.041708734
230	0xbd82ee16	-0.063930675
231	0x3d04f91e	0.03246414
232	0xbd9731e4	-0.07382563
233	0xbda84971	-0.08217133
234	0xbc95cec7	-0.018287076
235	0x3d0a64a7	0.033787396
236	0x3d1683ac	0.036746666
237	0xbd80b679	-0.06284804
238	0xbca3222e	-0.01991376
239	0x3dc2f796	0.095198795
240	0x3ce5593e	0.027996656
241	0x3d9c2dfd	0.07625959
242	0xba6afa7b	-0.0008963716
243	0xbde5d4f1	-0.11222256
244	0x3ba8f249	0.0051558358
245	0x3c783ee9	0.015151718
246	0xbd945889	-0.07243449
247	0x3db81c0e	0.08989726
248	0xbd80d0fe	-0.06289862
249	0x3db4802a	0.08813508
250	0x3ca19a11	0.019726785
251	0x3d8bbb29	0.06822807
252	0xbd51a3f5	-0.051181752
253	0x3a49cffe	0.0007698535
254	0xbdbc5c2c	-0.09197268
255	0xbce27d42	-0.027647618

rnn.bias_hh_l0 f4 [400]
0	0x3d76738a	0.06016878
1	0x3d0774a5	0.033070225
2	0xbd6084f2	-0.054814287
3	0x3d9ef8ad	0.07762275
4	0x3d7390e0	0.059464335
5	0xbcf96d77	-0.030447705
6	0x3c54fb86	0.012999421
7	0x3d6fc647	0.0585387
8	0x3d26abdb	0.040691238
9	0xbda111ba	-0.07864709
10	0xbdaea863	-0.08528211
11	0x3ddf3058	0.10897893
12	0x3d8d24e2	0.068918005
13	0x3c20053c	0.009766873
14	0x3c82b86d	0.015957082
15	0x3dfb4afc	0.122701615
16	0x3d0e6a8a	0.034769572
17	0x3d858713	0.06519904
18	0x3da89650	0.08231795
19	0x3d67c095	0.056580145
20	0x3cb6ee4c	0.022330426
21	0x3c4d39b1	0.012525962
22	0xbb8e6f50	-0.0043467656
23	0x3cd6dd64	0.026228614
24	0x3d910751	0.070814736
25	0x3dbe4c51	0.092919
26	0x3ca1899c	0.019718938
27	0x3db8973e	0.09013222
28	0xbd8e0cab	-0.0693601
29	0x3d846a1f	0.064655535
30	0x3c7a27f4	0.015268315
31	0xbd5f3bfe	-0.054500572
32	0xbdc01640	-0.09379244
33	0xbd4e1ffd	-0.050323475
34	0x3d5e7070	0.054306448
35	0x3b8b28a1	0.0042467867
36	0x3d484781	0.048896316
37	0xbd19fe1f	-0.037595864
38	0x3db8faeb	0.09032234
39	0x3db55918	0.08854884
40	0xbb62612e	-0.0034542787
41	0x3ddb68d8	0.10713357
42	0xbc4cf8df	-0.012510507
43	0x3d64f794	0.05590017
44	0xbd959098	-0.0730297
45	0xbd1f050e	-0.03882318
46	0x3da3dbd5	0.08000914
47	0xbcbc8c8e	-0.02301624
48	0x3d665940	0.05623746
49	0xbbfc46e1	-0.007698879
50	0x3d962919	0.073320575
51	0x3d56be3d	0.05242752
52	0x3daf7c42	0.08568622
53	0xbc54be1f	-0.0129847815
54	0x3c41550a	0.01180006
55	0x3d7dd2a0	0.061968446
56	0x3d216f34	0.039412692
57	0xbd52abe5	-0.051433463
58	0xbdafc199	-0.08581848
59	0x3b84a767	0.004048276
60	0xbcae3b50	-0.021268517
61	0xbcaa3719	-0.020778226
62	0xbb07c9b7	-0.0020719597
63	0xbbd3f6b8	-0.00646862
64	0x3dc3e2d8	0.095647514
65	0xbd9124f2	-0.07087125
66	0xbd856b8c	-0.065146536
67	0xbd726984	-0.05918266
68	0xbcc80dd9	-0.024420666
69	0xbd54a578	-0.051915616
70	0xbdbbba6b	-0.09166416
71	0xbd7a0db3	-0.06104822
72	0xbd477160	-0.048692107
73	0xbd0ebf2b	-0.03485028
74	0xbd8ae670	-0.06782234
75	0xbd9e5477	-0.07730954
76	0xbdd11e72	-0.10210885
77	0xbdbb51af	-0.09146439
78	0x3df6348c	0.12021741
79	0x3d1efedc	0.03881727
80	0xbd44cc6e	-0.04804652
81	0x3d3a07f0	0.045417726
82	0xbac1567a	-0.0014750503
83	0x3d61c893	0.055122923
84	0x3d03d39d	0.032184232
85	0xbdb5922f	-0.08865773
86	0x3d54cf9a	0.051955797
87	0xbd516224	-0.051118985
88	0x3c769a00	0.015051365
89	0xbd97db7a	-0.07414909
90	0xbcad6216	-0.021164935
91	0x3d80847f	0.062752716
92	0xbb9142f1	-0.004433029
93	0xbc6212d7	-0.013798437
94	0x3d99bca5	0.07506684
95	0x3dfa873a	0.12232824
96	0xbd95a9d5	-0.073077835
97	0x3d02137e	0.03175687
98	0x3d24a080	0.040192127
99	0xbd0c1ee0	-0.034209132
100	0xbd09b119	-0.03361616
101	0x3d4c441e	0.04986965
102	0xbd7fea85	-0.062479515
103	0x3d0e24a0	0.034702897
104	0x3caa2443	0.020769244
105	0x3d2ab1e6	0.041673563
106	0xbd7d7f98	-0.06188926
107	0xbd375d4b	-0.044766705
108	0xbce51dd4	-0.027968325
109	0xbd112ab9	-0.035441134
110	0xbdcfa8ba	-0.10139604
111	0x3d99875f	0.07496523
112	0xbccae1a9	-0.024765806
113	0xbd690d75	-0.0568976
114	0x3d5aad58	0.05338797
115	0x3cf69637	0.030100925
116	0x3c420261	0.0118413875
117	0x3c2b1eb3	0.010444331
118	0x3d503e26	0.05084052
119	0x3d63588c	0.055504367
120	0xbd104e28	-0.035230786
121	0xbd1f13b9	-0.03883717
122	0xbd5b39b2	-0.05352182
123	0x3cf830e7	0.030296756
124	0xbdb1b5fc	-0.08677289
125	0xbd374ec7	-0.044752862
126	0x3c4c1f23	0.012458595
127	0xbd93ee46	-0.072231814
128	0x3d542eaa	0.051802315
129	0x3c0f4572	0.008744584
130	0x3d584f54	0.05281003
131	0xbd9dac7a	-0.07698913
132	0xbdd5a251	-0.1043135
133	0x3da6157e	0.08109568
134	0xbbb3a525	-0.0054823332
135	0xbdbfc233	-0.093632124
136	0xbd76ff10	-0.06030184
137	0xbbd9d860	-0.0066481084
138	0xbd4dab0c	-0.05021195
139	0x3d9e521c	0.07730505
140	0xbcb848cf	-0.022495655
141	0xbdb72e81	-0.08944417
142	0x3dbd5979	0.09245581
143	0x3c0d24ec	0.00861476
144	0xbde08c72	-0.10964288
145	0xbcbe03b0	-0.023195118
146	0x3da11611	0.07865537
147	0xbc0164d2	-0.007897573
148	0xbc6dcaf5	-0.014513721
149	0x3de2bb68	0.11070901
150	0x3d711ef8	0.058867425
151	0x3d72506d	0.05915873
152	0x3d0aeb53	0.03391583
153	0x3d90029e	0.07031749
154	0x3cb41582	0.021982912
155	0xbd2ba976	-0.041909657
156	0x3d83382e	0.064072
157	0xbce3d0f0	-0.02780959
158	0xbc9d0f38	-0.019172296
159	0x3dae4caf	0.0851072
160	0x3d0822e2	0.03323639
161	0x3ad7076e	0.0016405412
162	0x3d39f79a	0.045402147
163	0x3de3e1de	0.11127065
164	0xbd37b32f	-0.044848617
165	0x3da297f7	0.07939141
166	0xbd498f4a	-0.049208917
167	0x3dcb3263	0.0992172
168	0xbcf98dbd	-0.030463094
169	0x3df53cf7	0.11974519
170	0xbdb51c08	-0.08843237
171	0x3cdd2a4c	0.026997708
172	0x3c8e41a0	0.017365277
173	0xbd3a44bf	-0.045475718
174	0x3d05efa1	0.03269923
175	0xbd806433	-0.062691115
176	0xbdd63bda	-0.104606345
177	0x3cc927a8	0.024555042
178	0xbd8479f3	-0.064685725
179	0x3d62bc6e	0.05535548
180	0xbd9d2d52	-0.0767466
181	0xbd02e135	-0.031953055
182	0xbd4f2ecf	-0.05058175
183	0xbd7ecd46	-0.062207483
184	0x3dce3038	0.10067791
185	0xbc4e8f65	-0.01260743
186	0x3d384fc1	0.044997934
187	0xbda44aba	-0.080220655
188	0x3d99e383	0.075140975
189	0xbd827e75	-0.06371776
190	0x3cd35b26	0.025800299
191	0x3da86fb8	0.08224434
192	0x3e002c0f	0.12516807
193	0xbb011c9b	-0.0019700888
194	0xbb55eafc	-0.0032641282
195	0x3c348393	0.011017698
196	0x3d8ec035	0.06970254
197	0xbd23851d	-0.03992187
198	0x3dbf699e	0.09346317
199	0x3d8eaaca	0.06966169
200	0x3cb10431	0.021608444
201	0x3d9f8fe4	0.07791117
202	0xbd31780e	-0.043327384
203	0x3d8cc8ac	0.068742126
204	0x3de30173	0.11084261
205	0xbd3df4dd	-0.046376098
206	0x3de64618	0.11243838
207	0x3da60ec0	0.08108282
208	0xbdca1dd2	-0.09868969
209	0xbbf9c6ae	-0.0076225614
210	0xbd872991	-0.06599725
211	0xbd761d07	-0.060086276
212	0x3c087dde	0.00833079
213	0xbd0dbbad	-0.03460281
214	0x3d8b875c	0.06812927
215	0x3dabddd4	0.0839192
216	0xbd7a0c89	-0.06104711
217	0xbc7047e8	-0.014665581
218	0xbdb93db5	-0.09044973
219	0x3d1405bd	0.036138285
220	0x3dc629b0	0.0967592
221	0x3d3b9547	0.04579666
222	0x3cf8a409	0.030351656
223	0xbdb76635	-0.08955041
224	0x3db2e006	0.08734135
225	0x3c4a64e1	0.012353153
226	0x3d226da4	0.039655343
227	0xbd8a5628	-0.06754714
228	0x3d9dbdc9	0.07702214
229	0x3d0f3cf9	0.034970257
230	0x3cce6fc0	0.02519977
231	0x3c7e77b0	0.015531465
232	0xbda98dfc	-0.082790345
233	0x3c815e93	0.015792167
234	0x3da5eda3	0.08101966
235	0x3ba341b5	0.004982198
236	0xbce94745	-0.028476367
237	0xbc70a108	-0.01468683
238	0x3d535de6	0.05160322
239	0x3caa709c	0.02080565
240	0xbc8e50eb	-0.01737257
241	0x3d81b3cc	0.06333122
242	0x3cf1acdb	0.02950137
243	0x3c3b4fa7	0.011432565
244	0x3d07a830	0.03311938
245	0xbd8b649b	-0.06806298
246	0xbc309ba4	-0.010779295
247	0x3d675d08	0.056485206
248	0xbd217648	-0.039419442
249	0xbd28689b	-0.041115385
250	0xbda079b2	-0.078357115
251	0x3c43f71c	0.011960771
252	0xbdb0603c	-0.08612105
253	0x3c692910	0.0142309815
254	0xba745703	-0.0009320827
255	0xbdd0b704	-0.101911575

linear.weight f4 [1, 100]
0	0x3dfff5de	0.12498067
1	0xbd13b277	-0.03605887
2	0x3d9f5c32	0.07781257
3	0x3e07e7bb	0.13271992
4	0xbd3a984d	-0.0455554
5	0x3dcf68ba	0.10127397
6	0x3e08a3af	0.1334369
7	0x3d87b3bd	0.06626079
8	0xbc8107bf	-0.015750764
9	0x3ca00296	0.019532483
10	0xbcba9b08	-0.022779003
11	0x3dc022c1	0.09381629
12	0x3de206c1	0.110364445
13	0x3d09b292	0.033617564
14	0x3d812125	0.0630515
15	0xbd830b71	-0.06398667
16	0xbd80f23b	-0.06296202
17	0x3d6b1d29	0.057400856
18	0x3dc032cc	0.09384689
19	0x3da7289d	0.08162043
20	0xbdaefe4f	-0.08544599
21	0x3d00c560	0.03143823
22	0xbc8629e6	-0.0163774
23	0xbd9b1c36	-0.0757374
24	0x3ceb1309	0.0286956
25	0x3dbfae0f	0.09359371
26	0xbd3afd8a	-0.04565195
27	0xbce2402c	-0.02761849
28	0xbca1bd13	-0.019743478
29	0x3cff479c	0.031162076
30	0x3c541fad	0.012947005
31	0xbd557d5c	-0.052121505
32	0x3cb4a7f1	0.022052737
33	0xbdd51bc5	-0.10405687
34	0x3d5917c5	0.053001184
35	0x3d44ed4f	0.048077878
36	0xbc76aeaa	-0.015056292
37	0xbd7a32bf	-0.06108355
38	0xbd730b56	-0.059336983
39	0x3e0c02b5	0.13672908
40	0xbd55ddf3	-0.05221362
41	0xbd9abfb5	-0.075560965
42	0xbc458579	-0.012055748
43	0x3cc8247c	0.02443146
44	0x3c42d463	0.011891457
45	0xbd99a279	-0.07501692
46	0xbe00a7bf	-0.1256399
47	0x3d493840	0.04912591
48	0xbcd1b8ed	-0.025600875
49	0x3dd09ab9	0.10185761
50	0xbde00432	-0.109383
51	0x3dd425ee	0.10358797
52	0x3dfb0be1	0.12258125
53	0xbc8b37ac	-0.01699432
54	0xbd49f584	-0.049306408
55	0xbe044a4c	-0.12918967
56	0x3da9f8fd	0.08299444
57	0x3daf9c85	0.085747756
58	0xbcbc7bc2	-0.023008231
59	0x3d85486d	0.06507955
60	0xbd4eb41e	-0.050464742
61	0x3dd214b0	0.10257852
62	0x3cceca9a	0.025243092
63	0xbd0da4bd	-0.034580935
64	0xbda116c1	-0.07865668
65	0xbdcd2cf7	-0.10018342
66	0xbdc8fea0	-0.09814191
67	0x3cdf870a	0.027286071
68	0xbd6e26f3	-0.058142614
69	0xbe063671	-0.13106705
70	0xbd62018a	-0.05517725
71	0x3d353f40	0.044249773
72	0xbd8ef2db	-0.06979915
73	0xbdcf8160	-0.10132098
74	0x3dc69e99	0.09698219
75	0x3db3f709	0.087873526
76	0x3cd69015	0.02619175
77	0xbd3f0d2d	-0.046643425
78	0x3de8f1d7	0.11374252
79	0xbdf7a90a	-0.120927885
80	0xbd7671ad	-0.060167003
81	0x3db8adf8	0.09017557
82	0x3d9aa896	0.075516865
83	0x3e0ded0a	0.13859954
84	0xbdc96f72	-0.0983571
85	0xbd831a61	-0.06401516
86	0x3c2bd8e9	0.010488727
87	0x3cfa26f5	0.030536154
88	0x3d9c9a57	0.076466255
89	0x3d6f483c	0.058418497
90	0x3ddcb3fd	0.107765175
91	0x3c8c46de	0.017123636
92	0x3d896e9b	0.067105494
93	0xbdd943d8	-0.10608643
94	0xbdfbe772	-0.12300004
95	0x3e0a37a5	0.13497789
96	0xbdb9a769	-0.09065134
97	0x3d3d7e60	0.0462631
98	0x3db3ff03	0.08788874
99	0x3e0ab8e9	0.135471
