backend/trained_models/NMB_GRU_model_state_dict.pth (torch, 126714 bytes, 5 tensors)

rnn.weight_ih_l0 f4 [300, 1]
0	0x3dccabd5	0.09993712
1	0xbb9a93e7	-0.0047173384
2	0xbd50e5af	-0.051000293
3	0x3d56b56a	0.052419104
4	0x3d131c35	0.035915572
5	0xbd3e79b3	-0.04650278
6	0x3d979324	0.07401112
7	0x3d009bbd	0.031398524
8	0xbc8a8bde	-0.016912397
9	0xbd5706b2	-0.05249662
10	0x3dee2e85	0.11629967
11	0xbd9b8142	-0.07593013
12	0xbcd29eae	-0.02571043
13	0xbd412e79	-0.04716346
14	0xbcd4f27f	-0.025994537
15	0x3d16f953	0.036858868
16	0xbdbaf395	-0.09128491
17	0x3d979dc4	0.07403138
18	0xbc2f142d	-0.010685963
19	0x3d9a50bc	0.0753493
20	0x3d8a735a	0.06760283
21	0x3d0062c1	0.03134418
22	0xbdc3fb63	-0.095694326
23	0xbdbc97b9	-0.09208626
24	0xbc5332f3	-0.012890565
25	0x3d20baaf	0.039240535
26	0x3d148490	0.036259234
27	0x3d417680	0.04723215
28	0xbddb4e72	-0.10708322
29	0x3da2fe43	0.07958653
30	0x3bf62399	0.007511568
31	0x3d71cd1f	0.05903351
32	0xbaf092bc	-0.0018354277
33	0x3d488a63	0.0489601
34	0xbcbc94f7	-0.02302025
35	0xbd5225e5	-0.05130567
36	0x3de3f372	0.11130418
37	0x3dde75af	0.1086229
38	0xbdb6b4c5	-0.08921198
39	0xbcd3eda3	-0.02587015
40	0x3d3750fd	0.04475497
41	0x3c446e1c	0.011989143
42	0x3acc4d3a	0.001558698
43	0x3be6664c	0.0070312377
44	0xbd80cc93	-0.062890194
45	0xbd57f9c7	-0.05272844
46	0xbd93c6bc	-0.0721564
47	0xbd9cda32	-0.07658805
48	0x3dab16b7	0.08353942
49	0x3d963fe0	0.07336402
50	0xbc1c0176	-0.009521833
51	0xbc2d7b64	-0.010588501
52	0xbd347b91	-0.044063155
53	0xbc17a2bf	-0.00925511
54	0xbd7328c4	-0.05936505
55	0x3da19665	0.078900136
56	0x3cbfefbe	0.023429748
57	0x3db188d1	0.08668674
58	0x39961b4c	0.00028630567
59	0xbcf0b54e	-0.029383328
60	0x3d8eff99	0.06982345
61	0xbdcc44df	-0.099740736
62	0x3c95b6db	0.018275669
63	0x3da9ee0e	0.082973585
64	0x3d135626	0.03597083
65	0x3bda074f	0.0066537033
66	0x3c8a003c	0.016845815
67	0xbca6cba9	-0.020360785
68	0x3bcd6c1e	0.006268992
69	0xbb89156f	-0.0041834633
70	0x3dd01b81	0.10161496
71	0xbd828f5a	-0.063749984
72	0x3c44a828	0.012002982
73	0x3cd359be	0.025799628
74	0xbcc5f174	-0.024162985
75	0x3def3aed	0.11681161
76	0x3d81f560	0.0634563
77	0x3d4a5038	0.04939291
78	0x3de588df	0.11207747
79	0xbcc4c24a	-0.024018425
80	0x3c891d41	0.016737582
81	0xbd156afe	-0.03647899
82	0xbd22233c	-0.039584383
83	0xbd7c4ad0	-0.061594784
84	0x3dd8b289	0.10580928
85	0x3ba3437e	0.004982411
86	0x3d6fffb1	0.058593456
87	0x3d22618c	0.03964381
88	0xbd842391	-0.06452096
89	0x3d9be3e0	0.07611823
90	0xbd6afabd	-0.05736803
91	0x3cf11f88	0.02943398
92	0xbc522867	-0.0128270155
93	0xbdb88f32	-0.09011687
94	0x3dc6bd38	0.09704059
95	0x3d63e07f	0.055634018
96	0xbdbadb63	-0.09123876
97	0x3ddd8d09	0.10817916
98	0xbdba90bf	-0.091096394
99	0x3cebb2ed	0.028771842
100	0xbc67803b	-0.014129694
101	0xbd7a5d9f	-0.06112444
102	0x3d417f76	0.047240697
103	0xbd90bea6	-0.07067613
104	0xbc92f7f3	-0.017940497
105	0xbc64a213	-0.013954657
106	0x3dfc6795	0.12324444
107	0x3c34342e	0.010998769
108	0xbdb9f47b	-0.09079834
109	0x3b05b3f7	0.0020401457
110	0x3e23e0ec	0.1600377
111	0xbd07a7b5	-0.033118922
112	0x3d3b2d5a	0.045697547
113	0x39b49e43	0.0003445019
114	0xbda89921	-0.08232332
115	0x3d1b699d	0.037942518
116	0xbdc8172a	-0.09770043
117	0xbcca9177	-0.024727566
118	0xbd291e96	-0.041288935
119	0xbc530bb6	-0.01288121
120	0xbddffb44	-0.10936597
121	0xbdb38ff7	-0.087676935
122	0x3da3eafe	0.080038056
123	0xbc158deb	-0.009128074
124	0x3e1d4bef	0.15360998
125	0x3d043663	0.03227843
126	0x3c14ac67	0.009074307
127	0xbc5e3379	-0.013562077
128	0xbdccdd2d	-0.100031234
129	0xbe0e3ad5	-0.1388963
130	0xbc303dac	-0.010756891
131	0xbdfc997a	-0.12333961
132	0xbda6faba	-0.08153291
133	0xbe222666	-0.1583496
134	0xbdc44d8d	-0.09585104
135	0xbdc9a75f	-0.09846377
136	0xbdad0606	-0.084484145
137	0x3c6f6c84	0.0146132745
138	0xbd59e53c	-0.05319713
139	0xbd92efd3	-0.07174649
140	0xbd2148cd	-0.03937607
141	0xbd08828a	-0.033327617
142	0xbd5c95a0	-0.05385363
143	0x3d2e628b	0.042574447
144	0x3b1093e5	0.0022060808
145	0xbc995fef	-0.018722503
146	0xbdb941d0	-0.09045756
147	0xbc6c855d	-0.014436093
148	0xbcc344ba	-0.023836482
149	0xbcbb3b2a	-0.02285536
150	0xbd9f41eb	-0.07776245
151	0xbe1400df	-0.14453457
152	0xbc80fa0f	-0.015744237
153	0xbe16d90c	-0.14731234
154	0x3d28300b	0.041061442
155	0x3d7912b0	0.060808837
156	0xbd8b4d8f	-0.068019025
157	0x3ce7c757	0.028293295
158	0xbd7006db	-0.058600288
159	0xbd354677	-0.044256654
160	0x3d1a75cb	0.037709992
161	0x3d1aad07	0.037762668
162	0x3cfe8de2	0.031073514
163	0x3b82ee50	0.003995694
164	0xbc504dbc	-0.012713846
165	0xbe0255b8	-0.12728012
166	0xbde16b1b	-0.11006757
167	0x3d084463	0.033268344
168	0x3d378c16	0.04481133
169	0xbd23b4d3	-0.03996737
170	0xbbcbe951	-0.006222882
171	0xbdaa3d26	-0.083124444
172	0x3e27c96f	0.16385435
173	0xbd0e0b62	-0.034678824
174	0x3ceaba56	0.028653305
175	0xbd97f40a	-0.07419594
176	0xbc92321f	-0.017846165
177	0xbced39ff	-0.028958319
178	0xbdd9a2e6	-0.106267735
179	0xbb444a2f	-0.0029951443
180	0xbdb1b2c2	-0.086766735
181	0xbe1e3699	-0.15450515
182	0x3ced3fb5	0.028961042
183	0xbe11eca8	-0.14250433
184	0xbdcf7c47	-0.10131126
185	0x3ba22a99	0.0049489257
186	0xbca85f7b	-0.020553341
187	0xbdae13ea	-0.08499892
188	0xbd5b380c	-0.053520247
189	0xbdd9a3ae	-0.106269225
190	0x3d9cf5fa	0.07664104
191	0xbe25fb6f	-0.16209196
192	0xbca3e3b9	-0.020006048
193	0x3d079863	0.03310431
194	0xbd8035f0	-0.06260288
195	0xbdf007b3	-0.117202185
196	0x3d225d44	0.039639726
197	0xbd37c879	-0.04486892
198	0xbe0a6ee6	-0.13518867
199	0xbe1d52fa	-0.15363684
200	0x3dd52748	0.10407883
201	0x3df2ff30	0.118650794
202	0xbdd39133	-0.10330429
203	0xbd432d42	-0.047650583
204	0x3c2678aa	0.0101606045
205	0x3cebbe8d	0.028777385
206	0x3d9023fb	0.07038113
207	0x3df66bf6	0.12032311
208	0x3d6a23d7	0.057163086
209	0xbd3fde30	-0.046842754
210	0xbd13927c	-0.03602837
211	0xbd3d0baa	-0.0461537
212	0xbc3bdd81	-0.011466385
213	0x3df21232	0.11819877
214	0xbdc2f0a3	-0.09518554
215	0xbc0d135f	-0.008610575
216	0xbba78c5c	-0.0051131677
217	0xbd8f0600	-0.06983566
218	0xbd47a942	-0.0487454
219	0x3d5845ef	0.05280107
220	0x3dbbc8ec	0.09169182
221	0x3d8fa7e6	0.07014446
222	0x3d55bdc9	0.052182946
223	0xbc3f1c5f	-0.011664479
224	0x3ab6f855	0.0013959507
225	0xbc0617c8	-0.008184381
226	0xbdaef53a	-0.08542867
227	0xbc9e92b2	-0.01935706
228	0x3d8db5b2	0.06919421
229	0x3d900964	0.07033041
230	0x3cf7663f	0.030200122
231	0xbdbc4acb	-0.09193953
232	0x3de2f712	0.11082281
233	0xbde5e81a	-0.112259105
234	0x3d783f76	0.060607396
235	0xbd70ebd8	-0.058818668
236	0xbd971149	-0.07376344
237	0x3b8135fc	0.003943203
238	0x3d3ae1c0	0.04562545
239	0xbe02f686	-0.12789354
240	0xbdbe58e2	-0.09294297
241	0xbd604941	-0.05475736
242	0x3d1a7cbc	0.037716612
243	0xbc4a2197	-0.01233711
244	0x3ce6593a	0.028118718
245	0x3d6cd021	0.057815675
246	0x3dd2c378	0.10291189
247	0xbd4ec622	-0.050481923
248	0x3d968b6b	0.073508106
249	0x3d97f516	0.07419793
250	0xbdf68732	-0.12037505
251	0xbdc5fc33	-0.09667244
252	0x3c80be06	0.01571561
253	0x3c632ae1	0.013865204
254	0xb8bea320	-9.0902904e-05
255	0x3c02346c	0.007947069

rnn.weight_hh_l0 f4 [300, 100]
0	0x3dddc1b7	0.10827964
1	0x3cee166a	0.029063422
2	0xbc586914	-0.013208646
3	0xbde32c2c	-0.110924095
4	0x3ca108de	0.019657549
5	0xbc4745a0	-0.012162596
6	0x3d64f1fe	0.055894844
7	0x3de1a51a	0.11017819
8	0x3d2ea75a	0.042640068
9	0x3d8833f1	0.06650532
10	0xbd96bf24	-0.07360676
11	0x3d5ad67e	0.053427212
12	0xbe03e2de	-0.12879512
13	0xbcbf3a8a	-0.023343343
14	0xbd505e7c	-0.050871357
15	0xbd686ce2	-0.056744464
16	0xbca30f76	-0.019904833
17	0x3c2d1e85	0.010566358
18	0xbdcd1c7d	-0.10015199
19	0x3dbd928a	0.09256466
20	0x3d35e6b3	0.044409465
21	0x3d8e24e7	0.06940632
22	0xbd2fa7eb	-0.04288475
23	0x3d5b9f6d	0.053618837
24	0xbd91cd18	-0.07119197
25	0xbdefa8d3	-0.117021225
26	0xbd9be7dc	-0.07612583
27	0xbc3a711e	-0.011379508
28	0x3dad7bd2	0.084708825
29	0xbd332986	-0.04374077
30	0xbd5e6ed7	-0.054304924
31	0x3d58f779	0.052970383
32	0x3d9117cf	0.07084619
33	0xbd9ded48	-0.077112734
34	0x3dc6481b	0.09681722
35	0xbdd19cf2	-0.10235013
36	0xbdc565d4	-0.09638563
37	0x3db9d495	0.0907375
38	0x3d3a8a15	0.04554184
39	0xbdebceed	-0.11514077
40	0xbd99c1a3	-0.075076364
41	0xbd8b4849	-0.06800897
42	0xbdb854cd	-0.090005495
43	0xbc524b67	-0.01283536
44	0x3db71d3e	0.089411244
45	0x3d239780	0.039939404
46	0x3da72d65	0.08162955
47	0xbda96bf7	-0.08272546
48	0x3db703a0	0.08936238
49	0xbd036429	-0.032077942
50	0xbc812271	-0.015763493
51	0xbbd3e281	-0.0064662104
52	0x3d1330c0	0.035935163
53	0x3d7876a5	0.060660023
54	0xbd2c8c1d	-0.04212581
55	0x3dbe3e16	0.09289186
56	0xbd0438ff	-0.03228092
57	0xbdc84277	-0.09778302
58	0xbdb85348	-0.0900026
59	0x3d22226f	0.03958362
60	0x3c19d38d	0.009388817
61	0xbda473e1	-0.08029915
62	0x3dbdad6f	0.092615955
63	0x3bf22bbb	0.007390467
64	0xbd849ea1	-0.064755686
65	0xbda590b9	-0.08084244
66	0x3ddddaa3	0.10832717
67	0x3d576d71	0.052594606
68	0x3cb98af7	0.022649271
69	0xbd1d23f5	-0.03836437
70	0xbca733a0	-0.020410359
71	0xbd899f6b	-0.0671986
72	0xbd87f5ca	-0.066386774
73	0xbdb2e694	-0.087353855
74	0xbd886804	-0.066604644
75	0xbde3027e	-0.1108446
76	0xbde7939d	-0.11307452
77	0xbd8d86cb	-0.06910475
78	0x3dddaf8c	0.108244985
79	0x3dbef33e	0.093237385
80	0xbd84743f	-0.06467485
81	0x3dcc7244	0.09982732
82	0xbb0335b9	-0.0020021035
83	0x3d7db345	0.061938543
84	0xbd633903	-0.055474292
85	0x3c4be1c8	0.012443967
86	0x3c8d0d5f	0.01721829
87	0x3ad8fde5	0.0016555159
88	0x3cb80e86	0.022467863
89	0x3d8e1c2b	0.06938966
90	0xbdc6cf6d	-0.09707532
91	0x3d65175c	0.05593048
92	0x3be120dc	0.006870372
93	0xbc4c85ed	-0.012483102
94	0xbd97141c	-0.073768824
95	0x3d8ccfb2	0.06875552
96	0xbd564342	-0.052310236
97	0x3d165d87	0.03671029
98	0x3ced98ff	0.029003618
99	0xbd87bc8b	-0.066277586
100	0x3dc392c8	0.09549481
101	0xbd1f9f5f	-0.038970347
102	0x3da910e9	0.082551785
103	0xbd397af1	-0.04528326
104	0x3d111295	0.03541811
105	0xbd89c54f	-0.06727087
106	0x3d3c7693	0.04601152
107	0xbd8055fe	-0.06266402
108	0xbd3c0928	-0.04590717
109	0x3d5470a6	0.051865242
110	0x3d299451	0.04140121
111	0xbd06b1e1	-0.032884482
112	0xbd76c904	-0.060250297
113	0x3cc11dc8	0.023573771
114	0x3d8b8f9d	0.068145014
115	0x3c46139c	0.012089636
116	0x3d25dc2f	0.040493187
117	0xbd7419ec	-0.059595034
118	0xbb73761b	-0.0037149254
119	0x3d62f5a9	0.05541006
120	0x3c80587b	0.01566719
121	0x3dd0c6f9	0.10194201
122	0x3dba44f2	0.090951815
123	0xbd43457f	-0.0476737
124	0xbdc6f3de	-0.09714483
125	0xbd801613	-0.0625421
126	0xbdb73b29	-0.08946831
127	0x3b800c45	0.0039077126
128	0x3d69caf4	0.057078317
129	0x3da4896b	0.08034023
130	0x3da55f7e	0.08074854
131	0xbc158428	-0.009125747
132	0xbdac2f42	-0.08407451
133	0x3d74feba	0.05981324
134	0x3dbbd5b8	0.09171623
135	0xbdf6fcb0	-0.12059915
136	0xbdb054ee	-0.08609949
137	0x3dba97f7	0.09111016
138	0x3df3adbd	0.11898372
139	0x3b5a45d9	0.0033305793
140	0xbc61191c	-0.013738897
141	0x3d177377	0.03697535
142	0xbd744a1d	-0.059640992
143	0xbd0b5b80	-0.034022808
144	0xbd72f0b7	-0.059311595
145	0xbd717e77	-0.058958497
146	0xbcd3e50f	-0.02586606
147	0x3ce22923	0.027607506
148	0xbd5b4648	-0.053533822
149	0x3d524388	0.051333934
150	0x3d6885a2	0.056768067
151	0xbd97d76b	-0.074141346
152	0x3db3e861	0.08784557
153	0xbd06044c	-0.03271894
154	0xbdb46520	-0.088083506
155	0x3c3949ec	0.011309128
156	0xbdbed70c	-0.09318361
157	0x3c9e4a94	0.019322671
158	0x3d794796	0.060859285
159	0x3dd7b537	0.10532611
160	0x3dbbb911	0.09166158
161	0xbd8e957a	-0.06962104
162	0xbd88afd1	-0.06674159
163	0x3d295667	0.041342165
164	0x3da98353	0.08277001
165	0x3da20f04	0.0791302
166	0xbc69018b	-0.014221559
167	0x3c7fd2c4	0.015614215
168	0x3d691f2b	0.05691449
169	0x3b9ca59a	0.0047804834
170	0xbd73db70	-0.059535444
171	0x3d59ef6b	0.053206842
172	0xbd918172	-0.07104768
173	0xbdc2cf0e	-0.09512149
174	0xbcb368b0	-0.021900505
175	0x3db8860d	0.09009943
176	0xbd05855b	-0.03259788
177	0x3d947c62	0.07250287
178	0xbdbcc8f9	-0.0921802
179	0xbc2fe2f9	-0.010735267
180	0xbd1468dd	-0.036232818
181	0x3c51168a	0.012761721
182	0xbdcd9280	-0.10037708
183	0x3da23e89	0.07922084
184	0xbd849869	-0.064743824
185	0xbd65f532	-0.05614204
186	0xbc94dc6b	-0.01817151
187	0xba8d3388	-0.0010772804
188	0xbd593a7c	-0.05303429
189	0xbdca0d56	-0.09865825
190	0x3c87b478	0.016565546
191	0x3d1c9edf	0.03823745
192	0xbd0bb210	-0.03410536
193	0x3de5dcd8	0.11223763
194	0xbd3a24d4	-0.04544528
195	0xbd12335d	-0.035693515
196	0xbdd0234d	-0.10162983
197	0x3d6c13c9	0.057636056
198	0x3d85d06d	0.06533895
199	0x3d9b78c6	0.07591395
200	0xbd89e30a	-0.067327574
201	0xbd9f8a28	-0.07790023
202	0x3d9e817e	0.077395424
203	0x3d7c6875	0.061623055
204	0xbd9b55eb	-0.07584747
205	0xbc47af66	-0.012187814
206	0x3d9ca0a9	0.07647831
207	0xbdbb74b4	-0.09153119
208	0xbcb5104e	-0.022102501
209	0x3d3a9503	0.045552265
210	0xbd84c7b8	-0.06483406
211	0xbd5dabff	-0.054119106
212	0xbc893016	-0.016746562
213	0xbd58355e	-0.05278527
214	0x3ca15399	0.019693183
215	0xbcc1cb27	-0.02365644
216	0xbda4fdc2	-0.08056213
217	0xbda3a0f8	-0.07989687
218	0x3c2e58c1	0.010641278
219	0x3b8ae17f	0.004238307
220	0xbd793a0d	-0.060846377
221	0xbda8edf1	-0.08248509
222	0x3d3d2974	0.04618211
223	0xbd837bde	-0.0642011
224	0x3cd5451f	0.026033936
225	0xbcc22aa2	-0.02370197
226	0xbdb3454f	-0.08753454
227	0xbdb2c24f	-0.08728468
228	0xbc053c28	-0.008132018
229	0x3cfac8fb	0.030613413
230	0xbd3d58dd	-0.046227325
231	0xba389319	-0.0007040962
232	0xbd894936	-0.06703417
233	0x3d0ce4d8	0.03439793
234	0xbd00771e	-0.0313636
235	0xbc01c856	-0.007921299
236	0x3d24dfe9	0.0402526
237	0xbd133bc3	-0.035945665
238	0xbccb156c	-0.024790488
239	0x3bb59f54	0.005542675
240	0xbc6855b1	-0.014180587
241	0xbc6cc50f	-0.014451279
242	0xbd5ba2f3	-0.053622197
243	0x3d5a822c	0.053346798
244	0xbcc6dc27	-0.024274899
245	0x3aac4105	0.0013141936
246	0x3c9e2466	0.019304466
247	0xbd2a74eb	-0.041615408
248	0x3caa99f8	0.020825371
249	0xbdc6af90	-0.09701455
250	0x3dc97fd1	0.09838832
251	0xbd2bf164	-0.041978255
252	0x3d8834ab	0.066506706
253	0xbcca41f9	-0.024689661
254	0xbd824d06	-0.06362347
255	0x3cf72a4b	0.030171534

rnn.bias_ih_l0 f4 [300]
0	0x3dd260e4	0.10272387
1	0x3cbf3d97	0.023344798
2	0xbc972051	-0.018448027
3	0x3db07eec	0.086179584
4	0x3c4ae727	0.012384213
5	0xbd31d887	-0.043419387
6	0x3d5f69b9	0.054544184
7	0x3dc9e907	0.098588996
8	0x3c171ac0	0.009222686
9	0x3d9e9d4b	0.07744845
10	0xbce76cf4	-0.028250195
11	0x3ac6e7ae	0.0015175247
12	0xbcdbe776	-0.026843768
13	0x3d9c12c3	0.07620766
14	0xbd93ebe9	-0.07222731
15	0xbd49debd	-0.049284685
16	0x3dca6436	0.09882395
17	0x3d9bca6f	0.076069705
18	0xbd3d1a96	-0.046167932
19	0x3c92b585	0.01790882
20	0x3b5e9628	0.0033964012
21	0xbd96869b	-0.07349893
22	0xbdbebd7f	-0.09313487
23	0xbd61720b	-0.0550404
24	0xbd72836a	-0.059207357
25	0x3da37578	0.0798139
26	0x3d3c1059	0.045914028
27	0x3d8bf90d	0.06834612
28	0xbda6f4a9	-0.08152134
29	0x3d7dd9e9	0.061975393
30	0x3d95cbe3	0.07314279
31	0xbd8bed8a	-0.06832416
32	0x3d4b9fdf	0.04971301
33	0xbdadd67d	-0.08488176
34	0xbd03c17f	-0.032166954
35	0x3d30988e	0.043114237
36	0x3dbf5b4a	0.09343584
37	0xbde8bf43	-0.11364605
38	0xbd1826e9	-0.037146483
39	0xbd426bdb	-0.04746614
40	0xbd8e56e9	-0.069501705
41	0x3d0778ee	0.033074312
42	0x3c923f39	0.017852413
43	0xbd5d7d42	-0.054074533
44	0x3d8f80fb	0.07007023
45	0xbd9a4753	-0.07533135
46	0xbc37c6c7	-0.011216826
47	0x3d47abfe	0.04874801
48	0x3d8fc7ed	0.07020555
49	0x3dbe701a	0.092987254
50	0xbcf60a0a	-0.030034084
51	0x3c55109d	0.013004449
52	0x3d1972b8	0.03746292
53	0xbc2e38ae	-0.010633631
54	0x3db80fb3	0.089873694
55	0xbd0c4f50	-0.034255326
56	0xbd376c57	-0.044781055
57	0xbdc43377	-0.09580129
58	0x3db20576	0.08692448
59	0x3d9b810d	0.07592974
60	0xbd99faab	-0.07518514
61	0xbd9f2740	-0.07771158
62	0xbd8b0afd	-0.06789205
63	0xbcaf47b1	-0.02139649
64	0x3db1c033	0.08679237
65	0xbd4c4de2	-0.049878962
66	0x3d137b09	0.036006007
67	0x3dc21a43	0.09477665
68	0x3db6a67b	0.089184724
69	0x3d7546a5	0.059881825
70	0x3d814e27	0.063137345
71	0x3dcced2c	0.100061744
72	0xbd9afcc7	-0.07567745
73	0xbd92505f	-0.07144236
74	0x3d91577f	0.07096767
75	0xbdc990db	-0.09842082
76	0xbdbb0b3c	-0.09133002
77	0x3c73f8ec	0.014890891
78	0xbda90594	-0.08253017
79	0x3b2da15b	0.002649388
80	0x3dc79e44	0.09746984
81	0xbd4e2b72	-0.0503344
82	0xbd55adf5	-0.05216785
83	0x3dd3af20	0.10336137
84	0x3dc89908	0.097948134
85	0x3c8f262c	0.017474256
86	0xbd6f1e8f	-0.058378752
87	0x3c271776	0.010198465
88	0x3d14229d	0.036165822
89	0x3d006cb7	0.03135368
90	0xbc758998	-0.014986418
91	0x3d92bb12	0.07164587
92	0x3dd2ea26	0.102985665
93	0xbdcaff70	-0.09912002
94	0x3c7c0efe	0.015384434
95	0x3dca2e91	0.09872163
96	0x3c236710	0.0099733025
97	0xbd2ab37c	-0.041675076
98	0xbd94fd88	-0.0727492
99	0xbca691cf	-0.020333199
100	0xbe062525	-0.13100107
101	0xbdb4cc61	-0.08828045
102	0xbdfb7222	-0.122776285
103	0xbdec748c	-0.11545667
104	0xbdc1ae65	-0.09457091
105	0xbe1f9d98	-0.15587461
106	0x3dae90a2	0.0852368
107	0xbdd4ddf2	-0.10393895
108	0x3b9a3674	0.0047061983
109	0xba47d5b8	-0.0007623094
110	0x3dda3517	0.10654657
111	0x3c481979	0.012213104
112	0xbd8095a4	-0.06278542
113	0xbe083818	-0.13302648
114	0xbe3d4f9c	-0.184874
115	0xbd83f3a8	-0.06442958
116	0xbe220af2	-0.15824488
117	0xbd43c146	-0.04779174
118	0xbd821595	-0.06351773
119	0xba220c36	-0.0006181629
120	0xbe17108a	-0.14752403
121	0xbdb49092	-0.08816637
122	0x38d41d4c	0.00010114405
123	0x3c12dc28	0.008963622
124	0x3ddeb95e	0.108752
125	0xbe10430e	-0.1408808
126	0xbe0126e8	-0.12612498
127	0xbdb6772a	-0.089094475
128	0x3d0cb963	0.034356486
129	0xbd63ba3c	-0.05559753
130	0x3c877f0c	0.016540073
131	0xbdc4254b	-0.095774256
132	0x3b941eba	0.0045202645
133	0xbe3bb6be	-0.1833143
134	0xbd97b72c	-0.07407984
135	0xbdc78e86	-0.09743981
136	0xbe0f75d7	-0.14009796
137	0x3ddc6a91	0.107625134
138	0x39c31203	0.00037206718
139	0xbd3c7d32	-0.046017833
140	0xbe14b2a3	-0.1452127
141	0xbdce2f00	-0.10067558
142	0xbd2d2bd0	-0.04227811
143	0x3d17132c	0.036883518
144	0x3d9356f5	0.0719432
145	0xbe35fa23	-0.17771201
146	0xbe053169	-0.1300713
147	0xbd94da58	-0.07268208
148	0xbdf90032	-0.121582404
149	0x3d3be741	0.045874838
150	0xbe1b59d8	-0.15170991
151	0xbdda6b32	-0.10664977
152	0xbd1a4ab8	-0.037668914
153	0xbdd892a4	-0.105748445
154	0xbd356c6b	-0.04429285
155	0x3dd23aa7	0.10265093
156	0xbdc610aa	-0.09671147
157	0xbe2478c6	-0.16061696
158	0xbdc23ecf	-0.09484636
159	0x3d7b6a11	0.06138045
160	0xbd938e25	-0.07204846
161	0xbc9ec497	-0.01938085
162	0xbe19021b	-0.1494221
163	0xbdb835b0	-0.08994615
164	0xbe3cd2c3	-0.18439774
165	0x3d381d18	0.04494962
166	0x3c516064	0.012779329
167	0x3cab103d	0.020881766
168	0x3ccfa177	0.025345547
169	0xbc806cc8	-0.015676871
170	0xbe160ccb	-0.14653318
171	0xbd8d7d32	-0.06908645
172	0x3d6f5392	0.05842931
173	0xbd7c9c9e	-0.0616728
174	0xbe19fce7	-0.15037881
175	0x3ce3d78b	0.02781274
176	0xbe43b055	-0.19110234
177	0xbd7704a4	-0.06030716
178	0xbdd0e65e	-0.10200189
179	0xbd2d89df	-0.042367812
180	0xbd8ad4e3	-0.06778886
181	0xbe27f680	-0.16402626
182	0xbcb4c59a	-0.02206688
183	0xbdb7957b	-0.08964058
184	0xbe31701d	-0.17327924
185	0xbc8fa3cd	-0.017534161
186	0xbc156256	-0.009117683
187	0xbe38b09f	-0.18036126
188	0xbdf66afe	-0.12032126
189	0xbe21cfe6	-0.15801963
190	0xbd8cf7ab	-0.068831764
191	0xbe046af8	-0.1293143
192	0xbd92e6b2	-0.07172908
193	0x3c9fbf10	0.019500285
194	0xbde4f6d2	-0.1117989
195	0xbcab6a8b	-0.020924827
196	0xbb7d7deb	-0.003867979
197	0xbdabb609	-0.0838433
198	0xbd8a7e0a	-0.06762321
199	0xbe0fb76c	-0.14034814
200	0xbb99ac63	-0.0046897396
201	0xbdc38c3d	-0.09548233
202	0xbcf61ac7	-0.030042065
203	0xbbcce9af	-0.006253443
204	0xbd7a6d20	-0.061139226
205	0x3d9b7cb4	0.075921446
206	0x3c813c29	0.015775757
207	0x3dbd628f	0.09247314
208	0xbca91b51	-0.020642908
209	0xbdb6e1c8	-0.08929783
210	0x3d106a1e	0.03525745
211	0x3cfc1d50	0.030775696
212	0xbcb2b352	-0.021814022
213	0xbd10746f	-0.03526729
214	0xbdc6311c	-0.096773356
215	0xbcf03ca9	-0.0293258
216	0x3dac7c88	0.0842219
217	0xbd601c9b	-0.05471478
218	0x3da2f090	0.0795604
219	0xbda8b48e	-0.08237563
220	0xbd2f26ec	-0.04276173
221	0x3d63b97e	0.05559682
222	0xbd74cec3	-0.059767496
223	0x3d9b9572	0.07596864
224	0x3da333ec	0.07968888
225	0xbc9422e2	-0.01808304
226	0xbd5b1c08	-0.05349353
227	0xbc75f2bf	-0.015011488
228	0x3cff9952	0.031201039
229	0xbd2e40c9	-0.042542253
230	0x3dac7741	0.084211834
231	0xbd82c9e6	-0.06386165
232	0xbbea93a0	-0.0071587116
233	0xbdb0f8da	-0.08641215
234	0xbd24fd2e	-0.040280513
235	0x3d946e82	0.0724764
236	0xbc1938fe	-0.009351967
237	0xbcaa3dcb	-0.020781418
238	0xbda2ec8d	-0.07955275
239	0x3d90839e	0.07056354
240	0xbdae41c2	-0.08508636
241	0x3db8e231	0.090275176
242	0xbd81559d	-0.063151576
243	0xbd253b22	-0.040339597
244	0xbd8d79d6	-0.06908004
245	0x3d93a6b9	0.07209534
246	0xbc656865	-0.01400194
247	0x3cc15009	0.023597734
248	0x3bdb3c69	0.006690551
249	0xbd6ef16c	-0.058335707
250	0xbd8f819b	-0.07007142
251	0x3b20bc06	0.0024526133
252	0xbd1d368e	-0.038382106
253	0xbda089a8	-0.07838756
254	0xbd8ffb78	-0.07030386
255	0x3d9643a6	0.07337122

rnn.bias_hh_l0 f4 [300]
0	0xbd770968	-0.060311705
1	0x3d8dd9fb	0.06926342
2	0x3d8079a9	0.06273205
3	0xbdae7f44	-0.08520368
4	0xbc762cf1	-0.015025363
5	0x3d36daf5	0.044642407
6	0xbd23f9ce	-0.040033154
7	0xbd30472c	-0.043036625
8	0x3d49518c	0.049150035
9	0x3d04f0b2	0.032456107
10	0xbce2feba	-0.027709354
11	0xbda62407	-0.081123404
12	0x3d19fc4e	0.037594132
13	0x3c96ca3e	0.018406983
14	0xbcb9be8e	-0.022673871
15	0x3dba0fca	0.09085043
16	0x3c2d617c	0.010582324
17	0x3d164180	0.03668356
18	0x3d84a513	0.06476798
19	0x3d055af4	0.032557443
20	0xbdb484bf	-0.08814382
21	0x3db728f9	0.08943362
22	0x3d267131	0.04063529
23	0xbd0a068d	-0.033697654
24	0x3dda02a1	0.10645033
25	0x3d04426e	0.032289915
26	0xbc5042e5	-0.012711261
27	0xbce4e0ae	-0.027939167
28	0xbbb334ef	-0.0054689567
29	0xb9dc2db6	-0.00041995727
30	0x3d627c63	0.055294406
31	0xb8996ba9	-7.315662e-05
32	0x3c992274	0.018693186
33	0xbbb2fc3b	-0.005462197
34	0x3df9bbc9	0.1219402
35	0xbcbe670a	-0.023242492
36	0xbd9f9475	-0.07791988
37	0xbd8cb40a	-0.06870277
38	0xbd5691ec	-0.052385256
39	0xbd29c279	-0.04144523
40	0xbd0c7154	-0.034287766
41	0x3d3318b5	0.043724734
42	0xbd134b43	-0.035960447
43	0x3d89d8cb	0.06730803
44	0x3c6c58cc	0.014425468
45	0xbd17714f	-0.036973294
46	0xbc0520d2	-0.008125501
47	0x3cc91b7b	0.024549237
48	0xbd256abe	-0.040385
49	0x3cd2e928	0.025745943
50	0xbcdfa1c9	-0.027298825
51	0x3cba040a	0.022707004
52	0x3dc8360e	0.09775935
53	0x3d92d872	0.0717019
54	0x3b8ec135	0.004356528
55	0xbd501b6b	-0.050807398
56	0x3c72b562	0.014813753
57	0x3d2099d9	0.03920922
58	0xbd84e2f5	-0.06488601
59	0x3d5c4e3c	0.053785548
60	0x3c9e5a5a	0.019330192
61	0x3dc8ad49	0.097986765
62	0x3d3910e3	0.04518212
63	0x3d945b9b	0.07244035
64	0x3d81f3f0	0.063453555
65	0x3d55ad05	0.052166957
66	0x3b8fb414	0.0043854807
67	0xbdaa0544	-0.083017856
68	0x3c8f5937	0.017498596
69	0x3cb677c2	0.022273902
70	0x3da9422b	0.08264574
71	0x3c957156	0.01824252
72	0xbd01a07c	-0.03164719
73	0x3ccf9616	0.025340121
74	0xbd523ee0	-0.051329494
75	0x3c904ff3	0.017616248
76	0xbdac9e92	-0.084286824
77	0x3df31d6c	0.11870846
78	0x3c2c02ac	0.010498684
79	0xbdb07afb	-0.08617207
80	0x3d503ac6	0.0508373
81	0x3d59002c	0.05297868
82	0x3c21fef9	0.00988745
83	0xbdb42f04	-0.0879803
84	0x3d44a78c	0.048011348
85	0x3d6c7ebf	0.057738062
86	0x3da977be	0.08274792
87	0xbc697ad9	-0.014250481
88	0x3c80181f	0.015636502
89	0xbd057393	-0.032580923
90	0xbd18f53a	-0.03734324
91	0xbcabac48	-0.020956174
92	0x3de39c1e	0.11113761
93	0x3d5d1815	0.053978045
94	0x3d223c13	0.039608072
95	0x3d5259a6	0.051355027
96	0x3da49833	0.08036842
97	0x3dd48cb3	0.10378399
98	0x3dc0bebb	0.09411379
99	0x3c217195	0.00985374
100	0xbe3fad81	-0.1871853
101	0xbbdee689	-0.0068023843
102	0xbd8af97c	-0.067858666
103	0x3c87e65f	0.016589342
104	0xbe0a9608	-0.13533795
105	0xbdd187b6	-0.10230963
106	0xbd8c0ce1	-0.06838394
107	0xbe32b7cf	-0.1745293
108	0xbdd074af	-0.10178506
109	0xbe0744a5	-0.1320978
110	0x3db3bf2d	0.08776698
111	0xbddeaa37	-0.1087231
112	0xbcfd984d	-0.030956412
113	0xbd390676	-0.045172177
114	0xbe1d0a07	-0.15335856
115	0xbdaa377e	-0.083113655
116	0x3d10f28a	0.035387553
117	0xbd9c5aa2	-0.07634474
118	0xbd933103	-0.071870826
119	0xbdc24fa1	-0.09487844
120	0xbe08d92d	-0.13364096
121	0xbe190d5e	-0.14946505
122	0x3b3969b2	0.002829176
123	0x3c8f5fcc	0.017501734
124	0x3dcd8802	0.10035707
125	0xbd03e729	-0.032202873
126	0xbd8ceae6	-0.06880741
127	0xbe016629	-0.12636627
128	0x3c923fdd	0.017852718
129	0xbda5e07f	-0.0809946
130	0xbdae3d70	-0.08507812
131	0xbc910cd8	-0.01770632
132	0xbca9e476	-0.020738821
133	0xbdf6fe56	-0.120602295
134	0xbd6f6f23	-0.058455598
135	0xbd28a556	-0.0411733
136	0xbe2759ed	-0.16342898
137	0xbd1f124a	-0.0388358
138	0xbe229b59	-0.15879573
139	0xbb1639aa	-0.0022922554
140	0xbe390650	-0.18068814
141	0x3cdad371	0.026712151
142	0x3bd87001	0.006605149
143	0x3d5f37d6	0.05449661
144	0x3d7810c7	0.060562875
145	0x3b973ed2	0.004615643
146	0xbe0116fb	-0.12606423
147	0x3c73c387	0.01487816
148	0xbc0e9348	-0.008702107
149	0x3d4efe85	0.050535697
150	0xbd54e836	-0.051979266
151	0xbdfd4675	-0.12366954
152	0xbdbbf1d0	-0.091769814
153	0x3c1f8a72	0.009737598
154	0xbddb8aa6	-0.107198045
155	0x3dd3a6d8	0.10334557
156	0x3b3de426	0.0028975098
157	0xbe0a3a99	-0.13498916
158	0xbc60d23e	-0.013722001
159	0xbc8c99f7	-0.01716326
160	0xbddad0a2	-0.10684325
161	0xbcb4b70b	-0.022059938
162	0xbe0f3bcb	-0.13987653
163	0xbdff9e37	-0.12481349
164	0xbd22c1a0	-0.039735436
165	0xbe1086ca	-0.14113918
166	0x3b7cf3ed	0.003859754
167	0xbe099182	-0.13434413
168	0xbd55726e	-0.05211108
169	0xbe36fa62	-0.17868951
170	0xbd9802c5	-0.07422403
171	0xbe1f7c86	-0.15574846
172	0x3e10f1f8	0.14154804
173	0xbd3b55db	-0.045736175
174	0xbcee738c	-0.029107831
175	0xbd8ad798	-0.067794025
176	0xbd6ff975	-0.05858751
177	0xbe1fc2b1	-0.15601613
178	0xbd9bdd9a	-0.076106265
179	0xbe00cc55	-0.12577946
180	0xbd4a5f18	-0.049407095
181	0xbe0acbdd	-0.1355433
182	0xbe111229	-0.14167084
183	0xbe0dba08	-0.13840497
184	0xbc615769	-0.01375375
185	0xbd6d1f78	-0.05789134
186	0xbe3cd3cf	-0.18440174
187	0xbe38c097	-0.18042217
188	0xbddfbcf1	-0.109247096
189	0xbd999079	-0.07498259
190	0xbdc82bf6	-0.0977401
191	0xbc9c415c	-0.019074135
192	0xbd765fb7	-0.060149875
193	0x3ca75d93	0.020430362
194	0xbb27d236	-0.0025607473
195	0xbd4a1677	-0.04933783
196	0xbd626916	-0.055276
197	0xbd9a1506	-0.07523541
198	0xbd6cff13	-0.057860445
199	0xbe363a36	-0.17795643
200	0x3dbd4750	0.092421174
201	0xbd356861	-0.044288997
202	0x3dab5341	0.08365489
203	0x3dc43321	0.095800646
204	0xbd0d95a6	-0.034566544
205	0x3db752d0	0.08951342
206	0xbd4144f8	-0.047184914
207	0x3d41a536	0.047276698
208	0x3d0d9fa6	0.03457608
209	0xbd02e9ce	-0.031961255
210	0xbc1933a2	-0.009350689
211	0x3d7038ad	0.0586478
212	0x3dca71e0	0.09885001
213	0x3c45785d	0.012052623
214	0x3c5631ad	0.013073367
215	0xbd8ec5d4	-0.069713265
216	0xbdb973e3	-0.09055307
217	0x3d88a726	0.06672506
218	0x3dd7b621	0.10532785
219	0x3ad3d120	0.0016160347
220	0x3d4a0d98	0.04932937
221	0x3d87bcd9	0.06627817
222	0xbdcb404a	-0.099243715
223	0x3ce5e287	0.028062118
224	0x3d4eb138	0.050461978
225	0xbc97b1b1	-0.018517347
226	0x3d772aa1	0.06034339
227	0x3d87bd4e	0.06627904
228	0x3d60dd69	0.054898653
229	0xbd1a8b26	-0.03773036
230	0xbdbe49f3	-0.092914484
231	0xbd51a6e7	-0.05118456
232	0xbd3792e8	-0.044817835
233	0xbd01986f	-0.031639513
234	0x3c9ff8b6	0.019527774
235	0x3c803aa0	0.015652955
236	0xbd860c9b	-0.06545373
237	0xbc56a13f	-0.0130999675
238	0xbdb99703	-0.09062006
239	0xbbb254cb	-0.005442237
240	0xbcbc221b	-0.022965482
241	0x3dd776e7	0.10520726
242	0x3c4503d4	0.0120248385
243	0xbdb8ed88	-0.090296805
244	0xbdb0ca4f	-0.08632337
245	0x3bf685b7	0.0075232643
246	0xbd0e3e75	-0.034727532
247	0xbd9aa41f	-0.07550835
248	0x3d365885	0.044518013
249	0x3da0d514	0.078531414
250	0x3da2e238	0.07953304
251	0x3d47db46	0.0487931
252	0xbd62dc2d	-0.055385757
253	0x3dbc7930	0.09202802
254	0xbcd8cfbd	-0.026466245
255	0x3d3b9e91	0.045805518

linear.weight f4 [1, 100]
0	0x3d3bc6c9	0.045843873
1	0x3d0717e2	0.03298176
2	0xba85e642	-0.0010215717
3	0xbccc15f3	-0.02491281
4	0x3db57552	0.08860268
5	0x3df2edfb	0.118617974
6	0xbd0ec1f4	-0.034852937
7	0x3d8ca1f5	0.06866828
8	0x3db40fd1	0.08792079
9	0xbdadb8d8	-0.08482522
10	0x3d13bb3f	0.036067244
11	0xbd2917d8	-0.041282505
12	0x3da2b062	0.079437986
13	0x3dcaeaa1	0.09908033
14	0xbdbc5d1f	-0.09197449
15	0xbdd1ad65	-0.102381505
16	0x3daaa79b	0.083327495
17	0xbda9f34b	-0.082983576
18	0xbc80595d	-0.015667612
19	0xbd03a524	-0.032139912
20	0x3dbb4cad	0.09145484
21	0x3df5cd3f	0.12002038
22	0xbd8b2cf6	-0.06795685
23	0x3d9f6d07	0.07784467
24	0x3c9e4888	0.019321695
25	0x3d4c42e1	0.04986847
26	0xbdeea10e	-0.116518125
27	0x3d90e166	0.07074241
28	0xbc15fecb	-0.009154986
29	0x3d9c4a96	0.07631414
30	0x3caf9e97	0.021437926
31	0xbd92e251	-0.07172073
32	0x3d56c793	0.052436423
33	0xbd440324	-0.047854558
34	0xbd8c698b	-0.06856068
35	0x3c91ed49	0.017813342
36	0xbddb1457	-0.10697239
37	0xbca7909a	-0.020454694
38	0x3d5ace7f	0.053419586
39	0xbdedddfc	-0.11614606
40	0xbd82305c	-0.0635688
41	0x3c31cf52	0.010852652
42	0x3da1fa3f	0.07909059
43	0x3d9cb9be	0.07652615
44	0xbd514830	-0.051094234
45	0x3d069f3e	0.03286671
46	0x3d9c1c91	0.07622636
47	0x3d515e5f	0.05111539
48	0x3d31b8f7	0.043389287
49	0xbd2c5acd	-0.042078782
50	0xbd90c40d	-0.07068644
51	0xbdb9b805	-0.09068302
52	0x3cab9cbd	0.020948762
53	0x3df3b819	0.11900348
54	0xbd6bd007	-0.057571437
55	0xbcfee7d5	-0.031116406
56	0x3c70d4eb	0.014699201
57	0x3d6f7488	0.058460742
58	0x3d82fd4f	0.06395971
59	0xbda102a2	-0.0786183
60	0xbcdc1c9c	-0.02686911
61	0x3838f58e	4.409771e-05
62	0x3c79b86f	0.015241726
63	0x3dde721a	0.10861607
64	0xbd386aff	-0.045023914
65	0x3d83fde6	0.06444912
66	0xbc5efd14	-0.013610143
67	0x3c5b41ce	0.013382388
68	0x3bc34f74	0.0059603993
69	0x3d17c574	0.03705354
70	0x3dd8b054	0.10580507
71	0xbd4eb81f	-0.05046856
72	0xbc46dd1e	-0.012137679
73	0xbe02253f	-0.12709521
74	0xbda131ad	-0.07870803
75	0xbddc5d2e	-0.1075996
76	0xbda8528d	-0.0821887
77	0xbdc0dd4e	-0.094172105
78	0x3d4a3bb0	0.04937333
79	0x3cfedad5	0.031110207
80	0xbdc1b02c	-0.0945743
81	0x3d875de5	0.06609706
82	0xbd734fb6	-0.05940219
83	0x3ddf7dad	0.10912643
84	0x3cff1445	0.031137595
85	0xbd70479a	-0.058662035
86	0x3d38a5c8	0.045079976
87	0xbda4de2e	-0.0805019
88	0xbda43923	-0.080187105
89	0xbdb3fd2f	-0.08788525
90	0x3d2e35e7	0.042531874
91	0xbd316a4f	-0.043314274
92	0xbd85dc2e	-0.065361366
93	0xbcc0138c	-0.02344682
94	0xbd8c8c13	-0.068626545
95	0xbda96b2f	-0.08272397
96	0xbd4bd254	-0.04976113
97	0xbd134abf	-0.035959955
98	0x3ddef4d2	0.108865395
99	0x3dfa6867	0.122269444
