backend/trained_models/NMB_LSTM_model_state_dict.pth (torch, 167939 bytes, 5 tensors)

rnn.weight_ih_l0 f4 [400, 1]
00000000: da47 6d3d 962b f43b 3493 c23d 8102 8aba
00000010: 77af 9f3d e01b 863c 03e9 7fbc f96d aabc
00000020: 33bd 013e 416c 7a3d 0e83 cfbc ab19 e3bc
00000030: 7b15 253d fee7 5abd 60c6 37bb c3b1 423c
00000040: f0b4 60bd 2fc1 23bd e4b9 8c3c d064 edbc
00000050: e78e c23d ff22 933c b683 ed3d bd84 da3d
00000060: 8640 bcbd f9dc 3fbc 2a86 5c3d 94a1 5d3d
00000070: 0355 f43d 9c87 263d d8b4 f63d d01f 823d
00000080: 8e07 ecbb 4326 c13d 8135 783d e626 44bd
00000090: 4efe 48bd c992 c73c bfeb 243d 0285 bf3d
000000a0: c5ca 9f3d 6b67 8f3d ab61 13be f0a6 72bc
000000b0: 092f 88bb 4623 bbbb 7504 f63d 7a5a 5ebd
000000c0: 14bb a23d 75ad 693c 1241 bb3c d02d 2cbd
000000d0: 6bfd 50bd cc64 82bd 4ab5 043d 7087 bbbd
000000e0: da68 103d 4cc5 bcbd 57a5 a4bd 3681 d23c
000000f0: 067f 82bd 10b9 3cbd b6fd 853c afac 0ebb
00000100: 9096 0d3d a60c c43d 4a05 b13c 2764 6d3d
00000110: 42f0 23bd f161 9fbd ba16 be3d 9a4b 0fbd
00000120: 24fc 313b ae63 c43d bf3f 8abc 4c07 843c
00000130: 6b92 aabd 82a5 5bbd b2b2 80bc be46 aebd
00000140: d438 e33d af85 173d c7cd 9fbd 7834 45bd
00000150: 4caf e93c b9b7 7c3d c444 5cbd 08dd 763d
00000160: 62cd 5abd 55f3 b5bd 88fa 523d eacb dc3d
00000170: a491 ba3b 42a8 933d 5a05 a23d 9db6 693d
00000180: a4e1 fabd 96b0 fa3d a22c 4c3d 5f43 283d
00000190: cc4a 2fbd 651e fd3d d587 d83d 6c68 26bd
000001a0: 6243 ef3d 1a48 29bd bf7c 73bd 45eb f43c
000001b0: 318e 933b 1054 cb3d 35d7 a0bd 4fc9 dc3d
000001c0: b2ad 5bbd be37 983d 22b9 a03d 6593 fabc
000001d0: 6e59 11bd b54c c3bd 5fd0 b6bc c65b e03d
000001e0: c751 f53d f748 cd3c e576 e03d 4a2e f33d
000001f0: ce9b cbbd ec16 8abd 9c30 fe3b 095d 063d
00000200: 5b94 283d d83d 93bd a632 6c3d bf14 223d
00000210: 02a5 fa3d 04ee 823c 419e 24bc 6b31 fcbd
00000220: a799 29bd 6826 46bc 6722 033e d2f1 39bd
00000230: e07f 87bd d6f2 2d3d 67f1 9ebd bf7c ca3d
00000240: fc51 c4bd 30df 163d 044e 2eba 6d90 433d
00000250: a02e b3bc 07f6 33bb 57f6 7dbd a4fb ec3d
00000260: 1283 dd3d 98d1 9d3d 5499 3bbd ce36 093d
00000270: 8342 c43c e2a5 97bd 22b9 743c c60f e93d
00000280: b209 f83d 5de2 263d 7c41 1ebb 84de 753d
00000290: 4b47 bb3d 2fb0 83bd b263 c83b bd6f 7dbd
000002a0: 8fdd dc3d 49fc 4ebd 8d43 abbd 5dee 51bc
000002b0: 442b edbc cc9d a33d 93c2 ba3d 34f1 883d
000002c0: feed b1bc 9487 11be 018f 28bc df89 883c
000002d0: faee 1f3c 50a2 52bd 4952 763b 608f 8f3c
000002e0: 8c2b d7bc dd35 21bd d412 4fbd 30b2 63bd
000002f0: 06d2 383d 7aff 843d 9cc1 bc3d b6ef d83d
00000300: 9189 90bd d49b f43d 7ac9 ed3d 0805 8f3d
00000310: 02e2 84bb d63b a1bb 9281 e8bd 3d22 013d
00000320: a3a8 86bd 13d2 06be 1267 aebc fa31 6fbd
00000330: a923 463d c2a4 1a3d 51ed e13d e60c f1bd
00000340: bdd2 ad3d 6680 8cbd fa76 e7bd 6f5f 023e
00000350: 3947 b73d 903c 5abd 689d 1e3d 78e0 9bbc
00000360: 9c27 d7bd 5112 a8bd 3e0d 933d d692 08be
00000370: 58ec d6bd 9ac4 02be 3988 e2bd fa73 f23d
00000380: 7574 6abc 7a2b 003e 2b87 fa3c c24a 4b3d
00000390: a99d 003e dc66 02be 3f0f d1bd 940e 9abd
000003a0: 1163 89bb d504 9b3d 33cd 69bc a6b8 d43d
000003b0: 5de5 d33d 74f0 e63d 116a 2abb e597 35bd
000003c0: e4b3 3f3d d2dd 9abd 5f60 d23d 26ef 643c
000003d0: a1ec 83bd af5c 8d3d 3448 ac3c 0bf8 a33d
000003e0: d683 103e 7318 d1bd 8cf9 063e 3a57 d93d
000003f0: 5f33 61bd 6ae1 e73d e6fd 8f3c 33a1 9f3d
0.05792985 0.007451485 0.09500733 -0.0010529311 0.07797139 0.016370714 -0.015619519 -0.020804392
0.1266983 0.061138395 -0.025331046 -0.0277222 0.04030369 -0.0534439 -0.0028041825 0.011883202
-0.054860055 -0.039979156 0.017178483 -0.028978735 0.09499913 0.017961023 0.115973875 0.10669849
-0.09191994 -0.011710399 0.053838886 0.05410917 0.11930277 0.04065667 0.12046212 0.06353724
-0.007203049 0.09431126 0.0605979 -0.04788866 -0.04907065 0.024361985 0.040263887 0.09351541
0.07802347 0.07002147 -0.14392726 -0.014810309 -0.0041559977 -0.005710992 0.12012569 -0.054285504
0.079458386 0.014262547 0.022858176 -0.042035878 -0.05102293 -0.06366882 0.032399453 -0.09156692
0.035256244 -0.09217319 -0.080393486 0.025696378 -0.06371884 -0.046074927 0.01635633 -0.0021770408
0.034567416 0.09572725 0.021608967 0.05795684 -0.04002405 -0.07782353 0.092816785 -0.03498421
0.0027158344 0.09589325 -0.0168761 0.01611676 -0.08328708 -0.053624637 -0.015710209 -0.08509587
0.110948235 0.036992725 -0.07802921 -0.04814574 0.02852597 0.06169865 -0.053776518 0.060269386
-0.053418525 -0.088843025 0.051508456 0.10781081 0.0056936312 0.07209827 0.07911177 0.05705892
-0.12250069 0.12240712 0.049847253 0.041079875 -0.04279594 0.12359313 0.10572783 -0.04062693
0.11682774 -0.041328527 -0.05944514 0.029897342 0.0045030345 0.09928143 -0.078535475 0.10780584
-0.053632446 0.07432507 0.07847811 -0.030587861 -0.035485677 -0.09536115 -0.022316156 0.109550044
0.119784884 0.025059206 0.10960177 0.11874063 -0.09941827 -0.06742653 0.0077572595 0.03280357
0.041157108 -0.0718953 0.05766549 0.039570566 0.12238504 0.015982635 -0.010047496 -0.12314113
-0.0414063 -0.012094118 0.12806092 -0.045396633 -0.06616187 0.042467915 -0.077608876 0.09887075
-0.0958595 0.036833942 -0.00066491985 0.047745157 -0.021872818 -0.0027459876 -0.062002506 0.11571434
0.10816015 0.077059925 -0.045800522 0.03349953 0.023957497 -0.074046865 0.014936717 0.11379962
0.12111224 0.04074322 -0.0024147918 0.06002666 0.091444574 -0.06430089 0.0061154 -0.06187414
0.107844464 -0.050533567 -0.08362494 -0.012813178 -0.028951295 0.07989082 0.09119143 0.06686631
-0.021719929 -0.14211875 -0.010288001 0.016667305 0.009761566 -0.051424325 0.0037585667 0.017524421
-0.026265882 -0.03935801 -0.050555065 -0.055589855 0.04512217 0.06494041 0.092166156 0.10592596
-0.07057489 0.11943784 0.11610694 0.069833815 -0.0040552625 -0.004920463 -0.113528386 0.031526793
-0.06575134 -0.13166074 -0.021289382 -0.05839727 0.048373852 0.03775478 0.11031593 -0.11770038
0.08487461 -0.068604276 -0.1130199 0.12731718 0.089491315 -0.053280413 0.038724333 -0.019027933
-0.10505602 -0.082066186 0.0718026 -0.13337263 -0.10494298 -0.1277031 -0.11061139 0.11838527
-0.014309992 0.12516585 0.030582031 0.04963184 0.12560143 -0.1273455 -0.10207986 -0.07522312
-0.004192718 0.07569281 -0.014270115 0.103867814 0.10346482 0.112763315 -0.0026003162 -0.04433431
0.046802416 -0.0756184 0.102722876 0.013973033 -0.06441618 0.069024436 0.021030523 0.08006295
0.14112791 -0.102097414 0.13181132 0.1061234 -0.054980632 0.11322291 0.017577123 0.07794418

rnn.weight_hh_l0 f4 [400, 100]
00000000: ae58 793d 6a2f 153a 8065 473d eec0 aebd
00000010: 5468 943c 3c9a 96bb bfae 83bc 7563 c5bc
00000020: 332e 30bd 07dc c53d 38fd 9ebd 1b56 de3c
00000030: 4030 31bd f276 90bb a7d4 27bd 06d0 933c
00000040: fb8c d23b fb9e 48bd d41c 9a3d fded 9abd
00000050: 1c99 b63d ade7 cf3d 7bf1 d53d 2615 72bd
00000060: a227 8c3d f8e7 aa3b 3915 7abd f22e 5cbc
00000070: 2d82 063d 10c8 c23d 0060 99bd d95c b63d
00000080: e77d 2a3b 4105 3fbd f69e 82bd 8634 753d
00000090: e053 de3c bf40 a93c 23e6 a4bd 657b ed3c
000000a0: 9f8c 4fbd fc56 9fbd 40ab 703c 4c68 d33d
000000b0: 8214 9b3d b505 0fbd cbd2 3abd 8706 cebd
000000c0: 0e4c 983d 586d c5bc 587c 50bd aec0 f83c
000000d0: 1d39 5c3d fc6d a3bc f5d5 1c3c 0ab8 56bc
000000e0: ef0e e43d 50d6 a43c 672f 28bd 1db9 14bc
000000f0: 51ac 7b3c 8976 763d 0fde 9e3c d32a c2bd
00000100: 71ed 83bd c554 a4bd 7a29 b03d 788e ae3b
00000110: 3526 b0bd d885 553d 2aec 823d c731 aebd
00000120: aac1 5d3c a063 abbd d7b4 4abd 852f 81bd
00000130: 51e7 cfbd d96b 7dbd c711 243d f3cd bebd
00000140: c18e 27bd 168b 003c f4dd c8bd 7c43 c63c
00000150: c381 cf3b ebbc b3bc 0eae 58bd 9afb 5abd
00000160: aa2a a43b 831f 8d3d 4c71 a8bd e88a 033d
00000170: 334b c8bd 87d7 d7bd 1193 9abd c441 42bd
00000180: b391 563d 3614 813d 1f60 3a3d b761 42bc
00000190: 4a7e 68bd ad4c b43c ee8b 9abd 5a58 b93b
000001a0: 02b7 0abd 13e7 3cbd c873 5a3d 2eab de3b
000001b0: 3fc8 5bbc 65cc 3dbc f93b 52bd 907a 053c
000001c0: 358d 3e3d 8c38 e0bd 0226 bebb 426f 013d
000001d0: f68e 443c b6a2 a5bd d64d 58bd 4d63 90bd
000001e0: 6750 67bd 3ec9 61bd b01b 9fbc c395 773d
000001f0: 2f05 3e3d a7e4 b9bc 25a4 3cbd bbf7 d83d
00000200: 4615 1d3d aa96 233d 54eb 1fba 157c 9b3d
00000210: e406 4cbc 1dd7 cfbc 1ff4 86bd 9545 f2bd
00000220: 6b5f 76bd 7971 1d3d 7de1 98bd 2321 2e3d
00000230: 91e4 a1bd 70e2 45bc 974e a53c 5bdd 17bd
00000240: 6638 7abd 6819 97bc 8fc9 4d3c 62ae 64bd
00000250: 84f6 40bc c4d6 08bd 5e6e a73d 1b6e e4ba
00000260: a4a3 9bbc 57d9 0a3d f946 f53c 54b2 43bd
00000270: 8c07 94bd 5c06 40bc c87d aebc 5700 adbd
00000280: 169c d53d 5bcc 473d 87b3 283c b675 a23b
00000290: a003 21bd 6cfb 6d3c a068 1dbd 090e 4dbc
000002a0: ae37 563d 73d2 b8bc 4676 acbc 8bc4 87bd
000002b0: 26f3 583d c8e4 a7bd 315d 9cbc c57f a0bd
000002c0: 5bfe f53c 2668 443c 6bd0 93bc 048c 623d
000002d0: cc09 6dbd 0c81 8b3d bf4e 9d3d a287 a2bc
000002e0: 783d 0abd 11b6 14bd b9ac 8fbb 9180 a43d
000002f0: 4a45 64bd 6724 c13d 0d39 dcbc fd44 fa3c
00000300: 4bc9 f03d aa37 2b3c d16b dd3d 98d8 3abd
00000310: c3aa cfbc 189f 3d3d 409e e73d 60b6 bd3c
00000320: 4461 eb3b 0614 123d 9e7a 02bc 88ac 88bd
00000330: f906 f83c 0694 5fbd e71f f5bc 3acf c1bd
00000340: 5976 b3bc 8737 c3bd 628f 61bc 8d3d 99bd
00000350: aece 353d e835 08bd 4c78 d13d e1ca 873b
00000360: b1ee b9bc 0a71 90bd d96b 88bd 1981 2bbd
00000370: 1d62 cdbc 2050 9e3c 9427 b1bc 815d b9bb
00000380: bddf a9bd 9de0 06bd 7d2b db3d 4f64 a13d
00000390: e2cf c83d 2bc6 eabd 25ab 2a3d b251 64bd
000003a0: 599d 95bd 7d01 a13d 1667 b5bd 7eec eb3c
000003b0: 4d2f 3e3d 9da4 a5bd 8017 423d 7a7a 283c
000003c0: 8b16 ebbc d3b5 b5bd 12eb 913d c582 8fbd
000003d0: 9e50 dbbd 253d 1b3d 6718 a53d 61b2 c63d
000003e0: c4a9 9fbb 11f7 ecbd 8819 283d 427c 94bd
000003f0: 2816 d93c c333 b8bc a0a1 9b3d 5ad6 8ebd
0.060875587 0.0005690964 0.048680782 -0.08532892 0.018116154 -0.004596023 -0.016074536 -0.024095276
-0.04301281 0.096611075 -0.077631414 0.027140668 -0.043258905 -0.0044087106 -0.040974285 0.01804353
0.0064254976 -0.04897974 0.0752503 -0.07564924 0.08915922 0.101516105 0.10446449 -0.0591022
0.06843497 0.005215641 -0.061055396 -0.013438927 0.03283899 0.09510815 -0.07489014 0.08904428
0.0026014985 -0.04663587 -0.06377976 0.059864543 0.027139604 0.020660756 -0.080517076 0.028989503
-0.050671216 -0.07780263 0.014689267 0.103226274 0.07572271 -0.034917552 -0.045611184 -0.10059839
0.07436381 -0.02409999 -0.050899833 0.030365314 0.053765405 -0.019949906 0.009572496 -0.013105402
0.11135661 0.020121723 -0.04106083 -0.009077338 0.015360908 0.060171638 0.019392995 -0.09480824
-0.06441773 -0.08023981 0.08601661 0.005327042 -0.086010374 0.052129596 0.06392701 -0.08505588
0.013534943 -0.08368611 -0.04948887 -0.06307892 -0.10151542 -0.06187043 0.040056016 -0.093166254
-0.040907625 0.007845661 -0.09807959 0.024202101 0.0063326075 -0.021940669 -0.052900366 -0.053462602
0.0050099688 0.06890776 -0.08224735 0.032114893 -0.09779968 -0.105391555 -0.07547582 -0.047426
0.052385043 0.06302683 0.045501824 -0.011864117 -0.056761064 0.022009218 -0.07546221 0.0056562843
-0.033865936 -0.046118807 0.053333074 0.0067953086 -0.013414442 -0.011584376 -0.051326726 0.008146897
0.046521384 -0.109482855 -0.0058028707 0.031600244 0.011996975 -0.08087675 -0.052808605 -0.0705019
-0.056473162 -0.05512356 -0.019422382 0.06044556 0.046391662 -0.022692038 -0.046054978 0.10594126
0.038350366 0.039938606 -0.0006100435 0.07592026 -0.012452815 -0.025371129 -0.06589531 -0.11829678
-0.06014959 0.038438294 -0.074648835 0.04251207 -0.07904924 -0.012077913 0.020179076 -0.037076335
-0.061088942 -0.018444732 0.012560262 -0.055830367 -0.011777524 -0.03340794 0.08175348 -0.0017427834
-0.018998928 0.033898678 0.029941069 -0.04777749 -0.07228002 -0.011720266 -0.021300212 -0.084473304
0.10430162 0.048778873 0.010296709 0.00495788 -0.039310098 0.014525276 -0.038429856 -0.012515553
0.052299194 -0.022561288 -0.02105249 -0.066292845 0.05296626 -0.081979334 -0.019087406 -0.0783687
0.030028513 0.011987722 -0.018043717 0.05530931 -0.05787067 0.06811723 0.07681035 -0.019840065
-0.033750027 -0.036306445 -0.004384604 0.080323346 -0.05573014 0.09430771 -0.026882673 0.030550474
0.117571436 0.010450283 0.1081158 -0.045616716 -0.02534998 0.0462943 0.11309481 0.023158252
0.007183226 0.035663627 -0.0079638045 -0.06673533 0.030276762 -0.054584526 -0.029922439 -0.094633535
-0.021907018 -0.095320754 -0.013767095 -0.07482443 0.04438656 -0.033254534 0.10228023 0.004144058
-0.022696825 -0.070528105 -0.06661195 -0.041871164 -0.025071198 0.019325316 -0.021625318 -0.0056568985
-0.08294628 -0.03292905 0.10701654 0.078804605 0.098052755 -0.11463579 0.041667122 -0.055741973
-0.07305402 0.07861612 -0.08857553 0.028799292 0.04643183 -0.08088038 0.047385693 0.010283107
-0.028697273 -0.08872571 0.07124914 -0.07007364 -0.10708736 0.03790011 0.08061295 0.09701992
-0.0048725326 -0.11570562 0.041039973 -0.07250263 0.026499823 -0.02248562 0.07599187 -0.06974478

rnn.bias_ih_l0 f4 [400]
00000000: 32fc b0bd 643b 643d bbe4 67bc 42d4 ee3d
00000010: 794c 96bd fc09 edbd 205a a93d ade4 a83d
00000020: ec6e 9dbc 4afd 00bd 6273 17bc 84ad b73b
00000030: d2c8 41bd fe35 86bd 4164 6ebc a2ca 013d
00000040: 3b0a ecba 05bf a53d 0884 bbbd 933d 84bd
00000050: 9856 403d 638b 463c 8b89 733c 1f51 533d
00000060: c138 7c3d f7f5 473c ec78 97bd 7b5b f1bb
00000070: d310 1dbd df76 9ebc 8f5e 63bc 3211 78bd
00000080: f9a0 7fbc 0780 483d 5952 403d 2130 5f3d
00000090: 9d77 2d3d c364 903d b4a9 7e3d 545a e63c
000000a0: ce3a 49bd d15b d43d 1f10 04bd 782c 90bc
000000b0: bb52 f83d b017 e23c 9264 7bbc bc79 0fbd
000000c0: 0d1a e13d e159 353d f0a0 c3bc c38c 7f3d
000000d0: 7902 ab3a 3308 503d a266 333d 27c0 40bd
000000e0: 9d81 4fbd 4779 693c 7d26 88bd e5fe 21bc
000000f0: 45fc 38bd fd9a 04bd e394 e53d 32b6 8cbd
00000100: 10a7 f03d ea86 0ebd a48a 9e3d eaa9 0dbc
00000110: 96a5 903c ed7b 833d 9c31 8b3d 11f9 c0bd
00000120: cf90 11bd b062 823d 820d 82bd ad2f e8bc
00000130: 85d9 eabc 8c4c 0ebd a7be 16bc f37b 663d
00000140: 933b ed3a 44ec 85bd 8f42 873d 1974 05bd
00000150: 8225 ad3d b780 babb 6af1 f33b 3823 0fbd
00000160: 1126 313d 718f edbc b77a 863d 2d03 ed3d
00000170: 7507 873d 9497 403d 3ceb 81bd 413f 7d3d
00000180: 0ea7 503d 1f04 7a3d cce5 a1bd 6c03 f3bc
00000190: 7950 abbd 4ca2 ae3d 74f8 8e3d a89a 7e3b
000001a0: fd39 b73c d736 25bd 7d1c 3a3d e45b 8fbd
000001b0: 169c 14bc 8193 e43d e0ad 3e3c f5eb 8b3d
000001c0: 6d6a 9a3d 2075 fdbb 07f9 32bd 17c2 a73d
000001d0: d479 ae3c bea3 89bd 513c 95bd 9ba3 69bd
000001e0: 6d0a 1ebd fb03 7abd 9ea0 993d 6787 d83d
000001f0: 1664 983d 3768 a53b a082 b43c 65f4 efbc
00000200: d460 53bc 9f2c 9e3d 2150 37bd 4ac0 afbd
00000210: 7ff6 7e3c 64b8 f03d 1182 1ebc 0d17 ba3d
00000220: cd0d a4bd 5155 25bd 1af0 67bd 6abd 793d
00000230: 6dda 8d3d 2d7b b3bc 9c40 f63d b012 1b3d
00000240: 64df 81bd 0076 70bd 92e9 7bbd 38b0 ba3d
00000250: 9675 853d 49b1 b73d c4cf ae3d 185e 5c3c
00000260: 06fc f4bc 51c7 a93c 58e5 ac3d 8ee0 053c
00000270: f6c8 503d b322 4abd 6165 97bd 043c 79bd
00000280: ba8d ae3d 9aff 3c3d 5e07 0c3d ca3d 8fbd
00000290: daaf 9e3d b2bd eabc d118 abbd 8d03 a0bc
000002a0: b577 c93d 908b 0d3d 0193 e33d b6cb e2bd
000002b0: 5e33 f53c 2a6c 60bd 84b0 82bd ec1e 20bc
000002c0: ef51 af3c acfd 88bd 0bab b5bc cc56 323d
000002d0: f1ce ac3b 9a8e d0bd c8bd 9bbc 778d 1ebd
000002e0: 395e 013e ea40 69bd 9cf8 393d 96d0 b7bc
000002f0: c7a0 823d 5233 2dbd 64ff cabc 36e6 10bd
00000300: 49eb 1ebd 6906 81bd 5e15 8e3d 32c7 bfbc
00000310: 9a2d 773c c816 85bc d7b1 2a3d 8028 85bd
00000320: e2c3 7fbc e1ba 6dbd b6f1 883c fb46 1d3c
00000330: aade 0a3d b529 6d3c 7085 92bd acbe 683d
00000340: af80 b23c 7035 07bd 62d4 953c b641 713d
00000350: 3dcd c9bd 18e0 00bd e173 c53c 5644 22bd
00000360: 3e80 7a3d 25d1 273d e76b 4a3d 998c 14bd
00000370: 833f d9bd 19ad b13c 1d4f 343d 7a6f 7e3d
00000380: d402 8c3c 1890 ae3d 58d1 5dbd 0438 d13d
00000390: 207d d63d 07b2 863b 3ba7 cbbd 0650 113c
000003a0: 4c21 13bd 7e11 863c d449 93bd 7d5c b6bd
000003b0: 3524 2fbd 0497 983d 09cf 0bbd 90d9 28ba
000003c0: ed76 2a3d 7033 8bbc 60d2 6bbd e6f4 25bd
000003d0: a430 723d 6ed4 18bd 1bad d73d 07b7 553d
000003e0: 0b64 65bc 6de4 95bd 8021 8fbd a3ad 88bd
000003f0: b60b a3bd 6940 5cbc b88d c23d dcc4 28bd
-0.086418524 0.0557207 -0.014153655 0.11661579 -0.07338805 -0.1157417 0.08269143 0.082467414
-0.01921793 -0.031491555 -0.009243818 0.0056054015 -0.047310658 -0.06553267 -0.01455027 0.031687386
-0.001800842 0.08093075 -0.09156042 -0.06457057 0.046957582 0.012118193 0.014864336 0.051591035
0.061577562 0.012204639 -0.07396111 -0.0073656416 -0.038346123 -0.019343792 -0.013877525 -0.060563274
-0.015602344 0.04895022 0.046953533 0.05448926 0.0423504 0.07050469 0.06217356 0.028119244
-0.049128346 0.10369075 -0.032241937 -0.01759933 0.121251546 0.027599186 -0.015343802 -0.035028204
0.10991297 0.04427517 -0.023880452 0.0623901 0.0013047002 0.05078907 0.04379905 -0.04705825
-0.05066072 0.014250106 -0.06647966 -0.009887432 -0.045162458 -0.03237437 0.112100385 -0.068706885
0.11750615 -0.034796633 0.07741287 -0.008646468 0.017657083 0.06420121 0.067965716 -0.09422506
-0.03553849 0.063664794 -0.06350233 -0.028343046 -0.028668175 -0.03474097 -0.0092007285 0.05627055
0.001809942 -0.06539205 0.06604492 -0.032581422 0.0845442 -0.0056916135 0.0074445503 -0.034945697
0.043249194 -0.028999062 0.06566375 0.11572871 0.06593219 0.047019556 -0.063436955 0.0618279
0.050940566 0.061039086 -0.079051584 -0.029664718 -0.08364958 0.085270494 0.069809824 0.0038849507
0.022366518 -0.040335502 0.045437325 -0.069999486 -0.009070417 0.11160947 0.011638135 0.068321146
0.0753983 -0.0077349097 -0.043694522 0.081913166 0.021298327 -0.067206845 -0.07286895 -0.057040792
-0.03858416 -0.061038952 0.075013384 0.10572701 0.07440965 0.005047824 0.022034943 -0.029291341
-0.012901504 0.077233545 -0.04475415 -0.08581598 0.015561699 0.1175392 -0.009674565 0.09086428
-0.08010445 -0.040364567 -0.056625463 0.060971655 0.06926427 -0.02190932 0.12024042 0.03785962
-0.063414365 -0.058706284 -0.061502047 0.09115642 0.06516568 0.08969361 0.08535722 0.013450168
-0.02990533 0.020724924 0.08442181 0.008171214 0.0509729 -0.049349498 -0.07392383 -0.06084825
0.08523126 0.0461422 0.034186713 -0.06994207 0.07748385 -0.028654907 -0.08354343 -0.019532943
0.098372854 0.034556925 0.11112023 -0.11074011 0.02993172 -0.054790653 -0.06381324 -0.009772997
0.021401374 -0.06689009 -0.022176286 0.043539807 0.005273693 -0.10183449 -0.019011393 -0.03870913
0.126336 -0.056946672 0.045403108 -0.022438329 0.06378322 -0.04228527 -0.024779983 -0.035375796
-0.038798604 -0.06300051 0.06937669 -0.023410413 0.015086556 -0.016246215 0.041673508 -0.065018654
-0.015610667 -0.05803955 0.01671682 0.009599443 0.033903755 0.014475276 -0.071543574 0.056822464
0.021789877 -0.033009946 0.018289749 0.058900557 -0.09853599 -0.031463712 0.024103107 -0.03961595
0.061157458 0.04097094 0.04941931 -0.036266897 -0.10607817 0.021688985 0.04402076 0.06211803
0.017091192 0.085235775 -0.054154724 0.10215762 0.104730844 0.004110578 -0.09944006 0.008869177
-0.035920426 0.016365763 -0.07191816 -0.089043595 -0.04275914 0.07450679 -0.03413299 -0.0006441111
0.041617323 -0.0169923 -0.057573676 -0.040516756 0.05912842 -0.037311964 0.10531064 0.0521765
-0.014000903 -0.073189594 -0.069888115 -0.066737436 -0.07961218 -0.013443091 0.09499687 -0.041203365

rnn.bias_hh_l0 f4 [400]
00000000: 3587 eb3c f3c2 a33d 963c 79bb f7b1 673d
00000010: 3926 873d 54e8 20bd 9a75 263d b8fb fa3d
00000020: 4557 283d 42f1 303d b262 563d c337 78bd
00000030: 03a1 48bd de0c bbbd 71bf 933c 7f1b 963d
00000040: db4f ca3c 8d5e d1bb 53db bebd bda5 9ebb
00000050: acd8 6abd 5ba1 47bc 3e55 4bbd b7e1 b4bc
00000060: 1196 60bd 211c 03bd 72ba a5bd e52c b63d
00000070: 416a a3bd 4fb8 d5bc ec11 f7bb 979b 8c3d
00000080: 2dd8 f1bc 7010 743d 1477 85bd baaa 98bd
00000090: 782e 74bd dfa0 78bd a0ee 993d 1e4a a93d
000000a0: 82f2 9d3d 497e 433d 55d6 be3d a4bd d2bc
000000b0: 397d 8fbd 9b14 e0bc fa59 843c fb2a 8f3d
000000c0: e5b8 67bc 6613 ce3d b56d cd3d e47b 873d
000000d0: 7674 6dbd 1a8e aa3d f83b 373d 1a01 9b3d
000000e0: 3cb7 6c3d 0e47 483d f7a9 9abd 959e 8d3d
000000f0: 1102 cdbc 10af b3bd edc9 1d3c 62ae b1bd
00000100: 0dad a33c da86 4f3d 8633 af3d 8bdd 6d3d
00000110: 47a0 903d 2db8 393d 9fdf 0a3c 93b2 843c
00000120: 8a65 873b 6a05 013b fbfc 70bd 2688 dcbc
00000130: 7f54 5d3d a6bf d03d a1f1 43bd 69c1 d6bd
00000140: a998 57bc b14f 5f3d e14d e73d c340 cfbd
00000150: 8597 07bd c038 efbd 1166 2abd bea2 a1bd
00000160: bfbe d93d eaf4 223d 2b74 a73c 11c5 f23c
00000170: ad7f 8dbd 33c7 adbb 86d3 1abc 0ed5 a23b
00000180: 2ead 183c 7e50 a4bd d93c c23d 5281 a6bd
00000190: 2c58 9d3d 6b2a 8b3d f11f 473c 0cfe 0f3d
000001a0: 639c a43c 7165 853d dd52 4a3c d3eb 013a
000001b0: 8e4d 913d 1649 6c3d 1871 e83c 54bf 96bd
000001c0: 0582 5dba a390 aabd 5f61 78bd 9afc 213d
000001d0: 5f4a 2cbd 63dc d1ba 4ffb 513d 7d6d c63d
000001e0: 629f 973d d26a de3d c94f 36bd d39f 243d
000001f0: 9918 653d bbef 993c 117b a13d 3a6d bd3d
00000200: ef57 9dbd 3ccb 6ebd 904a 16bb 027a b2bc
00000210: bd9d 6abd 9a3c c93c d847 a5bc f0a1 cd3b
00000220: 63a1 553d de42 e53d b31b e6bc 0050 1fbd
00000230: 654b 60bd 4794 b03d 028b 453d 25be 913d
00000240: 039d 0d3c 948d 493d 515f cf3d 69ec 8c3d
00000250: b803 923d dedf cd3d e7b7 75bd 2137 80bb
00000260: 7711 c5bd 1b73 4f3d 8ead ac3d 1383 bdbd
00000270: dcd2 02bd db2c e93d 6806 89bd 4a22 dd3d
00000280: 9b6b 98bd b7b6 21bd e819 873d a265 d7bc
00000290: 178a a13d 5d9d 5eb8 4ba3 323d eedd c23d
000002a0: bd02 b636 2740 9aba bd06 d73d 17d8 cabb
000002b0: 3b11 60bd d375 413d 225f 8a3b 93c8 ea3c
000002c0: 1481 ce3c e977 423d 8e84 c63d 05e8 39bc
000002d0: ee53 5cbc 0045 b63d 02fb 303c f918 56bd
000002e0: 113d b23a d6d8 f0bd bc6f 83bd 48ac f13b
000002f0: 31a2 403b c560 5fbd a636 9b3d c151 6dbd
00000300: dc5a 183c 19ad e1bb 3a61 a0bd f7a1 e53c
00000310: 8773 c9ba 0881 e1b9 d736 603d 25a6 8b3d
00000320: c533 11bd 1f0a eb3b 817f 273c 9e4c a6bd
00000330: 5783 9cbd adbb c5bd df6b 123d 899d 043d
00000340: 433f b2bc 6365 11bd 8fd4 703d dbc9 d73c
00000350: a3f0 b43c 290c 8fbc c5b1 7cbd 4206 a73d
00000360: d01e 2abd c344 7a3d 0316 22bd d7f3 123d
00000370: cf29 50bd 74a3 9bbc 34b8 07bc d42d b4bd
00000380: eeb4 8ebd 1e1d 14bd 6a3e a6bc 741e c73d
00000390: 07a8 b3bc e2d7 993d ec64 4fbd 6b94 31bd
000003a0: c5c8 82bd c74d 8bbd 8956 9cbb f18d 46bd
000003b0: 4f6c 6e3d 4721 783d 76ff aebd 25dd 953d
000003c0: 233c 4bbd 74d5 2f3d ab9a 64bd ae93 cc3d
000003d0: d23b 073d 351c fdbc 939a 1038 0fe5 3cbd
000003e0: 70fd 903d a0d5 7b3d 15a2 ca3d b1bf edbc
000003f0: a4cd 9e3d 5f09 553d 7612 2bbb d250 953d
0.028750995 0.07996168 -0.0038030497 0.056566205 0.06599087 -0.039284065 0.040639497 0.12255043
0.04109885 0.04319883 0.052340217 -0.060600054 -0.048981678 -0.091333136 0.018035622 0.07329463
0.024696281 -0.006389445 -0.093191765 -0.004841535 -0.05733554 -0.012184466 -0.04964184 -0.022080285
-0.054830614 -0.032009248 -0.08092202 0.08895282 -0.07979251 -0.026088862 -0.0075399783 0.06865614
-0.029522026 0.05958599 -0.06516853 -0.074544385 -0.05961463 -0.060700294 0.07516217 0.0826609
0.0771227 0.047727857 0.09318224 -0.025725193 -0.07006306 -0.027353575 0.016156185 0.0699062
-0.014143203 0.10062294 0.100306906 0.06615427 -0.057972394 0.08327885 0.044734925 0.075685695
0.057791933 0.048895888 -0.075519495 0.06915013 -0.0250254 -0.08773625 0.009630662 -0.08675839
0.019979978 0.050665714 0.08554749 0.058072608 0.070618205 0.04534166 0.008476167 0.016198432
0.0041319774 0.0019687065 -0.05883501 -0.02692039 0.05403566 0.10192804 -0.047837857 -0.10486109
-0.013158956 0.05451936 0.11294151 -0.10119774 -0.033103485 -0.11680746 -0.041601244 -0.07892369
0.10632085 0.03978435 0.020441135 0.029634984 -0.06909118 -0.0053032874 -0.009449845 0.0049692458
0.009318633 -0.08023165 0.09484262 -0.08130135 0.07682833 0.067952 0.0121536115 0.035154387
0.020094102 0.06513489 0.012348858 0.00049561 0.070948705 0.057686888 0.02837424 -0.07360712
-0.00084498554 -0.083283685 -0.060639735 0.03954754 -0.042063113 -0.0016011115 0.051265057 0.09688852
0.07403447 0.10860218 -0.044509683 0.040191483 0.05593166 0.01879107 0.07884801 0.09249349
-0.076827876 -0.05829929 -0.0022932626 -0.021786693 -0.057279337 0.02456503 -0.02017586 0.006275408
0.052155863 0.111943945 -0.02808938 -0.038894653 -0.0547594 0.08622032 0.04822827 0.07116345
0.008643392 0.049207285 0.10125602 0.06881029 0.071296155 0.10052465 -0.059989836 -0.003912822
-0.09622472 0.050646883 0.084315404 -0.09253516 -0.031939372 0.113855086 -0.06690675 0.10797556
-0.07442399 -0.03948089 0.06596738 -0.02629358 0.07887667 -5.307548e-05 0.04361276 0.09514986
5.4243415e-06 -0.0011768386 0.10499332 -0.0061903107 -0.054703932 0.047231507 0.0042227665 0.028660094
0.025208034 0.047477636 0.096932516 -0.011346822 -0.013447745 0.088998795 0.010802032 -0.05226991
0.0013598521 -0.11760108 -0.06417796 0.007375274 0.0029393549 -0.054535646 0.07578783 -0.057939295
0.009299006 -0.00688709 -0.078310445 0.028031332 -0.0015369513 -0.0004301148 0.0547398 0.06818799
-0.035449762 0.0071728374 0.01022327 -0.08120082 -0.076422386 -0.09654937 0.035747405 0.0323768
-0.021758681 -0.03549708 0.05879646 0.02634137 0.0220874 -0.017461853 -0.06169297 0.081554905
-0.04153329 0.061100733 -0.039571773 0.035877075 -0.05082112 -0.018998839 -0.008283664 -0.087978035
-0.06968103 -0.03616058 -0.020293433 0.09722605 -0.021930708 0.075118795 -0.050633356 -0.043354433
-0.0638595 -0.06801944 -0.004771058 -0.04847521 0.05820876 0.06057861 -0.08544819 0.073175706
-0.049617898 0.042928174 -0.055811565 0.09989105 0.033016033 -0.03089724 3.4476234e-05 -0.046116885
0.07079589 0.061483026 0.09894196 -0.02902207 0.077540666 0.05201089 -0.0026103533 0.07290806

linear.weight f4 [1, 100]
00000000: 672b 263d cf7f dfbd e580 c73d 279b b7bd
00000010: 3d1b 183d 02e3 82bd f750 a6bc 02e8 ebbd
00000020: 28fe b93d d74e e0bd 0497 b0bd f15b eb3d
00000030: 3cbe 7b3d b4b0 b13c 7820 873d 8a2c 0cbd
00000040: a047 70bd d19f c6bd 4752 7cbd 83b6 31bd
00000050: 5eeb 5ebd e606 fcbd 4b21 34bd e294 b33d
00000060: babe 51bd f99f c73d 15a0 d03d cc84 b43d
00000070: db8d 4a3d 7cbb 1bbd d378 08bd f44d 6a3c
00000080: 16a5 febc 4778 073e db71 90bd 9412 323c
00000090: 195a a33b 3672 c73d 5704 bcbd c2eb b6bd
000000a0: 13ff ac3c 21fc 4bbd b032 983d 1e47 0c3d
000000b0: bfd5 ccbd f171 c2bc 292c ee3d abef 0b3e
000000c0: 53fc 553d 2509 52bd fc60 0f3e f18c 843d
000000d0: f607 8e3d dbe1 073e ca53 8b3d b25a 81bd
000000e0: 8c32 7b3d 1e47 48bd e562 c0bc 1970 07be
000000f0: 08b1 a03d de20 98bd f695 51bd 935a 31bd
00000100: b198 99bd 6cc9 e13c d4c6 5e3d 3fa6 52bd
00000110: f14d 0b3e 05ca ce3c 973d b83d d5f1 93ba
00000120: e76b 09be d888 093c d062 9ebd 992f a4bd
00000130: a6e0 0cbe f567 583d 9eb0 40bd 30df 3dbc
00000140: 5884 bb3d 34ac 9a3d 0d7c afbd da36 8f3d
00000150: 5139 113e 01c7 fe3c 9ea3 cfbd 2577 a03c
00000160: f5fb e5bc 8316 75bd e1af 4fbd 4c57 0abe
00000170: c2f0 82bd 1d79 683d 1e4c 033e 5ce5 89bd
00000180: a16c bf3d 9441 02be cdcb 8fbd 68b8 243d
0.040568735 -0.109130494 0.097413816 -0.0896514 0.03713535 -0.063909546 -0.020302279 -0.11518861
0.090816796 -0.109525375 -0.08622554 0.11492146 0.06146072 0.021690704 0.0659799 -0.034222163
-0.058662057 -0.09698451 -0.061601903 -0.043386947 -0.054423682 -0.12306003 -0.043977063 0.087686315
-0.05120728 0.09747309 0.10186783 0.088143915 0.04945169 -0.038020596 -0.033318352 0.014300812
-0.031084578 0.13229476 -0.07052966 0.010868687 0.0049851057 0.09738581 -0.09180515 -0.08931686
0.021117723 -0.049800996 0.07431543 0.03424751 -0.10001706 -0.023735972 0.11629517 0.13665645
0.05224259 -0.051278252 0.1400184 0.06472195 0.06935112 0.13269751 0.06803091 -0.06316127
0.061327502 -0.048895948 -0.023484657 -0.13226356 0.07846266 -0.07428144 -0.051168405 -0.04329927
-0.07499827 0.027561866 0.054388836 -0.051428076 0.13603951 0.025242815 0.08996122 -0.0011287282
-0.13420068 0.0083944425 -0.07733691 -0.08016891 -0.13757572 0.052833516 -0.047043435 -0.011588857
0.09156102 0.075523764 -0.08568583 0.06992884 0.1418202 0.031100752 -0.101386294 0.019588063
-0.028074244 -0.059835922 -0.05070484 -0.13509864 -0.06393577 0.056756128 0.12822005 -0.067332
0.09346891 -0.12720329 -0.07021294 0.040214926
