backend/trained_models/PRVU_LSTM_model_state_dict.pth (torch, 167948 bytes, 5 tensors)

rnn.weight_ih_l0 f4 [400, 1]
0	0x3e07fb8f	0.13279556
1	0x3dda64b8	0.10663742
2	0x3d95f4e5	0.073221005
3	0xbddff1b0	-0.1093477
4	0xbd1883ab	-0.037234943
5	0x3db5e61c	0.088817805
6	0x3dae0047	0.08496147
7	0x3da13374	0.07871142
8	0x3de4fb37	0.11180728
9	0x3d4abcaf	0.04949635
10	0x3c3494c9	0.011021801
11	0x3ba4bad6	0.0050271554
12	0x3ddf0c4d	0.10891018
13	0x392c6721	0.00016441617
14	0x3db260b3	0.0870985
15	0x3cf7a317	0.030229134
16	0xbd3e9724	-0.046530858
17	0x3c7fe579	0.015618675
18	0xbc668fb8	-0.014072351
19	0xbe023120	-0.12714052
20	0xbce4b5a9	-0.027918654
21	0x3d3e6a6a	0.046488203
22	0x3d623e1b	0.05523501
23	0x3c8b0eef	0.016974894
24	0xbd4c8f6e	-0.049941473
25	0x3d1bd2ab	0.038042706
26	0x3d7a992e	0.06118124
27	0x3da59f1b	0.080869876
28	0xbd0ce8bc	-0.03440164
29	0x3c9ec853	0.019382631
30	0x3df47a8b	0.11937436
31	0xbd230536	-0.03979989
32	0x3d8b41af	0.067996375
33	0x3d539747	0.05165794
34	0x3b4250ec	0.0029650284
35	0xbc6d8937	-0.014498047
36	0xbe0535bf	-0.13008784
37	0x3dce8b3c	0.100851506
38	0xbd125e67	-0.03573456
39	0x3cfa42e6	0.030549478
40	0xbd306f6e	-0.043075018
41	0xbdbcd848	-0.0922094
42	0x3cdc39a5	0.026882956
43	0xbce293d7	-0.027658386
44	0x3db8eb79	0.09029288
45	0xbd31328e	-0.043261103
46	0x3d8472a7	0.06467181
47	0x3c316e14	0.010829467
48	0xbd1798c9	-0.03701094
49	0xbc87da16	-0.016583484
50	0xbd5c40fc	-0.05377291
51	0x3db35feb	0.08758529
52	0x3cce4893	0.02518109
53	0x3c23c93d	0.009996709
54	0xbaf4ade8	-0.0018667551
55	0xbdbfc6b2	-0.0936407
56	0xba90e795	-0.0011055345
57	0xbe0a0011	-0.13476588
58	0xbca2a435	-0.01985369
59	0xbc52d888	-0.012869008
60	0x3d0cb7f2	0.03435511
61	0xbc445d38	-0.011985116
62	0x3ce945df	0.0284757
63	0x3d80fb89	0.062979765
64	0x3d8c6947	0.068560176
65	0xbd9b8de3	-0.07595422
66	0x3da2123e	0.07913636
67	0x3db2839c	0.08716509
68	0xbcb78b67	-0.02240534
69	0x3db163d9	0.086616226
70	0xbe0be794	-0.13662559
71	0x3c1bbd0b	0.009505521
72	0xbbd84c18	-0.006600868
73	0x3d887197	0.066622905
74	0xbd02d489	-0.03194097
75	0x3dddb00c	0.10824594
76	0x3d632cc3	0.05546261
77	0xbb11db65	-0.0022256013
78	0xbd365778	-0.04451701
79	0x3be08bab	0.006852587
80	0x3dc8b1b5	0.0979952
81	0x3d4abe4a	0.04949788
82	0xbd2febfd	-0.042949665
83	0xbcb6e726	-0.022327017
84	0x3ca937c9	0.020656483
85	0x3d2fb563	0.042897593
86	0xbc67431a	-0.014115119
87	0xbe037546	-0.12837705
88	0x3c738b34	0.014864732
89	0x3d8b8ab1	0.06813563
90	0xbd8d760a	-0.0690728
91	0xbdb1d1c3	-0.08682587
92	0xbbb58735	-0.0055397996
93	0x3d20d9ed	0.03927033
94	0x3caf19e3	0.021374648
95	0xbd66dd77	-0.05636355
96	0x3c83c9ba	0.016087402
97	0x3d1aae49	0.037763868
98	0x3d33495c	0.043771133
99	0x3c8aa3a5	0.016923735
100	0x3d618409	0.05505756
101	0x3d1e8eb9	0.03871033
102	0x3dcfb87d	0.1014261
103	0x3c959bc4	0.018262751
104	0xbd70cfe1	-0.058792
105	0x3d72740c	0.059192702
106	0x3de10e3b	0.10989042
107	0x3d1ebe19	0.03875551
108	0x3dabd966	0.08391075
109	0x3d54b7ca	0.051933087
110	0xbd3459c8	-0.044030935
111	0xbd399b67	-0.04531422
112	0x3dee9438	0.11649364
113	0xbda20bd2	-0.07912411
114	0xbb8e338e	-0.004339642
115	0x3d925821	0.071457155
116	0x3ceff59c	0.02929192
117	0x3da83b32	0.082144156
118	0x3dd4f166	0.103976056
119	0xbd5f9c1f	-0.054592248
120	0x3ddedc6d	0.10881887
121	0x3d99dd27	0.075128846
122	0xbd5da7b6	-0.05411502
123	0x3d408d1e	0.04700958
124	0xbde89f7e	-0.11358546
125	0x3d915377	0.07095998
126	0xbd391bfb	-0.0451927
127	0x3ca66039	0.020309554
128	0x3de3dd67	0.111262135
129	0x3d3160c0	0.04330516
130	0x3c924313	0.01785425
131	0x3d802da6	0.06258707
132	0x3d42dcd6	0.047573887
133	0x3d92eca1	0.0717404
134	0xbdef8eab	-0.11697134
135	0xbd2a3874	-0.041557744
136	0xbdccbf8c	-0.09997472
137	0xba2ff71d	-0.0006712543
138	0xbd40189e	-0.046898477
139	0xbd5bb0c5	-0.053635377
140	0x3d1e7f00	0.038695335
141	0xbc26ee76	-0.010188689
142	0x3c9f55ad	0.019450033
143	0x3c99cb8f	0.018773822
144	0xbd8b8100	-0.06811714
145	0xbce8fb7b	-0.028440228
146	0xbd8ef9bf	-0.06981229
147	0x3d914a9e	0.0709431
148	0xbe040090	-0.1289084
149	0xbe0a1e00	-0.13488007
150	0xbd3439fa	-0.044000603
151	0x3d3ee621	0.046606187
152	0xbd923f0a	-0.0714093
153	0x3c200a6e	0.009768112
154	0x3db90218	0.090336025
155	0x3d9b301a	0.07577534
156	0xbd8fe404	-0.070259124
157	0xbbef91a6	-0.007311064
158	0x3ddc5062	0.10757519
159	0x3d90c653	0.07069077
160	0x3d1f9d3a	0.038968302
161	0xbd5398fc	-0.05165957
162	0x3cd5fcc2	0.0261215
163	0xbce85564	-0.02836103
164	0x3e06dba5	0.13169725
165	0xbd87da7d	-0.0663347
166	0xbd9daa1c	-0.076984614
167	0x3c022e66	0.007945633
168	0x3d23d337	0.039996352
169	0x3dc8356d	0.09775815
170	0xbdb2aa7b	-0.08723923
171	0xbbd6061d	-0.0065314905
172	0x3d238a5d	0.039926875
173	0x3d917545	0.071024455
174	0x3df21886	0.11821084
175	0xbd0bf870	-0.034172475
176	0xbce4cc58	-0.02792947
177	0x3c72bd2a	0.014815608
178	0x3d826826	0.06367521
179	0x3c4f71fd	0.012661454
180	0x3dd70b33	0.10500183
181	0x3df2457d	0.1182966
182	0xbdc10e46	-0.094265506
183	0x3de00794	0.109389454
184	0x3ce2c8e1	0.027683677
185	0xbd639433	-0.055561256
186	0xbd41c84f	-0.04731017
187	0xbdeb1427	-0.11478453
188	0x3dacae23	0.084316514
189	0xbbc61674	-0.006045157
190	0xbbed92b7	-0.007250156
191	0x3d71a519	0.05899534
192	0x3cefe47c	0.029283755
193	0xbdf8b4fc	-0.12143895
194	0xbdc66c14	-0.09688583
195	0xbcf39b5c	-0.029737167
196	0x3ddd78d7	0.10814064
197	0x3db13541	0.086527355
198	0x3db4647c	0.088082284
199	0xbd5d865f	-0.054083224
200	0x3c8ef0ad	0.017448748
201	0xbdb03782	-0.08604337
202	0x3e03e164	0.12878948
203	0x3d03584b	0.032066625
204	0x3c2fccf3	0.010730016
205	0xbdef89b6	-0.11696188
206	0xbd580ba0	-0.05274546
207	0x3db02d59	0.086023994
208	0xbcff5409	-0.031168
209	0xbb685b9c	-0.0035454994
210	0x3c8a822f	0.01690778
211	0xbd971c50	-0.07378447
212	0x3d78e396	0.060763918
213	0xbd895207	-0.067050986
214	0x3da203d4	0.079108864
215	0xbcf8c212	-0.030365977
216	0x3d2877c2	0.041129835
217	0xbe061a5a	-0.1309599
218	0xbc3a3a72	-0.0113664735
219	0xbd021043	-0.03175379
220	0xbda34209	-0.079715796
221	0xbd109bac	-0.03530471
222	0xbdf1af01	-0.118009575
223	0x3cf03513	0.029322183
224	0xbde6d2d2	-0.112706795
225	0xbd8a2efb	-0.06747242
226	0xbdeb6998	-0.1149475
227	0xbb074848	-0.0020642448
228	0xbd56113f	-0.05226254
229	0x3c6302a9	0.013855615
230	0x3dd4ba61	0.103871115
231	0x3d54c7ee	0.05194848
232	0x3d2e463d	0.042547453
233	0x3d3e7cd2	0.046505757
234	0x3da9f7a4	0.08299187
235	0xbd448105	-0.047974605
236	0x3d83221d	0.06402991
237	0xbd4fce33	-0.050733756
238	0x3d86d812	0.06584181
239	0xbd988f19	-0.07449169
240	0x3dcfeca6	0.10152559
241	0xbd92b429	-0.07163269
242	0x3d87a147	0.06622558
243	0xbc272b0e	-0.010203136
244	0xbdda35c9	-0.1065479
245	0x3d918336	0.071051046
246	0x3da73ba9	0.08165676
247	0x3dc2f563	0.0951946
248	0x3cb8b426	0.022546839
249	0x3d297394	0.04136999
250	0x3d86829b	0.0656788
251	0x3dad56a4	0.08463791
252	0x3d3fee89	0.046858344
253	0x3e03fa0d	0.12888356
254	0x3dff145a	0.12455054
255	0x3d8f0a3e	0.069843754

rnn.weight_hh_l0 f4 [400, 100]
0	0x3d53bf12	0.05169589
1	0x3d596b7b	0.053081017
2	0xbbd88af3	-0.006608361
3	0xbd1080cb	-0.035279077
4	0xbd96efdb	-0.073699676
5	0xbd715063	-0.058914553
6	0xbbb221f3	-0.005436176
7	0x3da0a66e	0.07844244
8	0xbd48830b	-0.048953097
9	0x3da78337	0.08179324
10	0xbc8dc5fc	-0.01730632
11	0xbd6b8b7e	-0.057506077
12	0xbca069dc	-0.019581728
13	0xbb34ac1d	-0.0027568408
14	0x3b798e7c	0.0038079312
15	0xbb10d6b6	-0.0022100634
16	0x3da0bded	0.078487255
17	0xbc3efd0d	-0.011657012
18	0xbcf37607	-0.029719366
19	0x3c2e6ca6	0.010646021
20	0x3d89e31c	0.06732771
21	0x3dd5098b	0.10402211
22	0xbddd0466	-0.107918546
23	0x3d9198e3	0.07109239
24	0xbdf008d0	-0.11720431
25	0xbdc12c7f	-0.09432315
26	0xbdd9463e	-0.10609101
27	0x3cd9f586	0.026606333
28	0xbd9defb1	-0.07711733
29	0xbd4b57a4	-0.049644127
30	0x3dae9f01	0.08526421
31	0xbdc5d6cc	-0.0966011
32	0xbd3cc4ff	-0.046086308
33	0x3d05e34b	0.032687467
34	0xbcdc8c9e	-0.02692252
35	0x3c99b108	0.018761173
36	0xbd9d5636	-0.07682459
37	0x3d483eb9	0.048887942
38	0xbd999bbb	-0.07500406
39	0xbdf3c7fa	-0.11903377
40	0x3dfc1f48	0.12310654
41	0xbdb31fbb	-0.087462865
42	0x3cde83be	0.027162429
43	0x3d2537e3	0.0403365
44	0xbd9cdd9e	-0.076594576
45	0x3dce32ef	0.100683086
46	0x3d22d9d6	0.039758526
47	0xbb782887	-0.0037865953
48	0xbdbce237	-0.092228346
49	0xbb5c9131	-0.0033655877
50	0xbca091bb	-0.01960074
51	0x3d21d797	0.039512243
52	0x3c871492	0.0164893
53	0x3d34eb5f	0.04416978
54	0xbda31449	-0.079628535
55	0x3d631675	0.05544134
56	0xbdcecfa0	-0.10098195
57	0x3db210d4	0.08694616
58	0xbd56ed40	-0.052472353
59	0xbd711823	-0.05886091
60	0x3d748a61	0.05970228
61	0x3d15a5af	0.03653496
62	0xbcc0530e	-0.023477104
63	0xbdaed3ad	-0.08536468
64	0xbda5504d	-0.08071957
65	0x3d80c033	0.06286659
66	0xbd58efcd	-0.052963067
67	0x3dcb9480	0.099404335
68	0x3d3f183e	0.04665398
69	0x3d92922b	0.071567856
70	0x3c2f0c2d	0.010684055
71	0xbcc3eccd	-0.023916626
72	0xbc7382ec	-0.014862757
73	0x3cfb6afc	0.030690663
74	0x3d629666	0.055319212
75	0x3d865317	0.06558817
76	0xbb1bd015	-0.002377515
77	0xbd96ba39	-0.07359738
78	0x3d708646	0.058721803
79	0x3c96d56f	0.01841232
80	0xbdd95917	-0.10612696
81	0x3c12fecb	0.00897188
82	0x3de1a57f	0.11017894
83	0x3d3a729e	0.045519464
84	0xbd61528a	-0.055010356
85	0x3d6c87cb	0.05774669
86	0xbaf1040f	-0.001838805
87	0x3ddd6560	0.10810351
88	0xbca0e79b	-0.019641688
89	0x3d5d5a0a	0.054040946
90	0xbd254ac6	-0.040354513
91	0x3ca61eb7	0.020278318
92	0xbd2e8338	-0.04260561
93	0x3d75e44e	0.06003218
94	0xbd0771ca	-0.033067502
95	0xbbcc8d3c	-0.0062424224
96	0xbd250133	-0.040284347
97	0xbd58b7e4	-0.052909747
98	0xbdb04301	-0.0860653
99	0xbc44072c	-0.0119646005
100	0x3d78d5e5	0.06075086
101	0x3d2fc196	0.042909227
102	0x3da4c828	0.08045989
103	0xbcfd973e	-0.030955907
104	0xbd45498d	-0.048165847
105	0xbda53122	-0.08066012
106	0xbd19eb7c	-0.03757809
107	0x3dc3fa67	0.09569245
108	0x3a17141c	0.00057631894
109	0x3cfc59af	0.030804483
110	0x3dde8a9b	0.10866281
111	0x3bfea9f8	0.0077717267
112	0x3d7de192	0.0619827
113	0xbb82d869	-0.0039930833
114	0xbcbd708c	-0.023124956
115	0xbd9f2406	-0.07770543
116	0xbdb0553e	-0.08610009
117	0x3da060fb	0.078309976
118	0xbd98c1fd	-0.07458875
119	0x3d42ba3e	0.047540896
120	0xbdae8ed0	-0.08523333
121	0xbd1cab1c	-0.03824912
122	0xbd100d54	-0.03516896
123	0xbcbd1ca0	-0.023084939
124	0x3d78c681	0.060736183
125	0xbb24997e	-0.0025115903
126	0x3bbf87aa	0.00584503
127	0xbd2dad16	-0.042401396
128	0xbcfb9ad1	-0.03071347
129	0x3d9c416f	0.07629668
130	0x3aebe0db	0.0017996089
131	0x3d0c6be5	0.034282584
132	0x3d189fed	0.037261892
133	0x3c4f1f3f	0.012641727
134	0xbd1d7116	-0.038437925
135	0xbb439821	-0.0029845315
136	0xbdbbb300	-0.09165001
137	0xbd9892aa	-0.07449849
138	0xbccef34d	-0.0252625
139	0xbd78ad35	-0.060712058
140	0x3c6f0317	0.014588139
141	0x3c1f339d	0.009716895
142	0x3d14ab06	0.036295913
143	0x3ca169cd	0.01970377
144	0xbd27ae00	-0.040937424
145	0x3bd3b9f8	0.006461378
146	0x3d151ced	0.03640454
147	0x3cfaffa1	0.030639471
148	0xbc8b1d2d	-0.016981686
149	0x3c6400e3	0.013916227
150	0x3dc93f4b	0.09826525
151	0xbd387638	-0.045034617
152	0xbdba5fe4	-0.09100321
153	0x3d66ea24	0.056375638
154	0x3d89c1c2	0.067264095
155	0x3d8ee70e	0.06977664
156	0xbcb57ac9	-0.022153275
157	0xbd6e4567	-0.058171656
158	0xbd9cd2e9	-0.076574154
159	0xbe023583	-0.12715726
160	0x3d95ad92	0.073084965
161	0xbd29e2a9	-0.041475926
162	0x3cdbe913	0.026844537
163	0x3d51e87b	0.0512471
164	0x3dbf99ea	0.09355529
165	0x3db3baa7	0.087758355
166	0x3d3504bd	0.044193972
167	0x3d855425	0.0651019
168	0x3d254ce1	0.04035652
169	0x3db5c505	0.08875469
170	0x3cfa88a0	0.030582726
171	0x3d80b459	0.062843986
172	0x3c027c0b	0.007964144
173	0xbd22b554	-0.03972371
174	0x3d711434	0.058857158
175	0x3d885dd9	0.06658525
176	0xbd9062a2	-0.07050063
177	0xbd9da67a	-0.076977685
178	0xbd3ea2c0	-0.04654193
179	0x3d93179b	0.07182237
180	0xbcd3d533	-0.025858497
181	0x3da3eeca	0.0800453
182	0x3bfe2cf4	0.0077568237
183	0x3d399acc	0.04531364
184	0xbdad4e5f	-0.08462214
185	0xbd88080d	-0.066421606
186	0xbd743556	-0.059621178
187	0xbc5809b2	-0.013185905
188	0x3d2fb6b6	0.042898856
189	0x3d3af51b	0.045643907
190	0xbd59cdcd	-0.053174783
191	0x3d260166	0.040528677
192	0xbdceac4e	-0.10091458
193	0xbd9d95bc	-0.07694575
194	0x3bb1808f	0.0054169367
195	0x3db24155	0.08703867
196	0xbd314ee3	-0.043288123
197	0x3d11a426	0.035556935
198	0xbdd26256	-0.10272662
199	0x3b9b578b	0.0047406605
200	0xbd64d2ce	-0.0558651
201	0x3d1a7bf6	0.037715875
202	0x3d1dde59	0.038542125
203	0x3aadcfde	0.0013260802
204	0x3d882f35	0.06649629
205	0x3d961795	0.07328717
206	0xba6c0bb6	-0.00090044306
207	0xbdc50d3c	-0.09621665
208	0x3ca1f554	0.019770302
209	0x3c9f585f	0.019451318
210	0xbc71531e	-0.014729289
211	0x3c8da355	0.017289797
212	0xbd946d5e	-0.07247423
213	0xbe02900d	-0.12750264
214	0xbdb276dc	-0.08714077
215	0xbba8dddf	-0.005153402
216	0xbc87f570	-0.016596526
217	0x3d609330	0.05482787
218	0xbddb853b	-0.10718771
219	0x3d29f0d3	0.041489433
220	0x3d8edcab	0.06975683
221	0xbd2b8974	-0.041879132
222	0x3d741a8d	0.059595633
223	0xbd6a2556	-0.057164513
224	0x3c3589a7	0.011080182
225	0x3d0a58e8	0.033776194
226	0x3d49cf59	0.049270008
227	0xbd02c474	-0.031925634
228	0xbb2f9f8f	-0.0026797985
229	0xbc9cc05d	-0.019134695
230	0xbd609a22	-0.054834493
231	0x3cebbf99	0.028777884
232	0x3d2b1616	0.04176911
233	0x3c363b46	0.01112253
234	0xbd0610c7	-0.032730844
235	0xbd6d380a	-0.05791477
236	0xbde9ed50	-0.11422217
237	0xbc917bc5	-0.017759213
238	0xbd122667	-0.035681155
239	0x3c0877e4	0.008329365
240	0xbc66e202	-0.01409197
241	0x3cbb15e0	0.02283758
242	0x3d731aad	0.059351612
243	0x3daa27e0	0.08308387
244	0x3d445696	0.047934137
245	0xbcb65b64	-0.022260375
246	0xbd6d89c4	-0.05799271
247	0xbd4566be	-0.048193686
248	0xbd95721a	-0.07297154
249	0xbccec399	-0.025239753
250	0x3d930eb7	0.07180541
251	0xbd06d9af	-0.032922443
252	0x3d1b4859	0.037910793
253	0xbcdbb61c	-0.026820235
254	0x3d0d09ad	0.034433056
255	0xbdb8d035	-0.09024087

rnn.bias_ih_l0 f4 [400]
0	0x3de2ae62	0.11068417
1	0x3d86a9b9	0.06575341
2	0xb9c99296	-0.00038446923
3	0xbc8e4fb8	-0.017371997
4	0xbc3f58eb	-0.011678915
5	0xbd7727ce	-0.060340695
6	0xbc486ec1	-0.012233437
7	0xbcfb3b47	-0.030667914
8	0x3c41471b	0.011796738
9	0x3d6a2100	0.057160378
10	0xbde82986	-0.11336045
11	0x3d4b8bdc	0.049693927
12	0xbc347cf8	-0.011016123
13	0x3d8a3123	0.06747653
14	0x3da5dffa	0.08099361
15	0x3d952eae	0.07284294
16	0x3c880746	0.01660503
17	0x3dd0ea9a	0.10200997
18	0x3ced3884	0.028957613
19	0xbdbda6d0	-0.092603326
20	0x3d276a51	0.040872876
21	0xbdcedd5f	-0.10100817
22	0xbd4ac04e	-0.049499802
23	0x3dc1aad8	0.09456414
24	0x3cfc0204	0.03076268
25	0x3d9b58fd	0.075853325
26	0x3c5d93f0	0.013524041
27	0xbdb9c977	-0.090716295
28	0xbd60ef04	-0.054915443
29	0x3d455686	0.04817822
30	0x3dd6b8ea	0.10484488
31	0xbc19c5f3	-0.009385574
32	0x3d6f8162	0.058473
33	0xbd817bb3	-0.06322422
34	0xbd45d888	-0.048302203
35	0xbceaa56a	-0.028643329
36	0xbd6c1687	-0.05763867
37	0xbda015ed	-0.07816682
38	0x3d189966	0.037255667
39	0xbd37c8cd	-0.044869233
40	0x3d89aaf8	0.06722063
41	0x3c55731e	0.013027934
42	0x3cf5bbd8	0.029996797
43	0xbd88dff4	-0.06683341
44	0x3cb6c9d5	0.022313038
45	0x3b8a6449	0.0042233807
46	0x3d290c12	0.041271277
47	0x3cbdc93a	0.023167241
48	0xbcb5cf2c	-0.022193514
49	0xbd10e908	-0.035378486
50	0x3c25cb7e	0.010119317
51	0x3d6c1f58	0.05764708
52	0xbda84559	-0.08216352
53	0xbd31a2a9	-0.043368015
54	0xbb5ea25b	-0.0033971283
55	0x3c06deb7	0.00823181
56	0x3cd58eda	0.026069093
57	0x3db6a428	0.08918029
58	0x3de2230c	0.11041841
59	0x3d59119e	0.052995317
60	0xbd4f0314	-0.050540045
61	0xbd04aaa2	-0.03238929
62	0x3dab9966	0.08378868
63	0x3c58ea4c	0.0132394545
64	0x3cfd99f3	0.030957198
65	0x3ddeb4d8	0.10874337
66	0xbda43d53	-0.08019509
67	0x3d855469	0.065102406
68	0xbb14347b	-0.0022614289
69	0x3ce71ed2	0.028212938
70	0x3cfebb8d	0.03109529
71	0xbd08ca04	-0.033395782
72	0x3dd7523a	0.1051373
73	0x3df82b5b	0.121176444
74	0x3d8a98b9	0.06767411
75	0xbd7b5389	-0.061358962
76	0xbc7df522	-0.015500339
77	0x3d517097	0.051132765
78	0x3c984de0	0.018591821
79	0xbd416490	-0.047215044
80	0x3b2705cf	0.002548564
81	0x3e008b26	0.12553081
82	0xbd9b74df	-0.07590651
83	0x3cf05469	0.029337125
84	0x3c2a4fe6	0.010395026
85	0xbd96481a	-0.07337971
86	0x3d8efe34	0.06982079
87	0xbb4ed977	-0.0031562725
88	0x3dd60e08	0.10451895
89	0xbd19c40b	-0.037540477
90	0xbbfff9f9	-0.0078117815
91	0x3d64f802	0.05590058
92	0x3b44dd7a	0.0030039237
93	0x3c35063d	0.011048851
94	0xbc36b104	-0.011150602
95	0xbd1cf393	-0.038318228
96	0xbd7d3594	-0.061818674
97	0x3d861722	0.06547381
98	0x3ca8e3a4	0.02061636
99	0x3c79db60	0.015250057
100	0xbd9c15a4	-0.07621315
101	0x3d9497ce	0.07255517
102	0xbc37ab07	-0.01121021
103	0xbd89564e	-0.067059144
104	0x3dbb8ae8	0.09157354
105	0x3d2d5fa4	0.042327538
106	0xbd79fd74	-0.061032727
107	0xbc971d20	-0.018446505
108	0xbd0b7a8c	-0.034052417
109	0x3d4806d3	0.048834633
110	0xbb41f5df	-0.0029596013
111	0x3d7d0570	0.061772764
112	0xbcc122b4	-0.023576118
113	0x3d7334b8	0.05937645
114	0x3c77f6ac	0.015134495
115	0x3cee9b32	0.029126737
116	0x3d3c5e71	0.045988504
117	0xbb3fe301	-0.0029279592
118	0x3dac3e99	0.08410377
119	0x3d90b244	0.070652515
120	0xbd83eb83	-0.06441405
121	0xbc81b350	-0.015832573
122	0x3b34ca15	0.002758627
123	0x3c3f70b1	0.011684583
124	0x3c7e1803	0.0155086545
125	0xbcc44a86	-0.023961317
126	0xbc64d496	-0.0139667
127	0x3db91a3b	0.09038206
128	0x3dae78c9	0.08519132
129	0x3d48462d	0.04889505
130	0xbd57a002	-0.05264283
131	0x3d1a0a20	0.037607312
132	0x3cd8718b	0.026421329
133	0x3b2a3295	0.002597009
134	0xbd3eac49	-0.046551023
135	0xbdcd5311	-0.10025609
136	0x3d9f076a	0.07765086
137	0x3cd2acce	0.025717165
138	0x3d5ba2b4	0.053621963
139	0xbceb9389	-0.028756874
140	0xbda9e8a6	-0.08296327
141	0x3da03324	0.07822254
142	0x3da7f050	0.08200133
143	0x3ae5fb17	0.0017546144
144	0xbcddd6c6	-0.027079951
145	0x3d41a26c	0.04727404
146	0x3d8f6680	0.07001972
147	0xbc5347ed	-0.012895566
148	0xbdc08314	-0.09400001
149	0xbd8dff94	-0.06933513
150	0x3d13fd8f	0.036130484
151	0xbd1839e8	-0.0371646
152	0x3c28a529	0.0102932835
153	0xbcc1f8eb	-0.023678264
154	0xbd8380c9	-0.06421048
155	0x3d922874	0.07136622
156	0xbd6782d2	-0.056521244
157	0x3cf82e75	0.03029559
158	0xbd10046e	-0.035160474
159	0xbd8d961c	-0.06913397
160	0xbd412b0a	-0.047160186
161	0xbdb25328	-0.08707267
162	0xbd6bbce7	-0.0575532
163	0x3c44f1f2	0.012020575
164	0x3c3a12c7	0.011357016
165	0x3ce4092d	0.027836407
166	0x3d12771b	0.03575812
167	0x3d7278ea	0.059197344
168	0xbd9cce4e	-0.07656537
169	0xbd4813b1	-0.048846904
170	0x3d83c676	0.06434338
171	0x3d1974fc	0.03746508
172	0x3dd1917d	0.10232828
173	0xbd59a3d8	-0.05313477
174	0x3dc7d3de	0.09757207
175	0x3d969cc3	0.07354119
176	0x3d790647	0.060797002
177	0x3dcb032c	0.09912714
178	0x3c9ac39a	0.018892098
179	0xbd041b1f	-0.032252427
180	0xbd335ff4	-0.04379268
181	0xbd84be70	-0.064816356
182	0x3d6655ab	0.056234043
183	0x3a67bc3e	0.0008840001
184	0x3da3538a	0.07974918
185	0xbc94b813	-0.01815418
186	0xbd67538a	-0.056476153
187	0xbda3623c	-0.07977721
188	0x3dbf59fd	0.09343336
189	0xbda2976d	-0.079390384
190	0xbd9b6326	-0.075872704
191	0x3d871da5	0.06597451
192	0x3ddd2e45	0.10799841
193	0xbd8b6c65	-0.06807784
194	0x3df5a8ea	0.119951084
195	0x3d80f06f	0.06295859
196	0x3d26e12c	0.040742084
197	0x3d57585e	0.052574508
198	0x3d45bc61	0.048275355
199	0xbcdc582d	-0.026897514
200	0x3caf6c47	0.021413935
201	0xbd39e32b	-0.04538266
202	0xbd996c45	-0.07491354
203	0x3d51878c	0.05115466
204	0x3da1cde3	0.07900598
205	0x3ca06ea0	0.019584
206	0xbdd8de3b	-0.10589262
207	0xbd89a6cc	-0.06721267
208	0x3cf86d01	0.030325415
209	0x3d412b5a	0.047160484
210	0xbd0ee53e	-0.03488659
211	0x3d5d8280	0.054079533
212	0x3dc58639	0.096447416
213	0xbdcbda10	-0.099537015
214	0x3be648db	0.007027728
215	0xbcc343e7	-0.02383609
216	0xbdbf1f20	-0.093321085
217	0xbca11b45	-0.019666323
218	0xbdae5826	-0.08512907
219	0x3db6819f	0.08911442
220	0xbd8ea01e	-0.06964134
221	0x3c9f8bed	0.019475901
222	0x3d73e16b	0.059541147
223	0x3cd38785	0.025821457
224	0x3d1a646d	0.03769343
225	0xbd34f147	-0.044175413
226	0x3d25594f	0.040368374
227	0x3ca86728	0.020557001
228	0xbd222110	-0.039582312
229	0x3d959478	0.07303709
230	0x3db4b7da	0.088241294
231	0xbd97b643	-0.074078105
232	0x3dbb68d6	0.09150855
233	0x3d7cf0f2	0.06175322
234	0x3ca3e65a	0.020007301
235	0x3da6a563	0.08137014
236	0x3caf6b96	0.021413606
237	0xbdad9c26	-0.084770486
238	0xbc5bf869	-0.013425925
239	0x3d9bfcb5	0.076165594
240	0x3da0d4ea	0.0785311
241	0x3cc12110	0.023575336
242	0xbda4daf8	-0.080495775
243	0xbd7b6f10	-0.061385214
244	0xbd87ce27	-0.06631117
245	0xbc3cae65	-0.011516188
246	0xbd60cc39	-0.054882262
247	0xbd88dd3e	-0.066828236
248	0xbd212328	-0.03934017
249	0xbdb76d64	-0.089564115
250	0x3d740072	0.059570737
251	0x3bcb3329	0.006201167
252	0x3d408f4c	0.04701166
253	0xbd161f4e	-0.03665095
254	0x3d932f46	0.07186751
255	0xbd9e8cec	-0.077417225

rnn.bias_hh_l0 f4 [400]
0	0x3da0e04d	0.07855282
1	0xbd835d0e	-0.06414233
2	0xbd6c4381	-0.057681564
3	0xbbef06ff	-0.007294535
4	0x3db70372	0.08936204
5	0xbd059ef5	-0.032622296
6	0x3dcb3b3d	0.09923408
7	0xba29d395	-0.00064783666
8	0x3a8dc93d	0.001081742
9	0x3d737447	0.059437063
10	0x3d197a00	0.037469864
11	0x3c057ca6	0.008147394
12	0x3d4842d1	0.048891846
13	0xbdc30cb1	-0.09523905
14	0x3dd54668	0.104138196
15	0x3c9f0be6	0.019414853
16	0x3c614938	0.013750367
17	0x3d6f66c1	0.058447603
18	0x3cb2ca31	0.021824928
19	0xbd5563a8	-0.052096993
20	0xbd6055c3	-0.05476929
21	0xbde4f7e9	-0.111800976
22	0xbcf4fbdf	-0.029905258
23	0xbc7c4512	-0.015397327
24	0xbd5fa76c	-0.054603025
25	0x3d4183b5	0.047244746
26	0x3ca829f6	0.020527821
27	0x3d47d8c1	0.048790697
28	0xbcc897a7	-0.024486376
29	0x3cac724e	0.021050598
30	0xbbac8ada	-0.005265576
31	0xbdc872ac	-0.09787497
32	0x3b898b62	0.004197524
33	0xbcbedff3	-0.023300147
34	0x3d47f5d8	0.04881844
35	0x3d28721c	0.04112445
36	0x3d87a470	0.06623161
37	0x3dc4eec2	0.09615852
38	0x3d8a231e	0.06744979
39	0x3cd93a87	0.026517166
40	0xbcb1e4b4	-0.0217155
41	0x3c0e870f	0.008699193
42	0x3dab2578	0.08356756
43	0x3cc3d256	0.023904007
44	0x3d68a45e	0.056797378
45	0x3c8d3e3a	0.017241586
46	0xbd8a4790	-0.06751931
47	0x3dee42e2	0.11633851
48	0xbcfb0cf5	-0.030645827
49	0x3d4591bc	0.048234686
50	0xbd68c686	-0.05682995
51	0x3c79a418	0.015236877
52	0xbc7dc0fc	-0.015487906
53	0x3dfb9230	0.122837424
54	0x3d89d9f9	0.06731028
55	0x3cb1671b	0.02165561
56	0xbd2b6163	-0.041840922
57	0xbd8354b9	-0.06412644
58	0x3d274ba8	0.040843636
59	0x3c9d09c0	0.019169688
60	0xbd8dc85b	-0.069229804
61	0x3d1f1ec9	0.03884772
62	0xba6983c1	-0.00089078775
63	0x3ddbd1f6	0.10733406
64	0xbd1cc227	-0.038271096
65	0x3daad5b2	0.083415404
66	0xbdbd8c76	-0.092553064
67	0x3de7e800	0.11323547
68	0xbc64a683	-0.013955715
69	0xbd945343	-0.072424434
70	0x3dbcbb85	0.09215454
71	0xbd3dfe61	-0.046385173
72	0xbc93de40	-0.018050313
73	0xbd8e532c	-0.069494575
74	0xbd6498b0	-0.055809677
75	0x3dd1a0c5	0.102357425
76	0x3dbad4d6	0.091226265
77	0x3c9f4910	0.019444019
78	0xbcf8dbd9	-0.030378269
79	0x3d4546f3	0.048163366
80	0x3dc7e580	0.097605705
81	0x3debca46	0.1151319
82	0x3d726419	0.05917749
83	0xbcfd0949	-0.030888217
84	0x3dafdf0d	0.085874654
85	0x3cbfe56d	0.023424828
86	0x3d7c38fd	0.061577786
87	0xbdb365a2	-0.08759619
88	0x3d4cec3c	0.05002998
89	0x3d152f39	0.03642199
90	0x3da18670	0.0788697
91	0xbd65d24a	-0.05610875
92	0xbd3e41dc	-0.046449527
93	0x3da6c328	0.08142692
94	0xbd6443c8	-0.055728704
95	0xbd50f8c1	-0.05101848
96	0xbcb5e15f	-0.022202192
97	0x3dbff144	0.0937219
98	0x3d1afb08	0.03783706
99	0x3dde5732	0.10856475
100	0xbd2eee4a	-0.04270772
101	0x3cfd9e23	0.030959195
102	0x3ccae52d	0.024767483
103	0xbd91f643	-0.07127049
104	0xbd856202	-0.06512834
105	0x3d86b2a6	0.06577043
106	0x3d9a1a3a	0.075245336
107	0xbcea9e47	-0.028639926
108	0x3dedb630	0.11607015
109	0xbdab88f3	-0.0837573
110	0xbd8a7ef2	-0.06762494
111	0xbdbaa1e9	-0.09112913
112	0x3db3858d	0.08765707
113	0xbd831fb3	-0.064025305
114	0xbd07c1a9	-0.033143673
115	0xbcafb943	-0.021450644
116	0xbcbbb576	-0.022913676
117	0x3cf4148e	0.029794957
118	0x3d2bbca5	0.041927952
119	0xbdbd8759	-0.09254331
120	0xbda7dbe3	-0.08196237
121	0x3d300eb3	0.04298277
122	0x3d955edd	0.07293484
123	0xbd54dfa2	-0.051971085
124	0xbd744de7	-0.059644606
125	0x3dd2944d	0.102821924
126	0xbdb6efed	-0.08932481
127	0xbd71d397	-0.05903968
128	0x3d099f78	0.033599347
129	0x3c8afbcf	0.016965775
130	0xbda799b3	-0.08183613
131	0x3c84a9d0	0.016194254
132	0x3d9a0cd9	0.07521982
133	0x3cfacfe8	0.030616716
134	0x3d91ac60	0.07112956
135	0xbde1f829	-0.11033661
136	0xbd486b3f	-0.048930403
137	0xbd187ee3	-0.037230384
138	0xbc9e0c79	-0.019293057
139	0x3dfa3e36	0.12218897
140	0xbbf094bc	-0.0073419493
141	0x3d4887b4	0.04895754
142	0x3dc7e83b	0.09761091
143	0xbcb59de0	-0.022170007
144	0x3da9dc5d	0.08293984
145	0x3babf020	0.005247131
146	0xbd64c1a7	-0.055848744
147	0x3dc3fcea	0.09569724
148	0x3dc55659	0.0963561
149	0x3c4d57bd	0.0125331255
150	0xbd525890	-0.05135399
151	0x3b970688	0.004608933
152	0x3d520495	0.0512739
153	0x3dbc46b0	0.0919317
154	0xbc42959b	-0.011876489
155	0xbc89434f	-0.016755728
156	0x3d8bf600	0.0683403
157	0x3c28786b	0.010282616
158	0xbc8eab8a	-0.01741578
159	0x3d8353f3	0.064124964
160	0x3d7f065d	0.062261928
161	0x3d45943f	0.04823708
162	0x3db57bfd	0.088615395
163	0xbcabc95d	-0.020970041
164	0x3d116f00	0.03550625
165	0xbbf049bd	-0.007333009
166	0xbdb1e3db	-0.08686038
167	0x3d80c70f	0.062879674
168	0x3dd64b0a	0.10463531
169	0xbd72c6c9	-0.059271608
170	0x3b094989	0.0020948371
171	0x3d17aa5e	0.03702771
172	0xbdaa27ea	-0.08308394
173	0x3d77392a	0.06035725
174	0xbd585438	-0.052814692
175	0x3da0a94f	0.07844793
176	0xbcabcb06	-0.020970833
177	0x3cabc2f1	0.020966979
178	0x3b08288e	0.0020776126
179	0x3d1a3c0b	0.037654918
180	0xba918f9f	-0.0011105424
181	0xbd1c3b8b	-0.038142722
182	0xbd581992	-0.05275876
183	0x3cafd2cd	0.021462822
184	0x3d83410a	0.064088896
185	0xbdb873d7	-0.0900647
186	0x3da3a6be	0.07990788
187	0xbd9124c3	-0.0708709
188	0x3d98ec1a	0.07466908
189	0x3d3080cb	0.043091577
190	0xbce65764	-0.028117843
191	0xbd8a0c16	-0.067405865
192	0x3ada4aa3	0.0016654324
193	0x3cb8e7b2	0.022571418
194	0x3da548cb	0.08070525
195	0x3d5c432c	0.053774998
196	0xbc03d019	-0.00804522
197	0x3dda9329	0.106726
198	0x3dd7e937	0.10542529
199	0xbc1ef825	-0.009702717
200	0xbcfbab78	-0.030721411
201	0xbdc89de3	-0.097957395
202	0x3d17cfe1	0.037063483
203	0x3ccba308	0.024858013
204	0xbd81b210	-0.06332791
205	0xbd5f1c59	-0.054470394
206	0xbd3f33ef	-0.046680387
207	0xbd8084d0	-0.06275332
208	0xbd52d66e	-0.051474027
209	0x3db773d0	0.08957636
210	0xbd97f13e	-0.0741906
211	0xbd6644e3	-0.05621804
212	0xbdac1a2d	-0.0840343
213	0x3bd7a74f	0.006581224
214	0xbd64c2d7	-0.055849876
215	0xbdc80f18	-0.09768504
216	0xbda22719	-0.079176135
217	0x3cbb2e29	0.02284916
218	0xbc10890a	-0.008821735
219	0x3d6a7ae5	0.057246108
220	0x3cc99c17	0.024610562
221	0x3d05fa77	0.032709565
222	0xbdb1b5f6	-0.086772844
223	0xbc24f053	-0.010067063
224	0x3db3e02e	0.08782993
225	0xbdc7fd21	-0.097650774
226	0x3c6d41cb	0.014481018
227	0xbd607109	-0.0547953
228	0x3d753f3c	0.059874758
229	0xbd7a83b0	-0.061160743
230	0x3dc45567	0.09586602
231	0xbba15203	-0.0049231066
232	0x3d71e9d9	0.059060905
233	0x3d58fbf0	0.05297464
234	0xbdb987c7	-0.090591006
235	0x3db42770	0.087965846
236	0xbd220a18	-0.039560407
237	0xbd4be43b	-0.049778204
238	0xbd72c218	-0.059267133
239	0x3d8bf0b0	0.06833017
240	0x3c0d65f4	0.008630265
241	0x3dc1dc6e	0.09465872
242	0x3d7e471f	0.062079545
243	0xbd1718ce	-0.03688889
244	0x3b3aada8	0.0028484855
245	0x3da36b84	0.07979491
246	0xbd354de5	-0.04426374
247	0x3dad2739	0.08454747
248	0xbd515e11	-0.0511151
249	0xbd396085	-0.045258064
250	0xbdc3c414	-0.09558883
251	0x3cc7f957	0.024410887
252	0xbde19636	-0.110149786
253	0xbd3dce81	-0.046339516
254	0x3dd292ab	0.10281881
255	0xbdd19750	-0.10233939

linear.weight f4 [1, 100]
0	0xbddbd111	-0.107332356
1	0xbdfc87ff	-0.12330627
2	0x3d3b4961	0.045724276
3	0xbdb691b0	-0.089145064
4	0x3db64771	0.08900345
5	0xbd5a5a9c	-0.053309068
6	0xbd503493	-0.05083139
7	0x3e025127	0.1272627
8	0xbde9d67d	-0.114178635
9	0x3dd791b0	0.105258346
10	0xbd9c2194	-0.07623592
11	0x3d1cc8d9	0.03827748
12	0x3de8cc23	0.11367061
13	0x3d8c73ec	0.06858048
14	0x3d8444a1	0.064584024
15	0xbdd7deee	-0.10540567
16	0x3d899156	0.06717174
17	0xbe0a2d20	-0.13493776
18	0xbcd20940	-0.025639176
19	0xbda571dc	-0.080783576
20	0xbce9fc02	-0.02856255
21	0x3cd42045	0.025894294
22	0xbd725400	-0.05916214
23	0xbdd59ba8	-0.1043008
24	0xbd89abd9	-0.067222305
25	0xbdb56ae6	-0.0885828
26	0xbbc2b642	-0.005942137
27	0xbda5d4b4	-0.080972105
28	0xbd10b6b7	-0.0353305
29	0xbde617c3	-0.11235001
30	0x3d400e1f	0.046888467
31	0x3b07cae0	0.0020720288
32	0x3dc2f104	0.09518626
33	0x3d62c20b	0.055360835
34	0x3d3435e1	0.043996695
35	0x3db5297c	0.08845803
36	0x3d278a84	0.040903583
37	0xbdb70cc2	-0.0893798
38	0x3db47b43	0.08812573
39	0xbdc736c3	-0.09727242
40	0xbc930383	-0.01794601
41	0xbe075e9f	-0.13219689
42	0x3d511f98	0.05105552
43	0xbcb6bf20	-0.022307932
44	0xbda7eefb	-0.08199879
45	0x3ddb12fc	0.1069698
46	0x3c97ceff	0.01853132
47	0x3da4ebef	0.08052813
48	0x3da6892c	0.08131632
49	0x3d9d3e33	0.07677879
50	0x3dfd3dcf	0.12365305
51	0x3d3670ce	0.044541173
52	0x3cae4e61	0.021277608
53	0x3dafe7a4	0.08589104
54	0x3d2fb134	0.042893603
55	0xbccf8956	-0.025334042
56	0xbd3b8fc2	-0.045791395
57	0x3d9289fd	0.071552254
58	0x3d723108	0.05912879
59	0x3d76b3b2	0.060229965
60	0xbd8fdf51	-0.07025016
61	0xbd9754b7	-0.07389205
62	0x3dc3a134	0.095522314
63	0xbd28825c	-0.041139945
64	0x3db15b9d	0.08660052
65	0xbd8c8359	-0.0686099
66	0xbd919ab1	-0.07109583
67	0x3db3a1fc	0.087711304
68	0xbd8ea000	-0.06964111
69	0x3d41b6bb	0.047293406
70	0x3ca25800	0.019817352
71	0x3dea2c00	0.114341736
72	0xbd8c2872	-0.06843652
73	0x3da55a56	0.08073871
74	0x3b8513bf	0.004061192
75	0x3df9e20f	0.122013204
76	0xbda15b7f	-0.078787796
77	0xbddef5ef	-0.10886752
78	0xbdb3ce8b	-0.08779629
79	0x3d180935	0.037118156
80	0xbdd8c0b9	-0.10583634
81	0x3def0b96	0.11672132
82	0x3db3bbeb	0.08776077
83	0xbd3abc4a	-0.045589723
84	0x3cd20220	0.025635779
85	0xbd34d218	-0.044145674
86	0xbd35d9ee	-0.044397287
87	0xbd0ea7c1	-0.03482795
88	0x3d670785	0.056403656
89	0x3dd07075	0.101776995
90	0xbd9730b2	-0.07382335
91	0x3dd523c6	0.10407214
92	0xbd8dd5cf	-0.069255464
93	0x3d0ad115	0.033890802
94	0x3d94b029	0.072601624
95	0xbd9f20ca	-0.07769926
96	0xbd8197ff	-0.06327819
97	0x3bc2a7ed	0.0059404285
98	0xbdf133c1	-0.117774494
99	0x3bd32800	0.0064439774
