backend/trained_models/PRVU_LSTM_model_state_dict.pth (torch, 167948 bytes, 5 tensors)

rnn.weight_ih_l0 f4 [400, 1]
0	0xbd5860bc	-0.052826628
1	0x3c628bd2	0.013827281
2	0x3ce13aac	0.027493797
3	0xbd3e0b83	-0.046397697
4	0x3bf0ec70	0.0073524043
5	0x3da9be2a	0.08288224
6	0xbd7e868a	-0.062140025
7	0xbd57b19e	-0.052659623
8	0xbc5464ba	-0.012963468
9	0x3e039a95	0.12851937
10	0x3dc3ad79	0.09554572
11	0xbc976134	-0.018478967
12	0x3ce2bf20	0.027679026
13	0xbd79acd2	-0.06095583
14	0xbd2f174b	-0.042746823
15	0xbd83e1a7	-0.06439524
16	0xbddd3cf8	-0.108026445
17	0x3c14fa90	0.009092942
18	0x3da7dd65	0.081965245
19	0x3db507da	0.08839388
20	0xbd88b3ff	-0.066749565
21	0x3cb7a24d	0.022416258
22	0xbd890d1c	-0.066919535
23	0xbcf3269e	-0.0296815
24	0x3d07b607	0.03313258
25	0xbd840ba5	-0.064475335
26	0xbdb5c68d	-0.08875761
27	0xbb15f1e9	-0.0022879785
28	0xbd488af2	-0.048960634
29	0xbd5b88f2	-0.053597398
30	0xbdbdc786	-0.09266572
31	0x3e02ef29	0.12786545
32	0xbd3f4af7	-0.04670235
33	0x3d931480	0.071816444
34	0x3d84193f	0.06450128
35	0xbd9e6685	-0.07734398
36	0x3d59c62c	0.053167507
37	0xbc87315c	-0.016503029
38	0xbccd15f8	-0.02503489
39	0x3c4ea18e	0.01261176
40	0x3d9ce46c	0.076607555
41	0xbd4ebf6f	-0.050475534
42	0x3d956995	0.07295529
43	0xbdea075f	-0.11427187
44	0x3da7e7a1	0.081984766
45	0x3df02d97	0.117274456
46	0xbd9bdb5d	-0.076101996
47	0x3d4b36be	0.049612753
48	0xbcb4c610	-0.0220671
49	0xbd9ddc9b	-0.07708093
50	0x3ddc4b46	0.10756545
51	0xbd5723d1	-0.05252439
52	0xbdc2efc6	-0.095183894
53	0xbdaafd62	-0.0834911
54	0x3e0702cd	0.13184662
55	0x3d9b1d4c	0.07573947
56	0x3dee0299	0.11621589
57	0x3d48d65c	0.049032554
58	0x3db5c75b	0.08875915
59	0xbd4e0037	-0.050293174
60	0xbd03f14d	-0.032212544
61	0x3d51fac8	0.051264554
62	0xbbd1da62	-0.006404207
63	0x3d980667	0.07423096
64	0xbd7f4d32	-0.06232948
65	0xbd7d3de0	-0.061826587
66	0x3e0643b0	0.13111758
67	0x3db088da	0.08619852
68	0x3e0224ca	0.12709346
69	0x3ca14d01	0.019690039
70	0x3c4ee5ec	0.01262806
71	0x3dc625cb	0.09675177
72	0xbd8f0005	-0.069824256
73	0x3c9319cf	0.017956642
74	0xbc95c6a4	-0.018283196
75	0xb8fd824b	-0.00012088249
76	0xbd0ef5f5	-0.03490253
77	0x3e035eb3	0.12829094
78	0x3d9fa097	0.07794302
79	0x3dd60f80	0.10452175
80	0xbd26f477	-0.040760484
81	0xbdf8cfb9	-0.12148995
82	0x3d04a504	0.032383934
83	0xbb931ff0	-0.004489891
84	0xbd26a293	-0.040682387
85	0xbc5f2c95	-0.013621469
86	0xbd06fc23	-0.0329553
87	0xbc0bda1e	-0.00853589
88	0xbdd94a2d	-0.10609851
89	0x3da197cb	0.0789028
90	0x3c9e8465	0.01935024
91	0xbd9c55ce	-0.076335534
92	0x3caaae21	0.020834984
93	0xbda4a27a	-0.080388024
94	0xbd5e9061	-0.05433691
95	0x3ce3b7d5	0.027797619
96	0xbc555269	-0.013020136
97	0x3dd24ff7	0.10269158
98	0x3cd42905	0.025898466
99	0xbcfa1f1b	-0.03053241
100	0xbc58e19f	-0.013237386
101	0xbdd67e9b	-0.10473367
102	0x3dc436bd	0.09580753
103	0xbcd291c2	-0.025704268
104	0x3db3b03b	0.08773848
105	0xbc72d2ba	-0.014820749
106	0x3d5b96db	0.053610664
107	0xbd5b907f	-0.0536046
108	0x3dcea5cd	0.10090218
109	0xbd6c5c1d	-0.057705034
110	0x3da281ec	0.07934937
111	0xbcb16187	-0.02165295
112	0xbd4f2cc0	-0.050579786
113	0x3de187ff	0.11012267
114	0x3d470f8e	0.04859882
115	0x3d805dc3	0.06267884
116	0x3d24b54c	0.04021196
117	0x3c2c7a0a	0.010527143
118	0x3e08d164	0.13361126
119	0xbd447e4c	-0.04797201
120	0xbcbd764c	-0.023127697
121	0x3da0a4fe	0.0784397
122	0x3d875045	0.06607107
123	0xbce4935d	-0.0279023
124	0xbd78bb0e	-0.060725264
125	0xbd12c0f7	-0.035828557
126	0x3c65364b	0.013989995
127	0xbd9645d6	-0.07337539
128	0xbc326dcf	-0.010890438
129	0xbd45d367	-0.048297312
130	0xbdf3b661	-0.119000204
131	0x3dd06275	0.10175029
132	0x3d85e123	0.06537082
133	0xbbbb431e	-0.005714788
134	0x3d15a058	0.03652987
135	0xbdb2bdbc	-0.08727595
136	0x3df2a599	0.118479915
137	0x3ce35b66	0.027753543
138	0xbd988f3d	-0.074491955
139	0xbd6e4aad	-0.058176685
140	0xbd047821	-0.032341126
141	0xbbc14a80	-0.0058987737
142	0x3ca78382	0.02044845
143	0xbe11345e	-0.14180133
144	0x3caf6dec	0.02141472
145	0xbc6009bf	-0.013674199
146	0xbd8527a2	-0.065017
147	0x3dd064b9	0.10175461
148	0x3d532b01	0.051554684
149	0xbd4af280	-0.049547672
150	0x3da39a70	0.07988441
151	0xbdda0002	-0.10644533
152	0xbe0e0dc4	-0.13872439
153	0xbc1ca56a	-0.009560922
154	0xbadce33e	-0.0016852391
155	0x3cbf54c6	0.023355853
156	0xbd5cd47d	-0.053913582
157	0xbd034711	-0.032050196
158	0xbd35f5b2	-0.044423766
159	0xbc9268c6	-0.017872225
160	0x3cc84a8f	0.024449615
161	0xbcd0ea25	-0.025502274
162	0xbd3cc83c	-0.046089396
163	0x3dd4297b	0.10359474
164	0xbd90f935	-0.070787825
165	0xbd803094	-0.062592655
166	0x3dfc0082	0.12304784
167	0x3dabf34a	0.08396013
168	0x3df8c36f	0.12146651
169	0x3e08267c	0.1329593
170	0xbdb0f3bb	-0.08640238
171	0x3daf3a61	0.08556057
172	0x3e0366a7	0.12832128
173	0xbd411caa	-0.047146477
174	0x3d951e74	0.07281199
175	0xbcd91754	-0.026500382
176	0xbda71a95	-0.08159367
177	0x3d6e4088	0.05816701
178	0x3d3f08ea	0.04663936
179	0x3d75ccdd	0.060009826
180	0xbdbe3edc	-0.09289333
181	0xba8cee00	-0.0010752082
182	0xbd60a939	-0.054848883
183	0x3c4a9065	0.012363528
184	0xbd2a5b49	-0.041590963
185	0x3bdbfdfd	0.0067136274
186	0xbd41f256	-0.04735025
187	0xbce16f74	-0.027518965
188	0x3cdab848	0.0266992
189	0x3dacff8e	0.08447181
190	0xbdf1e768	-0.11811715
191	0x3ddaf75d	0.10691712
192	0x3da4c512	0.08045401
193	0xbda5e41e	-0.081001505
194	0x3c0cdeeb	0.00859807
195	0xbd5da0f5	-0.05410858
196	0xbdacc67e	-0.08436297
197	0x3e060080	0.13086128
198	0x3d3ffde3	0.046872985
199	0xbde7f948	-0.113268435
200	0x3da9c6c2	0.08289863
201	0x3d62c869	0.055366907
202	0x3e02d73e	0.12777421
203	0xbd6d60bd	-0.057953585
204	0x3dbd8a63	0.09254911
205	0x3d907610	0.07053769
206	0x3dc64148	0.0968042
207	0x3d945fd9	0.07244844
208	0xbd54fe41	-0.052000288
209	0x3dc4f06a	0.09616168
210	0xbdd35b4c	-0.10320148
211	0xbc3c7e8f	-0.011504783
212	0xbd8ed72a	-0.06974633
213	0xbdb7d87a	-0.089768365
214	0xbd3aef32	-0.04563827
215	0x3ca5e69f	0.02025157
216	0xbdb1eede	-0.086881384
217	0x3da4a69c	0.08039591
218	0x3d3e33b8	0.04643604
219	0x3dca0f31	0.09866179
220	0xbc5a430a	-0.013321647
221	0x3d8a7b5a	0.06761809
222	0xbd6d0b88	-0.057872325
223	0xbdc9f06e	-0.098603114
224	0xbd9f4760	-0.077772856
225	0x3d8b78b7	0.06810134
226	0xbd347204	-0.044054046
227	0x3cdeacae	0.02718195
228	0xbded75f6	-0.11594765
229	0x3d36d6b0	0.044638336
230	0xbcbc9bd6	-0.023023527
231	0x3d60f4d1	0.054920975
232	0xbbec6b7a	-0.0072149606
233	0x3cd94f2f	0.026527015
234	0x3da8ea8c	0.08247861
235	0x3dfc647b	0.12323853
236	0xbe06c83a	-0.13162318
237	0xbcb89b43	-0.022534972
238	0xbd490198	-0.049073786
239	0xbd41c2e8	-0.047305018
240	0xbe08a43f	-0.13343905
241	0x3b6b001c	0.003585822
242	0xbc6c7cdc	-0.014434066
243	0x3d8d0db2	0.06887378
244	0xbd9eea1f	-0.07759499
245	0x3d99506d	0.07486043
246	0xbd7485d1	-0.05969793
247	0xbd5233ed	-0.05131905
248	0xbdf5cdfc	-0.12002179
249	0x3e10bc5b	0.14134352
250	0x3d8e439a	0.06946488
251	0xbcf600a0	-0.030029595
252	0x3d4d69ae	0.050149612
253	0x3d16f2df	0.036852714
254	0x3d38b9e1	0.045099143
255	0x3e0877d3	0.1332696

rnn.weight_hh_l0 f4 [400, 100]
0	0x3dde649e	0.10859035
1	0xbdb410ce	-0.08792268
2	0x3da89945	0.08232359
3	0x3d7ecb9a	0.06220589
4	0x3dfa67cd	0.1222683
5	0x3d3cbb56	0.046077095
6	0xbdaf3487	-0.08554941
7	0xbd0704f0	-0.032963693
8	0xbc9803c6	-0.018556487
9	0xbd85e0d6	-0.06537025
10	0x3d86cbbe	0.065818295
11	0xbd5b9de0	-0.05361736
12	0xbd17305d	-0.036911357
13	0xbdde1a66	-0.10844879
14	0xbc3c50c8	-0.011493869
15	0xbcce3d63	-0.025175756
16	0xbd301702	-0.042990692
17	0x3d52866a	0.05139772
18	0x3df8c892	0.12147631
19	0xbd6c919d	-0.057756055
20	0xbd99baea	-0.07506354
21	0xbcdeabf8	-0.02718161
22	0x3cf11932	0.02943096
23	0x3d74a54c	0.059727952
24	0xbdb1c8b9	-0.08680863
25	0xbc2c2f83	-0.010509375
26	0x3d20db28	0.039271504
27	0x3d60dba0	0.05489695
28	0xbdf9ef9a	-0.122039035
29	0xbdb3c10d	-0.08777056
30	0x3d65fa9c	0.056147203
31	0x3d424001	0.04742432
32	0xbd329451	-0.043598477
33	0xbd8d70c3	-0.06906273
34	0x3d98b408	0.07456213
35	0x3c4e8584	0.012605075
36	0xbdbf7302	-0.09348108
37	0xbd7e09c7	-0.062021043
38	0x3dba4006	0.09094243
39	0x3dc466ea	0.09589942
40	0xbd4452e5	-0.047930617
41	0xbc8a3e2b	-0.016875347
42	0x3d8fc94a	0.07020815
43	0xbd161ed3	-0.03665049
44	0x3a905fb3	0.0011014849
45	0xbc27cf5e	-0.010242311
46	0xbdc5d267	-0.09659272
47	0x3d25ad68	0.040448576
48	0x3ce373d0	0.027765185
49	0xbd49b60c	-0.04924588
50	0xbd87f7f5	-0.06639091
51	0xbd0a2f97	-0.03373679
52	0x3ca9e065	0.020736882
53	0xbcd1994c	-0.025585793
54	0xbd17dfc2	-0.037078626
55	0xbc5ea4c5	-0.013589089
56	0x3d95e98f	0.073199384
57	0x3ccec730	0.025241464
58	0x3b87ddeb	0.0041463277
59	0xbd90e9a3	-0.07075813
60	0xbcb0765a	-0.02154081
61	0xbd92581e	-0.07145713
62	0x3ddb08e5	0.10695056
63	0x3d6f8b60	0.058482528
64	0xbd07426c	-0.03302233
65	0x3d6233fe	0.055225365
66	0x3d0e7d3c	0.0347874
67	0x3dd97955	0.106188454
68	0xbdf11f92	-0.117736
69	0xbb5142e5	-0.0031930741
70	0x3d2fc59f	0.042913076
71	0xbcee8182	-0.029114489
72	0x3d20cc6d	0.039257456
73	0x3de1a4d3	0.11017766
74	0x3a0e3ba4	0.0005425757
75	0xbd8675ac	-0.06565413
76	0x3bb0d076	0.005395944
77	0x3d1a08ce	0.037606053
78	0x3cc917fc	0.02454757
79	0x3dc3fd95	0.09569851
80	0xbd99cc86	-0.07509713
81	0xbd2e9466	-0.042621993
82	0x3d2279fc	0.039667115
83	0x3d398895	0.04529627
84	0x3d7b106e	0.061294965
85	0xbbac9988	-0.005267326
86	0x3d91e17e	0.07123087
87	0xbca692c2	-0.020333651
88	0x3d85f44c	0.065407366
89	0x3d155322	0.036456235
90	0x3c3af4ea	0.011410931
91	0xbd1537c0	-0.03643012
92	0xbd4bc556	-0.04974874
93	0x3d3fce87	0.04682782
94	0x3ce564f0	0.028002232
95	0x3de3a7b7	0.111159734
96	0x3d99034f	0.07471334
97	0xbd747e82	-0.05969096
98	0x3d1a33dd	0.037647117
99	0x3ceef31d	0.02916866
100	0x3d7364d0	0.059422314
101	0xbd59fa0e	-0.053216986
102	0x3d25936f	0.040423807
103	0xbd353a45	-0.044245023
104	0xbdddccef	-0.108301036
105	0x3d03e48e	0.03220039
106	0x3d33faf9	0.043940518
107	0x3da798d2	0.08183445
108	0xbd93bb56	-0.07213466
109	0x3c89e855	0.016834417
110	0xbbe12a64	-0.0068715084
111	0xbc8133c9	-0.015771763
112	0xbd93d28c	-0.07217893
113	0xbd449443	-0.047992956
114	0x3c7d3764	0.015455101
115	0x3cbb637e	0.02287459
116	0x3d69b86d	0.057060648
117	0x3d8e4974	0.06947604
118	0x3d061390	0.0327335
119	0xb927bbbf	-0.00015996302
120	0x3db31471	0.08744133
121	0x3b322102	0.0027180319
122	0xbb464582	-0.0030253832
123	0x3c61a83e	0.013773022
124	0xbd8fefd8	-0.070281684
125	0x3a1a0c63	0.00058764796
126	0x3c1f100a	0.009708414
127	0x3d9b30ff	0.07577705
128	0xbd9a6eec	-0.07540688
129	0xbd59cfbc	-0.053176627
130	0xbc30c60c	-0.010789406
131	0xbc519cf9	-0.012793773
132	0x3d94d2d5	0.072667755
133	0xbd4feb48	-0.05076149
134	0xbc948881	-0.018131496
135	0xbdb498f4	-0.08818236
136	0x3d6f7dd4	0.05846961
137	0x3d761aba	0.060084082
138	0x3b2d75b4	0.0026467862
139	0xbd629e91	-0.055327002
140	0xbc5836e3	-0.01319668
141	0xbd83b1e8	-0.06430417
142	0xbd07759d	-0.03307115
143	0xbdee11a5	-0.11624459
144	0x3dd32468	0.10309678
145	0xbbb059f3	-0.0053818165
146	0x3c3ffa6b	0.011717419
147	0xbdb1a3f3	-0.08673849
148	0x3c8c6a15	0.017140428
149	0x3cc3752b	0.023859581
150	0xbd33e08a	-0.04391531
151	0xbcae9c56	-0.021314781
152	0xbc19f61b	-0.009397055
153	0xbdd51cf2	-0.104059115
154	0x3d6852b9	0.056719515
155	0xbdc8260a	-0.097728804
156	0xbd8189f7	-0.06325143
157	0xbdbf1130	-0.0932945
158	0xbd309c1c	-0.043117628
159	0xbd37994e	-0.044823937
160	0xbc00c338	-0.007859044
161	0x3d3a05a0	0.04541552
162	0x3b0a9aef	0.0021149477
163	0xbb90f60f	-0.0044238637
164	0x3c8333c7	0.0160159
165	0xbd3d2d63	-0.046185862
166	0x3d6a0101	0.057129864
167	0xbdc77c12	-0.097404614
168	0x3b8be9be	0.0042698076
169	0x3d10e64c	0.03537588
170	0x3d9f180c	0.077682585
171	0x3dc7cb47	0.09755569
172	0xbdd230c0	-0.102632046
173	0x3d3b2f03	0.04569913
174	0x3cd9e665	0.026599118
175	0x3d8146ca	0.0631233
176	0x3cd167bd	0.025562162
177	0x3ce1464f	0.027499346
178	0xbda59f98	-0.08087081
179	0x3d46bc7a	0.04851959
180	0xbd921dd1	-0.07134593
181	0x3dac30b9	0.084077306
182	0x3dd4d0f0	0.10391414
183	0xbd6f453b	-0.058415633
184	0xbca66ca5	-0.020315478
185	0xbdaf1cb0	-0.085503936
186	0x3cd00f39	0.025397884
187	0x3d828bfd	0.06374357
188	0x3d16b9a4	0.036798134
189	0x3c2d0b32	0.010561751
190	0xbc58dad6	-0.013235768
191	0x3da0cab0	0.078511596
192	0x3cac8542	0.021059636
193	0xbc3fa120	-0.01169613
194	0xbcb5448b	-0.02212741
195	0x3d79cb50	0.06098491
196	0xbd35530d	-0.044268657
197	0x3d3331ce	0.04374867
198	0xbd5ec2c5	-0.054384965
199	0x3cd726b5	0.026263574
200	0x3d43a3ec	0.04776375
201	0x3da2977d	0.0793905
202	0x3dfdd280	0.12393665
203	0xbd4901cb	-0.049073976
204	0x3db70133	0.089357756
205	0x3ddc7c5e	0.10765909
206	0x3d8a97f8	0.06767267
207	0x3db73e3b	0.089474164
208	0xbd733807	-0.059379604
209	0x3d60f93c	0.05492519
210	0x3d691c0b	0.05691151
211	0x3d1d00a4	0.03833069
212	0xbbe9e77b	-0.0071381903
213	0x3d711f5e	0.058867805
214	0x3d9c999e	0.07646488
215	0x3db22562	0.086985365
216	0x3c85fa2f	0.016354648
217	0xbdaf3033	-0.08554115
218	0x3d8e5f01	0.06951714
219	0xbd354216	-0.044252478
220	0xbd0f1f0c	-0.034941718
221	0xbd1853c3	-0.037189256
222	0x3c597b48	0.013274021
223	0xbd2e3688	-0.042532474
224	0xbdc51b72	-0.096243754
225	0x3d325c84	0.04354526
226	0xbde59cad	-0.11211524
227	0x3be377cd	0.0069417716
228	0xbdae2bc5	-0.08504442
229	0xbcca09b0	-0.024662822
230	0x3ce7f159	0.028313326
231	0x3db215e1	0.08695579
232	0xbda42638	-0.08015102
233	0xbd24833b	-0.040164214
234	0xbd819860	-0.06327891
235	0x3d78ba01	0.060724262
236	0x3d8e8f23	0.06960895
237	0x3ce5c904	0.028049953
238	0x3d5e451e	0.054265134
239	0x3cf41b67	0.029798223
240	0x3cbd5bcb	0.02311506
241	0xbdce75b8	-0.10081047
242	0xbdc60bb7	-0.09670203
243	0xbde4ea52	-0.111775056
244	0xbdc3cc9d	-0.09560511
245	0xbcca96be	-0.024730083
246	0xbe08ee1c	-0.13372082
247	0xbd2a4b66	-0.04157581
248	0xbdfa81c5	-0.12231783
249	0xbd83b7b0	-0.0643152
250	0xbd98ded5	-0.07464377
251	0xbd006ae9	-0.031351957
252	0xbc226238	-0.0099111125
253	0xbda4e820	-0.08052087
254	0xbda25a2c	-0.07927355
255	0x3deeb629	0.11655838

rnn.bias_ih_l0 f4 [400]
0	0xbc86470f	-0.016391305
1	0xbdab8e70	-0.08376777
2	0xbd8ca0e1	-0.06866623
3	0x3d4acf6a	0.04951421
4	0x3daff76b	0.08592113
5	0xbd911635	-0.07084314
6	0xbd7d216b	-0.061799448
7	0x3c9e0c32	0.019292925
8	0xbcbddc9e	-0.023176488
9	0x3da01329	0.078161545
10	0x3d2660b4	0.040619567
11	0x3d90b9e0	0.07066703
12	0x3b965dfd	0.004588841
13	0x3c689a9a	0.014197016
14	0xbd342750	-0.043982804
15	0x3d9ea259	0.07745809
16	0x3d9c431d	0.07629988
17	0x3d898009	0.06713874
18	0xbcd50637	-0.02600394
19	0x3d24bdca	0.04022006
20	0xbdc35647	-0.095379405
21	0xbcc0e823	-0.023548191
22	0xbd258989	-0.040414367
23	0xbd139b3e	-0.036036722
24	0xbd435212	-0.04768569
25	0x3ce00860	0.027347744
26	0x3d295cb5	0.041348178
27	0x3db1aea4	0.08675888
28	0x3d6d3c50	0.057918847
29	0xbd50c607	-0.050970104
30	0x3bf545e8	0.00748514
31	0xbc1b19fd	-0.009466645
32	0x3c918509	0.017763631
33	0x3c658b05	0.014010196
34	0x3e070517	0.13185535
35	0x3da369dd	0.07979176
36	0x3ddd1414	0.10794845
37	0x3d8b0c39	0.06789441
38	0xbd5e607b	-0.05429123
39	0x3c58e9a3	0.013239297
40	0x3d715888	0.05892232
41	0x3cb941ec	0.022614442
42	0xbdaa61f6	-0.08319466
43	0x3dd1b6fc	0.102399796
44	0xbb837368	-0.00401156
45	0x3cf55d46	0.029951703
46	0x3d9733cd	0.07382927
47	0xbca14c52	-0.019689713
48	0xbcdc3a82	-0.026883367
49	0xbc77feb3	-0.015136409
50	0x3dfd2867	0.12361222
51	0xbcaad2ff	-0.020852564
52	0xbd880605	-0.06641773
53	0xbcb5d900	-0.0221982
54	0x3d048f9a	0.03236351
55	0xbd57e6cb	-0.052710336
56	0x3d90b259	0.07065267
57	0xbcea1333	-0.028573608
58	0x3dbd7531	0.09250868
59	0xbd1064bf	-0.03525233
60	0xbd7fd83e	-0.062462084
61	0x3dcd5284	0.10025504
62	0xbce823c8	-0.028337374
63	0xbc84eff8	-0.016227707
64	0x3cbb8d2d	0.022894466
65	0xbd7017a4	-0.058616295
66	0x3da8c02b	0.08239778
67	0x3ca99922	0.020702902
68	0xbd986486	-0.07441048
69	0xbd054eec	-0.03254597
70	0xbc17b3e1	-0.009259195
71	0x3d9bd855	0.076096214
72	0x3dbe33f9	0.09287257
73	0x3c604c22	0.0136900265
74	0xbd030f75	-0.031997163
75	0x3d1cbba4	0.038264886
76	0x3c0e3937	0.008680633
77	0x3d1ff85c	0.039055213
78	0xbce16013	-0.027511632
79	0xbb9eb65c	-0.0048435163
80	0xbd1d6ded	-0.03843491
81	0x3dade26a	0.08490451
82	0x3d4c0183	0.04980613
83	0x3d73779c	0.05944024
84	0x3d03f416	0.0322152
85	0xbd99c541	-0.07508326
86	0x3d90918c	0.07059011
87	0x3dbdb4c9	0.09262998
88	0xbd12f1c8	-0.03587511
89	0xbdd1097f	-0.10206889
90	0x3dc69d4f	0.09697973
91	0xbcb1f425	-0.021722862
92	0x3d82809b	0.06372186
93	0xbc3f4ca1	-0.011675985
94	0x3da6dcdd	0.08147595
95	0x3dd7847a	0.10523315
96	0x3c85a887	0.016315712
97	0x3d5971b7	0.053086963
98	0x3dbad1d0	0.0912205
99	0xbdd1cc32	-0.10244025
100	0xbd47a76f	-0.04874366
101	0xbd3b56c6	-0.04573705
102	0x3df9ecb4	0.12203351
103	0x3c364260	0.0111242235
104	0x3d5b6076	0.05355879
105	0x3bccdb74	0.006251747
106	0xbc7dcdcb	-0.015490959
107	0x3dcd6bc9	0.10030324
108	0xbd96544b	-0.07340296
109	0x3daeda01	0.08537675
110	0x3de407ae	0.11134277
111	0x3d262d28	0.040570408
112	0xbd6bf498	-0.05760631
113	0xbd4b05ef	-0.049566206
114	0x3de18833	0.11012306
115	0xbdd2652b	-0.102732025
116	0xbda901fe	-0.08252333
117	0x3da60288	0.081059515
118	0x3dca4ecc	0.098783106
119	0x3d81cd47	0.06337982
120	0x3cee0005	0.029052744
121	0xbda5b6d1	-0.0809151
122	0x3d5b1c06	0.053493522
123	0xbd681dd5	-0.056669075
124	0x3d6ee280	0.058321476
125	0x3dd49b81	0.103812225
126	0xbd9bb7f3	-0.07603445
127	0x3daa5a40	0.08317995
128	0x3dcd8b72	0.10036363
129	0xbd864f5a	-0.06558104
130	0xbdad2afb	-0.084554635
131	0x3b7247be	0.0036969031
132	0x3d2df00c	0.042465255
133	0x3dca103a	0.09866376
134	0x3d8f6096	0.07000844
135	0x3df0685d	0.11738656
136	0x3d08f1e3	0.033433806
137	0xbd9b0169	-0.07568628
138	0x3da511d0	0.08060038
139	0xbd979a96	-0.07402532
140	0x3b43fcf9	0.0029905422
141	0x3d296dd9	0.041364525
142	0x3d1578f4	0.036492303
143	0xbd1eec81	-0.038799766
144	0xbc2fabdd	-0.010722128
145	0x3b2e9ecc	0.0026644943
146	0x3c417014	0.011806507
147	0x3d17f488	0.037098438
148	0x3d9a51f6	0.07535164
149	0x3ab3b49d	0.0013710443
150	0x3d35ed4b	0.044415753
151	0xbd92f85c	-0.07176277
152	0xbda2f0f8	-0.079561174
153	0x3cd39d64	0.025831886
154	0x3d2634f4	0.040577844
155	0x3de25225	0.11050824
156	0x3dc8c4e3	0.09803178
157	0x3d977a4c	0.07396373
158	0xbd52b963	-0.05144633
159	0xbdd55222	-0.10416056
160	0xbda9bb44	-0.08287671
161	0x3dae124b	0.08499583
162	0xbbcaf1a9	-0.006193359
163	0xbd31fe78	-0.04345557
164	0x3dad2ff7	0.08456414
165	0x3d9f60b6	0.07782118
166	0x3d181606	0.03713038
167	0x3ccfbbce	0.025358107
168	0x3d0efb8e	0.03490787
169	0xbd2373f3	-0.0399055
170	0xbce9f924	-0.028561182
171	0xbd024b61	-0.03181017
172	0xbd18b7b7	-0.03728458
173	0xbc5244db	-0.012833799
174	0xbbfca00a	-0.007709508
175	0xbdde8375	-0.10864917
176	0x3d3644da	0.044499256
177	0xbce1f581	-0.027582886
178	0x3db5f281	0.088841446
179	0xbd150a58	-0.036386818
180	0x3dd72361	0.10504795
181	0xbda84cad	-0.0821775
182	0xbd4915b7	-0.049092975
183	0x3d3a9ed7	0.045561638
184	0xbcd9a577	-0.026568158
185	0xbcec6364	-0.028855987
186	0xbcf26415	-0.029588738
187	0x3ddf6b48	0.10909134
188	0x3d945414	0.07242599
189	0x3db6027f	0.08887195
190	0x3d900960	0.07033038
191	0x3dce3aed	0.10069833
192	0xbba69425	-0.005083578
193	0x3da4c6fc	0.08045766
194	0x3c149087	0.009067661
195	0x3d1dae0f	0.038496073
196	0x3de26377	0.11054128
197	0xba5636f4	-0.0008171641
198	0xbd3b0e3e	-0.04566788
199	0x3c19607c	0.009361383
200	0xbd2fbd4e	-0.042905144
201	0xbd9fffb0	-0.078124404
202	0x3d97f049	0.07418878
203	0x3d8370e3	0.06418016
204	0xbab59470	-0.0013853442
205	0xbdcc46df	-0.09974455
206	0xbd2a05da	-0.041509487
207	0x3d95411e	0.07287811
208	0xbd6151cc	-0.05500965
209	0x3d7f1c9f	0.062283155
210	0x3cc9fa48	0.024655476
211	0xbd9d8fff	-0.07693481
212	0x3d8b26b9	0.06794495
213	0xbcb2872b	-0.021792969
214	0x3d2c090e	0.042000823
215	0x3d7f0bda	0.062267162
216	0xbd3c0d0b	-0.045910876
217	0x39c7f334	0.00038137438
218	0x3c49877f	0.012300371
219	0x3d80ce3f	0.06289338
220	0xbc7fe874	-0.015619386
221	0x3db2e80b	0.08735665
222	0x3d0e2e2b	0.034711998
223	0xbc88829f	-0.016663847
224	0x3d1b040b	0.037845653
225	0x3d28122b	0.04103295
226	0xbd6f6e1c	-0.058454618
227	0x3d5ffe16	0.054685675
228	0xbdb5c101	-0.08874703
229	0xbdd14b45	-0.10219435
230	0x3d9326ca	0.07185133
231	0xbc7b89a5	-0.015352641
232	0xbd0a2e77	-0.03373572
233	0x3dcc0293	0.099614285
234	0xbd9f9b4f	-0.07793295
235	0xbcc2d412	-0.023782764
236	0x3db2d1bb	0.08731409
237	0x3ce0db22	0.02744824
238	0x3d8f1ae1	0.069875486
239	0x3d9174f3	0.071023844
240	0x3d7fc5b4	0.062444404
241	0xbdd55cf9	-0.10418124
242	0x3d9a1178	0.07522863
243	0xbdba1ab6	-0.09087126
244	0x3ba2cac3	0.0049680187
245	0xbcc868aa	-0.02446397
246	0xbd4388fd	-0.047738064
247	0x3ca56b6f	0.02019283
248	0x3da7aec3	0.0818763
249	0x3ce8a8ee	0.028400864
250	0xbd0562be	-0.03256487
251	0x3dcc3a10	0.09972012
252	0xbc2bb473	-0.010480034
253	0xbdf20e0c	-0.118190855
254	0xbdab8622	-0.08375193
255	0xbcaba5c7	-0.020953072

rnn.bias_hh_l0 f4 [400]
0	0xbcd0ab9c	-0.025472455
1	0x3daacc46	0.08339743
2	0x3d0eed76	0.03489443
3	0x3cf5efc0	0.030021548
4	0xbd879043	-0.066193126
5	0xbce21edb	-0.027602604
6	0x3b773361	0.0037719833
7	0x3d38ec4b	0.04514722
8	0x3cb8bb0e	0.022550132
9	0xbd8416f9	-0.06449694
10	0x3d33c915	0.04389294
11	0x3d1c928f	0.038225707
12	0x3d8e5f0a	0.06951721
13	0xbd00c22f	-0.031435188
14	0xbd1e0984	-0.038583294
15	0x3da75f51	0.08172477
16	0xbd972778	-0.07380575
17	0x3d36243d	0.044468153
18	0xbd8fa383	-0.07013609
19	0xbbb0cda1	-0.0053956066
20	0xbcd01f09	-0.025405424
21	0x3caf8090	0.021423608
22	0x3d08a789	0.0333629
23	0x3d831970	0.06401336
24	0xbc5c4fa1	-0.013446719
25	0x3d0cdfe8	0.03439322
26	0x3d926fcf	0.07150232
27	0xbd901bbe	-0.070365414
28	0x3d804508	0.06263167
29	0x3d7c3018	0.061569303
30	0xbd6d4084	-0.057922855
31	0x3ddb703f	0.107147686
32	0xbcfca345	-0.030839572
33	0xbd501066	-0.05079689
34	0xbd5d9638	-0.054098338
35	0xbd0ee143	-0.034882795
36	0xbc645cda	-0.013938153
37	0xbc3e1951	-0.011602716
38	0x3c1c2b9f	0.009531884
39	0x3cda0785	0.026614914
40	0x3df9074f	0.12159597
41	0x3c412814	0.0117893405
42	0x3d784d81	0.06062079
43	0x3da94d62	0.08266713
44	0x3cd52fa6	0.026023697
45	0xbdb9ce32	-0.09072532
46	0x39934366	0.0002808824
47	0x3d63a57c	0.05557774
48	0x3dcb9424	0.09940365
49	0x3c6d7b8e	0.01449479
50	0xbd880598	-0.06641692
51	0x3d73fc23	0.05956663
52	0x3c37c07d	0.011215326
53	0x3dab58fc	0.08366582
54	0xbd51b3da	-0.05119691
55	0x3d9d66e9	0.07685644
56	0xbd1f91f6	-0.03895756
57	0x3dcb9755	0.09940974
58	0x3da3b943	0.0799432
59	0xbda1ecf2	-0.07906522
60	0xbd0aebae	-0.033916168
61	0x3d9585d4	0.07300916
62	0x3cd57b34	0.026059724
63	0xbd71123b	-0.058855277
64	0x3de780c0	0.11303854
65	0x3d390683	0.045172226
66	0xbc92d151	-0.017922075
67	0xbc9b23f7	-0.018938048
68	0x3cf6522a	0.030068476
69	0x3d3d674f	0.0462411
70	0x3c36ed27	0.01116494
71	0x3da484d0	0.080331445
72	0x3c5ce550	0.013482407
73	0xbc48ffc7	-0.012268013
74	0xbd100b87	-0.035167243
75	0xbd4b678f	-0.049659308
76	0x3cad0e58	0.021125004
77	0x3d7902b3	0.06079359
78	0xbd75acfa	-0.059979416
79	0xbc6ad2b9	-0.014332467
80	0xbd8145ee	-0.06312166
81	0x3cf8b7f1	0.030361148
82	0xbcf68ddf	-0.030096946
83	0xbd86ce84	-0.065823585
84	0x3da4db74	0.0804967
85	0x3da44498	0.08020896
86	0xbd9c7bad	-0.07640777
87	0x3d3b1351	0.04567272
88	0x3da7c0e3	0.08191087
89	0x3bd3ee04	0.0064675827
90	0xbd475a60	-0.048670173
91	0xbbb05172	-0.005380803
92	0xbdd340e8	-0.10315114
93	0xbc770ed2	-0.015079217
94	0xbc99f05c	-0.01879137
95	0x3dd7f79a	0.10545273
96	0x3df9152c	0.12162241
97	0xbc816782	-0.015796427
98	0xbdb80b26	-0.089865014
99	0x3d4327b8	0.0476453
100	0xbc9b674d	-0.018970156
101	0xbd293c00	-0.041316986
102	0x3d89297b	0.06697365
103	0xbdd1c539	-0.10242695
104	0x3c4aaf76	0.012370935
105	0x3d0af1c3	0.03392197
106	0x3d239255	0.039934475
107	0x3d834c0a	0.06410988
108	0xbd36c32c	-0.044619724
109	0x3d43e685	0.047827262
110	0x3d4fb919	0.050713632
111	0x3d9b8223	0.07593181
112	0xbdc7ccab	-0.09755834
113	0x3c4a02e8	0.0123297945
114	0x3da92577	0.08259099
115	0xbd870ba8	-0.0659402
116	0xbda64420	-0.081184626
117	0xbd7aa82f	-0.06119555
118	0x3d9e15cb	0.077190004
119	0x3def5283	0.1168566
120	0x3d1f89f6	0.03894993
121	0xbdb38812	-0.08766188
122	0x3d973365	0.073828496
123	0xbccc1cf5	-0.024916152
124	0xbd9be0af	-0.07611214
125	0x3db17119	0.0866415
126	0xbd252a7f	-0.04032373
127	0xbbf47ee2	-0.0074614147
128	0xbcd5b708	-0.026088253
129	0xbdb3ce43	-0.08779576
130	0x3d58254f	0.052769955
131	0x3d36c1dd	0.044618476
132	0xbd5e4368	-0.054263502
133	0x3bf00a7c	0.0073254686
134	0xbd5bb12a	-0.053635754
135	0xbd32a332	-0.043612666
136	0xbd9afa75	-0.07567302
137	0xbcf4de65	-0.029891202
138	0x3de0638a	0.109564856
139	0x3d7e98c0	0.062157393
140	0xbcd8512d	-0.026405895
141	0x3d771b84	0.060328975
142	0x3c7cc79b	0.015428449
143	0x3d5298dd	0.051415313
144	0xba2985c8	-0.00064667733
145	0xbca50cd7	-0.020147724
146	0xbdde05d4	-0.108409554
147	0x3c8735bf	0.01650512
148	0xbce40989	-0.027836578
149	0x3d775bae	0.060390167
150	0xbd76fa84	-0.060297504
151	0x3cb55a2e	0.022137728
152	0xbd5a52c2	-0.05330158
153	0xbc8b39b5	-0.01699529
154	0x3c4c0d96	0.012454411
155	0xbd041dbb	-0.032254916
156	0x3d91a521	0.07111574
157	0x3df36ecc	0.11886367
158	0x3df6ed42	0.12056972
159	0x3d9a8de8	0.07546598
160	0x3c3d49e3	0.0115532605
161	0x3d274899	0.04084072
162	0x3dbb7ad2	0.091542855
163	0xbc1fe89c	-0.009760048
164	0xbb94d2c6	-0.0045417277
165	0x3c150715	0.009095927
166	0x39e5833e	0.00043776067
167	0xbd2e0e7c	-0.042494282
168	0x3d1dc125	0.038514275
169	0xbc9c02cd	-0.019044304
170	0x3d74169d	0.05959188
171	0xbcc9d966	-0.024639796
172	0xbc44435e	-0.011978952
173	0x3df75f3d	0.12078712
174	0x3d177923	0.03698076
175	0xbddd186d	-0.107956745
176	0x3da09a49	0.078419276
177	0xbd79c371	-0.060977403
178	0xbd4ffa5a	-0.050775863
179	0x3cecd43e	0.028909799
180	0xbd71d95a	-0.059045173
181	0xbdcb94c5	-0.09940485
182	0x3d925bdc	0.07146427
183	0xbcae684e	-0.02128997
184	0xbd85d7af	-0.06535279
185	0xbc5968b5	-0.013269593
186	0x3da9cec7	0.08291393
187	0xbc9ac9f0	-0.01889512
188	0x3d31ad97	0.04337844
189	0xbce6dae4	-0.028180547
190	0xbd87dc1d	-0.0663378
191	0xbb13593d	-0.002248361
192	0x3d8225b1	0.06354845
193	0xbd91995e	-0.071093306
194	0xbc0f7550	-0.008755997
195	0x3bac7cc0	0.005263895
196	0x3ce6c12e	0.028168287
197	0x3be01283	0.0068381443
198	0xbdb1dbdf	-0.08684515
199	0xbda63648	-0.08115822
200	0x3bebc3d6	0.0071949763
201	0x3d25cbbe	0.040477507
202	0x3d9bc88a	0.07606609
203	0x3c5e2ca6	0.01356045
204	0x3c8ef1f5	0.017449358
205	0x3da18ac5	0.07887796
206	0xbc3237bc	-0.010877546
207	0x3d93562d	0.07194171
208	0x3c8b7788	0.01702477
209	0x3dd76cbd	0.10518787
210	0x3bd954df	0.006632432
211	0x3d60da53	0.05489571
212	0x3dd3d16c	0.103426784
213	0x3d8c3c28	0.068474114
214	0xbd56a5e9	-0.052404318
215	0xbde3672c	-0.11103663
216	0x3ceb617b	0.028733006
217	0xbd501abc	-0.050806746
218	0x3db6dd47	0.08928924
219	0x3d590d43	0.052991163
220	0xbd203d3f	-0.03912091
221	0xbd4807fe	-0.048835747
222	0xbd9f8c6d	-0.07790456
223	0xbd602857	-0.05472597
224	0xbd9fc230	-0.0780071
225	0x3dbb9f46	0.09161238
226	0xba4a98c5	-0.0007728453
227	0x3d3d1619	0.046163652
228	0x3bf0b2bd	0.007345526
229	0x3d329347	0.043597486
230	0xb9383823	-0.0001756852
231	0x3d59a44d	0.053135205
232	0x3d1fcde2	0.039014705
233	0xbd482a4e	-0.04886847
234	0x3d6ac3ac	0.057315513
235	0xbda82d2d	-0.082117416
236	0xbd6b46c9	-0.057440553
237	0xbd5ea1a2	-0.054353364
238	0x3d916af2	0.07100476
239	0xbd8f4ed8	-0.0699746
240	0x3baf0d51	0.0053421636
241	0x3c787f5e	0.015167085
242	0xbdbadef3	-0.091245554
243	0xbd6066e2	-0.054785617
244	0xbb561907	-0.0032668726
245	0xbdcc1b14	-0.09966102
246	0xbdaf9271	-0.08572853
247	0x3c9ccab4	0.019139625
248	0xbdde7d52	-0.10863747
249	0xbdcb46e8	-0.09925634
250	0x3db3bb45	0.08775953
251	0x3d2c12c9	0.042010102
252	0xbd73b455	-0.05949815
253	0xbbf9eaac	-0.007626852
254	0xbd036190	-0.032075465
255	0x3cfa184d	0.030529166

linear.weight f4 [1, 100]
0	0x3db83a04	0.089954406
1	0x3d42f717	0.047598924
2	0x3dce5950	0.10075629
3	0x3cd71281	0.02625394
4	0xbbc078e6	-0.005873787
5	0xbb898754	-0.0041970406
6	0x3e024e39	0.12725152
7	0x3e051ad5	0.12998517
8	0xbdb33b6e	-0.0875157
9	0x3dee2de8	0.1162985
10	0xbdb5e9a6	-0.088824555
11	0xbda809aa	-0.08204968
12	0x3d317045	0.04331996
13	0xbdf14ee4	-0.11782625
14	0xbd866687	-0.06562524
15	0x3cd34730	0.02579078
16	0xbb7a9f24	-0.0038241828
17	0x3d809765	0.06278876
18	0x3d83bf3e	0.06432961
19	0x3df1626f	0.11786353
20	0x3d28698f	0.041116294
21	0xbd548db5	-0.051892955
22	0xbc14bc37	-0.009078077
23	0xbcbb23f9	-0.022844302
24	0xbd485f87	-0.048919227
25	0x3da96ceb	0.082727276
26	0x3d1e367a	0.03862617
27	0xbdacf14d	-0.08444462
28	0xbdbea137	-0.09308093
29	0xbc7c998e	-0.01541747
30	0xbdbcd4ea	-0.09220298
31	0x3d6a663d	0.05722641
32	0xbd031e6c	-0.032011434
33	0xbdc3c5ae	-0.09559189
34	0x3e0f6dbc	0.14006704
35	0x3d2b6a46	0.041849397
36	0xbe08fcc3	-0.13377671
37	0xbe103533	-0.14082794
38	0xbccf32dd	-0.025292808
39	0xba6def28	-0.00090764696
40	0xbdfd89b3	-0.1237978
41	0x3da45797	0.08024519
42	0x3ddce5d4	0.10786024
43	0x3daba21d	0.0838053
44	0x3d02f1b6	0.031968795
45	0xbd07a7dd	-0.03311907
46	0x3cc297b5	0.02375398
47	0xbde3bdc2	-0.11120178
48	0xbd319497	-0.043354597
49	0x3d81df75	0.06341449
50	0x3de662b5	0.112492956
51	0xbd4d605f	-0.050140735
52	0x3df61f0f	0.12017643
53	0xbd182502	-0.03714467
54	0xbd7f469b	-0.062323194
55	0x3d998a69	0.07497103
56	0xbd21e3f6	-0.03952404
57	0x3da6a864	0.08137587
58	0xbd8389f5	-0.064227976
59	0xbcec3365	-0.0288331
60	0x3dfc513c	0.12320182
61	0xbbaf8a4d	-0.005357063
62	0xbcfefa08	-0.031125084
63	0xbd47a979	-0.048745606
64	0x3d621e47	0.055204656
65	0x3b08b090	0.0020857193
66	0x3d56b7b2	0.05242128
67	0x3d8c68c1	0.06855918
68	0xbd1c9435	-0.03822728
69	0xbdb3b4f5	-0.08774749
70	0x3d801c35	0.0625538
71	0xbdf2d0bc	-0.11856219
72	0x3d7e59da	0.062097408
73	0x3e021774	0.12704259
74	0xbdf8ec3e	-0.121544346
75	0x3d4ce14a	0.05001954
76	0x3df5be83	0.11999228
77	0x3dfc5d0f	0.12322437
78	0xbdb66913	-0.0890676
79	0x3d7c5b6e	0.06161063
80	0x3dd67d30	0.10473096
81	0x3dcd693f	0.1002984
82	0xbd95e26b	-0.073185764
83	0x3d025f0e	0.031828932
84	0xbdcc73bf	-0.09983014
85	0x3d80b60f	0.06284725
86	0xbc8322c0	-0.016007781
87	0x3d7357ce	0.05940991
88	0xbdf0f628	-0.117657006
89	0x3c4b8043	0.012420717
90	0x3dcf85a2	0.1013291
91	0xbd5ad00b	-0.05342106
92	0xbc10af77	-0.008830897
93	0xbd79a41d	-0.060947526
94	0xbe04b71e	-0.12960479
95	0x3db1f690	0.08689606
96	0xbdd6200b	-0.104553305
97	0xbd2d5081	-0.042313103
98	0xbd213a76	-0.039362393
99	0xbbe2811b	-0.006912363
