backend/trained_models/SANIMA_LSTM_model_state_dict.pth (torch, 167966 bytes, 5 tensors)

rnn.weight_ih_l0 f4 [400, 1]
00000000: 37e7 513d 0ead 5cbb 5657 cb3b 6bc0 c4bd
00000010: dc74 a43d 1069 78bd fe0d b13d d09a 6d3d
00000020: c706 993d f6cd 2fbc b1cd c13d 0c81 863c
00000030: 5825 72bb 14cc f7b9 b515 9d3d 0b02 533d
00000040: c53f 91bd 12ae 8fbd 9ee1 d8bd 64cc 9bbc
00000050: 0fbd 6dbd 6d6b d63d 4ba1 42bc 0487 27bd
00000060: 3e36 cf3d 78e1 d93d 5032 363d 73c0 96bc
00000070: 7f0c 44bd b677 51bd 5927 8e3d 4304 b7bd
00000080: 909e 7b3d f119 793d 4cf5 ef3c 2bbf f83d
00000090: 5430 2b3d b919 963c ea40 83bd 2658 0abd
000000a0: 4304 6f3d 5944 89bc 3658 8ebd 17d1 4d3c
000000b0: e373 c1bd f974 2fbd 8f99 2ebd 16d3 b13c
000000c0: 46ad 8f3d 6fe2 95b9 d444 fcbd 402f 173d
000000d0: 350b 3d3d 6dc7 6abd 40f5 cb3d e726 373d
000000e0: e94b eebd e45e 403d b557 c93d dd8d a23d
000000f0: eaff 5a3d 8518 743d e6f7 ff3c 0c56 6d3d
00000100: 4c5a 27bd 153e 8ebb 9e1b cc3d 0476 06bc
00000110: 9a04 003e 5ce4 1c3d e51c 223d b39c ac3d
00000120: 03eb 9e3d 73ad 3dbc c26b 743d 8c6c 603d
00000130: 380d 9b3d 02eb fa3b 4353 453d 2d50 bb3d
00000140: f6cf bd3a 72b0 b23d 9e13 e33c 0892 b33d
00000150: 8e7f 763d b26a 99bc 713e 253d 1008 4ebc
00000160: 7aac cc3d a336 553d 4ee6 863d eb45 1abd
00000170: b33d 9c3d 8938 9a3d 912a 0abe 51a7 273d
00000180: efc4 c7bb 1bd8 6f3b c89a 19bd 580a d63d
00000190: 0e9c 09bd 0a57 353d 5c03 e23d cee9 0a3c
000001a0: b04c d13c 942f e33d c229 32bd 47d2 e63d
000001b0: 74c7 703c bd18 2abd 3b9a cc3c ec90 38bd
000001c0: 5b89 12bd 04f2 cc3d c296 1e3d 7fb8 e83d
000001d0: 20d1 573d 6dea dcbc aa2a 70bc ce4c ebbb
000001e0: 6572 19be 16bc c03d 7d20 dc3c 1c2a 0cbd
000001f0: 17aa f13d 567f 503d 43f2 103c 13fa 3ebd
00000200: ed3d d43c 8ed4 953d fb56 683d 73f1 f73c
00000210: c194 953d d112 b0bd 7232 d73d b1eb ca3d
00000220: 23df b83d 9574 d2bc 026e 8c3d c698 393d
00000230: a361 e3bb 0dee 74bd 5f24 0ebe 7cea 26bd
00000240: 2682 9abc dc37 513d 2aa3 e3bc 73c1 f13c
00000250: 3012 01bd c5d3 043d 8a41 0abe 7dda ac3c
00000260: 5fd2 003e 5a7e e13d 71bb a7bc acd6 87bc
00000270: bef4 38bd 341f fabb 788b d23d 78b3 2f3d
00000280: 1252 1f3d e904 923b 478c c63d 10d7 13bd
00000290: 7248 203c 1c15 0a3e 5d6c e03d 1dd6 013d
000002a0: f5ff 493c e0bb af3d 61eb a2bc 953d 5a3d
000002b0: 754f 1abb 13ac 363d e087 143d a2c1 823c
000002c0: cf68 aa3d 2189 0f3d dfe5 9e3d a768 b6bd
000002d0: 0c6e 953d abe8 733d 5f84 ecbd 148c c53d
000002e0: 76eb 16bd 0dde a43d 2811 283d 9a5e 13bd
000002f0: 17f9 043e b7d4 64bd e924 353d e2ac 5abd
00000300: ee4b eebc 73b2 db3d 3542 873c 3452 413c
00000310: 7f1e e73d c46f dcbd 0e13 a53d edfb dc3d
00000320: 3404 9ebd e87e 503c 3beb cd3d 7c69 53bc
00000330: 92e3 ecbd 47a6 873d 346a 9e3d 656e e4bd
00000340: 0388 c73d cfdc 4b3d 463c 313d 3748 643d
00000350: 4734 ba3d ec36 97bd 743a f13d 8950 ba3d
00000360: e143 ac3d 2818 8c3d 2a0b b8bd 85b6 28bc
00000370: 3149 31bc 7aca e9bc 5caa 013e adcc 283d
00000380: b2c9 8c3d 7a27 82bd 2b7d f83d 043e 173c
00000390: 92b5 e03d cfe2 903c d952 963d 186d 47bd
000003a0: 4429 c73d 9296 b33c 0597 c2bd 09a1 ee3d
000003b0: ed15 9bbd c719 73bd 326b b43a 6c98 ea3d
000003c0: 9d09 01bd d6e4 9abd 0909 71bd 95c4 f5bd
000003d0: 7dac 78bd c897 06be c8f7 0c3e 2e5d debc
000003e0: 3f61 ce3d c4c0 943d f722 863c 7e38 e7bd
000003f0: 5e3a 0ebd aa72 cf3b 3339 053d 9291 95bc
0.051245894 -0.0033672485 0.0062054796 -0.09607013 0.08030102 -0.06064707 0.08645247 0.05800897
0.07471996 -0.010730257 0.09463061 0.016418956 -0.0036948528 -0.0004726356 0.07670156 0.05151562
-0.07092241 -0.07015623 -0.10589908 -0.01901836 -0.05804163 0.104697086 -0.011879276 -0.040900245
0.10117768 0.10638708 0.044481575 -0.018402314 -0.04786348 -0.051139556 0.06941099 -0.0893636
0.061430514 0.060815755 0.029291771 0.121458374 0.041794136 0.018322812 -0.06408866 -0.03377547
0.058353674 -0.016756224 -0.06950419 0.012562058 -0.09445932 -0.042836163 -0.042626914 0.021707099
0.07015471 -0.000285882 -0.123178154 0.036910295 0.046153266 -0.057319093 0.09958887 0.044714835
-0.116355725 0.046965495 0.09831182 0.079372145 0.053466715 0.059593696 0.031246137 0.05794339
-0.0408576 -0.004340897 0.09966205 -0.008206848 0.12501755 0.038303718 0.039578337 0.084283255
0.07759669 -0.011576998 0.05967308 0.05479102 0.07570881 0.0076574096 0.048175108 0.09146152
0.0014481533 0.087250605 0.027719315 0.087680876 0.06018024 -0.018727634 0.040342752 -0.012575164
0.09993835 0.05205406 0.06586896 -0.037664335 0.07628956 0.075303145 -0.134928 0.04093105
-0.0060964744 0.0036597315 -0.037501127 0.10451192 -0.03359609 0.04427246 0.11035797 0.008478595
0.025549263 0.11093059 -0.043496855 0.11270576 0.014695991 -0.0415275 0.024975887 -0.045060083
-0.035775524 0.10007098 0.038717993 0.11363315 0.05268967 -0.026967252 -0.014658609 -0.0071807867
-0.14985044 0.094108745 0.02687096 -0.034219846 0.1180002 0.050902687 0.008846822 -0.046625208
0.025908435 0.07315932 0.056723576 0.0302665 0.07303763 -0.08597339 0.105076686 0.09908236
0.09026935 -0.025690356 0.0685692 0.04531171 -0.0069391294 -0.059797335 -0.13881062 -0.040750965
-0.018860888 0.051078662 -0.027787764 0.02951119 -0.031511486 0.03242852 -0.13501564 0.021100277
0.1258025 0.11010428 -0.020475121 -0.016581856 -0.04515528 -0.0076331142 0.10280508 0.042895764
0.038896628 0.0044561517 0.096947245 -0.03609377 0.009782897 0.13484615 0.10958169 0.031698335
0.012329091 0.08580756 -0.019887628 0.053281385 -0.0023545895 0.044597697 0.036262393 0.015961472
0.08320772 0.035042886 0.07758688 -0.089066796 0.072963804 0.05954806 -0.11548685 0.096458584
-0.036845647 0.08050165 0.041031986 -0.03597889 0.12985645 -0.055866923 0.044224653 -0.05338753
-0.02908894 0.10727396 0.016511062 0.011799384 0.112851135 -0.10763505 0.08060275 0.107902385
-0.077156454 0.012725569 0.10054632 -0.012903567 -0.11566843 0.06623512 0.077351004 -0.111538686
0.09742739 0.049771126 0.04327037 0.055732932 0.09092002 -0.073835224 0.11778727 0.09097392
0.084113844 0.06840545 -0.089865044 -0.010297422 -0.010820673 -0.028538931 0.12662643 0.04121082
0.06874408 -0.06355186 0.12133249 0.009231094 0.10972132 0.017686276 0.07340021 -0.048688024
0.09724668 0.021922383 -0.09501461 0.11651809 -0.075725414 -0.059350755 0.0013764857 0.114548534
-0.03150331 -0.07563178 -0.058846507 -0.12000386 -0.060711373 -0.13143837 0.13766396 -0.02714404
0.10077142 0.072633296 0.016374094 -0.11290072 -0.034723632 0.0063308077 0.032525253 -0.01825789

rnn.weight_hh_l0 f4 [400, 100]
00000000: 316a ab3d c724 92bc 32e2 763d 8a28 d3b9
00000010: cc37 573d 2b58 ef3c 6fc7 a53a b4ad 91bd
00000020: ada9 573c 6f78 bf39 6c79 533c 8772 8c3d
00000030: db7c b3bd 66f0 a63c c9aa 453d b885 59bd
00000040: a401 423d 4d9a 793d fe60 c9bd c705 ee3d
00000050: 76ac e93c dd9b f13a 304a 8bbd c7a1 f63c
00000060: 91cd 983d 65f2 683d 9ef7 a8bd 9842 183b
00000070: 24cb 103d 03e8 b33c b53e 9f3d 109d 313d
00000080: 39fb 97bd 2fc0 84bd 74e9 63bd 5845 1bbd
00000090: 0a0c 0e3d 54d6 bdbc 6e41 993d b6b4 053b
000000a0: 7224 b53d 91f7 95bd e929 8cbd 1078 4f3d
000000b0: 824f a23c fb16 f4bc 1d6d 3fbd dfdf 4ebd
000000c0: d716 4e3d e638 223d 1416 2f3c fd70 393d
000000d0: 4d15 d13d 544c 033d 42fe 833d 9b99 c13d
000000e0: 6f3c 3dbd 45ed 71bd 1231 633d e187 0dbb
000000f0: a3a0 e13b 2e1c 80bd c38f 023d b394 8b3c
00000100: db08 b8bd fa38 393d 0417 8b3d 1c4d 7b3d
00000110: 7c84 bdbc c863 193d a642 b1bc f7de a63d
00000120: 7405 7bbb 7615 98bc 2010 37bd 1d98 563d
00000130: 83f2 51bd dd66 a9bd 4e4e 883d f6dd d3bd
00000140: fcae 93bb 3527 143d 0df7 633d caa0 adbb
00000150: 48d5 ccbc a9fe 663d 0e01 59bd e67f 783c
00000160: 6d59 173d 0516 923d 03b9 57bd e43a 3bbd
00000170: b3c0 ddbc ac3e 833d bc3e 613c 4b54 3dbd
00000180: 60b5 aa3d d9c8 48bb 15b0 65bd e71e 723d
00000190: 39f0 22bd e2d9 9fbb d799 843d d083 01bc
000001a0: 5d4a 823c f4bb debd 959e 0cbd d391 443a
000001b0: c9d1 543d 5460 6fbd 8bd6 5c3d e015 f13b
000001c0: 082f bb3d 3d99 81bd 5d10 6abd 1413 7dbd
000001d0: 96eb 33bc d634 08bd 40b6 e23c da88 2dbc
000001e0: c8e4 b33d f101 873d efca a2bc d1d7 b33d
000001f0: e8cb acbd 0632 dcbc 66be 4fbc 3c9e b1bd
00000200: 9e8e c33d 9272 913c 9f59 71bd 0e4b c6bd
00000210: 1684 77bd ab40 c03d 7048 48bb c212 ca3d
00000220: 28a1 f5b8 f5e8 d73b dc8a 88bd 9790 41bd
00000230: 04f3 b43d f304 583d ad6b 91bd c53a cdbd
00000240: 345a 333d 8d43 4abd 1337 873d 969e ca3a
00000250: f508 c53d 7fea 7d3d 9fc7 033d e371 95bd
00000260: e4b9 4c3d 7bc1 8f3a 5b61 c4bd 352f b23d
00000270: 18d9 3fbc bd1b ba3d 800b 9f3d 20b2 b3bd
00000280: 2e27 213b 90d8 33bd 5406 dc3d a827 a13d
00000290: 4ac1 463d deb7 733d a701 9bbd 3f63 843d
000002a0: 8d44 73bd 7545 ec3d d551 ba3d 60e5 7e3c
000002b0: 45e3 a93d 974d 00bd 622d 91bd 8f9a 5bbd
000002c0: 5a0a 7abd 6798 7b3b 3298 08bd 486a 8dbd
000002d0: 78f0 7bbd b379 293d 9f1f 983d 63dd 28bd
000002e0: bba6 4ebc 180c 9fbd 8bdc 933b 094c ccbc
000002f0: 10fb 8a3d 561d 403d 4e09 acbd 33ff d1bd
00000300: 90b6 17bd 84f3 bebd b8c4 003d 691f bb3c
00000310: 6d79 c13d 4cb0 e5bd f26f 9d3d ac84 3bbc
00000320: d666 923d 8874 febc 06b0 74bd 39a4 dfbd
00000330: e55a 96bd 349b 8fbd 9886 a13d a1c1 c5bd
00000340: 3a7e c53d 77da 213c 12a4 d9bc 89b8 8bbd
00000350: 5900 a6bd 0169 8bbb 0ea0 16bd 3cf7 80bc
00000360: 9b61 a83b 85e3 e2bc f13a 443d 52a3 b8bd
00000370: c189 8cbc e2dc 86bd 964a dd3d 5daf cebc
00000380: 5763 ba3d cbc6 1abd 784e 9bbd 9f06 b1bc
00000390: 4b6e 6cbd dce9 203d 06fd 81bd e05a b63c
000003a0: 9c86 4d3d 3a96 06bd 40cd 5cbd 10de 5dbd
000003b0: 83dd 283d 9092 6c3b 6e08 943d 9dec eb3c
000003c0: 7939 b83c 1d6f 833c 5bbc 293c afeb cebb
000003d0: 30ab d1bd 1f91 4cbc bc61 ec3d df6e 49bd
000003e0: 6d8f ecbc 69a3 883c baf3 ae3b 49a1 aebd
000003f0: 81e5 893d 111e 58bb 019f 01bc 4b96 79bd
0.08369864 -0.017839802 0.06027431 -0.0004027526 0.052543446 0.029216846 0.0012647937 -0.07113209
0.013163012 0.0003652009 0.012907367 0.06857782 -0.08764049 0.020378303 0.048258577 -0.05310604
0.047364846 0.06093817 -0.09832953 0.11622196 0.028524619 0.0018433292 -0.068012595 0.030106438
0.07461084 0.05687179 -0.08250354 0.0023233052 0.03534998 0.021961218 0.07775632 0.043362677
-0.07420964 -0.064819686 -0.05564256 -0.03790793 0.03467945 -0.023173489 0.07483183 0.0020401902
0.08844842 -0.0732261 -0.06843931 0.05065161 0.019813303 -0.029796114 -0.046734918 -0.05050647
0.05031475 0.039605044 0.010686416 0.04527377 0.10209141 0.032055214 0.0644498 0.09453126
-0.046200212 -0.05906417 0.05546672 -0.0021595883 0.0068856045 -0.06255375 0.031875383 0.017038679
-0.08986064 0.045220353 0.06791499 0.061352834 -0.023134463 0.037448674 -0.021638226 0.08147996
-0.003830281 -0.01856492 -0.044693112 0.05239116 -0.051256668 -0.08271573 0.066555604 -0.1034507
-0.0045069437 0.036170203 0.055655528 -0.0052987086 -0.025004044 0.056395207 -0.05297952 0.015167212
0.036950517 0.07133106 -0.052666675 -0.04571046 -0.027069425 0.06408438 0.013747867 -0.046222966
0.08335376 -0.0030637293 -0.056076128 0.059111502 -0.039779875 -0.0048782686 0.06474655 -0.007904962
0.0159046 -0.10875693 -0.034330923 0.0007498536 0.05195788 -0.058441475 0.05391554 0.007357344
0.0913983 -0.06328056 -0.05714451 -0.061785772 -0.010981461 -0.033253513 0.027674794 -0.01059171
0.08783871 0.06592167 -0.019872157 0.08781398 -0.084373295 -0.026879322 -0.012679672 -0.08672759
0.095486864 0.017754827 -0.05892336 -0.09682284 -0.0604287 0.093873344 -0.0030560754 0.09866859
-0.00011712528 0.00658905 -0.0666711 -0.047257032 0.08835414 0.052739095 -0.07100616 -0.10020975
0.043787196 -0.049380828 0.066023014 0.0015458639 0.09620849 0.06199121 0.032172795 -0.07297113
0.049981967 0.0010967696 -0.095888816 0.0870041 -0.011709474 0.09087322 0.07765865 -0.08774209
0.0024590003 -0.043907702 0.107433945 0.07868892 0.04852418 0.05950152 -0.075686745 0.06464242
-0.059391547 0.115366854 0.090976395 0.015557617 0.08295301 -0.031323995 -0.07088734 -0.053614195
-0.06104503 0.00383904 -0.03334827 -0.06905037 -0.061508626 0.041375827 0.07427906 -0.041226756
-0.012612994 -0.077659786 0.0045123748 -0.0249386 0.067861676 0.046902977 -0.08400212 -0.102537535
-0.03703934 -0.09323791 0.031437606 0.022842126 0.09446988 -0.112152666 0.076873675 -0.011445206
0.07148521 -0.031061426 -0.05973818 -0.10919995 -0.073415555 -0.070120245 0.07887 -0.096560724
0.096432164 0.009878746 -0.026567493 -0.06822307 -0.08105535 -0.004254461 -0.036773734 -0.01574289
0.0051385886 -0.02769638 0.047907773 -0.09015526 -0.01715553 -0.06585099 0.10805242 -0.025230104
0.09100979 -0.03778724 -0.07583326 -0.021609602 -0.05772237 0.039285526 -0.063470885 0.02226013
0.0501772 -0.03285811 -0.05390668 -0.054166853 0.041226875 0.00360981 0.0722817 0.02879935
0.022488343 0.016044194 0.010359849 -0.006314717 -0.102377295 -0.012485771 0.11542079 -0.049178
-0.028876984 0.016679483 0.005339113 -0.085268565 0.067332275 -0.0032976905 -0.007911445 -0.060934346

rnn.bias_ih_l0 f4 [400]
00000000: ce76 c5bd e094 953d d116 1c3d 444f 013c
00000010: 5c4e 813d a3d6 203d b7d1 8b3d 24c2 173d
00000020: a092 0cbc ff0d 2a3b 20de c9bc 2427 f7bc
00000030: 9ab0 a4bd 69d7 b03d 5ed9 6f3d efd0 f0bc
00000040: 9649 923c 288c 8b3d 158a 61bc 3ea2 5a3d
00000050: 9d11 233d 4808 6fbd e9df 65bd 9374 a23d
00000060: e3af 0e3d bd5c 883d 946a 82b8 0e7e 4abd
00000070: 7dbb c9bc eda0 c3bc 7b85 423d cb70 94bd
00000080: 5571 a8bc b305 593c 6d96 4c3d d93c c13d
00000090: f0ce aebb cd87 b6bd b39b 103d 6859 9a3d
000000a0: dde0 a03d 3643 85bc 0881 943c 640d 26bd
000000b0: e970 bd3b 5264 f73c 4556 54bd 2293 8b3d
000000c0: 8fa7 e73c d940 e7bc f2e9 8cbc 56f0 dc3d
000000d0: bedb e5bc 2439 a83c d288 763d 5a1f 94bd
000000e0: d7f4 203d effd a0bc 30c8 163d 078c 69bd
000000f0: 2a02 a0bb 2b80 2dbc 5ac3 8cbd 118b 67bd
00000100: d69e 8a3b e1d3 2dbd 4dc8 b53d e44c f03d
00000110: 710f cbbc e7f7 c2ba 427f 843d f434 febc
00000120: 8432 953c e2e9 b8bd cb77 0cbd 53a0 493b
00000130: 4785 a63d 120b 8dbd 6d8d 1ebd 2e6c 37bd
00000140: ed1d 023d bdd8 92bd 4b77 d0bd 7e86 d73d
00000150: 4bb3 07bd f9eb c63d 6562 5ebc c041 383d
00000160: 2435 97bd 6840 923d 4e75 d13d eccf 363d
00000170: ec53 39bb 4cf9 503d b997 b93d ab44 ab3d
00000180: f775 a43c 9756 0fbd 48b9 9c3c 5807 1f3d
00000190: 7b15 9e3d 1f74 b8bb 93ec 8fbd 3e16 e9bd
000001a0: 27fb 8bbd d82f 17bc 6471 9b3d 1b0b 05bc
000001b0: 865d 99bd e6c1 483d 017d eabd 4732 32bd
000001c0: 1e2a 563b 788d 90bd fff8 88bd 182c a7bc
000001d0: 0a2c 683d e18d efbc 8067 a33b 06f6 c13c
000001e0: 96ea de3b b2c9 60bc 8bc7 0ebd b738 d53d
000001f0: 3f21 de3d 769b a23d 2183 0fbd fd89 0e3d
00000200: bf82 d03d 245f 323d a009 45bd c43d ea3d
00000210: 826b cc3c a330 a23d 0b88 c2bc 5679 1e3c
00000220: 6945 9b3d 29e7 b0bc 64a0 96bd e78f 9d3d
00000230: f87d de3b 5b10 fdbc 53b8 913d d0d2 9bbb
00000240: 014f 883d 492e a63b 11bf 143d 587f c93d
00000250: 2ce0 70bd 8e00 c23c dba4 87bd 62eb ab3d
00000260: 7a72 61bd d4a6 863d 653b cd3d a087 94bd
00000270: c49b f83b ef12 b0bd a273 523c 223d 55bd
00000280: 6570 683d 4e28 80bd 620c b5bc c240 4f3c
00000290: 852b 483c 6f46 fdbb 4f12 6dbd 4aa4 8abd
000002a0: f104 243c 4042 313c bfa8 aabd 77db 06bd
000002b0: 0809 1b3d e83a cdbc 4fc1 d43d 8a53 6e3d
000002c0: 31e8 9f3c 8d04 d43d c46a e9bc c5f0 303d
000002d0: cad1 ba3d 230c 463d 3dad a53d fdc8 313c
000002e0: f34d 27bd d08d 98bc a0cc d03c 23d2 6d3d
000002f0: 4959 f03c e6e9 423d 68ac 9fbd 7546 62bd
00000300: 8af3 41bd 76e9 bc3d 97d3 e13d df2f 553d
00000310: d0f8 83bd 0a29 a7bd fe77 a5bb 966a b63d
00000320: df91 cd3c 0490 5f3d 0dd0 e43b 86c1 ecbc
00000330: 48e1 8b3d 72fa 81bd 5ba6 92bd 0d62 45bd
00000340: 0d4c 6dbc e618 2cbc b834 0dbc e3b5 8e3d
00000350: 0133 c9bd f4b0 003c 4023 44bd 8117 40bd
00000360: a046 b53c 1289 d6bd 723a 193d b59c 2fbd
00000370: 85d5 bcbd 53d3 b2bc 7285 c2bb b64e 0a3d
00000380: 207b 2fbd a6cd 623c c18d c43d 180a 1e3d
00000390: 7cb4 793d a279 a63d 4e35 adbd f537 2a3c
000003a0: 8e5c df3c 53b8 373d 4de4 c2bd 4559 ad3d
000003b0: 19bf 80bd 19b8 20bd b500 80bd b786 7abd
000003c0: b7e8 593d f431 3e3d 42fc a03d b335 703b
000003d0: 6112 643d 7b7a 22ba ecdf 743d 023f 883c
000003e0: d649 ffbc b6ba e2bc d28b c3bd 66e3 c6bd
000003f0: 6fd6 7bbd f86e c23d 486f 353d fda4 73bd
-0.09641801 0.07303786 0.038107697 0.007892434 0.06313774 0.039267194 0.06827109 0.03705038
-0.00857988 0.0025948284 -0.02464205 -0.03017003 -0.080414966 0.08634836 0.058556907 -0.029396502
0.017857354 0.06813842 -0.0137658315 0.053377382 0.03981172 -0.058357507 -0.05612174 0.07932391
0.034835707 0.066583134 -6.218735e-05 -0.04943662 -0.024625534 -0.023880446 0.04749058 -0.07248076
-0.020561853 0.013245988 0.049948145 0.09435434 -0.0053347275 -0.08912621 0.035304736 0.07536584
0.07855389 -0.0162674 0.018127933 -0.040540114 0.005781282 0.030199204 -0.051840086 0.06815173
0.02827814 -0.028229164 -0.017201398 0.10788028 -0.028058883 0.02053506 0.060189076 -0.07232542
0.039295997 -0.019652335 0.036812007 -0.057018306 -0.0048830705 -0.01058964 -0.06873198 -0.05652911
0.0042303605 -0.04243839 0.08876095 0.11733416 -0.024787636 -0.0014874906 0.06469585 -0.03103111
0.018212564 -0.090289846 -0.03429393 0.0030765727 0.081308894 -0.06886877 -0.038709093 -0.044780903
0.03176682 -0.07170246 -0.10179003 0.10523699 -0.03312997 0.09712977 -0.013573264 0.04498458
-0.07383183 0.07141191 0.10227452 0.044631884 -0.002827878 0.051018998 0.09062142 0.08362707
0.020075781 -0.034994688 0.019131318 0.038825363 0.07718941 -0.005629077 -0.07027545 -0.113811955
-0.06835013 -0.009227715 0.07589987 -0.0081203235 -0.07488541 0.04901304 -0.11449624 -0.04350498
0.0032678912 -0.07058233 -0.06688117 -0.020406768 0.056682624 -0.029242458 0.0049867034 0.023676883
0.006802867 -0.013719963 -0.034858268 0.10411208 0.10846185 0.07939808 -0.035037164 0.034799565
0.10181188 0.043547764 -0.048104882 0.11437562 0.024953607 0.07919433 -0.023746511 0.009672483
0.07581598 -0.0215946 -0.07354811 0.07693463 0.006789919 -0.030891588 0.07115235 -0.0047553554
0.06655694 0.0050714356 0.036315028 0.09838742 -0.058807537 0.023681905 -0.066232406 0.08394505
-0.055040814 0.06574789 0.10021094 -0.07252431 0.007586928 -0.08597361 0.012844952 -0.052060254
0.056747813 -0.062576875 -0.022100631 0.012649717 0.012217407 -0.0077293436 -0.05787879 -0.06769617
0.010010944 0.010819018 -0.08332967 -0.03292414 0.03785041 -0.025052503 0.10388433 0.058185138
0.019519897 0.103524305 -0.028493293 0.043198366 0.09122045 0.04835142 0.08089683 0.010851142
-0.040845823 -0.018622309 0.025488198 0.05806173 0.02933945 0.047586344 -0.07796556 -0.055242974
-0.047351398 0.09224217 0.11026686 0.052047607 -0.064439416 -0.081621245 -0.0050497046 0.089070484
0.02509397 0.054580703 0.0069828094 -0.028900873 0.06830078 -0.06346597 -0.07160636 -0.04818921
-0.014483464 -0.010503983 -0.008618526 0.06968286 -0.09824181 0.007854689 -0.04788518 -0.046897415
0.022128403 -0.10475363 0.037409253 -0.042874057 -0.09220413 -0.021829283 -0.005936318 0.03376647
-0.04284203 0.013842976 0.0959735 0.038583845 0.06096314 0.08128668 -0.08457433 0.010389318
0.027265813 0.04485352 -0.09516201 0.084642924 -0.06286449 -0.03923807 -0.06250135 -0.06116363
0.05320045 0.046434358 0.07860614 0.00366531 0.05568159 -0.00061980606 0.05978386 0.016631607
-0.031163137 -0.027676921 -0.09548153 -0.097113416 -0.061483797 0.09493822 0.04429558 -0.059483517

rnn.bias_hh_l0 f4 [400]
00000000: 33ea 5c3d f75a 803d 886c 603c 19d7 863d
00000010: dfa5 30bd 29a2 d8bd f545 75bd 0eba f73d
00000020: 4114 c0bd 4b49 3d3d 6d57 9abd e3be 803d
00000030: 9cd1 d4bd 1fe7 793d e72a af3d 7d12 1fbb
00000040: 3db8 d23b 4d82 c2bd b9ed 88bc b4f8 4fbd
00000050: 814c a2bc ac85 b03d b796 51bd afb7 8abd
00000060: a7ac 3cbd 8bfe aa3c 7b02 8ebd 09f0 bb3d
00000070: 2177 85bd 02ef 8ebd ffe2 c7bc 9c15 c53d
00000080: 442f 8fbc b189 663d 6824 90bd f15e 753d
00000090: ec1c a83d 9638 5fbd 3de1 7f3c e373 4dbc
000000a0: 6177 7bbc 6c09 dfbd fd19 aa3d 79e0 55bd
000000b0: 3579 833d 4393 d23d 41a2 00bd 885b be3d
000000c0: 5c5b fe3d 5672 b6bd ed8f 3cbd d5a4 a9bc
000000d0: 8b15 b93d 8750 0abd 4842 05bd d8f6 883d
000000e0: 00c2 143d bdc0 a9bd 35fe 85bc 967c cfbc
000000f0: c508 0e3d be3f cb3d 5d1b 6ebb 9dec cabb
00000100: 4695 833d f521 853d f6d8 0bbd c21a 0dbd
00000110: 7696 bf3c 0b9e 643d b0ce 2cbd 9ead 1fbd
00000120: 9571 593d 9dc9 adbd fce3 043d 5eeb de3d
00000130: 4056 a33d c55a db3d d6d3 66bd aec2 153c
00000140: 9016 9cbd 9493 b6bc 02f6 313d b32b 95bd
00000150: 4445 69bd e32d 8fbc 1104 7bbd 74d3 54bd
00000160: 3895 503d c86b 683d 01f5 0bbd 4069 863d
00000170: 480b 3cbd e02c d73c d874 77bd d7ba cfba
00000180: 98ad 32bd 2b28 c9bc 9e7c e63d 2dde a6ba
00000190: ff53 12bc 4a23 6fbd 8432 83bd 806a 703b
000001a0: 659a c13d de6e 69bd a850 f43c 12b7 86bd
000001b0: b391 933d 95c5 a8bc 45af 2d3d 6bba 27bd
000001c0: 16e6 f1bd 4f00 34bd c7f5 573d 0073 9abd
000001d0: b8c1 77bd c36b 0b3d 25cb b8bc 4311 acbd
000001e0: 0cef 88bc 56c9 933c 9ddb da3d 4c6f 353d
000001f0: 7a27 debb 14cd f03d 9bb1 983d 49fa 993d
00000200: b251 943d 2dbd 083d 7ce0 853d dd7b bd3c
00000210: 41ee 9a3d 8ce7 cdbd 79e9 9cbc 3667 873c
00000220: 3e81 36bd 8928 7b3d 6364 6abd f2c3 163d
00000230: 1f81 743c bcc7 e13c b310 24bc a528 c83d
00000240: 2332 b93c 4abf b23d 6e21 cb3d c5dc 3a3d
00000250: a293 14bc 1e5f 0c3d 5066 f8bc 8293 9cbb
00000260: ecd2 b23c 6fa4 553d ff66 bb3d 7e08 85bd
00000270: 0d73 3bbd 9fb8 833b 3b53 e73d 5e63 69bd
00000280: 792f 563c 0155 09bd 6fb7 d23d c5a7 603d
00000290: f004 c9bd 3a10 2c3d 6ef5 283d afa7 653d
000002a0: 96a4 83bc 250d 3cbd aabd d4bc bed4 5bbd
000002b0: f89f 223d 15e9 6ebd 63f9 e2bc fa97 2b3c
000002c0: 80a8 27bd 007b f1bc 58b9 173d c27d 0e3b
000002d0: 070d 473d 9f37 90bc 5da5 7f3c 0651 59bd
000002e0: c49a abbd 643f 4c3d 4cd0 febc bf64 9b3d
000002f0: 3858 69bc 1db8 213d 2f7e 4e3c f055 81bd
00000300: 52b2 7abd d969 153d 48fe 70bc c0e1 6d3d
00000310: a4de ca3d 3309 cd3a 2bcb 3b3d ef39 ae3b
00000320: 8007 9e3a 96ab 97bd 6fdc b03c 833e 8cbc
00000330: c359 6a3c 5b0a ccbd 8776 b63d c0c6 4f3d
00000340: 640f ef3c 4c1a b93d 1812 23bb 3ce5 9dbc
00000350: f1f1 7ebd 9f01 b3bd e54e 8e3d 3501 61bc
00000360: 9666 9abd 377b 0c3d b471 073b 4550 efbc
00000370: 1b2d 82bd 4307 833d 4f47 9a3d e142 853d
00000380: 2e33 6d3d 999c 0e3c a4e7 a93d 75c5 423d
00000390: 4fd3 acbd e939 8d3d 9e1d a43d 7a37 c93d
000003a0: be22 0bbd 9c1e a33d cd65 a03d a2f1 cdbb
000003b0: 0b60 94bc 523d 663d d0e6 b5bc 7e7e 5abd
000003c0: d3d8 b6bd 798f 883d bd01 cc3d 73ff e0bb
000003d0: b5d2 70bd ac8a a93d f1cc 073d d4ec 733d
000003e0: 4b66 103d 6cc6 343d 3388 0d3d 0802 973c
000003f0: 1e24 afbd f2a3 89bd a7a5 b1bc 736c a63c
0.053934287 0.0626735 0.013697751 0.06583995 -0.043126937 -0.105778046 -0.05988117 0.12096034
-0.09378863 0.046212476 -0.075362064 0.06286409 -0.10391542 0.06101143 0.08553105 -0.0024272494
0.0064306543 -0.09497509 -0.016714917 -0.05077429 -0.01981187 0.08619246 -0.051169124 -0.06773316
-0.04606309 0.020873329 -0.06934067 0.091766424 -0.06516863 -0.06979181 -0.024400232 0.09623262
-0.017478593 0.056283657 -0.07038194 0.059904996 0.082086414 -0.054497324 0.015617666 -0.012539837
-0.015348286 -0.10890469 0.08305738 -0.052216027 0.06419603 0.10281994 -0.031404737 0.09294802
0.12419769 -0.089085266 -0.046035696 -0.02070848 0.09037312 -0.033768203 -0.032533914 0.06687707
0.036317825 -0.08288715 -0.016356567 -0.025327962 0.034676332 0.09924267 -0.0036332228 -0.0061927573
0.06424956 0.065006174 -0.034142457 -0.034449346 0.023387175 0.055814784 -0.0421893 -0.038983934
0.053086836 -0.0848572 0.032443985 0.108847365 0.07975435 0.10710672 -0.056354366 0.009140654
-0.07621491 -0.022287168 0.043447502 -0.072837256 -0.056950822 -0.017477935 -0.061283175 -0.05195947
0.050923556 0.056743413 -0.0341692 0.065630436 -0.045909196 0.026266515 -0.060414165 -0.0015848529
-0.043622583 -0.024555286 0.112542376 -0.0012731008 -0.008931159 -0.058383264 -0.064061195 0.0036684573
0.094532765 -0.056990497 0.029823616 -0.06577887 0.07205524 -0.020602027 0.04240348 -0.040949266
-0.118114635 -0.043945607 0.052724626 -0.07541466 -0.06048748 0.034038316 -0.022557804 -0.0840173
-0.016715549 0.01804034 0.10686419 0.044295594 -0.0067796083 0.117578655 0.074557506 0.07518441
0.07242145 0.033383537 0.065369576 0.023130352 0.075649746 -0.1005393 -0.019154297 0.016528707
-0.04455685 0.061317954 -0.057224642 0.03680796 0.014923363 0.027561061 -0.010013747 0.09773377
0.022606915 0.08727892 0.099184856 0.0456207 -0.0090684015 0.0342704 -0.030322224 -0.0047783265
0.021829091 0.05215877 0.09150504 -0.064957604 -0.045764018 0.0040198113 0.11295172 -0.05697953
0.013072842 -0.03352833 0.102888934 0.054847497 -0.09815395 0.042007662 0.041249685 0.05606812
-0.016069692 -0.045910973 -0.025969345 -0.053669684 0.03970334 -0.058327753 -0.027706807 0.010473246
-0.04093218 -0.029477596 0.037041992 0.0021742438 0.04859641 -0.017604647 0.0156033905 -0.053055786
-0.083791286 0.04986514 -0.031105183 0.07587575 -0.014242224 0.039482225 0.012603327 -0.063152194
-0.061205216 0.036477897 -0.014709063 0.05807662 0.099057466 0.0015643 0.045848053 0.005316965
0.0012056679 -0.07405774 0.021589486 -0.017119652 0.014303627 -0.09962913 0.08909326 0.050726652
0.029182144 0.09038219 -0.002488261 -0.019274347 -0.062242452 -0.087405436 0.06948642 -0.013733198
-0.07539098 0.034297194 0.0020667138 -0.02921308 -0.063562594 0.063978694 0.07533132 0.06506897
0.057910137 0.008704328 0.08296135 0.04755159 -0.084387414 0.06895811 0.080134615 0.098250344
-0.03396868 0.07964823 0.07831917 -0.0062849084 -0.018112203 0.056210823 -0.022204787 -0.05334329
-0.08928075 0.0666799 0.09961269 -0.0068663894 -0.058794696 0.08278403 0.03315443 0.05955203
0.035253804 0.044134542 0.034553718 0.018433586 -0.08551811 -0.06720723 -0.021685435 0.020315384

linear.weight f4 [1, 100]
00000000: 02f9 1f3d cda7 523d 64c5 273d dabe ab3a
00000010: 23a2 b6bc 11e8 5cbd 10ab a33c 6111 01bd
00000020: 4188 2fbc 8a4f 403d 46ec aabd ebf0 f43d
00000030: 6aac 51ba bac8 a8bd a846 9d3a a5e8 7c3d
00000040: a29b c63d c87c c9bb 8d87 0ebe f039 c83d
00000050: 39ba 893d 681c dfbd 32ac 073e 541e 053d
00000060: add2 bb3d 57b4 04be 0769 4f3d 0d64 4abd
00000070: 18d1 073c abc1 033e 0c90 53bc 3824 8bbd
00000080: bfbb 3c3d aa62 bfbd a671 a0bd 0dd6 f53d
00000090: 722f b7bc 7019 803d 05e3 d03b 4293 0d3e
000000a0: a30a c13c fac2 8d3c 726f 36bd b640 76bd
000000b0: 4505 0f3d 9683 08be 1dd8 9f3d 8979 44bc
000000c0: 8c14 d93d 1a8e 223b dbd9 b83d 672d f1bc
000000d0: 8b50 b3bd 79a6 813d 1c9b fd3d 925a 85bc
000000e0: 6b4c 61bd 2253 273b 0537 f73d d9b5 e53d
000000f0: fc8d 793b 892d 3fbd ad3b ba3c d249 edbd
00000100: d38e e0bc 2eb9 b93d 7bc6 653d 3f1c a7bd
00000110: 1d65 d63d ce24 e63d 6055 57bc 65c5 d93c
00000120: f8c3 eabd b25c 3b3d 4cbf 9f3d a9d9 6bbd
00000130: a8dc 6a3d d2b5 c73d 5c7f 5c3d 280c 2fbd
00000140: 2f9b fe3d 9c7d 3abd b1b1 633d 30f6 fe3d
00000150: 10cf 63bd ecc1 d93d b80a 97bc d6af 5dbd
00000160: a4aa e73d 1a85 ab3d 99c4 a83c 03c4 53bd
00000170: e241 d4bd 3bfe 03be df50 943d eaed 65bd
00000180: 8766 91bd 992d edbd 7821 f7bd 580f e7bd
0.03905583 0.05142956 0.04095973 0.0013103143 -0.02229411 -0.053932253 0.01997903 -0.031510714
-0.010713638 0.046950854 -0.08345847 0.11960014 -0.0007998409 -0.082414106 0.0011999207 0.061745305
0.09697653 -0.0061489083 -0.13918896 0.09776676 0.06724972 -0.1089409 0.13249281 0.032499626
0.091710426 -0.12959419 0.05063727 -0.049411822 0.008289598 0.12866847 -0.012912761 -0.067940176
0.046077486 -0.093449906 -0.07834177 0.120037176 -0.02236149 0.06254852 0.006374719 0.13825706
0.023564642 0.017304886 -0.044539876 -0.060120307 0.034917135 -0.13331446 0.07804892 -0.011991867
0.10599622 0.0024803937 0.09025928 -0.029440595 -0.08755597 0.0633058 0.123831004 -0.016278539
-0.05500452 0.0025531729 0.12071041 0.11216325 0.0038079014 -0.046674285 0.022733534 -0.11586346
-0.027411854 0.09068523 0.05609749 -0.081596844 0.104685046 0.11237489 -0.013142914 0.026583383
-0.11463159 0.045742698 0.07800159 -0.057580624 0.05733934 0.09751476 0.053832397 -0.042736202
0.12431943 -0.045529947 0.05558938 0.124493 -0.055617392 0.10632691 -0.018437728 -0.05412277
0.11311844 0.083749965 0.020601558 -0.051700603 -0.10364129 -0.1288995 0.072419874 -0.056135096
-0.07099634 -0.11580963 -0.120669305 -0.112822235
