backend/trained_models/SANIMA_GRU_model_state_dict.pth (torch, 126741 bytes, 5 tensors)

rnn.weight_ih_l0 f4 [300, 1]
000000 38 ce a8 3d 48 76 aa 3d 1a 27 fb 3c 0b 7b 0c 3d
       0.08242458 0.083233416 0.030658294 0.03429703
000010 c4 a2 47 bd 07 6c 00 bd 45 a3 d1 3c 41 cf a6 3c
       -0.04873921 -0.031353023 0.025590548 0.020362498
000020 ef 69 a0 bc d9 16 c4 3d be 82 43 bd 1c fc 9f 3d
       -0.019581763 0.0957467 -0.047732107 0.07811758
000030 d7 19 08 3d 76 37 cc 3d 17 b3 47 bc 41 8d 8c 3b
       0.033227768 0.09971516 -0.012188694 0.0042892997
000040 27 a6 e9 3d f1 1a a4 3d 9a 0a e0 3b 04 4a 97 3b
       0.11408644 0.08012951 0.0068372013 0.0046169776
000050 fc fb 7b 3d fc 97 e3 3d 64 5a 05 bd 2f 87 8b 3c
       0.061519608 0.11112973 -0.032556906 0.017032234
000060 40 72 d2 3b c5 2f d9 bd 1f 9b 93 3d f9 6a bf 3d
       0.006422311 -0.106048144 0.072073214 0.09346575
000070 8d 8f 6b bd 44 2c 96 bd ed 59 1a bd 03 df 9e bd
       -0.057509948 -0.07332662 -0.037683416 -0.0775738
000080 6e 85 c4 bc 62 9d 9b bc 1e 4b 7d bc 1b b8 87 3d
       -0.023989405 -0.018995944 -0.015459804 0.06626912
000090 22 b2 42 3c 1a cd b1 bc 72 89 ba 3b 33 44 69 bd
       0.0118832905 -0.021704245 0.0056926543 -0.056949805
0000a0 c9 7d 48 bd a7 5a 86 bc 23 d3 4a 3d 4f 31 57 3d
       -0.048948083 -0.016400648 0.049517762 0.05253726
0000b0 c1 8f ac 3d 45 ad f2 3c e3 e1 b5 bc ef 6d 96 3c
       0.084258564 0.029623637 -0.022202438 0.018362967
0000c0 2a 42 69 3c bc c8 93 bd 65 e5 29 bc b7 c1 05 3d
       0.014236966 -0.072160214 -0.010369633 0.032655444
0000d0 e9 05 d8 bd 41 29 47 bd 28 f9 be 3c 5c 3b 21 bd
       -0.10548002 -0.048623327 0.023312166 -0.03936325
0000e0 98 47 56 3d 4c 39 ef 3c 63 1c 80 3d 32 f6 81 3d
       0.05231437 0.029202126 0.06255414 0.06345786
0000f0 08 37 c3 bd f5 2f b9 3d 55 7b 7a bd 01 65 c4 bd
       -0.09531981 0.0904235 -0.061152775 -0.095895775
000100 73 bd 44 3d ab 32 fc bb a5 24 89 bd a4 26 ae 3d
       0.048032235 -0.00769647 -0.066964425 0.08503464
000110 46 77 59 bd 69 91 44 bd 0b 45 b4 bd 04 78 43 3d
       -0.053092264 -0.047990236 -0.088022314 0.047721878
000120 23 33 4f bc 07 3a 34 3d ed 8e c0 bc 67 e9 0b 3d
       -0.012646469 0.04400065 -0.023505652 0.034158137
000130 72 2e c9 3d c4 cf ac 3d 56 c8 a0 bc a8 b5 6e bd
       0.09823312 0.08438066 -0.019626778 -0.05827871
000140 65 1f 74 3d c6 41 92 3d ac a6 20 bd 00 88 e5 3b
       0.059600253 0.071414515 -0.03922145 0.007004738
000150 79 e5 35 bd 7f 51 d3 b9 9d 24 dc 3c 59 f8 19 3d
       -0.044408295 -0.00040305775 0.026872927 0.03759036
000160 12 63 74 bd cd 6e 49 bd 13 ed 95 bd 12 de 32 bd
       -0.059664793 -0.049177933 -0.07320609 -0.043668814
000170 77 ea b9 3c 55 96 b8 bb 79 83 cd 3d 12 1f 07 bc
       0.02269481 -0.0056331553 0.10034842 -0.008247154
000180 f3 78 57 bd e0 2b 41 bd 4b 2d b5 3d cf 94 4f 3d
       -0.05260558 -0.047160983 0.088465296 0.050679024
000190 e2 4f a4 bd b1 2e 10 3d 69 33 96 bc d9 71 00 bd
       -0.08023049 0.03520078 -0.018335061 -0.031358574
0001a0 20 9a 7c 3c 69 1d 72 3d 63 ba 9b bc 23 98 fd bd
       0.015417606 0.05911008 -0.019009775 -0.123825334
0001b0 91 19 91 bc 56 cb d1 bd 89 6b f6 3c 37 c3 12 bd
       -0.017712386 -0.102438614 0.030080574 -0.035830703
0001c0 87 ce a6 bc b2 dc dd bd bd 61 06 be fa 7f bd 3c
       -0.020362152 -0.1083311 -0.13123222 0.023132313
0001d0 71 3a 88 bd 87 3c 12 be 3c d0 89 bd 78 aa ef 3c
       -0.06651772 -0.14280902 -0.06729171 0.02925609
0001e0 3e 33 f5 bc 4a 91 d5 bd b1 1a 95 3d 75 2a 45 bc
       -0.02993166 -0.10428102 0.072804816 -0.012034048
0001f0 48 d4 02 3e f4 e1 2a 3b 6c 2a 79 bd 2e f9 00 be
       0.12776291 0.002607462 -0.060831472 -0.12595055
000200 da 6a 75 bc 55 d6 6c bc f8 ba b8 3c b4 e8 09 be
       -0.014979089 -0.014455398 0.022550091 -0.13467675
000210 fa c1 b0 bd 09 eb 9a bd 8a 85 97 bd 4d 5d ad 3d
       -0.08630748 -0.07564361 -0.073985174 0.08465061
000220 bc 34 fe bb c2 0d 18 bd a8 2e 18 bd 02 e0 8f bd
       -0.0077577513 -0.037122495 -0.03715387 -0.07025148
000230 30 ff 90 3c 06 3b a3 3d 6f 31 f2 bd cc 19 63 bd
       0.017699808 0.07970242 -0.11825835 -0.055444524
000240 d1 23 ad bd f0 6a 45 3d d0 7a 56 bd cd 1b 08 bc
       -0.08454097 0.048197687 -0.052363217 -0.0083074095
000250 28 d1 1b 3d 65 a7 b5 3d 82 47 1b be 9a 79 86 3c
       0.038041264 0.088698186 -0.15163997 0.016415406
000260 2f 0e e4 bd ea f7 4c bd fa bb 97 bc fb 6c c1 bc
       -0.11135518 -0.050041117 -0.018522251 -0.023611536
000270 90 02 7e 3d 72 2e 92 bd d7 f8 4b bd a5 a6 be bc
       0.062014163 -0.07137765 -0.04979786 -0.023272822
000280 2c 5c ac 3b 19 c9 0d be b5 34 07 bd 02 f7 33 bd
       0.005260011 -0.13846244 -0.03300925 -0.043936737
000290 59 0d 60 bd d4 75 0c be 44 32 1b 3c 3d 08 0e be
       -0.05470023 -0.13716823 0.0094724335 -0.1387033
0002a0 6b c9 ce bc 51 a8 e8 3d 81 bb a0 bd f9 c7 98 3d
       -0.025242528 0.11360229 -0.078482635 0.07460017
0002b0 26 ae 6e bd 4c 98 ec 3a f2 0e 8b bc 91 27 bd bd
       -0.05827155 0.0018050759 -0.0169749 -0.09236062
0002c0 2b a7 56 3d 8f d3 a2 3d 78 27 55 3c b1 99 c5 bd
       0.052405518 0.07950508 0.013009898 -0.09648455
0002d0 2e 92 bb bb f3 3a b7 bd aa 79 02 be 36 b4 f3 bc
       -0.005724213 -0.089467905 -0.12741724 -0.029749017
0002e0 df 0c a8 bc 98 9a 8b bd 5a 92 3f bd de ce 0a 3e
       -0.02051395 -0.06816596 -0.04677043 0.13555476
0002f0 5e 79 b3 3c 92 65 03 bb 83 c2 62 bd 99 45 78 bd
       0.021908458 -0.0020049554 -0.055361282 -0.06061325
000300 29 eb c2 3c 51 10 b4 bd 82 83 bf bd 70 cd c5 bb
       0.023793774 -0.087921746 -0.09351255 -0.006036453
000310 88 67 e3 bd d7 1c d4 ba 48 3b e7 bd 9a 0a f5 bd
       -0.111037314 -0.0016182911 -0.11290604 -0.11964913
000320 bb 74 5b 3d 87 ff 24 bd 24 cc f7 3d 6d 78 c0 3d
       0.05357812 -0.040282752 0.120994836 0.093979694
000330 f1 7f 6e 3d 6a 35 82 3d af 59 f8 3d 17 fb 2d bd
       0.058227483 0.06357844 0.12126481 -0.042475786
000340 a8 0b 93 bd af 3b 0a 3d 30 d6 77 3d 88 c8 32 bd
       -0.07179958 0.033748325 0.060507 -0.043648273
000350 eb 80 5d 3d 31 91 b6 3d 98 47 8c 3d 89 2c e5 3d
       0.054078024 0.08914412 0.06849593 0.11190135
000360 22 e0 fb 3c 79 a7 76 bd a7 75 79 3c df c6 67 3d
       0.030746523 -0.060218308 0.015225804 0.056586143
000370 43 92 9d bb 4d 64 99 3a cd a5 56 3d 98 be 70 bb
       -0.0048086955 0.0011702866 0.052404214 -0.0036734696
000380 9a 56 01 bd 35 c1 25 3d 8a f4 ca bd ea 5e 85 3d
       -0.03157673 0.04046746 -0.099099234 0.06512244
000390 19 57 b0 3d ed bf d4 3c 34 fe c2 3d b0 09 1a bd
       0.086103626 0.025970424 0.09521142 -0.037606895
0003a0 ec 63 b6 bd da 28 6b bc ce 25 8f 3d 1e 3a 83 3d
       -0.08905777 -0.0143530015 0.069896325 0.06407569
0003b0 97 e0 fd 3d 1b 4b fc 3c d8 40 f6 bc d0 3f 8d bd
       0.12396353 0.030797532 -0.030060217 -0.06896937
0003c0 fe 5f 6b bd 62 33 a5 bc 8c ca c1 3d 3a f9 e3 3d
       -0.057464592 -0.020166103 0.09462461 0.111315206
0003d0 2d 26 af bd 40 6b 53 bd 31 db 26 3d eb 8d f5 bd
       -0.08552203 -0.051615953 0.04073638 -0.11989959
0003e0 b4 d7 a1 bd 7b b4 ef 3c 88 e5 39 3d c4 17 c1 bd
       -0.0790247 0.029260864 0.045384914 -0.09428361
0003f0 40 b9 70 3d 0e f0 8c 3d 4b fc d6 bd fc 48 6f bd
       0.05877042 0.06881724 -0.1049734 -0.058419213

rnn.weight_hh_l0 f4 [300, 100]
000000 f8 a2 0a bd 34 29 1c 3d 8a 81 cb 3d b9 2b ca 3c
       -0.033846825 0.03812523 0.09936817 0.024679052
000010 f5 22 94 bd 1c e7 4f 3d 43 1c c5 3d d3 0c 86 3d
       -0.0723323 0.050757512 0.09624531 0.06545415
000020 cf 9b e8 3c eb 8a 4f 3d 63 a5 e4 bc e4 06 90 3d
       0.028394608 0.050669592 -0.027910894 0.07032564
000030 1f d7 44 bd f7 4c f9 3b f0 e5 1e 3c a3 5d 2c bd
       -0.048056718 0.007608052 0.009698376 -0.042081486
000040 2e fd bc 3d fe 5d 07 3d f7 89 9a 3d 16 4b 85 3d
       0.09227978 0.033048622 0.07545846 0.06508462
000050 8a b3 99 3d fc 0e 6f bd 76 6f 8d bd 22 a1 3e 3d
       0.075049475 -0.0583639 -0.06906025 0.046540387
000060 8a 96 cd bd e1 2c a0 bd 95 d2 66 3c 6b e0 98 3d
       -0.10038479 -0.0782106 0.014088293 0.07464679
000070 b9 f6 0d 3e b8 59 c1 3d af 20 ab 3d e9 44 69 3d
       0.13863648 0.094409406 0.08355843 0.056950483
000080 1b 29 92 3d 95 a0 b8 3b 04 d9 c4 3d 2a f0 c2 3d
       0.071367465 0.0056343772 0.09611705 0.09518464
000090 a7 92 4c bd e1 fc c2 3d 88 6d 96 3c d6 be 88 bc
       -0.049944546 0.09520889 0.018362775 -0.01669256
0000a0 4a 99 a7 bd 5b b4 c2 bd 02 61 59 3d 29 70 71 bc
       -0.081835344 -0.09507056 0.05307103 -0.014736214
0000b0 c6 77 c7 bd df 17 8c 3c 3e db 17 3b d7 a5 36 3d
       -0.09739642 0.017101226 0.002317145 0.04459175
0000c0 43 75 54 bd f0 ad e6 3c 86 5c e6 3d cd 21 8c bc
       -0.051869642 0.028159112 0.11248116 -0.017105961
0000d0 fc 74 b4 bd 36 ef a8 3c cb 0b b9 bd 39 6a 81 3c
       -0.088113755 0.020621877 -0.090354525 0.015797721
0000e0 8d 3a 4a bd ae 5d 8d 3d a2 b6 5c bd 14 bc 56 3d
       -0.049372245 0.069026336 -0.05388511 0.05242546
0000f0 e9 da 44 bd d2 72 47 bd 83 24 cb 3d 2a 6d ee 3c
       -0.04806033 -0.048693486 0.099190734 0.029104788
000100 fc 89 18 bd 07 e3 7e 3d 3b 02 ae 3d 11 5d 08 3d
       -0.037240967 0.06222823 0.08496519 0.03329188
000110 6c ab bf bd b8 cf 70 bc fd b6 cb bc cd b1 bb bd
       -0.09358868 -0.0146979615 -0.024867529 -0.09164772
000120 18 ad 92 bc 27 48 8a bd a4 7d da bc 33 d4 d5 bc
       -0.017904803 -0.06752043 -0.026671238 -0.026102161
000130 b8 e4 df bc 4c 8e 70 bc 4f 71 65 bd 56 75 3d 3d
       -0.027330741 -0.014682364 -0.056016263 0.04625448
000140 6e ab 87 bd cb 3d 7a 3d 3a cb 6e 3d 69 c0 89 3c
       -0.066244945 0.061094087 0.05829928 0.016815381
000150 95 35 8e bb d9 54 ba bd e2 1e 13 3d 3a 69 e4 bb
       -0.0043398836 -0.09098215 0.035918124 -0.006970552
000160 50 9c 90 bb 51 5a 8f 3d b0 d3 d4 3c 4f 6c c0 bd
       -0.004413165 0.06999648 0.025979847 -0.09395658
000170 45 c4 84 3c 32 85 66 bd b1 5f 84 3d ba 8b 82 bd
       0.01620687 -0.05627937 0.06463564 -0.06374307
000180 c0 9b 7f 3d 6c 76 96 bd d6 8e 33 3d be 6c b9 bc
       0.062404394 -0.07346806 0.04383739 -0.02263486
000190 60 2f b4 bc 75 4d 4b 3d 31 15 33 3d 99 cd 56 bd
       -0.021995246 0.049634416 0.04372138 -0.052442167
0001a0 c0 2b 34 ba 33 9f de 3c 08 e6 4a 3d e6 a5 2b 3d
       -0.00068729743 0.027175521 0.04953578 0.04190626
0001b0 1d 69 09 3d 91 55 ad 3c c5 3b 14 bd 2b 7f a8 3b
       0.03354751 0.021158965 -0.036189813 0.0051421127
0001c0 80 7e 88 3d 09 e0 31 bd c0 e0 8f 3d 5f 08 b8 3d
       0.06664753 -0.043426547 0.070252895 0.08985972
0001d0 e1 49 6b bd 13 11 36 3d 66 80 38 bd e2 8b af bd
       -0.057443503 0.044449877 -0.045044325 -0.085716024
0001e0 bd ab e6 bb 1e e6 29 3d 58 d1 a2 bc fe e8 a4 3d
       -0.007039516 0.041479222 -0.019875214 0.08052252
0001f0 fc 31 f4 bc 22 2b 14 3d 2b 1f 64 3d 7d b0 a9 bd
       -0.02980899 0.036173947 0.055693787 -0.082856156
000200 18 e8 c3 bd 20 c6 53 3d 1d dd a4 3d 71 ed fa 3b
       -0.09565753 0.05170262 0.080499865 0.0076576998
000210 c4 25 b9 3d 78 99 8a bc aa 6e 83 3d 9f 6b 22 bd
       0.09040406 -0.016918883 0.06417592 -0.039653417
000220 b7 d2 bb 3d e0 f3 75 bc de 7a 4f 3c e7 8c cb b9
       0.0917105 -0.015011758 0.012663571 -0.00038824158
000230 91 64 a6 3d 88 3a f5 bc 6a d6 ac bd 29 b9 57 3d
       0.0812465 -0.029935136 -0.08439334 0.052666817
000240 53 8a e0 3c 78 3d 72 3d ca e0 d9 bc fe 26 c3 3b
       0.027409708 0.059140652 -0.026596446 0.005955576
000250 59 1a c6 3d 27 b3 34 3d be 57 4d 3d 18 3b 83 bd
       0.09672994 0.044116165 0.050132506 -0.064077556
000260 7a e2 04 bd 2c 27 1d 3c f0 61 2d bd c6 0a eb bc
       -0.032442547 0.009591859 -0.04232973 -0.02869166
000270 59 d9 8d 3c 1b e1 a8 bb 7d b5 a9 bc b3 49 b6 bd
       0.017315554 -0.005153788 -0.020716423 -0.08900776
000280 b5 1f 97 bd fb 5f 97 3d 82 6b b8 bd ee 30 7d 3d
       -0.073790945 0.07391354 -0.090048805 0.06181424
000290 08 01 8f 3c a5 a0 b8 3d f2 76 d1 bd e4 87 30 ba
       0.017456546 0.090150155 -0.10227765 -0.00067341165
0002a0 12 6a c1 3d 71 d6 55 3d 70 9f a3 3d ef 97 72 3d
       0.094440594 0.05220646 0.07989395 0.059226926
0002b0 a7 78 4b bc 7f 22 b6 3d 31 8f 92 3c 92 e8 34 bd
       -0.0124189025 0.08893298 0.017890545 -0.04416711
0002c0 f9 8c 5b 3c eb ed 74 bd 22 ef 17 bd 0d 72 46 bc
       0.01340031 -0.05979721 -0.03709329 -0.012112153
0002d0 0e 75 d4 bc ef 5c d3 bc 33 e4 49 bd 52 f7 83 3d
       -0.025934722 -0.02580115 -0.049289893 0.06443657
0002e0 19 59 23 bd cc 38 a3 bc 0e 7e a6 bc 13 ac 9b bd
       -0.039879892 -0.019924544 -0.02032378 -0.0760118
0002f0 b8 c8 c2 bd 8b e4 66 3c 40 2d 58 bd 47 c6 77 bd
       -0.0951094 0.014092575 -0.05277753 -0.060491826
000300 60 c4 ba bc 36 cb 0e 3d c5 19 b1 3c 8a a8 f8 bb
       -0.022798717 0.034861766 0.021618733 -0.007588451
000310 5f 58 8d 3d 85 75 18 bd 3a 2b 29 bd f1 ef ad 3d
       0.06901621 -0.03722145 -0.04130099 0.08493031
000320 e6 74 b2 3d b1 61 ee 3b 49 99 85 3d af 79 ff 3c
       0.08713703 0.0072748293 0.065233774 0.031185953
000330 3a 52 92 3d 3e 50 6a bd 23 06 a6 bd e8 d0 71 3c
       0.0714459 -0.05720543 -0.08106639 0.01475928
000340 4a 21 06 3d 52 91 b7 3c 17 e8 94 bd 2f 66 52 bd
       0.03274659 0.022408161 -0.0727083 -0.05136698
000350 a4 09 71 3d 99 a3 8b 3d 8d f8 bd bc de 8d 8d bc
       0.058847085 0.06818313 -0.023189807 -0.017279562
000360 32 34 bd bc 1b a8 47 3d 85 be fb 3b bb 65 40 3d
       -0.023096178 0.048744302 0.007682624 0.046972018
000370 d3 e2 1b 3d 2e af a3 3d 72 15 c8 bc f2 4e a9 3c
       0.038058113 0.07992397 -0.024424288 0.020667527
000380 a8 b1 2e 3d 56 48 89 3d 10 81 7d 3c 6d 0c 20 bd
       0.042649895 0.0670325 0.015472665 -0.03907435
000390 f5 a6 85 3d f2 ea 94 3d 99 2b 8f 3d 4f 55 93 bd
       0.06525985 0.07271375 0.069907375 -0.07194006
0003a0 b4 98 e0 bc 41 4f 70 3d 3f d7 de 3d 9d f7 b4 bc
       -0.027416565 0.058669332 0.10880899 -0.022090727
0003b0 80 d7 91 bd f8 a3 26 3d f7 47 5b bd 3b 16 81 3d
       -0.071211815 0.040683717 -0.053535428 0.06303068
0003c0 c0 72 f3 3c cb 02 6c bc af f1 3b 3b 5f 90 65 3c
       0.029717803 -0.014404963 0.002867799 0.0140114715
0003d0 ad 7d c5 bd 5a 03 d2 bc de c0 1a bb 3e c6 10 bd
       -0.096431114 -0.025636364 -0.0023613493 -0.03534531
0003e0 26 77 88 3d ce 0c 88 3d 61 47 a7 bc da 05 d8 bd
       0.06663351 0.06643067 -0.020419778 -0.10547991
0003f0 17 f4 b3 bd 14 e7 8a 3a 40 db 98 3c b7 ea af bd
       -0.08786791 0.0010597431 0.018659234 -0.0858969

rnn.bias_ih_l0 f4 [300]
000000 37 5f b2 bc c4 dc 7d 3b 68 38 23 bd a7 51 80 3d
       -0.021773918 0.0038736323 -0.039848715 0.06265574
000010 ae c6 85 bd 57 d4 a5 bd 10 f9 1e bc 35 3b a5 3d
       -0.06532036 -0.08097141 -0.009702936 0.080679335
000020 bb 5a ec 3d be d3 86 bd f9 1a ba bd 30 a7 98 3d
       0.11540743 -0.06583355 -0.09087176 0.074537635
000030 fe fe 1a 3d d1 11 9b 3d e1 95 c0 3b a4 b7 c3 bd
       0.037840836 0.075717576 0.005877242 -0.09556511
000040 3f dd aa 3d 71 32 bf bc 07 1e ac 3d f5 64 c0 3d
       0.083429806 -0.023339482 0.08404165 0.09394256
000050 08 02 b9 3d 88 b0 50 3b bf 96 90 bb 0c 5a 80 3d
       0.090335906 0.0031843502 -0.0044125016 0.06267175
000060 61 81 f5 bc 36 a9 37 3b a0 5a b2 bd 61 f9 99 3c
       -0.02996892 0.0028024442 -0.087086916 0.018795671
000070 82 c6 06 3d a3 99 cb bc 2d e0 9d 3d 99 09 bb 3d
       0.032904156 -0.024853533 0.07708774 0.0913269
000080 67 27 40 3d 90 9d 19 bd 75 c2 69 bd 9e f2 43 bd
       0.046912577 -0.03750378 -0.057070214 -0.0478388
000090 23 73 71 3d 15 90 b5 3d 6c 53 39 3d cf 07 f3 bc
       0.058947694 0.08865372 0.045245573 -0.02966681
0000a0 5c d2 08 3e c6 34 a2 3d e1 03 8c 3c 41 6d 78 bd
       0.13361496 0.07920222 0.017091693 -0.060651068
0000b0 7b 9c 55 3d f5 3b 7c bd 26 83 42 3d 6b 32 96 3d
       0.052151185 -0.061580617 0.047488354 0.07333835
0000c0 53 75 20 bd bf 0b d6 3d cf b4 00 bd dd aa 89 3d
       -0.03917439 0.10451459 -0.031422433 0.06722043
0000d0 65 93 67 3d 0b 11 fb 3d 05 4e a0 3d df 53 c5 3d
       0.05653705 0.1225911 0.07827381 0.09635138
0000e0 ab d3 c1 bd fc 4f 49 3c ba 5c d0 3d 5e a9 4d 3d
       -0.094642006 0.012287136 0.10173936 0.05021035
0000f0 da 80 7f bd 93 42 bc bc 3e ed 9c bd f5 4b 41 3d
       -0.06237874 -0.022980964 -0.07662438 0.04719158
000100 0e b9 a6 3d cb 31 91 bd 73 30 d9 3d a2 3b 80 bc
       0.08140765 -0.070895754 0.10604944 -0.015653435
000110 e7 a2 95 bd f0 35 39 bd c6 01 43 3d 29 11 a0 3d
       -0.07306462 -0.045217454 0.047609113 0.07815773
000120 ac e3 46 3d 8c 19 5c 3d a9 7a 3b bd 6f 3b 02 bd
       0.04855697 0.0537353 -0.045771275 -0.03179496
000130 1e 82 75 3d 31 ef cc 3d 07 a5 94 bc 8a 03 b0 3d
       0.059938543 0.1000656 -0.018145097 0.08594425
000140 48 65 d4 3d 74 2f ae 3d 3a 60 31 3d d5 01 c7 b9
       0.1037088 0.08505145 0.04330466 -0.00037957603
000150 ff 6a f1 bc 31 90 c9 bd 25 0e 19 3d 38 49 f6 bc
       -0.029469965 -0.098419555 0.037367005 -0.03006421
000160 0c f2 18 3d 8a 9d 9b 3d 5c 95 0c 3d f0 3c 86 3d
       0.03734021 0.075984076 0.034322128 0.06554592
000170 f8 4a f6 bc 70 6b 8c bd 73 21 34 3d 82 53 9a 3d
       -0.030065045 -0.068564296 0.043977212 0.07535459
000180 45 f1 3b 3d 5b f5 6e bc a2 b2 08 bd 14 45 3f 3d
       0.04588439 -0.0145848645 -0.033373483 0.046696737
000190 7f 6a 3d be e8 6f 3c be 74 ba 70 bc f9 6a 21 be
       -0.18497656 -0.18402064 -0.014692891 -0.15763463
0001a0 f6 04 22 bb 6a e0 b8 3d 6c 13 08 be 9f 1d b7 ba
       -0.0024722195 0.090271786 -0.13288659 -0.001397062
0001b0 06 ac 2c be 79 cf 12 3c 74 92 c4 bb 92 76 97 3c
       -0.16862497 0.008960598 -0.005998904 0.018489156
0001c0 9f 77 b1 bd f2 df a9 3c 78 67 8b 3b 27 b9 33 be
       -0.08665394 0.020736668 0.004254278 -0.17551099
0001d0 6d bd 0e bd 22 ae d6 bd be 01 86 3d 88 74 0b be
       -0.03484862 -0.10482432 0.06543301 -0.13618672
0001e0 cd 38 ab bd c9 54 87 bc 6e 99 44 3d 0a 35 39 3d
       -0.08360443 -0.01651992 0.047997884 0.045216598
0001f0 97 cc f5 3d dd 2b 08 3d ae 39 f8 bd 3a 45 82 bd
       0.12001913 0.033244956 -0.121203765 -0.0636086
000200 2b e0 7f 3d 43 b3 8a 3d 09 fc 7c 3c 76 e2 16 be
       0.062469643 0.06772473 0.015440949 -0.14734825
000210 8e c1 34 be 84 d7 c9 bd 77 9b 8e bd c1 72 62 bb
       -0.1765196 -0.098555595 -0.06963246 -0.0034553262
000220 e2 8c 92 bc 0d e2 ab bd 3e b6 66 bc 98 c8 85 3b
       -0.017889444 -0.08392725 -0.014081536 0.0040827505
000230 c6 dd bb bd 6c 95 ee 3c 00 97 f1 bd 8c fc 1b be
       -0.09173159 0.029123984 -0.11796379 -0.15233058
000240 25 c5 1e bc 58 d4 82 3d 88 dd d6 bd 9e aa 26 be
       -0.009690558 0.063881576 -0.104914725 -0.16276023
000250 64 1a 67 bd 2c 0f a2 3d d3 94 2b be 55 c1 10 3d
       -0.056421652 0.0791305 -0.1675599 0.035340626
000260 f2 e5 03 bd 99 0c 99 bc 22 2f fc bd 56 44 58 3c
       -0.032201715 -0.018682765 -0.12313677 0.013199886
000270 ab 68 dc bc 2a 0e e6 3b 95 ef 61 bd 47 97 26 be
       -0.026905378 0.0070207315 -0.055160124 -0.16268645
000280 b5 66 08 be 77 d1 2d be 8d fa ad 3c f5 63 ea bd
       -0.1332043 -0.16974436 0.021237636 -0.114448465
000290 9b 4b 36 be eb f7 3e be d1 28 e2 bd 46 38 9b bd
       -0.17802279 -0.1864926 -0.11042941 -0.07579093
0002a0 37 0d 12 be 98 bb 86 3d 04 47 72 3d 8e 17 69 3d
       -0.14262854 0.065787494 0.059149757 0.05690723
0002b0 e1 bd a6 bd 48 b5 6f bd da 9f d7 bd 46 52 38 be
       -0.08141685 -0.058522493 -0.10528536 -0.18000135
0002c0 1b cc 0c 3d 74 f3 e1 3d 1a 97 6a 3c 41 08 26 be
       0.034374338 0.11032763 0.014318252 -0.16214086
0002d0 5a 8f b1 bd ab e6 b1 3c 7f 9c 8d 3b a4 66 03 be
       -0.0866992 0.021716436 0.0043216343 -0.12832123
0002e0 11 27 cf bd 48 56 08 be 0b 48 2b bc c7 27 0b 3e
       -0.10114873 -0.13314164 -0.010454188 0.13589393
0002f0 2c 66 0b be d4 9e e6 bd 1b f5 62 bd 2e e3 08 3d
       -0.13613194 -0.11260763 -0.055409532 0.03341978
000300 4e 9d 19 bd b4 7d 3f bd 09 d4 f9 bd 46 84 db 3d
       -0.037503533 -0.04675074 -0.121986456 0.107185885
000310 01 21 09 be 9b 3b a3 bc 73 f0 8c bd 78 57 24 be
       -0.13391496 -0.019925883 -0.068817995 -0.16048992
000320 f0 0a 44 bd 37 b0 3f 3d f4 1d 94 bd 1e b7 74 3d
       -0.047861993 0.04679891 -0.072322756 0.059744947
000330 8d 38 8a 3d e0 b4 12 bd 0c 66 8a 3d b3 d9 03 bb
       0.067490675 -0.035817027 0.06757745 -0.0020118773
000340 63 7c 23 bd 01 0f c1 3d f5 12 29 bd ff 90 9a bc
       -0.039913546 0.0942669 -0.041277844 -0.018867968
000350 fe d5 6c bd b7 ad b8 3c 8e 26 84 bd f9 b1 71 bc
       -0.057821266 0.022543771 -0.06452666 -0.014751905
000360 30 8e 69 bd 93 81 a3 bd 2d 91 50 bd 56 d1 da bc
       -0.057020366 -0.07983699 -0.0509197 -0.026711147
000370 3f 01 32 bd 3d 7a 9d bc be df ac bd 49 48 b1 3c
       -0.04345822 -0.019223327 -0.08441113 0.021640914
000380 31 f3 04 bd da cc 5b bc 9f 1e 07 bd 8f bf 20 3d
       -0.032458488 -0.01341554 -0.032988187 0.039245185
000390 14 80 11 3c c2 d0 7b bd 1e b6 56 3d 2b b6 8a 3d
       0.008880634 -0.061478384 0.052419774 0.06773027
0003a0 03 98 53 bd c8 6a c5 bb 3c 5f b5 3d 47 59 57 3d
       -0.05165864 -0.006024692 0.08856055 0.052575376
0003b0 1f af 51 3d ba 16 87 bd b4 c3 a4 bc 16 9b 85 bd
       0.0511924 -0.065961316 -0.02011285 -0.06523721
0003c0 03 e2 ec 3c fd 7f 34 bc 2b 1a 2a 3d d8 27 58 bd
       0.028916365 -0.011016843 0.041528862 -0.052772373
0003d0 b0 a0 98 bd 51 b8 80 3d 48 2f 84 3d 9b 04 4c bd
       -0.07452524 0.062851556 0.06454331 -0.04980908
0003e0 3a d3 0f bd e7 24 6a 3b 5f 16 80 bc c1 f0 e2 3c
       -0.03511355 0.0035727562 -0.015635667 0.027702691
0003f0 c3 88 ba bd b3 74 9f 3d 22 e6 6a 3c a4 83 75 bd
       -0.091081165 0.077859305 0.0143370945 -0.059939995

rnn.bias_hh_l0 f4 [300]
000000 b6 16 66 3d 40 9c 27 3d 48 e4 ef 3c 75 e9 eb 3c
       0.056174003 0.040920496 0.029283658 0.028797844
000010 58 7d 4c 3d 3f 15 1c 3d 40 74 4c bd e6 03 2f 3c
       0.049924225 0.0381062 -0.049915552 0.010682082
000020 f8 06 7a bd 5d 32 96 bd c9 26 bb bd ed 58 ae bd
       -0.061041802 -0.07333825 -0.09138257 -0.08513055
000030 21 28 cc 3d 44 b9 af bd c6 02 94 3d 42 95 39 bc
       0.099685915 -0.085802585 0.072270915 -0.01132709
000040 b3 fd 94 3c fd fb 02 3d 41 04 1f 3d d1 bb 95 3c
       0.01818738 0.031978596 0.038822416 0.018278034
000050 83 0d 90 3d e2 5a c4 3d 95 65 dc 3b f7 ad 5e 3d
       0.07033827 0.09587647 0.0067259767 0.054365125
000060 9c 05 a2 bd 57 4f 90 bd 4d 7d 25 ba 74 be 0b bd
       -0.07911226 -0.07046383 -0.0006312922 -0.034117177
000070 1b 54 97 bd e1 a0 0d bd 8e 77 84 bd c1 24 d8 bc
       -0.07389089 -0.034577254 -0.06468116 -0.026384713
000080 3b e8 8a bd 7e 3c 10 3d d7 9d 1c 3d 0f 18 2e bd
       -0.06782576 0.03521394 0.038236465 -0.042503413
000090 5c fb 2c 3d a5 67 0d 3d d6 d8 ed bd 80 6f c5 bc
       0.042231902 0.03452267 -0.11613624 -0.024101019
0000a0 c3 af c7 3c 79 d6 64 3d 4b 34 3c 3c c5 2e ae 3d
       0.024375802 0.0558686 0.011487077 0.08505014
0000b0 59 f8 02 3d 16 b9 fb 3b 6b 90 e1 bd 81 68 74 bd
       0.031975124 0.007681976 -0.11013874 -0.059669975
0000c0 b5 a9 26 bc c2 e3 9f 3d 4e 4c 83 bd c2 c8 73 3c
       -0.010172297 0.07807113 -0.06411038 0.014879407
0000d0 0b f4 e4 bd 55 6e 10 3d d8 5f b9 3b e8 9b 91 bd
       -0.1117936 0.03526147 0.0056571774 -0.07109815
0000e0 9c 15 91 3b eb 63 fd bc e4 04 3a bc 66 1a 3b 3d
       0.004427625 -0.030931434 -0.011353705 0.045679472
0000f0 43 62 2a bd c8 48 dd 3d f0 b3 b0 bd 50 67 8e 3d
       -0.041597616 0.108048975 -0.0862807 0.06953299
000100 a1 c1 96 3d ac 15 0a 3c c2 7e 8c 3d 80 99 15 3d
       0.073611505 0.008428019 0.06860115 0.036523342
000110 f5 b2 cc 3c d5 a8 87 3d 93 8b b8 bd 4f 7f b5 3d
       0.024987677 0.06623999 -0.09010997 0.08862173
000120 60 9d fa bc 10 48 38 3d b4 1d 92 bd dc 87 bd 3d
       -0.03059262 0.0449906 -0.07134572 0.09254429
000130 39 f8 29 bd 48 b6 ac 3c a6 ca 4c bc b1 e2 54 3d
       -0.04149649 0.021083012 -0.012499487 0.051974002
000140 81 09 53 3d 55 40 e4 3d 97 e1 93 bd 24 a4 97 3d
       0.051522736 0.11145083 -0.07220762 0.07404354
000150 c9 1e 35 bd 31 a6 96 3d ad 2c 63 3d 9a 54 4d 3d
       -0.044218812 0.07355917 0.055462528 0.05012951
000160 9f de b0 3d 38 dd b6 3c 59 96 a5 3d ee 62 9a 3d
       0.086362116 0.022322282 0.08085317 0.075384006
000170 04 d8 0b 3d be 98 51 bd 65 d0 b2 3c 40 5a ba bd
       0.034141555 -0.051171057 0.021827886 -0.09099245
000180 56 2f b2 bb 49 e9 59 3d 61 f7 52 bd f2 2d 98 3c
       -0.005437772 0.053200994 -0.05150545 0.018576596
000190 37 7c 18 be 5f d9 d8 bd 08 ee e5 bd 4f 52 a8 bc
       -0.14891134 -0.10588335 -0.112270415 -0.02054706
0001a0 78 63 a8 3d e0 a3 af bd 00 d0 b4 bb b4 81 f4 bd
       0.08222097 -0.085761786 -0.0055179596 -0.119388014
0001b0 d9 7b 00 bd 1c 46 79 bd db 68 99 bd ff 94 69 3d
       -0.03136811 -0.060857877 -0.07490703 0.05702686
0001c0 16 a2 70 bd 6d 4c 14 be 6e f5 a8 bc be bd 01 ba
       -0.058748327 -0.14482279 -0.020624842 -0.0004949233
0001d0 84 65 1a be 6f a2 20 be f4 0f 96 3d a0 4b fa bd
       -0.15077788 -0.15686963 0.073272616 -0.122214556
0001e0 53 cd e5 bd 7a 5c 1b be 20 d1 7c 3d db d8 4f bc
       -0.11220803 -0.15171996 0.061722875 -0.01268598
0001f0 3a 56 e4 3d 73 60 85 3c ff 80 86 bd e2 df 55 3b
       0.11149259 0.016281342 -0.06567573 0.0032634665
000200 80 a0 5f bd 41 57 6c bd c3 47 94 bd 4f cf 0f be
       -0.054596424 -0.0577004 -0.0724025 -0.14043926
000210 90 2f 32 be 32 46 23 be 05 34 c6 bc d1 80 70 3d
       -0.17400956 -0.15944746 -0.024194727 0.0587166
000220 33 1f 1b bd 87 35 da 39 f3 f1 2d 3d 1b bb 2a bd
       -0.03787155 0.0004162008 0.04246707 -0.041682344
000230 e4 73 0b 3d 0c d7 03 3c 88 87 e7 bd eb 49 42 be
       0.03404607 0.008046877 -0.113051474 -0.1897351
000240 c1 1a 50 bd db d1 0f bd 78 26 9c bd 8b 1d 2a be
       -0.050806765 -0.035112243 -0.07624525 -0.16612832
000250 d0 a1 2a be b0 e0 dc 3c ed 2b 3a be 1e 98 42 bd
       -0.16663289 0.026962608 -0.18180819 -0.04750835
000260 ae 4a a6 bc 43 8d d4 bc 54 6a ca bd 1c a7 bf 3d
       -0.020299282 -0.025946265 -0.09883562 0.093580455
000270 4b e1 85 bc 7e c2 c3 bd 08 a7 96 3d cd b6 2a be
       -0.01634278 -0.09558581 0.073560774 -0.16671295
000280 0e 65 1b be 2f 7c 30 be 50 0f c7 3d e3 63 8d 3a
       -0.15175268 -0.17234872 0.097197175 0.0010787215
000290 1b 95 c1 bd 30 f8 1a be 24 13 9a b9 42 b7 25 be
       -0.09452268 -0.15133739 -0.0002938743 -0.16183189
0002a0 0d c3 cc 3c 2d a8 c4 3d c2 bb a9 bb 47 ec 62 bc
       0.024995351 0.096023895 -0.005179853 -0.013850278
0002b0 dd 3f 1f be db 0d 05 bd bf 51 ba 3a e3 2d ef bd
       -0.15551706 -0.032483917 0.0014215036 -0.11678674
0002c0 43 b7 74 bd 6e 1b 00 3e 8d a4 40 bd 5b 70 ec bd
       -0.059745084 0.12510464 -0.047031928 -0.115448676
0002d0 64 ba 9d bd ff 94 97 bd f9 81 a8 bc 5b bc dc bd
       -0.07701567 -0.074014656 -0.020569788 -0.107781135
0002e0 b2 c4 11 be 58 3e c3 bb 59 91 8c bd 43 36 73 3d
       -0.1423519 -0.0059583597 -0.0686366 0.05937792
0002f0 a3 39 30 be 3e c6 96 3a ef 26 29 be 36 63 09 bd
       -0.17209487 0.0011503173 -0.16518758 -0.03354188
000300 5a 18 33 bd eb 96 a8 bd e7 9a f8 bd f0 1a 4c 3a
       -0.043724395 -0.0823191 -0.1213892 0.00077859964
000310 b5 ce 09 bd 00 af 97 3b ff 58 d1 bd c2 0c 23 be
       -0.033644397 0.004629016 -0.10222053 -0.15922835
000320 62 26 a6 3d f2 09 09 3d 79 81 ca 3d 82 f7 b5 3d
       0.0811279 0.03345675 0.09887976 0.08885099
000330 0c 0b 5d bd e3 7e 83 bd 28 01 c9 bc f7 71 c0 bc
       -0.053965613 -0.06420686 -0.024536684 -0.023491843
000340 0c 85 17 bc 8b 0d c9 3d 9f 7f d4 bc b3 75 38 3d
       -0.009248029 0.09817036 -0.02593976 0.04503412
000350 e8 8f be bd f6 f7 8e 3d a2 8c c6 ba 28 d3 b5 bd
       -0.09304792 0.069808885 -0.0015148113 -0.088781655
000360 1c f5 99 3d d4 c3 38 3c fc 5f 56 3d 09 b8 60 bc
       0.07517454 0.011277158 0.05233763 -0.013715752
000370 f3 5d a2 3c 06 a6 d8 3c 0d d4 67 3d dd 1d 00 bd
       0.01982019 0.026446354 0.05659871 -0.03127848
000380 38 49 a7 bd 9b 26 8d 3c 7b c7 97 3d a7 86 59 3d
       -0.08168262 0.017230323 0.07411095 0.05310693
000390 1b 21 20 bd 08 c6 9d bd 7f 65 b4 3d e8 3b 9f 3d
       -0.03909407 -0.07703787 0.08808421 0.07775098
0003a0 2f b1 72 3d ce c3 1b 3d 1c 70 8a 3d 6a 83 c1 bd
       0.059251007 0.03802853 0.067596644 -0.09448893
0003b0 7e c1 bc bc 9c e7 c2 3d 4c 0b ae 3c 36 44 87 bc
       -0.023041483 0.09516832 0.021245621 -0.016512018
0003c0 1a 7b 61 bd 00 c8 aa bd 73 67 31 bc 50 ff 3c 3c
       -0.05504904 -0.08338928 -0.010827887 0.011535481
0003d0 c2 6e 91 3c 2d 09 46 bd c5 10 3c bd ff f1 0b bd
       0.017753009 -0.048348594 -0.04591443 -0.034166332
0003e0 93 3c 3c bd ca bd 59 bc 80 7f db bc 40 4f 35 bd
       -0.045956206 -0.013289878 -0.026794195 -0.04426503
0003f0 01 dd 89 bd 49 1e 31 3d dc 2e 28 bc e8 7e 8c bd
       -0.06731606 0.043241773 -0.010265078 -0.06860143

linear.weight f4 [1, 100]
000000 ee c7 55 3d 4a c8 ca bd 0e 13 41 3d f1 f0 c1 3b
       0.05219262 -0.09901483 0.047137313 0.005918615
000010 ba d0 0a bd 31 93 82 bd ce 5b 12 3d 2b 21 ed bc
       -0.033890463 -0.06375731 0.035732083 -0.02894648
000020 32 52 8c bd be 34 ad 3d 17 13 bd 3d 63 55 e2 3c
       -0.06851615 0.084573254 0.09232157 0.027628606
000030 27 db 32 bc 7e 83 01 3d b9 9b ea 3d d1 81 04 3e
       -0.010916508 0.03161954 0.11455483 0.12940146
000040 ee ec e3 3d 50 9f 74 bd 90 9f 64 bd de d3 f5 3d
       0.11129175 -0.059722245 -0.055816233 0.12003301
000050 d2 8c b0 bc 9e 02 49 3d 5d 37 76 bc 50 9b 9e 3d
       -0.021551523 0.04907476 -0.015027848 0.07744467
000060 cc 49 9b 3d c7 d3 5d 3c fb 3e 98 bc 1c 1e 54 3d
       0.07582435 0.013539261 -0.018584719 0.051786527
000070 47 7a 4c bd 0e a9 33 bd 42 01 f8 3c cf b6 ba bd
       -0.0499213 -0.043862395 0.030274037 -0.09116899
000080 a4 09 07 be 87 fd cb bd b6 74 75 3d f4 6f 51 bd
       -0.13187271 -0.09960466 0.059925757 -0.051132157
000090 27 7f 84 3d 1f c2 9d 3d 2a 47 0f 3d 50 79 7d 3d
       0.06469565 0.07703041 0.034979977 0.06188327
0000a0 ef b9 79 3d 87 8e 86 3d ee 5f b5 3d 1d 04 96 3d
       0.060968336 0.06570154 0.08856188 0.07325003
0000b0 e4 03 a2 bc da e5 b0 3d 3b e4 49 3d e8 ec 43 bd
       -0.019777246 0.08637591 0.049289923 -0.047833353
0000c0 50 a3 04 be 06 db 11 bd 06 4a 80 3d 8b 6e 0c 3d
       -0.12952924 -0.035609268 0.06264119 0.03428511
0000d0 60 4b 2e 3d 73 7a 99 bd dd 83 d7 bd bf 54 59 3d
       0.042552352 -0.074940585 -0.10523198 0.053059336
0000e0 fa 74 42 3c 1a e4 92 bd cb e1 59 bd 4b 9f 31 3d
       0.01186871 -0.07172413 -0.05319385 0.043364804
0000f0 fb 41 6a 3d c2 77 ac 3d cd 6e a8 bb d2 d2 9c 3d
       0.05719183 0.084212795 -0.0051401616 0.07657398
000100 ac d5 70 bd e7 06 57 bd 6f 6d 55 3d ad 63 c0 3d
       -0.058797523 -0.052496817 0.052106317 0.09394012
000110 1b c2 a6 bb 71 bd 1e 3d 0f fe a9 3c 82 03 65 3d
       -0.005089057 0.038754884 0.020751027 0.05591155
000120 fd 43 96 bd 7c 3d f0 bd df 01 c3 bd df 2f 83 3d
       -0.073371865 -0.11730477 -0.09521841 0.06405615
000130 a4 54 05 bd d3 55 09 3d 06 06 e3 3c bf bd 9b 3d
       -0.032551423 0.033529114 0.027712833 0.076045506
000140 4d 1a cd bd a3 69 7f bd 1b a6 82 bb 79 89 aa 3d
       -0.10014782 -0.062356602 -0.0039870865 0.08327002
000150 ec 15 e8 3d 84 38 8e bd da e7 d5 3c c5 8d 02 3d
       0.11332306 -0.06944373 0.026111532 0.031873483
000160 1c fb e5 bd f5 55 f0 bd b6 02 f8 3d a5 5d 64 bc
       -0.11229536 -0.11735145 0.12109892 -0.013938342
000170 4e 01 2a bd 87 43 d8 3d b6 80 89 bc df 27 e3 3c
       -0.04150515 0.10559755 -0.016785007 0.027728973
000180 2e 02 fb 3d 8f 31 55 3d 29 c9 a9 bd 43 bd f6 3d
       0.12256275 0.052049216 -0.082903214 0.120478176
