backend/trained_models/SBI_GRU_model_state_dict.pth (torch, 126714 bytes, 5 tensors)

rnn.weight_ih_l0 f4 [300, 1]
00000000: 2336 3ebd c51a 9fbc 4219 87bd be3f 3abd
00000010: 9a50 e63c 7118 273d f93a 0c3d aee2 02bd
00000020: 6854 af3d 3ccb e03c 8137 a83c b968 613d
00000030: 4f7b cbbd ae49 f93d 9a47 99bd be24 3ebc
00000040: bde4 babd 37a4 8d3d 8407 c93d 3689 b0bc
00000050: 0142 523c 22fe a7bd 429d 8d3b 5027 b5bd
00000060: ddbc 95bd 62f7 ea3d 8c14 523d cde3 75bc
00000070: d75f 973d affd 3dbd 478a e33d bee8 853d
00000080: e161 163b 4d62 033e c867 2fbd 9403 fc3d
00000090: 6128 37bd 5d6a c8bd 5fbd 813d 1375 80bc
000000a0: ff27 66bc 934e a13d e959 88bd 7cc0 aabc
000000b0: bd1b dfbc adbb b9bd 94c7 833d fe49 84bd
000000c0: eb3b c73c 8521 433d f04f ac3d ac0d 873d
000000d0: 1d68 82bd 358f eb3c 8327 e53d a154 783c
000000e0: 236d c53d 7699 dcbc 7cfa 5f3d 8c3e db3d
000000f0: a3a5 d1bd 9b88 eb3d 97fd 543d 444e b7bd
00000100: 948d 88bb 87eb 93bb b50d a33d c622 4e3d
00000110: 1a13 15bc 3d85 bfbd 67dd 17bd 3c7b 7c3c
00000120: 9a51 b13d 0ff1 de3d d7fb edbd e024 d63d
00000130: ba48 2d3b f73d 3a3d fe3b 92bc c44b df3d
00000140: e07f df3d 18cd 92bd a861 b4bc 7bb9 e53c
00000150: 8900 933d 0326 063e ccfc 11bc d53d 4ebb
00000160: 919c 9bbc 1ed7 5abd a196 e1ba 861f 5dbd
00000170: 46a4 a9bc b830 e1bc ed53 cc3b e942 50bc
00000180: 9bdc 423c 192b db3c cceb 233d 1880 993c
00000190: d0bd e9bc 810f d8bd 4069 c8bc 35cb 09be
000001a0: 694c 61bd e427 f93b 01c6 21be 8876 263d
000001b0: 7912 0dbe 2939 72bd 8586 a4bc bdd2 a7bd
000001c0: 3210 04be 6480 2abd 5bef 63bc a009 6fbc
000001d0: 30b1 9fbd 8741 bcbd e47a 84bd 291a b3bd
000001e0: 2c53 c83c e20b 20be c4e2 c1bd 9e8d 13bc
000001f0: 18c2 a43d be9a 37bd 4b19 8ebd 6aa9 6bbd
00000200: 152c 5fbd b090 d8bc 9785 863c 2903 e0bd
00000210: bdcb eebd 3069 8fbd 77cd 2c3d 2c4a cabd
00000220: 9555 6e3d 93d5 93bd a0ee 47bb 2710 d6bc
00000230: 6cff b0bd ef9d e8bd bdfc dcbd c889 9abc
00000240: 78f3 ddbb 1c69 5fbd a514 12bd 8e80 f7bc
00000250: 21ef cabc 2b16 083d bc03 66bd 1090 eebd
00000260: 5a53 523d 17db 1ebe b753 67bc de7a c3bc
00000270: 84db 7bbd 1b84 90bd 40eb 8e3c 1a68 37bd
00000280: 0dff 47bd e895 f73c 45dd 4cbc 2e0c 773c
00000290: 8ff2 1c3b aa7e 1abe 11c5 673d b311 debd
000002a0: a3e9 13bd c0d8 2dbe dd3a 2e3c 2db6 08be
000002b0: 60ac c53d d83b 7abd 8d24 3bbd e096 983c
000002c0: d9a8 483c 2515 883d cafa babd 8e41 efbc
000002d0: 1a79 a3bc b303 d7bd 391a e4bd 8623 09bd
000002e0: 51d0 bd38 3372 11be f9fe af3d 02d9 dabd
000002f0: 7ae4 243d da6d 82bd 2e49 823b 5535 993c
00000300: c52c f5bd 2a98 0dbd 6eeb 303c 6bee cabc
00000310: b34b 8bbd 1405 ccbd 857e d4bd 3aee 9ebd
00000320: 050f febd f973 7c3c ca28 f1bd f82e da3d
00000330: d259 f9bd 2200 d23d 4d18 81bd 72cc 26bd
00000340: b3fd febb c7d5 a4bd e7f4 81bc be01 44bd
00000350: 78bd febd c222 ecbc 1136 913d 4e06 f9bc
00000360: f3e0 ebbc cd4e e3bc 8224 bebd e6e8 23bd
00000370: 3ab3 b83d 2a40 b9bc 4362 823d 0ebf f6bd
00000380: 8893 a1bd 7e2d 873d c265 b73d debc 563b
00000390: 48a0 e4bd a7ca b13d 3157 9dbd 62c6 77bd
000003a0: 4b05 3b3d f14f a7bb 9c10 8a3c b87f 853d
000003b0: ece4 b53c 5c9a 1dbd 2989 8cbb 1765 e3bd
000003c0: 8c08 85bd 44fa 2f3d 4ac0 bdbd 7905 833d
000003d0: 0779 e8bc d325 9abb 832c 853d b7bb ce3d
000003e0: 696a 873c ffc7 d2bd 8704 66bb 7e9f a1bd
000003f0: f44f 903d 80d0 5cbd 1f84 3d3d d3cc 1d3d
-0.046438348 -0.019421944 -0.065966144 -0.045470946 0.028114606 0.040794794 0.03423593 -0.03195446
0.08561021 0.02744066 0.020534279 0.055031512 -0.099356286 0.121722564 -0.0748436 -0.01160544
-0.091256596 0.06916087 0.098158866 -0.021549802 0.012833119 -0.08202769 0.004321725 -0.08845389
-0.073114134 0.11472966 0.051289126 -0.015007925 0.07391327 -0.04638451 0.11110359 0.06538533
0.0022946524 0.12830468 -0.042823583 0.1230537 -0.044716243 -0.09785912 0.06334948 -0.015680825
-0.014047622 0.07876315 -0.06657774 -0.020843737 -0.027234906 -0.090689994 0.06434551 -0.064594254
0.024320563 0.04763939 0.08413684 0.065944046 -0.06367514 0.02875481 0.11189177 0.015156896
0.09639957 -0.026928645 0.05468224 0.10705289 -0.10236671 0.11500665 0.051999655 -0.08950475
-0.004167268 -0.004514161 0.07961599 0.05032613 -0.009098792 -0.09351585 -0.03707638 0.015410241
0.086581424 0.10885822 -0.116203 0.10456252 0.0026441053 0.04546925 -0.017850872 0.10903123
0.10913062 -0.07168025 -0.022019222 0.028042546 0.071778364 0.13100438 -0.008910369 -0.003146996
-0.018995555 -0.053427808 -0.0017211029 -0.05398514 -0.020708214 -0.027489051 0.0062355907 -0.012711265
0.011893417 0.026753949 0.040019795 0.018737838 -0.028532892 -0.10549832 -0.02446425 -0.13456424
-0.05500451 0.0076036323 -0.15798189 0.040640384 -0.13776578 -0.059136543 -0.020083675 -0.08194492
-0.12896803 -0.04162635 -0.013912047 -0.014589697 -0.07797468 -0.09192186 -0.06468752 -0.08745224
0.024453722 -0.15629533 -0.0946708 -0.009005932 0.08044833 -0.044825308 -0.06938418 -0.057534613
-0.0544854 -0.02643618 0.016421122 -0.10938103 -0.11659954 -0.07002485 0.042188134 -0.098774284
0.058187086 -0.072184704 -0.0030507222 -0.026130749 -0.08642468 -0.113582484 -0.107903935 -0.018864527
-0.0067734085 -0.0545436 -0.03566422 -0.030212667 -0.024772229 0.033224266 -0.056155905 -0.116485715
0.05134902 -0.15513264 -0.01411908 -0.023862299 -0.061488643 -0.07056447 0.01744616 -0.044777013
-0.04882722 0.030222848 -0.012503927 0.015078587 0.0023948287 -0.15087381 0.05658442 -0.108432196
-0.036111485 -0.16977215 0.010634151 -0.13350745 0.096520185 -0.061092228 -0.045689154 0.01862663
0.012247288 0.06644658 -0.091298655 -0.029206064 -0.019955207 -0.104987524 -0.11137814 -0.033481143
9.051024e-05 -0.1420372 0.08593554 -0.10685922 0.040256955 -0.06368609 0.003976009 0.018702189
-0.1197143 -0.034568943 0.010798318 -0.02477189 -0.06801548 -0.09961906 -0.10375694 -0.07760282
-0.124052085 0.015408509 -0.11775358 0.1065349 -0.12175335 0.102539316 -0.06303463 -0.040722318
-0.007781708 -0.08048587 -0.015863849 -0.047853224 -0.12438482 -0.028825168 0.070903905 -0.030398514
-0.028793788 -0.027747536 -0.09284307 -0.04001703 0.0901856 -0.022613604 0.06366398 -0.120481595
-0.078894675 0.06600474 0.08954956 0.0032766382 -0.11163384 0.08681231 -0.07682646 -0.060491927
0.045659345 -0.0051059653 0.016853623 0.06518501 0.022203885 -0.038477287 -0.0042888117 -0.11103266
-0.06495771 0.04296328 -0.09265192 0.06397528 -0.028378023 -0.004704216 0.065026306 0.100943975
0.016530233 -0.102920525 -0.0035097913 -0.07891749 0.070465 -0.05390978 0.04626858 0.038525414

rnn.weight_hh_l0 f4 [300, 100]
00000000: 6523 4e3d 755a 82bd 50ed 8fbc 9921 8fbd
00000010: 98a6 5fbd 5725 4dbd 32f4 973d 76c1 9dbd
00000020: 4dd0 8b3c 633e 15bd c3de e03d e7b8 4e3d
00000030: 16d9 b2bd f884 853d f21d 843d fc2a 523d
00000040: e240 aa3d c649 873c 915f abbb 8586 5cbd
00000050: f57e b03d fe6c 89bd 778f f6bc d982 aa3c
00000060: b128 e1bd d50d 36bc 913f ba3c 3002 80bd
00000070: 83e9 903d 76a4 803d fbf6 a13c b4b6 b53b
00000080: 1af2 283d 7cb2 f4bd 2f6c 80bd 49b7 893d
00000090: 71db bbbc 07d5 adbc b521 d6bc 4fbc 63bd
000000a0: d90a 7cbd ee5d 9e3c 8dbe 153c 257d 44bd
000000b0: 9047 a8bd 1718 97bd 8e22 653c 5f65 203c
000000c0: 453a d6bb af70 cebc ae9f d0bd 2976 79bd
000000d0: 4a2e b73d c787 9d3d a351 913d f9ad 85bd
000000e0: def8 4dbd 4a55 873d 6c8e 893d e51a 9c3c
000000f0: d973 583d c9c4 86bd b709 25bd 1316 44bd
00000100: 2a63 15bc 1d69 bebd b343 a9bc 26d8 933d
00000110: 9f6e 6b3d 858a 323b 46fd ff3c bb1c 57bd
00000120: c7e8 91bd 0935 743c 2688 01bd 9037 d13d
00000130: ceb5 bdbc 901e b1bd 6bd5 5f3d d298 6d3d
00000140: ab40 70bd f7f4 f0bd be7c cabd 2e1f 943d
00000150: dddf 92bd 61f7 c43c 6602 f8bc 281f b93c
00000160: 2b02 973d ead6 bebd c41c eb3a 9081 02bd
00000170: d75d dcbc e88f c43d d710 38bd d281 933c
00000180: ea58 e2bc f987 9a3d 67cf 8ebd d61c 14bc
00000190: 432d e1bd ae03 413c 30a4 99bc 0cf5 833d
000001a0: cf2d bebd 6648 e6bb 4e76 e5bc 637d c73b
000001b0: e339 243d e9cc 943c ef19 25bd bfd0 963d
000001c0: 9589 a2bd a37e 38bd 77d8 08bd d098 c13d
000001d0: 4a56 873d 89d1 f1bd 80a8 a1bc 8780 cbbd
000001e0: 4392 14bc daad 1b3d 6579 293d ad00 b0bd
000001f0: 50b5 be3d 9e4e d039 684f c83d 5ba5 89bd
00000200: 3d06 69bd 5125 ab3d 296c 0c3d b27e abbd
00000210: 9687 c23d a86e 28bd d147 35bc a220 53bd
00000220: 9664 84bd f2ce 85bd 76ba 45bd be6d 5abc
00000230: 2f50 933d 8b65 abbd 1bf0 fdbb 70f2 91bb
00000240: 6f9b 0d3d a78c 133c a402 84bd d842 87bd
00000250: ca45 9a3d d000 da3c 1376 83bd 67c6 353d
00000260: 9377 c33c b467 253d 006a b6bd 1b36 9abb
00000270: 1018 f13d d8b3 92bd 2010 a33d 9b7a 573d
00000280: 82bf c23c 162d 8d3d 8e1d 85bb 738d 173d
00000290: f40e 5abb 0b20 d7bc de18 5f3c b7f5 b6bc
000002a0: 25a7 d1bc 820d 413d f4c4 cd3d b249 59bd
000002b0: f351 6b3c 1fbc 87bd d4fc ad3c 22bb 9c3d
000002c0: 0e54 5abd 249a 083d 8833 94bd 2f62 c3bd
000002d0: ea0d e2bd f06b b13d 61e5 8c3d 98f3 3ebd
000002e0: c5e4 c2bd de69 7d3b d59c cfbc 3acb 80bd
000002f0: ea2a 223d 9ce0 763d 264c 28bd 8685 0bbd
00000300: 078d 313d 314e 8dbd b395 20bc 98e6 f1bc
00000310: 78c2 bc3d 44fc 2c3b 3977 3b3c dff8 213d
00000320: 836c 80bd 46a9 063c 775b 263d 89dc 123d
00000330: 234d 1fbd b84f be3d add9 1e3d 61bf a93c
00000340: cc1c 8fbd 8401 33bd 0fb7 9d3b 7bb4 87bd
00000350: 7989 e93c 6777 d1ba 174f b4bd 4cd2 d53d
00000360: d6a6 babc 3ab9 4a3d 894d 94bd d8f6 6bbd
00000370: 8d8c 463d f933 c4bc 133f cebd 5d1f 973d
00000380: 420c 3f3d 5927 a93d 0b60 8bbd 9434 64bd
00000390: 5851 a2bd 3e9b c03d 6612 5d3d 22b9 23bd
000003a0: c542 743d 5fe2 ab3d 0b54 fbbc bbef 7abd
000003b0: 310a 603c 7016 debd 9ddb 033d a802 e3bc
000003c0: 130c a3bd 6275 ae3d 4578 143b d441 94bd
000003d0: 25a1 9c3d ac03 243d ad61 32bd 3eb7 3f3d
000003e0: 9e33 b23c cea1 cfbd c79e 03bd fc79 9e3d
000003f0: 0a14 76bd 4a8d 96bd 2150 02bd 6187 7cbd
0.050326724 -0.063649096 -0.017569214 -0.0698883 -0.054602236 -0.05008444 0.074196234 -0.07702915
0.017067099 -0.03643645 0.109799884 0.050469305 -0.08732812 0.065195024 0.06451024 0.051310524
0.08313157 0.01651467 -0.0052298983 -0.053839225 0.08617965 -0.06710242 -0.030097706 0.020814346
-0.109940894 -0.011111696 0.022735389 -0.06250417 0.07075789 0.062813684 0.01977109 0.0055454616
0.04124651 -0.11948106 -0.062706344 0.06724412 -0.022931786 -0.021219743 -0.02613912 -0.055599507
-0.061533783 0.019331899 0.009139669 -0.04797091 -0.082167745 -0.07377642 0.013985289 0.009789794
-0.006537708 -0.025200216 -0.101867065 -0.060903702 0.08944376 0.07691913 0.07095649 -0.06527323
-0.050286166 0.066080645 0.06716618 0.019055793 0.052844856 -0.065805025 -0.040292468 -0.047872614
-0.009117881 -0.092973925 -0.020662164 0.072189614 0.057478543 0.0027243209 0.0312487 -0.052517634
-0.07124477 0.014905223 -0.031623982 0.10215676 -0.02315798 -0.086484075 0.05464689 0.05800707
-0.058655422 -0.11765473 -0.09887074 0.072325096 -0.07171605 0.02404374 -0.030274581 0.022597864
0.073734604 -0.09318335 0.001793765 -0.03186184 -0.026900215 0.095977604 -0.044937935 0.01800624
-0.027630288 0.07545466 -0.069731526 -0.009040078 -0.10994961 0.011780662 -0.018755049 0.06443223
-0.09286081 -0.0070276735 -0.028010514 0.0060879453 0.040094268 0.018164115 -0.040307935 0.07364034
-0.07936398 -0.045042645 -0.033409562 0.09452975 0.06608255 -0.11807544 -0.019733667 -0.09936624
-0.009068075 0.038007595 0.041375536 -0.08593879 0.09311926 0.00039731426 0.097807705 -0.06720992
-0.056890715 0.08356727 0.034282837 -0.083737746 0.09498517 -0.041121155 -0.011064486 -0.051544793
-0.06464498 -0.06533612 -0.048273526 -0.013331829 0.07193028 -0.08368977 -0.00774957 -0.0044539496
0.03457206 0.009005702 -0.06445816 -0.06604546 0.075328425 0.026611716 -0.06419005 0.044378664
0.023860728 0.040382102 -0.08906937 -0.004706157 0.11772168 -0.07163209 0.0796206 0.05260716
0.023772959 0.06893365 -0.004062361 0.03700013 -0.0033273073 -0.026260396 0.013616769 -0.022333963
-0.025592396 0.047132023 0.100473315 -0.053048797 0.0143628 -0.06627678 0.021238722 0.0765288
-0.053302817 0.033350125 -0.07236391 -0.095402114 -0.1103781 0.086631656 0.06879688 -0.046619028
-0.095162906 0.0038667838 -0.025343338 -0.062887624 0.039591707 0.060272798 -0.041088246 -0.034062885
0.043347385 -0.068996795 -0.009801316 -0.029528901 0.092167795 0.002639548 0.011441999 0.039543983
-0.06270697 0.008219069 0.04061457 0.03585485 -0.038891923 0.09292549 0.03878181 0.02072114
-0.069879144 -0.043702617 0.004813082 -0.06626221 0.028507935 -0.0015981019 -0.08804148 0.104405016
-0.022784632 0.049493052 -0.07241351 -0.057608455 0.048473883 -0.023950564 -0.10070624 0.07379029
0.04664255 0.08259458 -0.06805428 -0.055714205 -0.07925671 0.0940461 0.053972624 -0.03997148
0.05963399 0.08392786 -0.030679723 -0.06126378 0.013674305 -0.10844123 0.03219186 -0.027711228
-0.07961287 0.08518483 0.0022654694 -0.07239118 0.076479234 0.040042564 -0.043550182 0.046805613
0.021753129 -0.10138284 -0.032133844 0.077381104 -0.060077704 -0.073511675 -0.031814698 -0.061652545

rnn.bias_ih_l0 f4 [300]
00000000: 1dd6 a43d 2a99 073d 23d4 953d a759 58bd
00000010: 4ec2 68bb 36ac 4a3d 2bce 4cbc 74de a8bd
00000020: e2b2 5abd ae2f 5b3d 9c6c b73c 5ebc 3a3d
00000030: baed 0d3d 246c 083d 15ab 29bd 92cb 3a3b
00000040: ae03 87bd ca12 92bd 82b2 a03d 78dd 42bc
00000050: 5a98 d4bc 0e92 cdbc 27f3 923c b7de f1bd
00000060: 96a7 5b3c 5398 d13d b3e0 613d bfa5 373d
00000070: b0cc 293c 17f2 58bd 1cb5 763d baac af3b
00000080: 1336 873d 3388 633b bc9e b6bc c67c 3b3c
00000090: 67a3 173c 2c81 a13d 86e7 e63c ce31 4ebc
000000a0: 165f 983c 0a73 96bc 3140 aabd ca5e 50bd
000000b0: 7a1d 5c3d 9aa1 e4bd b517 0a3d afa3 31bc
000000c0: af96 483d 9b6e 5e3d 3815 c2bd 903b e23d
000000d0: 17bb 353d f052 13bd 0a2b 97bd 6e62 b83d
000000e0: e5c9 de3d 1892 6dbc b26c 1d3b af13 4f3d
000000f0: f568 aebd 089d b73d 0000 c6bc 8e2c 803d
00000100: 1c4e cfbd 9ab7 f83c b1df 87bc f7f3 6ebd
00000110: 0b28 b5bd 0d4b abbc bfa4 c93d d13b 72bd
00000120: 1844 033e f3c0 e33d 5d24 81bd 466d 62bd
00000130: 49db e9bd 05b4 3bbd 0866 633d 96e2 763c
00000140: ea05 5e3d d067 c63d 8172 f03b a9fc e83d
00000150: ef67 a53d 9aa9 433d 84c7 b83d 4cf8 2e3c
00000160: dd2f 8fbc e180 ba3c a2be 1f3d 95fe 43bd
00000170: 1de4 57bd da04 1a3c 2dfd 743d d19a 863b
00000180: 8ef3 863d 8434 2d3d 25ba d93d 981d b93d
00000190: f6fd 2ebe caf6 353c e495 05be e1bd 55bd
000001a0: bcc0 12be 834e 8e3b 856c 3bbe 8f02 9c3c
000001b0: 326d 383d f990 98bd 9480 18be 1479 843d
000001c0: 5925 2cbd cb2a c2bd 0e87 b7bd c409 e73c
000001d0: 5be0 ccbd c96b 96bd 61f3 ecbd d593 b2bd
000001e0: ef36 c6bd b487 73bd 90d9 c13d 8194 1dbe
000001f0: 7a20 7bbd 0093 16be ec00 aebd 90dd e3bc
00000200: dcb0 fabd fc8d bebd c70e 763c 029f acbd
00000210: e0fe e6bb e0a4 c0bd f0b1 c3bd a031 61bd
00000220: 57a0 8cbd b85a 9fbc 3b76 a3bd b971 3ebb
00000230: 6a86 043b 75c5 1ebe ca21 013c efbf aebd
00000240: e2c9 c3bd abd0 d1bd 3b0a bdbd fb90 c83b
00000250: d21a f1bb e75b 693c 5de7 08be 4c28 d6bd
00000260: fb20 163d af25 12be dc22 bcbc 2b94 2abe
00000270: cbeb 063c 5a43 833d 3752 14be 0756 b3bd
00000280: 71fc 9c3d 856a b0bd b9d6 83bd 8fbe cabd
00000290: 5c14 22be ba35 09be 62dd a03d 5d7a 183a
000002a0: 5777 babd d9ea 19be 9df5 30be e02f 8abb
000002b0: f4a0 9b3d d829 2dbe f1dc 55bd 08bb 24bd
000002c0: f3ff ac3d 0a0d 44bd 4143 97bd a66d 803a
000002d0: 6999 08be ac14 6f3c f2ed 1abe 9a67 87bd
000002e0: 8335 f5bc dcd8 1bbe 54d5 b43d 43d7 fbbd
000002f0: 1c4d 873d 59e6 aabd a87e fcbc 9735 82bd
00000300: fa26 89bd 4a8f 99bd 2d55 f4bc 3457 9bbc
00000310: ebea 063b ff32 43bd bf85 92bc db42 8fbd
00000320: e60d 9fbd 99ed d8ba 4331 a33d ca54 d73b
00000330: 2c37 733d 3b9d d53c 9df5 42bd 7c8a 98bd
00000340: e2ca d9bc fcfd 443c a3b7 6e3d c070 823d
00000350: 5697 f03c fc8b 4cbd 5ec0 d9bc c494 5cbc
00000360: 63ea b6bd 66bc a4bd c958 9fbc 9c6f 41bd
00000370: 814e e9bc 5bb7 9b3d 5a75 4b3d 6dc4 47bd
00000380: 1597 80bd 1e3c 00bd 0286 ac3d dd4b 95bb
00000390: 8839 a4bd c461 aabc d67f 62bd cdad e63d
000003a0: 830d d5bc 1392 8b3c 7ff2 1b3d 9467 c13d
000003b0: 11d5 293d e434 92bc 78ef 7c3d fa91 ddbc
000003c0: 1b2f 063d 628f 85bd 4d37 b73d d7b9 d1bd
000003d0: 9a29 8ebd d549 723d 8764 363d c579 ad3c
000003e0: c821 e13c c652 423a 04e2 863d f38d 2e3c
000003f0: 1024 813d c92f a23d d77d 1e3c 66f7 bc3d
0.08048651 0.033105053 0.073158525 -0.052819874 -0.0035516205 0.04948064 -0.012500326 -0.082455546
-0.053393252 0.053512268 0.022390656 0.045589797 0.03465054 0.033306256 -0.041422922 0.0028502685
-0.06592499 -0.0713249 0.07846548 -0.011893623 -0.025951553 -0.025094058 0.01793821 -0.118100576
0.013406655 0.10234132 0.05514593 0.044835802 0.010363743 -0.05296525 0.060231313 0.005361167
0.06602111 0.0034718632 -0.022292487 0.0114433225 0.009255267 0.07885966 0.02818657 -0.012585117
0.018600028 -0.018365402 -0.08313025 -0.050871648 0.05373905 -0.111636356 0.033714015 -0.010842248
0.048971828 0.0543047 -0.094767034 0.11046517 0.044367876 -0.035967767 -0.07381256 0.09003149
0.10878352 -0.0145001635 0.0024021086 0.05055588 -0.08516113 0.08965498 -0.024169922 0.06258498
-0.1012232 0.030360986 -0.016586157 -0.05833813 -0.08845528 -0.02090981 0.09845876 -0.059139077
0.12818944 0.111207865 -0.06305764 -0.055279993 -0.114187784 -0.045825977 0.055517226 0.015068671
0.05420486 0.096877694 0.0073378687 0.11376316 0.080764644 0.047769167 0.090224296 0.010679316
-0.017478878 0.022766532 0.03900016 -0.04785021 -0.05270778 0.009400571 0.05981176 0.004107811
0.06589423 0.04228641 0.106312074 0.09038848 -0.17089066 0.011106202 -0.1304546 -0.052183036
-0.14331335 0.0043428554 -0.18303116 0.019044189 0.04502601 -0.07449526 -0.14892799 0.06468406
-0.042027805 -0.09480818 -0.089613065 0.028202899 -0.1000373 -0.07344777 -0.11569858 -0.08719603
-0.096784465 -0.05945559 0.09465325 -0.15388681 -0.06131027 -0.14704514 -0.084962696 -0.02781561
-0.122407645 -0.09304425 0.015018172 -0.08428766 -0.0070494264 -0.094064474 -0.09555423 -0.054978967
-0.0686652 -0.019452438 -0.07981535 -0.0029059483 0.0020221719 -0.15505011 0.007881591 -0.08532702
-0.095599905 -0.102448784 -0.09230467 0.0061207986 -0.0073579336 0.014243103 -0.13369508 -0.10456905
0.036652546 -0.14272188 -0.022965841 -0.16658084 0.008234928 0.06409331 -0.14484487 -0.08756643
0.07665337 -0.08614067 -0.064374395 -0.098996274 -0.15828079 -0.13399401 0.078547254 0.00058165734
-0.091047935 -0.15030994 -0.17281194 -0.004217133 0.07599059 -0.16910493 -0.05221266 -0.04021743
0.08447256 -0.047863998 -0.073858745 0.0009798303 -0.13339771 0.014592331 -0.15129831 -0.06611557
-0.029932743 -0.15219444 0.088297516 -0.12296917 0.06606504 -0.083447166 -0.030822113 -0.06357878
-0.06696887 -0.07498033 -0.029825771 -0.01896248 0.00205868 -0.047656056 -0.01788604 -0.069951735
-0.07766323 -0.0016550302 0.0796838 0.006571387 0.059378788 0.02607595 -0.047597516 -0.07448289
-0.026586 0.012023445 0.0582806 0.063691616 0.029369038 -0.049938187 -0.026580986 -0.013463203
-0.089314245 -0.08043747 -0.019451516 -0.04722558 -0.028479816 0.07603332 0.049672462 -0.04877131
-0.062788166 -0.031307332 0.084239975 -0.0045561627 -0.08018786 -0.020798571 -0.055297695 0.112636186
-0.02600742 0.017037427 0.03807306 0.09443584 0.04146296 -0.017847486 0.061751813 -0.027047146
0.032759767 -0.06521489 0.08946095 -0.10240524 -0.069415286 0.059152443 0.044529464 0.021176228
0.027481928 0.0007412847 0.06586078 0.0106539605 0.063057065 0.079192705 0.009673557 0.09226875

rnn.bias_hh_l0 f4 [300]
00000000: e348 193c 83f5 60bd a1da 4abb d6c9 05bd
00000010: fb06 b1bd 2426 9f3a 8a57 053c 8937 bd3d
00000020: 81c5 213d a14f be3d 0f27 81bb 7f42 21bd
00000030: f9bd bb3d 5141 b83d 39d8 d4bc 484f 79bd
00000040: c2e5 91bc fd58 b5bd 920e 513d 0968 96bc
00000050: e68f 9cbc 7197 5ebd 2949 48ba 3393 cbbd
00000060: ee87 a9bc 871c eabc 7a71 c13d 3fc9 2fbd
00000070: c0e9 893d f3ce 6ebd e988 7f3c 5b0d c2bd
00000080: 8f5a 5c3d bf16 ee3c bbf6 57bd d21f ad3b
00000090: 5c29 babc 8316 d93b aad7 8fbb 16de 94bc
000000a0: 7426 89bc 5fe1 c93d 5c01 db3d 962c 8abd
000000b0: 1ad4 c63d 64f6 af3d bcf7 d2bd 42b5 a6bc
000000c0: e8bc 943d 31b7 6abc 8580 a5bc db2e f33c
000000d0: f643 6fbd 57e8 30bc 759b 623d f300 6b3d
000000e0: cc7a e63d 1178 2abd ecb0 1dbd b9a7 733d
000000f0: 8476 6e3c 0080 b13d f9f1 bd3d ee03 55bd
00000100: 8ce6 783d 96de cdbd 2bd1 d03d c802 8bbc
00000110: 9a71 ce3c 5b17 c4bd 39e8 2d3d 5d4e df3d
00000120: bca0 033e 5f3f 313d 76a4 7fbd 90da 8f3c
00000130: be93 32bd de24 9dbd 9efa a1bd ef77 3b3d
00000140: f372 c1bb 6196 633c 1c6e 6c3d 0ce1 8cbd
00000150: a599 8dbd 0906 64bd 83ce 1c3b 2551 87bd
00000160: 6e29 ce3d eddc 933b f6ce 803d cd91 a0bd
00000170: 669c 0e3c 1511 c53c f1bc 88bd 3242 33bd
00000180: 2a21 7d3d 660b 63bd 97db ae3d b4c3 3a3d
00000190: fbe7 dfbc 65b5 e8bc f5a6 bbbd fe27 d1bc
000001a0: 2f44 11bc b8c7 06be 9e67 6cbd 8fac bc3d
000001b0: d574 363b fa60 33be 1e66 1d3d c6cb 99bd
000001c0: c1e1 35be f0ae 9dbd 888b 073d eb03 07bd
000001d0: 0b45 acbd 5c71 d53c f1a8 dfbd 831e af3d
000001e0: a964 ccbd a49d fabd a690 50bd 0610 d2bd
000001f0: 1bd8 bfbd 2374 da3b e21e 89bb 0585 0dbe
00000200: bd49 78bc 1f7f 39bd b16b aabd 1ab2 293d
00000210: a8e0 20be 3908 14be 5537 42bd 73fe 99bd
00000220: d44c 6fbd 1a20 b7bd 4d40 dabc 5682 aabd
00000230: 05ea 213d e31b 07be b909 5fbd c874 babc
00000240: 4ad0 02be 69aa 57bd 05e6 5abd 3770 42bd
00000250: 2032 dbbd b572 a13c b013 cbbc 9fe1 11be
00000260: 28db f2bd 9f1d d5bd c9d8 5bbd 3e09 33be
00000270: 9c2d 633d 2156 153c f322 b3bd 3751 9cbd
00000280: a825 21bd 379b 0cbe b50a cd3c c8eb 01bc
00000290: f208 23bd db2c 29bd 9b10 5c3d a80f e2bd
000002a0: 4103 91bc 4ac6 29be aac2 81bd a1f5 183c
000002b0: 914c 9dbd 7619 a3bc 9007 05be 1736 66bd
000002c0: 8458 8fbc b88b 993d faf7 23be c6c2 573c
000002d0: 0100 98bd ad8a 1cbe c4c2 cbbd 72f9 0dbe
000002e0: a94c 57bd a22c 4ebd 3a1e 0dbd e259 213c
000002f0: 312f c9bd 77a4 b1bd 92c2 55bc ae64 b6bd
00000300: e21a 103d 5811 00be 8e11 edbd 8d06 0d3c
00000310: 5320 f2bd d4e8 eebd 541c 23be 55a6 02be
00000320: 2dd1 9dbd 9b46 65bd 001e f0bb da99 723d
00000330: 9dc9 39bd d857 9f3d d544 173d 3c7c 8e3c
00000340: df36 8f3d 2db3 c6bd 8ea7 91bd 07a3 0f3d
00000350: a547 bf3d dd9b c53a 3450 03bd 5bd3 973d
00000360: 5ab8 8b3d 3934 26bd 1e12 08bd 7275 3cbd
00000370: 2711 64bc 958b 503c 17b5 ec3c 3fb0 bcbd
00000380: 1f96 ce3d dba3 b63d ab7a 253d ed5e 94bd
00000390: 62f4 823d 45ab 41bc 8285 10bc 7470 98bd
000003a0: bcc7 cb3d 1d43 c2bd 16da 80bd 920a 773c
000003b0: 437e aebd ac54 8a3d a76f 92bd 011f b03d
000003c0: c7dd f9bc df4e 3abd aed0 b2bd 8d5f a8bd
000003d0: 6e7b 8b3d 93c4 4d3d 16f8 55bd a41f 2c3d
000003e0: c080 7dbd 0fcc 8ebd 7cc9 373d 5203 cdbd
000003f0: a04c 8e3d 67ee a9bd 0a84 5dbc 409f 113d
0.009355756 -0.05492164 -0.0030953067 -0.03266319 -0.086439095 0.0012142104 0.008138547 0.09239108
0.039494995 0.09292532 -0.0039414237 -0.039370056 0.09167094 0.08996833 -0.02598201 -0.060866624
-0.017809752 -0.08854864 0.051039286 -0.018360155 -0.019111585 -0.054343645 -0.0007640296 -0.099401854
-0.0206947 -0.028578056 0.09445472 -0.042916533 0.067340374 -0.05830283 0.015596607 -0.094752036
0.0537973 0.02906358 -0.052725535 0.0052833343 -0.0227248 0.006624998 -0.004389723 -0.018172305
-0.016741969 0.09857439 0.10693619 -0.06746785 0.09708424 0.08591917 -0.10301158 -0.020350102
0.072625935 -0.014325903 -0.020202884 0.029685428 -0.058414422 -0.010797582 0.055324037 0.057373952
0.112538904 -0.04161841 -0.038498804 0.059486125 0.0145546235 0.08666992 0.09274668 -0.0520057
0.06076674 -0.100522205 0.101961456 -0.0169691 0.025200654 -0.09574767 0.042457793 0.109036185
0.12854284 0.043273326 -0.0624127 0.017560273 -0.04359793 -0.076730475 -0.079091296 0.045768674
-0.0059035956 0.013890834 0.057722196 -0.06878862 -0.06914071 -0.055669818 0.0023926802 -0.06607274
0.10066496 0.0045124204 0.06289475 -0.07840309 0.0087042805 0.024055997 -0.06676663 -0.0437643
0.061799206 -0.055430792 0.08537977 0.045596793 -0.027332297 -0.028406808 -0.09162704 -0.025531765
-0.008866354 -0.13162124 -0.057716005 0.092126004 0.0027840633 -0.17517462 0.038427465 -0.0750957
-0.177619 -0.07699382 0.03309205 -0.03296272 -0.084116064 0.02605503 -0.10920895 0.085507415
-0.09980137 -0.12237099 -0.050919197 -0.102569625 -0.09367391 0.0066666766 -0.0041845897 -0.13820274
-0.015154299 -0.045287248 -0.08321322 0.041429617 -0.157107 -0.14456262 -0.04741605 -0.075192355
-0.05842288 -0.0894167 -0.02664199 -0.08325641 0.03952982 -0.13194232 -0.05445263 -0.022760764
-0.12774768 -0.05265275 -0.05344202 -0.047470298 -0.1070292 0.019708017 -0.024789661 -0.14246224
-0.11858207 -0.104060404 -0.05367354 -0.17483994 0.05546342 0.009114773 -0.087469004 -0.07632678
-0.039342552 -0.13731085 0.02502952 -0.00792975 -0.039803453 -0.041302543 0.053726774 -0.110381424
-0.017701747 -0.16579548 -0.06335957 0.009335906 -0.076806195 -0.019909602 -0.12991166 -0.056203928
-0.017498262 0.07497352 -0.16012564 0.013168996 -0.07421876 -0.15287276 -0.09949258 -0.13864687
-0.052563343 -0.050335534 -0.034452654 0.00984809 -0.09823454 -0.08673947 -0.013046877 -0.08905922
0.035181887 -0.12506616 -0.11575614 0.008607519 -0.118225716 -0.11665502 -0.15928775 -0.12758763
-0.07705913 -0.055975538 -0.007327795 0.059228756 -0.04535829 0.07780427 0.036930878 0.017393224
0.06992888 -0.09702144 -0.07112037 0.035067584 0.09339837 0.0015076358 -0.03205891 0.0741336
0.06822272 -0.040577147 -0.033220403 -0.046010442 -0.013920105 0.012728591 0.028894944 -0.09213304
0.10087227 0.08917972 0.04040019 -0.07244668 0.063942686 -0.011820619 -0.008820893 -0.07443324
0.09950206 -0.09485457 -0.062915966 0.015078204 -0.08520176 0.06754431 -0.07150202 0.085996635
-0.03050126 -0.045485374 -0.08731209 -0.0822135 0.06810652 0.050236296 -0.052238546 0.042022362
-0.061890364 -0.06972515 0.044869885 -0.10010399 0.06948209 -0.08297425 -0.01352025 0.035552263

linear.weight f4 [1, 100]
00000000: 0aef 93bd 3458 933c 2ca1 86bd 7177 c43c
00000010: 8306 00be be68 013e 8e25 e8bd bb0b 803d
00000020: cab0 b5bd 7dee dfbd b9d4 853d 6c8a 8d3d
00000030: 3172 07be d50a a63d 458d 2e3c 9703 b6bb
00000040: 45ef 30bd 6495 dabd c031 c7bd 079b aa3c
00000050: ed56 883d 9b0c 53bd 6f0c 78bd 4ade 6cbd
00000060: 23ec f03b 7db4 353d f7e3 a23d 10e4 a3bd
00000070: a246 d7bd 877f 2c3d 0847 fcbd 91a9 1b3c
00000080: a266 a33d c736 03bd 4398 ab3d a6c6 813d
00000090: d2b4 743d e770 edbd b49d 7fbd d28b dfbc
000000a0: 8f15 0f3d aea8 233d a704 dabd de7e 15bd
000000b0: 5be2 963d 7f6e 41bd 1523 8bbc 4b4c 933d
000000c0: c2e6 053d 13d7 13bd 0652 dfbc 822e 90bd
000000d0: abb1 e8bc b777 afbd bb9f 85bd 5f10 193d
000000e0: f0a2 663d 1263 3ebd 1f78 bebd 2d19 803d
000000f0: 65dc 843d 66c4 f5bd 0200 943d 26a6 10bd
00000100: 96ae e8bc 1e6e 02be cfff 37bd 4065 113d
00000110: ea90 973d b1a6 063e 240b fe3d c578 5ebd
00000120: bc47 373d f94f b1bd b8aa 2dbd bb73 473d
00000130: e691 a4bc 9326 213d b8de a03d c2d8 9bbd
00000140: ad3e 62bd cec6 ddbc 4365 a7bd 94fe 553d
00000150: 5728 99bd b5e8 2bbd c2c9 12bd 8545 f63d
00000160: d27c 0f3d 5fcd b7bd 3ef1 023d 340d e9bd
00000170: 7e28 90bd fda0 1bbd 13a9 8fbd f30a 43bd
00000180: d7f0 8cbb dbb6 5c3d c4ed 9d3d 0170 fb3d
-0.072233275 0.017986394 -0.0657371 0.023982735 -0.12502484 0.12637612 -0.11335288 0.062522374
-0.088716105 -0.1093416 0.06534714 0.069111675 -0.13227154 0.08107535 0.0106537985 -0.005554627
-0.043196935 -0.10673025 -0.09726286 0.020825876 0.06657205 -0.051525693 -0.060558733 -0.05782918
0.0073523684 0.04436158 0.07953637 -0.08002484 -0.10511519 0.042113807 -0.12318236 0.009500877
0.0797856 -0.03203466 0.08378651 0.06336717 0.059742756 -0.115938 -0.062406257 -0.027288351
0.03493267 0.039955787 -0.106454186 -0.036497943 0.07367393 -0.047224518 -0.016984502 0.07192286
0.03269077 -0.036093783 -0.027260792 -0.07040121 -0.028405031 -0.08567756 -0.06524607 0.03736913
0.056307733 -0.0464812 -0.09300255 0.06254802 0.064873494 -0.12000351 0.07226564 -0.0353147
-0.028403562 -0.12737319 -0.044921692 0.03549695 0.07400687 0.13149525 0.12404469 -0.054314394
0.044746146 -0.08657832 -0.04239914 0.048694354 -0.020089101 0.039343428 0.0785498 -0.07609703
-0.055235554 -0.027072337 -0.08173611 0.052244738 -0.07478397 -0.041969974 -0.035836942 0.120249785
0.035031147 -0.08974718 0.031968348 -0.113794714 -0.07038973 -0.037995327 -0.0701467 -0.047617864
-0.0043011713 0.053885322 0.07711366 0.122772224
