backend/trained_models/SBI_LSTM_model_state_dict.pth (torch, 167939 bytes, 5 tensors)

rnn.weight_ih_l0 f4 [400, 1]
0	0xbd825c6d	-0.06365285
1	0x3c9ebd67	0.019377423
2	0xbdd100a9	-0.10205204
3	0xbdb9bfb2	-0.09069766
4	0x3dc64f9c	0.09683153
5	0xbac2279c	-0.001481283
6	0xbd0c07b7	-0.034187045
7	0x3dab27b9	0.08357186
8	0x3d8d640e	0.069038495
9	0x3b021d54	0.0019853907
10	0xbd456985	-0.048196334
11	0x3cfe3b23	0.031034058
12	0xbdbf0c62	-0.09328534
13	0xbca093de	-0.019601759
14	0x3d49e4f1	0.0492906
15	0x3dfd7515	0.12375847
16	0x3d2511fe	0.04030036
17	0xbddbd44c	-0.10733852
18	0x3b01dd69	0.0019815809
19	0x3d602922	0.054726727
20	0xbd6875b7	-0.056752887
21	0x3dda98a3	0.106736444
22	0x3c0d678a	0.008630643
23	0xbc02c29b	-0.007980968
24	0x3df0b9eb	0.11754211
25	0xbd03eaba	-0.032206275
26	0xbcadc52c	-0.021212183
27	0x3d8b9a03	0.06816485
28	0x3dc2f8d5	0.09520117
29	0xbc9a783c	-0.01885616
30	0xbe044f90	-0.12920976
31	0xbd42e1af	-0.04757851
32	0xbd80fdc8	-0.06298405
33	0xbd8ec9f9	-0.06972117
34	0x3ba3d8f2	0.005000227
35	0x3ce1814f	0.02752748
36	0x3d129c4f	0.0357936
37	0xbe136d20	-0.14397097
38	0x3bb407df	0.0054941024
39	0xbd49e574	-0.04929109
40	0xbdb25fb0	-0.08709657
41	0x3b49ec2b	0.0030810933
42	0xbda687cd	-0.08131371
43	0xbe05b067	-0.13055573
44	0x3c92b1a7	0.017906977
45	0xbc57038b	-0.013123403
46	0x3ca5bac3	0.020230656
47	0xbc659524	-0.014012609
48	0x3d0ad864	0.033897772
49	0xbdf0267c	-0.1172609
50	0xbd8c2bc6	-0.068442866
51	0x3d01ac56	0.031658493
52	0x3db48d60	0.08816028
53	0x3d1205a2	0.035649903
54	0x3bfa9e50	0.007648267
55	0x3d87516c	0.06607327
56	0x3d3fdda4	0.046842232
57	0x3a1b1cbb	0.0005917062
58	0x3debe149	0.11517579
59	0x3cf49168	0.029854491
60	0x3da264f2	0.0792941
61	0xb9b1f6ab	-0.00033943853
62	0xbd6a0b17	-0.057139482
63	0x3da8cd2a	0.08242257
64	0xbad802a6	-0.0016480281
65	0x3df162bc	0.1178641
66	0x3df7747c	0.120827645
67	0x3ce5c6e5	0.028048942
68	0x3c75b1fe	0.01499605
69	0x3d9a1f19	0.07525463
70	0x3d2a869f	0.04163229
71	0xbce66547	-0.028124465
72	0xbb7ed08a	-0.0038881623
73	0xbe01aa90	-0.1266272
74	0x3c8527e2	0.01625437
75	0xbb7ba984	-0.00384006
76	0xbc6d4979	-0.014482849
77	0x3da15b3f	0.07878732
78	0x3df5aefe	0.11996268
79	0xbd0061ed	-0.03134339
80	0x3df541a4	0.119754106
81	0x3d76a6ce	0.06021767
82	0x3ce0c65d	0.027438337
83	0x3dc5b60a	0.09653862
84	0xbc87735c	-0.0165345
85	0x3d079c47	0.033108022
86	0x3d7510e3	0.059830558
87	0x3ca4f047	0.020134104
88	0x3e00d01b	0.12579386
89	0xbda9b49e	-0.08286403
90	0xbcf793ef	-0.030221907
91	0x3c9f4b04	0.01944495
92	0x3d3f5aa7	0.046717312
93	0x3cc77d39	0.024351703
94	0xbbeeccfb	-0.007287619
95	0x3dbb30fa	0.09140201
96	0x3cd2b14e	0.025719311
97	0x3dbb8e7b	0.09158035
98	0x3c044976	0.008074155
99	0xbca21f62	-0.019790355
100	0x3dce6de8	0.10079557
101	0x3d4ef7f7	0.050529446
102	0xbbee74d2	-0.0072771097
103	0x3d0d459d	0.034490217
104	0xbcbfef4e	-0.023429539
105	0xbd88b4dc	-0.06675121
106	0xbd90275c	-0.07038757
107	0xbdbb2b0c	-0.0913907
108	0xbbea4ddb	-0.0071503944
109	0xbdf6409c	-0.12024042
110	0x3d3bfecf	0.0458973
111	0xbbd5da88	-0.006526295
112	0x3d03af7a	0.03214977
113	0xbd50146e	-0.050800733
114	0xbb2f4e07	-0.0026749389
115	0x3c21a216	0.009865304
116	0x3d997b48	0.07494217
117	0x3d513ae5	0.051081557
118	0xbdd7fd4c	-0.105463594
119	0x3cc989f9	0.024601923
120	0x3d9e8ace	0.07741319
121	0x3b300e39	0.0026863946
122	0x3d8b4d1a	0.06801815
123	0x3c56e3d4	0.013115842
124	0x3dfffa6f	0.12498938
125	0xbc2ed9ee	-0.010672076
126	0xbd4e1bdd	-0.05031954
127	0x3c5fa012	0.013649004
128	0x3ba40e68	0.0050066
129	0x3d27cfaf	0.040969547
130	0xbd1941d6	-0.0374163
131	0x3d84986e	0.06474386
132	0xbd8c26ef	-0.068433635
133	0xbdcea0b7	-0.10089248
134	0x3ce8d55f	0.028422056
135	0x3d4d61ef	0.050142225
136	0x3d15fad3	0.036616158
137	0xbe14dfef	-0.14538549
138	0xbdaa9f77	-0.08331197
139	0x3d8e3294	0.06943241
140	0xbd4eadb2	-0.050458618
141	0x3d08c6e9	0.03339282
142	0x3d488ea7	0.04896417
143	0x3d4e2371	0.05032677
144	0xbd1b7fd3	-0.0379637
145	0xbdd76496	-0.10517232
146	0x3dbe67ea	0.09297164
147	0x3ba340d5	0.004982094
148	0x3ce9a186	0.028519403
149	0x3c7fd195	0.015613933
150	0x3df9fbbd	0.122062184
151	0xbd231941	-0.039819006
152	0x3def16e5	0.11674289
153	0x3d646f3b	0.05577014
154	0xbd032153	-0.032014202
155	0xbcd78f06	-0.026313316
156	0xbb09dca5	-0.0021036055
157	0x3d379b4f	0.04482585
158	0x3d82fc45	0.06395773
159	0x3dcab79b	0.09898301
160	0x3ca01b49	0.01954426
161	0xbc98653a	-0.018602956
162	0x3df733ad	0.12070403
163	0x3d3dd5b3	0.046346378
164	0x3db67179	0.08908362
165	0x3e08d66a	0.13363042
166	0x3c783d59	0.015151345
167	0x3d049949	0.032372747
168	0xbd3fb5e9	-0.046804342
169	0x3d2e35f9	0.04253194
170	0xbc26c6e5	-0.010179256
171	0x3d2cf10b	0.042222064
172	0x3dbef813	0.0932466
173	0xbe0fce17	-0.14043461
174	0xbcef1198	-0.029183194
175	0xbd604058	-0.054748863
176	0x3da45403	0.080238365
177	0x3ddeb10a	0.10873611
178	0x3e03f75e	0.12887332
179	0xbd0e0521	-0.03467286
180	0x3db8c3f1	0.09021748
181	0x3b4202c8	0.0029603709
182	0x38f1f571	0.000115374925
183	0x3c8ee1df	0.017441688
184	0x3e02fe6a	0.12792364
185	0xbc8de0b1	-0.017319055
186	0xbc82e8ea	-0.015980203
187	0x3daca412	0.084297314
188	0x3c397080	0.011318326
189	0x3dc269b1	0.09492815
190	0x3c91e9b1	0.017811628
191	0xbddda68c	-0.10822782
192	0x3ae834db	0.0017715947
193	0xbde8f6e3	-0.11375215
194	0xbcf3d50e	-0.029764678
195	0xbb034b6f	-0.0020033976
196	0xbc80e940	-0.015736222
197	0x3cfe1e0b	0.031020185
198	0xbceee700	-0.029162884
199	0xbd476fa5	-0.048690457
200	0x3deec324	0.11658314
201	0xbd15714a	-0.036484994
202	0x3cef5d76	0.02921937
203	0xbd2f5957	-0.04280981
204	0xbdc2692e	-0.09492718
205	0x3dbb2c2f	0.09139287
206	0xbc91f8ba	-0.017818797
207	0xbda401ab	-0.08008131
208	0xbd78a726	-0.06070628
209	0xbd939eab	-0.07207998
210	0xbd9a54be	-0.075356945
211	0x3de94b36	0.113912985
212	0xbcad1f1b	-0.021132996
213	0x3d3a6570	0.045506895
214	0x3db12a32	0.08650626
215	0x3d9af490	0.07566178
216	0xbd668e18	-0.056287855
217	0xbd7ed6fd	-0.062216748
218	0xbdc839ef	-0.09776675
219	0xbd8007d6	-0.062514946
220	0xbe0671b6	-0.13129315
221	0x3dd6be54	0.10485521
222	0xbd8b0f99	-0.067900844
223	0xbcb7418c	-0.022370122
224	0xbb696247	-0.0035611556
225	0x3da5aafa	0.08089252
226	0xbda0c639	-0.07850308
227	0x3d602c8b	0.05472998
228	0xbd8bc215	-0.068241276
229	0x3d9ce6af	0.07661187
230	0x3c535f7a	0.012901181
231	0x3d39f346	0.04539802
232	0x3d68e638	0.05686018
233	0xbccfec66	-0.025381278
234	0xbd7abf0b	-0.06121735
235	0x3dfd8926	0.123796746
236	0x3e06fc42	0.13182166
237	0xbdf84fd9	-0.12124605
238	0x3dda39f1	0.10655583
239	0xbd2dc869	-0.042427454
240	0x3d27275e	0.040809028
241	0x3d55f655	0.052236874
242	0x3d8717a2	0.065963045
243	0xbdb19c0d	-0.086723424
244	0xbd65718e	-0.056016497
245	0xbd0399f1	-0.03212923
246	0x3de5725f	0.11203455
247	0x3d409a57	0.04702219
248	0x3df2cfb9	0.11856026
249	0xbdc6acc2	-0.0970092
250	0x3d1e9838	0.038719386
251	0x3e017ea6	0.12645969
252	0x3dc6a9b0	0.09700334
253	0x3df7ea58	0.121052444
254	0xbd069156	-0.032853447
255	0x3c0d61e6	0.008629298

rnn.weight_hh_l0 f4 [400, 100]
0	0x3bf0687e	0.007336675
1	0x3ceb9b55	0.028760592
2	0x3d711fea	0.058868326
3	0x3e08bf52	0.13354233
4	0x3d7f3379	0.062304948
5	0x3d466ef1	0.048445646
6	0xbdd8f71f	-0.105940096
7	0x3d21265a	0.039343216
8	0xbbbbbeef	-0.005729548
9	0x3bd8422d	0.0065996856
10	0xbdc9dff2	-0.09857167
11	0x3b2a0b21	0.0025946575
12	0xbdc711ee	-0.09720217
13	0xbcf56070	-0.029953212
14	0xbd80dc5d	-0.06292031
15	0x3dc6906c	0.09695515
16	0xbda23566	-0.07920341
17	0xbd717ba4	-0.058955804
18	0xbdb66e4f	-0.089077584
19	0x3d8b575b	0.06803771
20	0x3c859f35	0.016311267
21	0x3d919419	0.071083255
22	0xba2c2c67	-0.0006567896
23	0x3d980723	0.07423236
24	0xbd320810	-0.04346472
25	0xbd43d1c3	-0.047807466
26	0xbd501c09	-0.050807986
27	0xbc850808	-0.016239181
28	0x3d1e0174	0.038575605
29	0xbd5b2225	-0.05349936
30	0xbddbd58b	-0.107340895
31	0x3cbd1f56	0.023086231
32	0xbdac3d82	-0.08410169
33	0xbdf516ff	-0.11967277
34	0xbd854136	-0.065065786
35	0xbcc2fbc4	-0.023801692
36	0x3d5e8bc4	0.05433251
37	0x3d929f99	0.07159347
38	0x3dbaab4f	0.09114706
39	0xbc82dd88	-0.015974775
40	0xbc864079	-0.016388165
41	0xbdb59564	-0.088663846
42	0xbc609973	-0.01370846
43	0x3d237ce6	0.039914034
44	0x3c4ce8f9	0.012506717
45	0x3b89e4b9	0.004208174
46	0x3c9ce8f9	0.019154059
47	0xbd88cfda	-0.066802695
48	0xbd59af63	-0.053145777
49	0xbd4229c8	-0.047403127
50	0x3cd0ebc9	0.025503056
51	0xbd9213d8	-0.07132691
52	0xbd8bd1c4	-0.06827119
53	0x3dac8531	0.08423842
54	0x3d3cca97	0.046091642
55	0x3d2fe7b8	0.042945594
56	0xbdb393a2	-0.08768393
57	0x3d88c261	0.066777
58	0x3d8aa076	0.06768887
59	0xbdb6a563	-0.08918264
60	0x3de9592a	0.1139396
61	0x3de46dc4	0.11153749
62	0x3d983207	0.07431417
63	0xbd8e628b	-0.06952389
64	0x3d291d46	0.041287683
65	0xbdea1c44	-0.114311725
66	0xbd3e6e65	-0.046492
67	0xbcf184ce	-0.029482272
68	0xbd6e75b7	-0.05821773
69	0xbd8156b2	-0.06315364
70	0xbcc1a3da	-0.0236377
71	0xbd5838c3	-0.052788507
72	0xbd82a9d3	-0.06380048
73	0x3cd6fc71	0.02624342
74	0xbc7ea282	-0.015541675
75	0x3cea0fba	0.028571952
76	0x3d005944	0.03133513
77	0x3d74e4d3	0.059788536
78	0x3c99c68d	0.018771434
79	0xbc84b3a7	-0.016198946
80	0xbbe75802	-0.007060052
81	0x3d80a2ed	0.062810756
82	0xbdad59f6	-0.08464424
83	0xbcaacd10	-0.020849735
84	0x3cccdab6	0.025006633
85	0x3d38400a	0.044982947
86	0x3d919701	0.0710888
87	0xbdd9d418	-0.10636157
88	0x3dc6a69f	0.09699749
89	0xbdb5efbb	-0.088836156
90	0x3c28c607	0.01030112
91	0xbd1831af	-0.037156757
92	0xbaea64a1	-0.0017882773
93	0xbdaac55b	-0.08338424
94	0x3d213dc7	0.039365556
95	0x3d8eaf33	0.0696701
96	0xbcdc23ad	-0.02687248
97	0x3c7fa938	0.01560431
98	0xbdf3e588	-0.11909014
99	0xbdb3985d	-0.08769295
100	0xbcbd9e04	-0.023146637
101	0x3cb1134f	0.021615652
102	0xbdbbf2cb	-0.091771685
103	0x3d2f7c80	0.04284334
104	0xbab6cd4f	-0.0013946685
105	0xbb586558	-0.003301939
106	0xbd5a9e9d	-0.05337392
107	0x3d877cb3	0.06615581
108	0xbd550e5b	-0.052015644
109	0x3dc34f94	0.09536663
110	0x3dc7e5ba	0.09760614
111	0xbb80d9e3	-0.003932224
112	0x3d6253e1	0.055255774
113	0xbdf09f19	-0.117490955
114	0x3cd22a25	0.025654862
115	0xbdaa69f3	-0.083209895
116	0x3d765e1c	0.060148343
117	0x3cd83cf2	0.026396248
118	0x3d8327d9	0.06404085
119	0xbca71f57	-0.020400686
120	0x3de00a8d	0.109395124
121	0x3c7c3e1b	0.0153956665
122	0x3df1f449	0.11814172
123	0x3d4595c8	0.048238546
124	0x3d15418f	0.036439475
125	0xbd88ad61	-0.066736944
126	0xbd473bce	-0.04864102
127	0xbb725271	-0.0036975408
128	0x3d4116b1	0.04714078
129	0xbd290813	-0.041267466
130	0xbd1c4468	-0.038151175
131	0x3d699573	0.05702729
132	0xbd960019	-0.073242374
133	0xbc94950b	-0.018137475
134	0xbd0a6151	-0.033784214
135	0xbc575067	-0.013141728
136	0x3b942722	0.0045212666
137	0xbd540c92	-0.0517698
138	0xbd8a7cbd	-0.06762073
139	0x3d4b0335	0.049563605
140	0x3d534ee9	0.051588926
141	0xbd5974f2	-0.053090043
142	0x3d127af2	0.03576178
143	0xbc86a585	-0.016436348
144	0x3d9088a0	0.07057309
145	0x3c86a4d1	0.016436012
146	0x3d18a69c	0.037268266
147	0xbd550495	-0.052006323
148	0x3d8a4be6	0.06752758
149	0x3cdb1f20	0.02674824
150	0xbcccc538	-0.024996385
151	0x3c93fd09	0.018064993
152	0x3d0052df	0.031329032
153	0x3c8b7469	0.017023282
154	0x3d7b2681	0.061316017
155	0x3d9bf10e	0.07614337
156	0xbd2a5aee	-0.041590624
157	0xbcd45820	-0.025920928
158	0x3db64bcf	0.08901178
159	0x3dd9373a	0.10606237
160	0xbd92951a	-0.07157345
161	0x3cfc49ca	0.030796904
162	0x3b804631	0.0039146175
163	0x3c28df06	0.010307079
164	0x3d61e9fc	0.055154786
165	0x3da41488	0.080117285
166	0xbc59ee9a	-0.013301516
167	0x3ddff1c8	0.10934788
168	0x3cd6c50e	0.02621701
169	0x3d23803b	0.039917212
170	0x3c7adc21	0.015311272
171	0xbc8a0f8a	-0.016853113
172	0x3c8184e7	0.015810443
173	0x3ca5b12c	0.020226084
174	0xbd879b9b	-0.06621476
175	0xbcdb4ec0	-0.02677095
176	0x3bf62d83	0.0075127496
177	0x3cf3ab6e	0.02974483
178	0x3bfd5ba5	0.007731872
179	0x3dbe937e	0.09305476
180	0xbd4a015a	-0.049317695
181	0xbc92561e	-0.01786333
182	0x3d8c2582	0.068430915
183	0xbdfcbea0	-0.12341046
184	0x3d8ac54e	0.06775914
185	0x3d9afa65	0.0756729
186	0xbb7f4733	-0.003895235
187	0xbcc22c4e	-0.023702767
188	0x3ce5f360	0.028070152
189	0xbd86bb6b	-0.06578716
190	0xbc348483	-0.011017921
191	0x3d9a589e	0.07536434
192	0xbc27a325	-0.010231768
193	0x3d7b44a9	0.061344776
194	0xbcd860b1	-0.026413294
195	0xbcb8eaa7	-0.022572828
196	0xbdc7d2ec	-0.09757027
197	0xbdc7f780	-0.09764004
198	0xbc4ba035	-0.012428333
199	0x3d7ae2e4	0.061251536
200	0xbda88b3b	-0.08229681
201	0x3d5504e3	0.052006613
202	0x3d7afcaa	0.061276115
203	0xbd104697	-0.03522357
204	0x3d3affe2	0.045654185
205	0xbdcc0b8f	-0.09963142
206	0x3dae5110	0.08511555
207	0xbc9259f5	-0.01786516
208	0x3d829224	0.0637553
209	0xbd2a1245	-0.04152133
210	0xbd08055d	-0.03320824
211	0xbd408603	-0.047002804
212	0x3d3fcdd2	0.046827145
213	0x3d57ad57	0.052655544
214	0xbbad91af	-0.005296908
215	0xbd90a04b	-0.070618235
216	0xbcebbe77	-0.028777344
217	0x3daf7fa4	0.085692674
218	0xbb480f8d	-0.0030526847
219	0xbc7ebf4e	-0.01554854
220	0xbc906834	-0.017627813
221	0xbde3a167	-0.111147694
222	0xbcaa9240	-0.02082169
223	0x3dc666e9	0.09687597
224	0x3cd75a30	0.026288122
225	0xbda7d5cd	-0.08195076
226	0x3cbee53b	0.023302665
227	0xbd7a3d1f	-0.061093446
228	0x3dc910ba	0.098176435
229	0xbdb7cace	-0.08974229
230	0x3d9c1145	0.076204814
231	0xbd7afd76	-0.061276875
232	0xbd9c324d	-0.076267816
233	0xbd3e0b60	-0.046397567
234	0xbd25a02a	-0.040435947
235	0xbdedb7c4	-0.11607316
236	0xbdbc3b29	-0.091909714
237	0x3cb9614e	0.022629406
238	0xbd11d5cd	-0.035604287
239	0x3dfa00ab	0.12207159
240	0x3db6cc65	0.08925704
241	0xbdcfefea	-0.10153182
242	0x3d05a934	0.032632068
243	0x3de26e84	0.110562354
244	0x3d9229e0	0.07136893
245	0x3dd4aa14	0.10384002
246	0xbde2c592	-0.1107284
247	0xbd467bee	-0.048458032
248	0xbc3ba0c3	-0.011451903
249	0x3bc383a8	0.0059666224
250	0xbd5581b5	-0.05212565
251	0x3cae17ad	0.021251524
252	0xbd5a5bd4	-0.05331023
253	0xbcf27026	-0.029594492
254	0x3c63d9ba	0.0139068905
255	0xbd7b098c	-0.0612884

rnn.bias_ih_l0 f4 [400]
0	0x3d83acd8	0.06429452
1	0x3cfad557	0.030619306
2	0xbd84b8eb	-0.06480583
3	0x3dca8a65	0.09889678
4	0xbd479dfd	-0.048734654
5	0x3c8ba602	0.017046932
6	0xbcb91c37	-0.022596462
7	0x3b2f7436	0.0026772148
8	0xbd88136d	-0.0664433
9	0x3e00b19d	0.12567754
10	0xbd7c5f1b	-0.061614137
11	0x3dd7efad	0.105437614
12	0x3d02540c	0.031818435
13	0x3daf5cf6	0.08562653
14	0xbd043c52	-0.03228409
15	0x3c945ab9	0.018109666
16	0xbd6421d2	-0.055696316
17	0x3ac448a4	0.0014975262
18	0xbda8ec32	-0.08248176
19	0x3d4aad82	0.049481876
20	0x3dfc644d	0.12323818
21	0x3d8fb61d	0.07017157
22	0xbda0f667	-0.078594975
23	0xbd281f07	-0.041045215
24	0xbdede56e	-0.11616026
25	0x3d6fa030	0.058502376
26	0x3d924227	0.07141524
27	0xbd8e8a2d	-0.06959949
28	0x3dae8046	0.0852056
29	0x3ca8c7d7	0.020603104
30	0x3a9fb072	0.0012183322
31	0xbd90a2c7	-0.07062297
32	0xbd417556	-0.04723104
33	0xbad0170a	-0.0015876007
34	0xbd7233f5	-0.05913158
35	0x3dbe5f2f	0.092954986
36	0x3d73da0f	0.05953413
37	0xbd80739a	-0.06272049
38	0xbdb63de3	-0.08898523
39	0x3d79dc39	0.061001036
40	0x3cd08ce8	0.025457814
41	0x3d5b9762	0.053611167
42	0x3dab18d7	0.08354347
43	0x3ca8d3c5	0.020608792
44	0xbdb51d16	-0.08843438
45	0x3d91625b	0.07098838
46	0x3bf5cf76	0.007501538
47	0xbc4da4d7	-0.012551508
48	0x3d143fb1	0.036193553
49	0x3dbdc268	0.09265596
50	0xbbcefc08	-0.0063166656
51	0x3c8f3ea5	0.017485926
52	0x3d1dc08d	0.03851371
53	0xbd458937	-0.04822656
54	0x3cf4d1fb	0.029885283
55	0x3d7a26d6	0.061072193
56	0x3d9cee3c	0.07662627
57	0xbdbb69de	-0.09151052
58	0x3dabc595	0.08387295
59	0x3d429f1b	0.047515016
60	0x3c2cfec8	0.010558791
61	0xbda44822	-0.08021571
62	0x3dd20e50	0.10256636
63	0xbd195067	-0.037430193
64	0x3db24a0d	0.0870553
65	0x3cfd47c5	0.030918011
66	0x3de77e10	0.113033414
67	0xbd37f853	-0.044914555
68	0xbc6d1d91	-0.014472381
69	0x3d271f94	0.0408016
70	0xbbb5c3f2	-0.00554704
71	0xbd8dd627	-0.06925612
72	0x3db92856	0.090408966
73	0xbda38796	-0.07984845
74	0x3ddf8b6c	0.109152645
75	0x3db79164	0.08963278
76	0xbdc8757c	-0.09788033
77	0xbcf2a451	-0.029619368
78	0xbd0aa7b8	-0.033851355
79	0x3cfd6060	0.030929744
80	0x3db44fe8	0.088043034
81	0xbc82d095	-0.0159686
82	0xbd301fa7	-0.042998936
83	0x3c909f89	0.017654197
84	0x3d85ac83	0.065270446
85	0xbdbeabc1	-0.09310103
86	0x3de1af4f	0.110197656
87	0xbd20eb17	-0.0392867
88	0xbd84e333	-0.06488647
89	0x3d3d349e	0.046192758
90	0x3db4e311	0.08832372
91	0xbdb82768	-0.08991891
92	0x3d6d05e3	0.057866942
93	0x3ccf1671	0.025279256
94	0x3da08cf8	0.07839388
95	0x3dacff0f	0.08447086
96	0xbd9af33a	-0.07565923
97	0xbd00bae8	-0.031428248
98	0xbd8e75cf	-0.06956064
99	0xbd7256e6	-0.059164904
100	0x3b7d8c0a	0.0038688206
101	0xbdc3027f	-0.095219605
102	0xbd78af9a	-0.06071434
103	0x3d6dc32a	0.05804745
104	0x3d39b7e7	0.0453414
105	0xbc8b8886	-0.017032873
106	0xbc86aa33	-0.01643858
107	0xbc78fb22	-0.0151965935
108	0x3dabae61	0.083828695
109	0x3c6c8a24	0.014437232
110	0xbc092881	-0.008371473
111	0xbd48b7fb	-0.049003582
112	0xbd457f9d	-0.048217405
113	0xbcaf1e48	-0.021376744
114	0x3d34e0a1	0.044159535
115	0xbd5e2559	-0.054234836
116	0x3de54e70	0.111966014
117	0x39ab2394	0.0003264217
118	0xbc9670d3	-0.018364346
119	0xbd4d9fab	-0.0502011
120	0xbd7cb2f3	-0.061694097
121	0x3dbb4a04	0.09144977
122	0x3de7daca	0.113210276
123	0xbd86bd83	-0.06579115
124	0xbc98c414	-0.018648185
125	0x3a6a4575	0.00089367415
126	0x3da069da	0.078326896
127	0xbcafa95b	-0.02144306
128	0xbd5b0bc4	-0.053478017
129	0xbdd72935	-0.105059065
130	0xbceb7e98	-0.028746888
131	0x3dc152b0	0.094395995
132	0xbd122d25	-0.035687584
133	0x3cc447d2	0.023960028
134	0x3d2d2886	0.042274974
135	0x3d0f118f	0.034928855
136	0xbd5ae89e	-0.053444497
137	0x3ce4ee0e	0.027945545
138	0x3d8e41c7	0.0694614
139	0x3d083ddb	0.033262115
140	0x3d52f16a	0.05149976
141	0xbc287368	-0.010281421
142	0xbbdb15e0	-0.0066859573
143	0xbd044ac4	-0.032297865
144	0xbdb745b4	-0.08948842
145	0x3d6a92e0	0.057268977
146	0x3d27ab34	0.040934756
147	0xbda1577e	-0.07878016
148	0xbd5afd1e	-0.053464048
149	0x3d4149b5	0.047189433
150	0xbcc65578	-0.024210677
151	0x3d343562	0.043996222
152	0x3c81d7e5	0.015850017
153	0x3de7b69f	0.11314129
154	0x3d65b4b9	0.056080554
155	0xbd22578c	-0.039634272
156	0xbdb1c0a1	-0.08679319
157	0x3d9b30c4	0.07577661
158	0x3b3c17df	0.0028700752
159	0x3c16cb18	0.009203695
160	0x3d93b4b4	0.07212201
161	0x3dba064b	0.090832315
162	0x3d313f45	0.04327323
163	0x3d2f3b28	0.042781025
164	0xbcc44750	-0.023959786
165	0xbba67111	-0.0050793965
166	0xbd8ede75	-0.06976024
167	0x3d9286c3	0.0715461
168	0xbdb44738	-0.088026464
169	0x3ac5b429	0.0015083599
170	0xbd2e47c3	-0.042548906
171	0xbd987df2	-0.07445897
172	0xbd8b168a	-0.06791408
173	0x3d4dada2	0.050214417
174	0xbd86b43d	-0.065773465
175	0x3ce333e5	0.027734706
176	0x3c8d4a86	0.01724745
177	0x3db7b85c	0.08970711
178	0xbc235737	-0.009969524
179	0x3db53fc0	0.0885005
180	0xbd9df7c2	-0.07713272
181	0x3cb616d4	0.022227682
182	0xbcdf8053	-0.02728287
183	0x3d9a7e7f	0.075436585
184	0x3c84972d	0.016185367
185	0xbdd68ad7	-0.104757
186	0xbd89c1be	-0.067264065
187	0x3d002bf1	0.031291906
188	0xbc84b05a	-0.016197372
189	0x3d4a1dc3	0.04934479
190	0x3de32ac6	0.11092143
191	0xbcf23016	-0.029563945
192	0x3cd016c1	0.025401475
193	0xbdae8dc3	-0.08523133
194	0x3d3168f4	0.04331298
195	0x3d4ac33c	0.049502596
196	0x3cc26c99	0.023733424
197	0x3d361b51	0.044459645
198	0x3c787857	0.01516541
199	0xbd6b4274	-0.05743642
200	0x3c2bbb3b	0.010481651
201	0xbda2f925	-0.07957677
202	0x3db5ae5b	0.08871146
203	0x3d18d7ee	0.0373153
204	0xbccf743c	-0.02532398
205	0x3cf34b27	0.029698921
206	0xbc9e86b1	-0.019351335
207	0x3dacd1d5	0.0843846
208	0xbd9fb749	-0.07798631
209	0x3a3bba43	0.0007161239
210	0xbd20e7f3	-0.039283704
211	0x3dc2be88	0.09508997
212	0xbd175612	-0.036947317
213	0x3dd2224f	0.1026045
214	0xbb654da6	-0.003498891
215	0xbd54e53b	-0.051976424
216	0x3cd30f26	0.02576406
217	0x3d349e18	0.044096082
218	0xbd4e7c32	-0.05041141
219	0xbd00fc71	-0.031490747
220	0xbd89418f	-0.067019574
221	0x3d1c351b	0.038136583
222	0xbda7a40f	-0.081855886
223	0x3d8bbbdb	0.0682294
224	0xbd50df71	-0.05099434
225	0x3daa5afc	0.08318135
226	0x3dbc0c13	0.091819905
227	0xbcfd2b8d	-0.030904556
228	0xbcb4ad82	-0.022055391
229	0x3c62c410	0.01384069
230	0xbda90b1b	-0.08254071
231	0xbd2d3a0a	-0.04229168
232	0xbd1b3ff8	-0.037902802
233	0xbdb78c13	-0.08962264
234	0xbdbf36d8	-0.093366325
235	0xbcc3a26c	-0.02388116
236	0x3b51574f	0.003194291
237	0x3d6812f0	0.056658685
238	0xbd3aaf9f	-0.04557764
239	0xbc1f0a53	-0.009707051
240	0x3d53d9a7	0.05172124
241	0xb9a1a3c1	-0.0003083032
242	0x3c0c6d78	0.008571021
243	0x3d881a6a	0.06645663
244	0x3d175d11	0.03695399
245	0xbd99fcc2	-0.07518913
246	0xbdc6067d	-0.09669206
247	0x3d6ce37a	0.057834126
248	0xbd557f84	-0.05212356
249	0x3dda22c8	0.10651165
250	0x3cd6fa9b	0.026242545
251	0xbdc2ed19	-0.09517879
252	0xbda58b1a	-0.08083172
253	0x3d19967e	0.037497036
254	0xbdc21876	-0.09477322
255	0xbd233e16	-0.03985413

rnn.bias_hh_l0 f4 [400]
0	0x3d45be27	0.048277047
1	0xbd0b9de2	-0.034086116
2	0xbcaeb73a	-0.021327604
3	0x3d8e0c30	0.06935918
4	0xbd037677	-0.0320954
5	0xbd9f9512	-0.07792105
6	0x3c13062a	0.008973638
7	0xbc990727	-0.018680168
8	0xbd1aa628	-0.037756115
9	0xbc3655f1	-0.011128888
10	0xbcbaa39e	-0.022783097
11	0xbd6e8561	-0.05823267
12	0xbdcaa12f	-0.098940246
13	0xbd0bc25b	-0.0341209
14	0x3b534f9b	0.0032243493
15	0xbc80e10e	-0.015732314
16	0x3ce786af	0.028262464
17	0x3d773537	0.060353484
18	0x3d6f1a60	0.058374763
19	0x3b8e7491	0.004347392
20	0x3def4dc8	0.116847575
21	0x3d37cd96	0.044873796
22	0xbda045f9	-0.07825846
23	0xbd4098b1	-0.047020618
24	0x3cec15e9	0.028819041
25	0xbdd12daf	-0.102137916
26	0x3d88566d	0.066571094
27	0x3de34593	0.110972546
28	0x3db62d6f	0.088953845
29	0x3cab35a3	0.0208996
30	0x3d7b0aed	0.061289717
31	0xbd551a11	-0.052026812
32	0x3dbd3ecf	0.092404954
33	0xbda5ecd6	-0.081018135
34	0xbb6a876a	-0.003578628
35	0x3c3260e1	0.010887356
36	0x3c116d91	0.00887622
37	0x3dc2cd15	0.095117725
38	0xbc2700dd	-0.010193077
39	0x3d5e5d39	0.054288123
40	0x3d2fdcd1	0.042935196
41	0x3d8604a1	0.06543852
42	0xbd71dbb2	-0.05904741
43	0xbd19eb45	-0.037577886
44	0x3c053965	0.00813136
45	0xbddf790b	-0.10911759
46	0x3c62a078	0.013832204
47	0x3ce2c654	0.02768246
48	0x3bc946c3	0.0061424687
49	0xbd8d7f12	-0.06909002
50	0xbd9b9e7e	-0.07598589
51	0x3d576b68	0.052592665
52	0x3da6308b	0.081147276
53	0xbd45c5d3	-0.048284363
54	0x3ba44747	0.0050133797
55	0xbd8d2181	-0.06891156
56	0xbd4f6761	-0.0506357
57	0xbd0d5dcd	-0.034513284
58	0x3dde94ef	0.108682506
59	0xbda01899	-0.07817192
60	0x3d68c251	0.05682594
61	0x3d9805d6	0.07422988
62	0xbd0b2f91	-0.03398091
63	0x3ce73e9f	0.028228102
64	0x3cfb76a6	0.030696224
65	0xbd7c7286	-0.061632656
66	0x3dd7680c	0.10517892
67	0x3dd808aa	0.105485275
68	0xbda82d94	-0.08211818
69	0xbdaa871c	-0.08326551
70	0xbcc8920c	-0.024483703
71	0x3d992aac	0.07478842
72	0x3d7fc02d	0.062439132
73	0x3d6afdd1	0.057370964
74	0x3dac28a9	0.08406193
75	0xbb6e1f50	-0.0036334582
76	0x3c1fa3bc	0.009743627
77	0xbbf089bf	-0.0073406394
78	0x3d85d0d8	0.065339744
79	0x3c169057	0.009189687
80	0x3cc1dd64	0.023665138
81	0x3d8d1a92	0.068898335
82	0xbda94dc8	-0.08266789
83	0xbd56eccc	-0.05247192
84	0xbd3ab359	-0.045581196
85	0xbcd01943	-0.02540267
86	0x3d89cf15	0.06728951
87	0x3d8dc642	0.0692258
88	0x3d9280ba	0.07153459
89	0xbcecb82c	-0.028896414
90	0xbd40468d	-0.046942282
91	0xbc9cb9be	-0.019131538
92	0xbd19733f	-0.037463423
93	0xbcfb101f	-0.030647336
94	0x3da8ddb3	0.08245411
95	0xbd7dd2e8	-0.061968714
96	0xbd1114fc	-0.035420403
97	0x3d6dfa23	0.058099877
98	0x3dab32e5	0.08359317
99	0x3cfefb5d	0.031125719
100	0x3d957ebd	0.07299564
101	0xbdc673bb	-0.096900426
102	0xbd1642af	-0.03668469
103	0x3c294406	0.010331159
104	0xbcd2443d	-0.025667304
105	0xbcd2c5f8	-0.025729164
106	0x3dab04ee	0.0835055
107	0x3dba861a	0.09107609
108	0x3d94ceb9	0.07265992
109	0xbcecf908	-0.028927341
110	0x3dadf8b8	0.08494705
111	0x3dbe297c	0.09285256
112	0xbd720a79	-0.05909202
113	0xbd057e8d	-0.03259139
114	0xbd72b120	-0.05925095
115	0xbd7c5daa	-0.061612763
116	0x3d800760	0.06251407
117	0xbdadd176	-0.08487217
118	0xbcb02fe0	-0.021507204
119	0x3d34d2cc	0.044146344
120	0xbc209616	-0.009801408
121	0x3cf5bf13	0.029998338
122	0xbd2791b7	-0.04091045
123	0xbd1f342c	-0.038868114
124	0x3a99dbe1	0.0011738503
125	0x3d93cc6e	0.07216726
126	0xbcc7d060	-0.024391353
127	0x3db40278	0.087895334
128	0xbce599b8	-0.0280274
129	0xbd1da6a8	-0.038489014
130	0x3c4ef33d	0.012631235
131	0x3dcf5e83	0.101254486
132	0xbd53cbff	-0.051708218
133	0x3d7ec277	0.062197175
134	0x3d8d7dcc	0.069087595
135	0x3b8ed704	0.004359128
136	0xbce5c6f5	-0.028048972
137	0xbd4cadb0	-0.04997033
138	0xbd90af0e	-0.07064639
139	0x3ce7ca88	0.028294817
140	0xbd8735ba	-0.066020444
141	0x3d2a8b1d	0.041636575
142	0x3ba554f1	0.005045526
143	0x3cf87c8d	0.030332828
144	0x3d242064	0.040069953
145	0x3cbf6942	0.02336562
146	0xbd005862	-0.03133429
147	0x3db31d30	0.087458014
148	0x3ded6280	0.11591053
149	0x3c1f2555	0.0097134905
150	0x3dae0933	0.08497848
151	0x3cccfbbf	0.025022386
152	0x3d84445c	0.06458351
153	0xbced5393	-0.028970515
154	0xbd8ff390	-0.07028878
155	0x3d3e9f3e	0.046538584
156	0x3d5ae2ed	0.05343907
157	0xbb9ab15a	-0.004720849
158	0x3cf5ec36	0.03001986
159	0x3b919227	0.0044424715
160	0xbdcf1843	-0.101120494
161	0x3d09cdfa	0.0336437
162	0x3da4265a	0.080151275
163	0xbd439fac	-0.047759697
164	0x3c9e6910	0.019337207
165	0x3d570359	0.052493427
166	0x3ce53c9d	0.027983004
167	0x3d40028f	0.04687744
168	0x3ce2267a	0.027606238
169	0x3c7154e8	0.014729716
170	0x3b826be1	0.0039801453
171	0x3d7a5e88	0.06112531
172	0xbd1a8ca2	-0.037731774
173	0x3d3429b2	0.043985076
174	0xbce33767	-0.027736379
175	0x37d1d7bc	2.50152e-05
176	0xbd6f0076	-0.05835005
177	0x3d8cdc50	0.06877959
178	0xbd3c10a9	-0.045914326
179	0x3d9a5f2e	0.07537685
180	0xbd5e90f3	-0.054337453
181	0x3d792616	0.060827337
182	0xbcac3263	-0.02102012
183	0xbd7ff03f	-0.062484976
184	0x3db8afcb	0.09017905
185	0x3d0e4880	0.03473711
186	0xbd8d70ea	-0.06906302
187	0x3d547cb1	0.051876727
188	0x3d8d392f	0.068956725
189	0xbdaa37e5	-0.08311442
190	0x3e00bb52	0.12571457
191	0x3dbe0f1a	0.09280224
192	0x3c427135	0.011867811
193	0x3d91ad34	0.07113114
194	0xbc265dd5	-0.010154207
195	0x3dd22ddd	0.10262654
196	0xbdd52fcc	-0.10409507
197	0xbdd017a5	-0.1016076
198	0x3c8a71c1	0.016899945
199	0x3da25619	0.07926578
200	0xbd1fed61	-0.03904474
201	0xbc38be07	-0.011275775
202	0x3cd709b2	0.02624974
203	0x3d8a4b23	0.067526124
204	0x3ce4abbf	0.027913926
205	0x3d56e4cc	0.05246429
206	0xbd71ce38	-0.059034556
207	0xbdbc43e6	-0.09192638
208	0xbcebf3c0	-0.028802752
209	0x3d85d784	0.06535247
210	0x3da1cbaf	0.07900178
211	0xbd103b06	-0.03521254
212	0x3d1a76b0	0.037710845
213	0xbdbf57ce	-0.09342919
214	0x3b98f4c7	0.0046678516
215	0x3d8e0767	0.06935006
216	0xbd51d4af	-0.05122822
217	0x3d3ff88f	0.046867903
218	0x3de4be21	0.11169077
219	0xbcd61e7f	-0.026137589
220	0x3a482aea	0.0007635789
221	0x3d887dce	0.0666462
222	0x3d47d239	0.04878447
223	0xbd84998d	-0.064746
224	0xbdc96b87	-0.09834962
225	0xbbea4472	-0.0071492726
226	0x3c99443f	0.0187093
227	0xbcbf3806	-0.023342144
228	0xbd55b832	-0.052177615
229	0xbd7e3595	-0.06206282
230	0xbd87d6e8	-0.06632787
231	0x3cc29170	0.02375099
232	0xbcbf4aa9	-0.02335103
233	0x3cd37b35	0.025815586
234	0xbd2fcb47	-0.04291847
235	0x3da9915a	0.08279677
236	0xbceacb3b	-0.028661361
237	0x3d73217f	0.059358116
238	0xbc007229	-0.007839718
239	0xbd7f2a48	-0.062296182
240	0xbcf8c5aa	-0.030367691
241	0xbde670fb	-0.11252018
242	0x3ce82168	0.028336242
243	0xbd4e009d	-0.050293554
244	0x3dc59467	0.09647446
245	0xbbbf3d0b	-0.0058361343
246	0x3dba9e65	0.091122426
247	0x3d0b0838	0.033943385
248	0xbd62f4da	-0.05540929
249	0xbc1ff940	-0.009764016
250	0xbd144c72	-0.036205716
251	0x3d97fb4f	0.0742098
252	0x3d55db5c	0.05221115
253	0x3b890c5c	0.0041823816
254	0x3d31b7c6	0.04338815
255	0xbd648437	-0.055790152

linear.weight f4 [1, 100]
0	0x3dc27f87	0.0949698
1	0x3d2d114a	0.042252816
2	0xbdd8ce1f	-0.105861895
3	0xbdcb7d10	-0.09935963
4	0xbcc2fe48	-0.023802891
5	0xbd5171b2	-0.05113382
6	0x3daf7a8e	0.08568297
7	0x3db9b34c	0.09067401
8	0x3a12edb2	0.00056048774
9	0xbda4019f	-0.08008122
10	0xbdc47827	-0.0959323
11	0x3d73e140	0.059540987
12	0x3d8e7e10	0.06957638
13	0x3d871fde	0.06597875
14	0x3dd17b06	0.10228543
15	0x3df30a5d	0.11867211
16	0xbd8aeee3	-0.06783845
17	0x3d38e258	0.045137733
18	0xbc6a0851	-0.014284209
19	0xbd890226	-0.06689863
20	0xbe090cde	-0.13383815
21	0x3cf81965	0.030285547
22	0xbc8d633c	-0.017259233
23	0x3d72f147	0.05931213
24	0xbdbfa13b	-0.09356924
25	0x3c0aa0e7	0.008461214
26	0xbdca3bf3	-0.09874716
27	0x3d4bd6eb	0.04976551
28	0xbe06b5d2	-0.13155296
29	0xbd65835b	-0.056033473
30	0x3d25062f	0.0402891
31	0x3db3915f	0.08767962
32	0x3df92b66	0.12166481
33	0x3ce4c9da	0.027928282
34	0xbd92073c	-0.07130286
35	0x3d7bfa19	0.06151781
36	0x3d996658	0.07490224
37	0xbd445011	-0.04792792
38	0x3b40dc71	0.0029428268
39	0xbe035261	-0.12824394
40	0xbd7d752b	-0.06187932
41	0x3d9b257f	0.07575511
42	0xbd8a33c5	-0.067481555
43	0x3cb8321e	0.022484835
44	0x3d9b338a	0.0757819
45	0x3d341a39	0.04397032
46	0x3cceeedd	0.025260383
47	0x3d6f0a74	0.05835958
48	0x3d9e2655	0.07722155
49	0x3b886c36	0.0041632904
50	0x3e0a0c21	0.1348119
51	0x3e05af94	0.13055259
52	0x3e04cdab	0.12969081
53	0x3db33b7c	0.0875158
54	0xbde8b913	-0.11363425
55	0x3d9f6108	0.07782179
56	0xbd1da295	-0.03848513
57	0xbd561487	-0.05226567
58	0xbd16f3f2	-0.036853738
59	0xbb4e5243	-0.0031482137
60	0xbd09d895	-0.033653814
61	0x3d6496f1	0.05580801
62	0xbd7c2e92	-0.06156785
63	0x3dabbffe	0.08386229
64	0xbb8030b5	-0.0039120563
65	0xbdc09ad4	-0.09404531
66	0xbe00b6d8	-0.1256975
67	0xbd5f119d	-0.054460157
68	0x3dc5ed0e	0.09664355
69	0x3d5ccf9f	0.05390894
70	0xbcb19979	-0.021679627
71	0xbd4cc4cb	-0.049992364
72	0xbd0198c1	-0.031639818
73	0x3c487a55	0.0122361975
74	0xbde4400b	-0.11145028
75	0x3da3c7b9	0.079970784
76	0xbd6c0e6a	-0.057630934
77	0xbde207ef	-0.110366695
78	0x3e06c53a	0.13161173
79	0xbca65d90	-0.020308286
80	0x3cc5dcb6	0.024153095
81	0x3d9718ca	0.07377775
82	0x3cd24ebc	0.02567231
83	0x3d5f3eae	0.054503135
84	0xbd9c718a	-0.07638843
85	0x3da85050	0.082184434
86	0xbd86792f	-0.06566083
87	0xbdbc9f7a	-0.09210105
88	0x3dc6d979	0.09709448
89	0xbc85746d	-0.016290868
90	0xbda4db0a	-0.08049591
91	0xbd4b2c93	-0.049603056
92	0x3dd8ae0b	0.10580071
93	0x3d4bcecf	0.049757775
94	0x3db80778	0.089857996
95	0x3dd2b451	0.10288299
96	0xbc9a71f4	-0.018853165
97	0x3d74ca18	0.059763044
98	0x3d23fa47	0.040033605
99	0x3d530849	0.051521573
