backend/trained_models/SBI_GRU_model_state_dict.pth (torch, 126714 bytes, 5 tensors)

rnn.weight_ih_l0 f4 [300, 1]
0	0x3b1e228b	0.0024129476
1	0xbda4ac39	-0.08040661
2	0x3dea8c0d	0.11452494
3	0xbbfdf373	-0.0077499687
4	0x3d3bd755	0.045859654
5	0xbd42b300	-0.04753399
6	0x3c523aa9	0.0128313685
7	0xbd100f44	-0.03517081
8	0xbd26406b	-0.040588778
9	0x3de0c2c2	0.10974647
10	0x3d9cb603	0.076519035
11	0xbd062a7e	-0.032755367
12	0x3d66fd4c	0.056393906
13	0x3db7b7c5	0.08970598
14	0xbcdc243d	-0.026872749
15	0xbbe3143f	-0.0069299038
16	0x3d8ee087	0.06976419
17	0x3d425b86	0.047450565
18	0xbd09ff53	-0.03369076
19	0x3dcc1d74	0.09966555
20	0x3c69b689	0.014264711
21	0xbcc9ad58	-0.02461879
22	0xbd7b5718	-0.061362356
23	0x3dc7fd3b	0.09765097
24	0xbcfe8a44	-0.03107179
25	0x3c99e0b0	0.018783897
26	0x3d58c682	0.052923687
27	0xbd1f609f	-0.038910504
28	0x3dbf2fb1	0.09335268
29	0x3c42180a	0.011846552
30	0xbd13f5d2	-0.036123104
31	0x3d8e54ef	0.069497935
32	0x3db14577	0.086558275
33	0xbd314d0d	-0.043286372
34	0xbc28168d	-0.010259283
35	0xbd569d0d	-0.05239587
36	0xbd933fdf	-0.07189917
37	0x3d13a6cf	0.036047753
38	0x3ddf5cc0	0.109063625
39	0x3d8556a5	0.06510667
40	0x3d0e028b	0.034670394
41	0x3dc1b538	0.09458393
42	0xbb06d59d	-0.00205741
43	0x3d8a9382	0.06766416
44	0xbd479b50	-0.048732102
45	0xbc392d1c	-0.011302259
46	0x3d4651c7	0.048417833
47	0xbcd3a59c	-0.025835805
48	0x3d2d9eef	0.0423879
49	0x3d6bb251	0.057543103
50	0xbd7cb156	-0.06169256
51	0x3be6dcf8	0.0070453845
52	0x3de7ac3b	0.11312147
53	0xbd87c989	-0.06630237
54	0x3c216f27	0.009853161
55	0x3b32210f	0.002718035
56	0xbd3d1eda	-0.046172
57	0x3d8d49d9	0.06898851
58	0x3dc5f577	0.09665959
59	0xbc0b510b	-0.008503209
60	0x3d64d83a	0.055870272
61	0xbc970f1f	-0.018439827
62	0xbd7600d2	-0.060059376
63	0xbd62fd09	-0.055417094
64	0x3c7c0650	0.015382364
65	0xbcb24e56	-0.02176587
66	0xbc941961	-0.018078508
67	0x3d0bb546	0.034108423
68	0x3dc582a2	0.09644057
69	0xbd75a536	-0.05997201
70	0xbd8ac09d	-0.06775019
71	0xbcc5acaf	-0.024130194
72	0x3c75d190	0.015003577
73	0x3b8903e6	0.004181373
74	0x3d62a365	0.055331606
75	0x3c829437	0.015939815
76	0xbca4a04f	-0.020095972
77	0x3c041975	0.00806271
78	0x3dd203a9	0.10254604
79	0x3d975eae	0.073911056
80	0xbd1a3b49	-0.037654195
81	0xbcb8ce00	-0.022559166
82	0xbd765222	-0.06013692
83	0xbdbe930f	-0.09305393
84	0xbb86d9ad	-0.0041153044
85	0x3d3a8f3b	0.04554675
86	0x3c9cb4e8	0.019129232
87	0xbd74651a	-0.05966673
88	0xbdd929ac	-0.106036514
89	0xbc34e59f	-0.011041074
90	0x3d3d1243	0.046159994
91	0xbda54f4a	-0.08071764
92	0x3d406ba0	0.04697764
93	0xbd595e76	-0.0530686
94	0x3cc6b23d	0.024254913
95	0xbde74196	-0.112918064
96	0xbd807e8b	-0.06274136
97	0x3d956742	0.072950855
98	0x3beb2795	0.0071763494
99	0xbd14cf38	-0.03633043
100	0xbe215494	-0.1575492
101	0x36d754d2	6.4173737e-06
102	0xbe05c0d8	-0.13061845
103	0xbe15966e	-0.14608166
104	0xbd3e4ec7	-0.046461847
105	0xbdf84d42	-0.12124111
106	0x3c9e0302	0.019288544
107	0xbe05b953	-0.13058977
108	0xbdef4d0b	-0.11684617
109	0x3d3ef477	0.04661986
110	0xbe170304	-0.14747244
111	0x3d99fde6	0.075191304
112	0xbd794829	-0.060859833
113	0x3cd3523b	0.025796046
114	0xbd64d55d	-0.05586754
115	0xbd941a1a	-0.07231541
116	0xbdacf52b	-0.084451996
117	0xbd2bc047	-0.041931417
118	0xbdc6b3d5	-0.09702269
119	0xbc9d023e	-0.019166108
120	0xbda743c5	-0.08167223
121	0xbc74bc83	-0.014937523
122	0xbe1e232e	-0.15443107
123	0xbe070be5	-0.13188131
124	0xbcb0a555	-0.021563211
125	0xbe210121	-0.15723087
126	0xbd0b5f86	-0.034026645
127	0x3bfe4e94	0.007760832
128	0xb93a7376	-0.00017781355
129	0xbca3411a	-0.019928504
130	0x3c9614e7	0.018320514
131	0xbe2d6dc9	-0.16936411
132	0xbe0d6343	-0.13807397
133	0xbdac9c9a	-0.08428307
134	0xbdda1e81	-0.106503494
135	0xbd110333	-0.03540344
136	0xbdd22d52	-0.102625504
137	0xbd766f4c	-0.060164735
138	0xbc22c15b	-0.009933795
139	0xbdf506c6	-0.119641826
140	0x3d218c5a	0.03944049
141	0x3d23694d	0.039895345
142	0xbdeed2e3	-0.11661317
143	0x3d065b03	0.03280164
144	0xbd57bf15	-0.052672464
145	0xbde82636	-0.11335413
146	0xbd6ff212	-0.058580466
147	0xbb92527f	-0.0044654007
148	0xbd941ce0	-0.0723207
149	0x3ce8297c	0.028340094
150	0xbd02d2ac	-0.031939194
151	0xbca99811	-0.020702394
152	0xbd715b17	-0.05892476
153	0x3babf45e	0.0052476367
154	0xbdeaf457	-0.114723854
155	0xbcc1d6ed	-0.023662055
156	0xbd8794b0	-0.06620157
157	0xbd12f393	-0.03587682
158	0xbdd8cc01	-0.10585786
159	0xbdd51ed1	-0.104062684
160	0x3dc31cc4	0.09526971
161	0xbe0a11bb	-0.13483326
162	0x3c3952d4	0.011311252
163	0x3d167b6b	0.036738794
164	0xbdb19392	-0.08670725
165	0x3dd9acd7	0.1062867
166	0xbde9e521	-0.11420656
167	0x3cbf963e	0.02338707
168	0x3d75c6f6	0.060004197
169	0x3d5c185a	0.05373416
170	0xbe044796	-0.12917933
171	0xbd1ad460	-0.037800193
172	0xbd74d5f0	-0.05977434
173	0xbdcc5b51	-0.09978355
174	0xbcf9a974	-0.03047631
175	0xbd8b87a8	-0.06812984
176	0xbd5c2ccc	-0.05375366
177	0xbe0298ea	-0.12753645
178	0xbe052d97	-0.13005672
179	0xbd474470	-0.04864925
180	0xbb985d76	-0.0046498133
181	0x3b9ea0f5	0.004840965
182	0xbdac3e79	-0.08410353
183	0x3cc0e1c3	0.023545152
184	0xbd8c7724	-0.06858662
185	0xba2089a2	-0.00061240245
186	0xbd7b35b0	-0.061330497
187	0xbcb20e65	-0.02173538
188	0x3c8167ac	0.015796505
189	0xbce96373	-0.028489804
190	0xbdbbea4e	-0.091755494
191	0xbe011718	-0.12606466
192	0xbe066998	-0.13126218
193	0xbd8b5dd8	-0.06805009
194	0xbe27c544	-0.16383845
195	0xbcddc413	-0.027071035
196	0x3d16c099	0.03680477
197	0xbd9cc34c	-0.076544374
198	0xbc417b63	-0.011809203
199	0x3b3c8845	0.0028767746
200	0x3df8b4f1	0.12143887
201	0xbdccc620	-0.09998727
202	0x3da16232	0.078800574
203	0x3d343b30	0.044001758
204	0x3d4a9d5e	0.049466483
205	0x3d3123a9	0.0432469
206	0xbdc0a909	-0.09407241
207	0x3cbb0892	0.022831235
208	0x3e006a80	0.12540627
209	0x3bf10e52	0.0073564434
210	0xbdaf62b5	-0.08563749
211	0xbd135346	-0.035968088
212	0xbdad564f	-0.08463728
213	0xbcaec19c	-0.021332555
214	0xbbc687de	-0.006058677
215	0xbd2d2560	-0.04227197
216	0x3de39f53	0.11114373
217	0x3db1218d	0.086489774
218	0xbdce951c	-0.10087034
219	0xbd6f13f3	-0.058368634
220	0x3d92ed36	0.07174151
221	0x3d46c37a	0.048526265
222	0x3d6bf035	0.057602126
223	0x3c1a0a81	0.009401918
224	0x3dbc65a1	0.09199072
225	0xbd8bd6dc	-0.068280905
226	0x3c36148a	0.011113295
227	0x3d6d56cb	0.0579441
228	0x3cbf5e23	0.023360318
229	0x3d8c6ace	0.06856309
230	0x3dcd3606	0.1002007
231	0x3ddab798	0.10679549
232	0x3d36b776	0.044608556
233	0x3dc50050	0.096192
234	0x3d7a766c	0.061148092
235	0x3d1f3e39	0.0388777
236	0x3c805915	0.015667478
237	0xbd47903d	-0.04872154
238	0xbd78d81e	-0.06075298
239	0xbd821db6	-0.06353323
240	0xbd4338ef	-0.047661718
241	0x3daa30f4	0.08310118
242	0x3d943765	0.07237128
243	0x3d44812f	0.04797476
244	0xbd79cb8b	-0.06098513
245	0x3c077c74	0.008269418
246	0x3d4321a8	0.04763952
247	0x3dc5e268	0.09662324
248	0x3cda139b	0.026620677
249	0xbcee26e2	-0.029071275
250	0xbc3bacbd	-0.011454758
251	0xbddbf138	-0.10739368
252	0xbd8f9d64	-0.07012442
253	0x3db56411	0.08856977
254	0xbdb2abfc	-0.0872421
255	0x3dc5bf87	0.096556716

rnn.weight_hh_l0 f4 [300, 100]
0	0x3d90d42b	0.07071718
1	0x3cdaafa5	0.026695082
2	0xbdb0ae88	-0.08627039
3	0xbae013c3	-0.0017095733
4	0xbd5727ce	-0.052528195
5	0xbd6b7414	-0.057483748
6	0x3ddd4afd	0.108053185
7	0x3dd166ca	0.102246836
8	0x3d6d53b8	0.05794117
9	0x3d926066	0.07147293
10	0xbd4152ac	-0.047197983
11	0xbd772379	-0.060336564
12	0xbd27b8a9	-0.04094759
13	0x3dce6155	0.10077158
14	0x3d9e5ade	0.07732175
15	0x3dc60d7d	0.096705414
16	0x3ccac7cd	0.024753476
17	0x3ce40a97	0.02783708
18	0x3df522c2	0.1196952
19	0x3c27a224	0.010231528
20	0xbd356b78	-0.044291943
21	0x3c615532	0.013753222
22	0xbdd234d0	-0.102639794
23	0xbdc6f314	-0.09714332
24	0xbd833776	-0.06407063
25	0x3d54941c	0.05189906
26	0xbcfc33ba	-0.030786384
27	0xbda7e83d	-0.08198593
28	0x3d595ad3	0.053065132
29	0xbcc26a2d	-0.02373227
30	0xbcbce3f7	-0.02305792
31	0xbd980734	-0.07423249
32	0xbd0dbb66	-0.034602545
33	0xbd9aacf8	-0.075525224
34	0xbc4a719b	-0.012356187
35	0x3d7035b2	0.058644958
36	0xbc94aff7	-0.018150313
37	0x3d7e10eb	0.062027853
38	0x3d034903	0.03205205
39	0x3d5795c7	0.052633073
40	0x3d14c83a	0.036323763
41	0xbd81f127	-0.06344824
42	0xbca22674	-0.019793727
43	0xbd9418c7	-0.072312884
44	0x3d4aa120	0.049470067
45	0xbcf3fc76	-0.029783469
46	0x3d1aedd7	0.037824478
47	0x3d522ed0	0.051314175
48	0xbd83c3af	-0.06433808
49	0x3b4c2876	0.0031152046
50	0xbd95a625	-0.0730708
51	0xbc988e9d	-0.01862269
52	0xbd853bdc	-0.06505558
53	0x3daea556	0.08527629
54	0xbd338618	-0.043829054
55	0xbdeb8700	-0.115003586
56	0x3d409154	0.047013596
57	0xbcbeb11e	-0.023277815
58	0x3d591d4e	0.053006463
59	0x3d916306	0.07098965
60	0xbd59f389	-0.05321077
61	0xbd3fef16	-0.04685887
62	0x3d09decc	0.03365974
63	0xbcd18bc4	-0.02557934
64	0x3ca7804d	0.02044692
65	0xbd69d725	-0.057089943
66	0x3d8ccc12	0.06874861
67	0x3d45e6e2	0.04831589
68	0x3d787e00	0.060667038
69	0xbd84d647	-0.06486183
70	0xbd404b6a	-0.04694692
71	0x3c2cbdaf	0.010543271
72	0xbded776e	-0.11595045
73	0xbdd16ac0	-0.10225439
74	0xbc048bbf	-0.008089959
75	0x3b913841	0.004431755
76	0x3dc22216	0.094791576
77	0xbd1564aa	-0.036472954
78	0x3d68d63c	0.056844935
79	0x3d806fba	0.0627131
80	0x3d86a8b5	0.06575147
81	0x3da8d987	0.08244615
82	0xbc761df9	-0.0150217945
83	0x3dc94ac0	0.098287106
84	0xbb2a2317	-0.0025960857
85	0xbda36e0a	-0.07979973
86	0xbdcd9dcb	-0.10039862
87	0xbc825827	-0.015911175
88	0xbbc4b43f	-0.0060029323
89	0xbda7291c	-0.08162138
90	0x3dc823da	0.09772463
91	0x3cd40b70	0.02588436
92	0xbda03612	-0.07822813
93	0xbd52c242	-0.05145479
94	0x3d77155c	0.060323104
95	0xbaa4ff87	-0.001258836
96	0x3d90ebaf	0.07076203
97	0xbdbcb282	-0.09213735
98	0x3d5bf689	0.05370191
99	0x3dcc085c	0.09962532
100	0x3d085139	0.033280585
101	0xbda7287a	-0.08162017
102	0x3cab6742	0.02092326
103	0x3dbda84e	0.09260617
104	0x3cc205c6	0.023684394
105	0x3d82f5b0	0.063945174
106	0x3cc71459	0.024301695
107	0xbd24bd67	-0.04021969
108	0x3d0e0ea0	0.034681916
109	0x3db8384b	0.08995112
110	0xbdb41448	-0.08792931
111	0xbd559149	-0.052140508
112	0x3d94051a	0.072275355
113	0x3c40041a	0.011719728
114	0xbd1b620c	-0.0379353
115	0xbdb4a7f4	-0.08821097
116	0x3d13181d	0.035911668
117	0x3cd2cb3e	0.025731679
118	0xbd9c7f7d	-0.07641504
119	0xbdc1b1f7	-0.09457772
120	0x3b36279c	0.0027794605
121	0xbd15c9e0	-0.036569476
122	0x3d7bef56	0.061507545
123	0x3d81bdda	0.063350394
124	0x3d09cead	0.033644367
125	0xbb6a2614	-0.0035728263
126	0x3dcf634b	0.101263605
127	0xbba77919	-0.0051108715
128	0xbd9f53a5	-0.07779626
129	0x3cf6aec0	0.030112624
130	0xbd5a6e04	-0.053327575
131	0x3cc9c700	0.024631023
132	0xbdbacfe0	-0.0912168
133	0xbcb399f9	-0.021924006
134	0xbdb9aa32	-0.09065665
135	0x3db45835	0.08805887
136	0x3d23c8ff	0.039986607
137	0xbdcb95c0	-0.09940672
138	0x3d6d0dcd	0.05787449
139	0x3d08c1df	0.033388015
140	0xbd24c553	-0.040227246
141	0xbda55d97	-0.080744915
142	0xbd0760f5	-0.03305145
143	0xbca8bfa9	-0.020599203
144	0x3c832c6a	0.01601239
145	0xbcfdc4f3	-0.030977702
146	0x3ca237bc	0.019801967
147	0xbd8f62fd	-0.070013024
148	0x3c3d486f	0.011552914
149	0xbd30837f	-0.043094154
150	0x3d30482f	0.04303759
151	0xbd75fd89	-0.060056243
152	0x3d0dd5a7	0.034627583
153	0xbce9f1e0	-0.028557718
154	0x3db806ea	0.08985694
155	0xbd9722b2	-0.073796645
156	0x3ba86b41	0.005139739
157	0x3bd8689f	0.0066042687
158	0x3d4df48f	0.050282057
159	0x3bf54bf8	0.007485863
160	0x3cf882b0	0.030335754
161	0xbcf5abce	-0.02998915
162	0xbda768dc	-0.08174297
163	0x3d6dab61	0.058024768
164	0x3db148a8	0.08656436
165	0xbd956ab4	-0.07295743
166	0x3dbce41a	0.092231944
167	0xbdb6843d	-0.08911941
168	0x3d9a4bfa	0.07534023
169	0xbd67185e	-0.056419723
170	0x3d76b375	0.060229737
171	0x3d6dad98	0.05802688
172	0x3d6ee22d	0.058321167
173	0xbd6feef4	-0.058577493
174	0x3d8d6a41	0.06905032
175	0x3d061a15	0.032739718
176	0x3cc04132	0.023468588
177	0x3dbed1bd	0.09317348
178	0x3d729421	0.059223298
179	0xbd9c49b2	-0.07631244
180	0x3d96ff21	0.07372881
181	0x3dafeaa2	0.085896745
182	0x3dc5f089	0.09665019
183	0x3d3c1ffa	0.045928933
184	0x3d4dbfdf	0.05023181
185	0xbcc27841	-0.023738982
186	0x3c278f82	0.010227086
187	0x3d813a2b	0.06309923
188	0x3d4ffe0a	0.05077938
189	0xbc998488	-0.018739954
190	0x3c9d7207	0.019219412
191	0xbd70b3b9	-0.058765147
192	0x3d23241f	0.03982937
193	0x3d545fee	0.0518493
194	0x3d0ad509	0.033894572
195	0xbafdefe5	-0.0019373862
196	0x3da00756	0.07813899
197	0x3dcd9b95	0.100394405
198	0x3dc3301c	0.095306605
199	0xbdda4669	-0.10657961
200	0xbc88989c	-0.016674332
201	0x3d144cc2	0.036206014
202	0x3dca0a0d	0.09865198
203	0xbc93844f	-0.018007426
204	0x3d987792	0.07444681
205	0xbda4a74a	-0.0803972
206	0x3d947d50	0.07250464
207	0xbd7ddeb8	-0.06197998
208	0x3bfff5b9	0.007811275
209	0x3dbe07eb	0.09278854
210	0x3d024095	0.03179987
211	0x3c8c4072	0.017120574
212	0xbd73274e	-0.059363656
213	0xbc00b2e6	-0.007855153
214	0xbce1243e	-0.027483102
215	0xbdcb392c	-0.09923014
216	0x3da88ae7	0.082296185
217	0xbd118196	-0.035523973
218	0xbdba6289	-0.09100825
219	0xbdc83222	-0.09775187
220	0x3dea0b25	0.11427907
221	0xbd877383	-0.06613829
222	0xbda58dce	-0.08083688
223	0xbcf3d6b8	-0.029765472
224	0x3cf81c99	0.030287074
225	0x3ca7446e	0.020418372
226	0x3c9f67db	0.019458702
227	0xbc0b2033	-0.008491564
228	0xbcb8ad42	-0.022543553
229	0xbd97dbae	-0.074149475
230	0xbbeeb725	-0.007285016
231	0x3d6d9243	0.058000814
232	0x3d827f03	0.06371882
233	0xbd497566	-0.049184225
234	0xbd69f609	-0.057119403
235	0xbd78ec04	-0.060771957
236	0xbd50f271	-0.05101246
237	0x3bf051bb	0.007333962
238	0x3dcfc951	0.1014582
239	0xbd145c63	-0.03622092
240	0xbdebb4a7	-0.11509066
241	0xbd84100a	-0.06448372
242	0xbc392db1	-0.011302398
243	0x3cd7d336	0.02634583
244	0xbd13ffd5	-0.036132652
245	0xbd4235f8	-0.04741475
246	0x3ce16724	0.027515002
247	0x3d5bcc76	0.053661786
248	0xbcb70888	-0.022342935
249	0xbca776cc	-0.020442389
250	0xbd095a67	-0.03353348
251	0x3b2b286b	0.002611662
252	0xbc223deb	-0.009902458
253	0x3d0068da	0.031349994
254	0xbdef423c	-0.11682555
255	0xbda67351	-0.081274636

rnn.bias_ih_l0 f4 [300]
0	0x3ca35c61	0.01994151
1	0x3dc8abd4	0.097983986
2	0x3b89453c	0.0041891616
3	0x3c82b61f	0.015955983
4	0x3d922b47	0.07137161
5	0xbd3fe2c2	-0.046847112
6	0xbd861d1b	-0.0654852
7	0xbd269ff1	-0.040679876
8	0x3d60e953	0.054910015
9	0xbcad9a05	-0.021191606
10	0x3d88ece5	0.06685809
11	0xbd0a660e	-0.033788733
12	0xbd47ab65	-0.04874744
13	0x3d02e602	0.031957634
14	0x3d9020d3	0.07037511
15	0x3d96e261	0.07367397
16	0x3d2033d7	0.03911194
17	0xbd331b85	-0.043727417
18	0x3d9fdd18	0.07805842
19	0x3d8f9471	0.07010735
20	0x3da251bf	0.07925748
21	0xbd78cb17	-0.060740557
22	0x3d1e26bf	0.03861117
23	0x3d2d4aea	0.04230777
24	0x3d759f36	0.05996629
25	0x3d3fc519	0.046818826
26	0xbcf3b294	-0.029748239
27	0xbd26729b	-0.04063664
28	0x3de0609d	0.109559275
29	0xbdbddfb6	-0.09271185
30	0xbc6d36d3	-0.014478403
31	0xbd63a2cc	-0.055575177
32	0x3ca5e8c8	0.0202526
33	0x3cc82b43	0.024434691
34	0x3b92cd2c	0.004480025
35	0x3bf10e0c	0.007356411
36	0xbd399199	-0.04530487
37	0x3d979d72	0.07403077
38	0x3d6b9b74	0.0575213
39	0x3cfa4a95	0.030553142
40	0x3d46d55f	0.04854333
41	0x3d2975cc	0.041372105
42	0xbd836095	-0.06414906
43	0x3d14aa58	0.036295265
44	0xbcb717f6	-0.022350293
45	0x3d0420bd	0.032257784
46	0x3d923e7f	0.071408264
47	0xbbc40232	-0.005981707
48	0xbd7aea26	-0.061258458
49	0xbd098340	-0.033572435
50	0x3d98e9e7	0.07466488
51	0xbdabebe2	-0.083946005
52	0x3da933c8	0.082618296
53	0x3db48674	0.088147074
54	0xbd8f15f8	-0.06986612
55	0xbcc8aaa8	-0.024495438
56	0xbd658f6b	-0.056044977
57	0x3d3cf848	0.046135217
58	0x3adc8c0c	0.0016826405
59	0xbd70b708	-0.058768302
60	0x3d7a9185	0.061173934
61	0xbdde1ab9	-0.10844941
62	0x3c8f8a48	0.017521992
63	0x3d713d41	0.058896307
64	0xbc87a4e0	-0.01655811
65	0xbd522a40	-0.051309824
66	0x3da3b3af	0.07993256
67	0xbc44eca2	-0.012019308
68	0x3c3c4061	0.0114899585
69	0x3b872e16	0.004125367
70	0x3d066147	0.032807615
71	0xbc82272b	-0.015887817
72	0xbd4fa5e1	-0.050695304
73	0xbd4f4d93	-0.05061109
74	0xbe034aac	-0.12821454
75	0x3ca88ac1	0.020573976
76	0x3d57276c	0.05252783
77	0x3d805729	0.062666245
78	0x3dd58a63	0.10426786
79	0xbd5b9ddb	-0.05361734
80	0xbcf408d6	-0.02978937
81	0xbdacafec	-0.08431992
82	0x3deed48b	0.11661633
83	0x3ca3a598	0.019976422
84	0xbd2d788c	-0.04235129
85	0x3c306a87	0.010767586
86	0xbcd1cd3a	-0.025610555
87	0x3d181146	0.03712585
88	0xbdc9f61f	-0.09861397
89	0x3c6c08b5	0.014406373
90	0x3d35d21d	0.044389833
91	0xbd7263a2	-0.05917705
92	0x3d897295	0.06711308
93	0x3d9b54f8	0.07584566
94	0x3bc016a1	0.0058620726
95	0x3d0d926a	0.03456346
96	0x3d22205c	0.03958164
97	0x3d118e6c	0.035536215
98	0x3de9dbea	0.114188984
99	0x3aa1f69a	0.0012356818
100	0xbd5773ad	-0.05260055
101	0xbd0b6fec	-0.034042284
102	0x3af5d0a1	0.0018754193
103	0xbe32a6c6	-0.17446432
104	0xbe3affe3	-0.18261676
105	0xbd933d1b	-0.07189389
106	0x3c119510	0.008885637
107	0xbdb6f2cb	-0.08933028
108	0xbd57cc5f	-0.052685138
109	0xbdc2a9c4	-0.095050365
110	0x3c5df89c	0.013548043
111	0x3d1ea70f	0.03873354
112	0xbe263008	-0.1622926
113	0xbde6931b	-0.11258527
114	0xbdb9b5c8	-0.09067875
115	0xbd9ae557	-0.07563274
116	0xbe2b97f0	-0.16757178
117	0xbd57a3da	-0.052646495
118	0x3c524c74	0.012835611
119	0xbdb1826d	-0.08667455
120	0xbe2fea17	-0.17179142
121	0xbde08be2	-0.109641805
122	0xbd8b781a	-0.06810017
123	0xbd9303df	-0.07178473
124	0xbd403bf9	-0.046932194
125	0xbe29a7a7	-0.1656786
126	0xbe0fc04e	-0.14038202
127	0xbc9251f3	-0.017861342
128	0x3cb5c582	0.022188906
129	0x3c9dc5df	0.019259391
130	0xbd63f78e	-0.05565601
131	0xbd983420	-0.07431817
132	0xbdaaee60	-0.08346248
133	0xbce3529f	-0.027749358
134	0xbda0b5d8	-0.07847184
135	0xbd166a4f	-0.036722478
136	0xbe0c14d4	-0.1367982
137	0xbdf42bfd	-0.119224526
138	0xbdb6f0b0	-0.08932626
139	0xbdcaa931	-0.09895552
140	0xbd7e0fa1	-0.062026624
141	0xbe11d0aa	-0.14239755
142	0xbd50c7ff	-0.05097198
143	0xbe2c68cc	-0.16836852
144	0xbc63d053	-0.013904649
145	0x3d285e3d	0.041105498
146	0xbc9c2045	-0.019058356
147	0xbdcb58b9	-0.09929032
148	0xbe058ae8	-0.1304127
149	0xbd92905a	-0.07156439
150	0xbdb7e5d4	-0.08979383
151	0xbd10be8c	-0.03533797
152	0x3d3d5d48	0.046231538
153	0xbe104942	-0.14090446
154	0xbe07e179	-0.13269605
155	0xbda9aa48	-0.08284432
156	0xbe36ca67	-0.17850648
157	0xbcebafec	-0.02877041
158	0xbe16442d	-0.14674444
159	0xbd5cf294	-0.053942278
160	0xbddd7707	-0.10813718
161	0xbd6e277a	-0.058143117
162	0x3d09d30b	0.033648532
163	0x3ce1924c	0.02753558
164	0xbd909a5a	-0.0706069
165	0xbd9b0a3e	-0.07570313
166	0xba5250cd	-0.00080229045
167	0xbe0368ac	-0.12832898
168	0xbcd1b29c	-0.025597863
169	0x3d35fb01	0.04442883
170	0xbdd7565f	-0.10514521
171	0xba6f31e6	-0.0009124562
172	0xbbc2cc70	-0.005944781
173	0xbdc85d07	-0.097833686
174	0xbd7d6b31	-0.061869804
175	0xbd730ebb	-0.05934022
176	0xbe19d3ac	-0.15022153
177	0x3c873e64	0.016509242
178	0xbe0952cd	-0.13410492
179	0xbd29508e	-0.04133659
180	0xbe13bbd7	-0.14427124
181	0xbdeac7fd	-0.11463926
182	0xbc6dc58c	-0.014512431
183	0xbdb21ad3	-0.086965226
184	0xbb12d86d	-0.0022406832
185	0xbcfa9e39	-0.030593025
186	0xbd01e8c0	-0.03171611
187	0xbc9cdb0f	-0.019147424
188	0xbdf578ed	-0.119859554
189	0xbd79e3d3	-0.061008286
190	0xbdfb5cd4	-0.12273565
191	0xbd1722b1	-0.03689832
192	0xbc916f4d	-0.017753268
193	0x3d8fea9a	0.070271686
194	0xbdff4d72	-0.124659434
195	0xbd4a6207	-0.049409892
196	0xbe01429f	-0.1262307
197	0xbd04aa95	-0.032389242
198	0xbe08aaba	-0.13346377
199	0xb8ebf7f6	-0.000112518595
200	0xbd3170ff	-0.043320652
201	0xbd7c7518	-0.061635107
202	0x3dc7a213	0.0974771
203	0xbcff716a	-0.03118201
204	0xbd12654a	-0.035741128
205	0x3d16de5d	0.036833156
206	0xbdc92ead	-0.09823356
207	0xbd848846	-0.064713046
208	0xbc0f7b8f	-0.008757486
209	0x3d0f28a5	0.03495087
210	0x3da3379e	0.079695925
211	0x3d4de2e6	0.050265215
212	0x3c5c4f7a	0.013446683
213	0x3cdfbabd	0.027310723
214	0x3d42a64e	0.04752188
215	0xbdbb8ae0	-0.09157348
216	0xbd03578a	-0.032065906
217	0x3dbbcaae	0.091695175
218	0x3d2ef921	0.042718057
219	0x3c2f188b	0.010687004
220	0x3c6d81c8	0.014496274
221	0x3d48d7af	0.049033817
222	0x3c476c00	0.012171745
223	0x3cc02197	0.023453517
224	0x3d184c17	0.03718194
225	0x3db84477	0.08997434
226	0x3c47d301	0.012196303
227	0x3d6d4b5c	0.057933196
228	0x3db89eb7	0.090146475
229	0xbdd2616b	-0.10272487
230	0x3d253eeb	0.040343206
231	0xbd3218a4	-0.04348053
232	0xbd579d2f	-0.052640136
233	0xbda68ec6	-0.081327006
234	0x3db4fd09	0.08837325
235	0xbccf2112	-0.025284324
236	0xbd1af146	-0.037827753
237	0xbd96fed6	-0.07372825
238	0x3d9b635a	0.07587309
239	0x3d2d7623	0.042348992
240	0xbae5eaf0	-0.001754133
241	0x3cb2414b	0.02175965
242	0x3da6f5da	0.08152361
243	0xbdb287f9	-0.08717341
244	0xbd865365	-0.06558875
245	0xbdb5a70e	-0.08869754
246	0xbdaab4fc	-0.08335301
247	0xbd8a76d8	-0.06760949
248	0xbdd4fd1d	-0.1039984
249	0x3d0d71f1	0.03453249
250	0x3d76ee73	0.060285997
251	0xbc9f4c26	-0.01944549
252	0xbcb5d421	-0.022195878
253	0xbb55420f	-0.0032540595
254	0x3d5934c3	0.053028833
255	0xbcf06404	-0.029344566

rnn.bias_hh_l0 f4 [300]
0	0x3c8f511b	0.017494729
1	0x3d8cfcde	0.06884168
2	0xbd63cb06	-0.05561354
3	0xbd38df1c	-0.04513465
4	0x3bb94336	0.005653764
5	0xbd76d11b	-0.060258012
6	0x3dafbd9f	0.08581089
7	0xbdaac222	-0.08337809
8	0xbcabbc32	-0.020963762
9	0x3dfd46ef	0.12367045
10	0xbdbc17d5	-0.09184233
11	0x3da36c2a	0.07979615
12	0xbd434c7f	-0.047680374
13	0xbdac5535	-0.084146895
14	0x3dbb5672	0.091473475
15	0x3d0f583c	0.034996256
16	0x3da0a556	0.07844035
17	0x3d1a0130	0.03759879
18	0x3c77bb2d	0.01512031
19	0xbd0f726e	-0.035021238
20	0xbda8c1a0	-0.08240056
21	0xbd3c3929	-0.04595295
22	0x3d0d5bf1	0.03451151
23	0x3c70e877	0.014703861
24	0x3c8b6275	0.017014721
25	0x3dad6898	0.08467215
26	0x3c3bd350	0.011463955
27	0x3d836693	0.06416049
28	0xbd8432e0	-0.06455016
29	0xbbf8a77e	-0.007588326
30	0x3b459de4	0.0030153925
31	0xbd4a3238	-0.0493643
32	0x3dc67850	0.096909165
33	0xbd941fb8	-0.07232612
34	0xbd320358	-0.04346022
35	0x3c9f9084	0.01947809
36	0x3df1f561	0.118143804
37	0xbd73e3b0	-0.05954331
38	0xbd38feb9	-0.045164797
39	0x3cc25491	0.023721965
40	0x3d60c1ff	0.05487251
41	0xbd40cb15	-0.047068674
42	0xbd2136f0	-0.039359033
43	0x3d653a88	0.055964023
44	0xbccc4b22	-0.02493817
45	0xbd195ec5	-0.037443895
46	0xbdb42e78	-0.08797926
47	0xbda56ba3	-0.08077171
48	0x3d0e25bc	0.034703955
49	0x3db779b4	0.0895876
50	0x3d2ab736	0.04167863
51	0x3db13c1d	0.08654044
52	0x3d9dc045	0.07702688
53	0x3dae6813	0.08515944
54	0x3bcb66bf	0.0062073166
55	0x3d89d4e3	0.06730058
56	0x3dc9e937	0.09858935
57	0x3da13d68	0.078730404
58	0xbd8ef866	-0.06980972
59	0xbd02b5c6	-0.031911634
60	0x3cf1e213	0.029526746
61	0x3d0c4d42	0.034253366
62	0xbd03b2eb	-0.03215305
63	0x3c2bb3f1	0.010479913
64	0x3cfea380	0.031083822
65	0x3d171d71	0.036893312
66	0xbd97c1ce	-0.07410012
67	0xbab8718d	-0.0014071927
68	0x3dc85e62	0.09783627
69	0x3d5ccaa2	0.053904183
70	0xbd20ca9f	-0.039255735
71	0xbd3dad4b	-0.046307843
72	0x3bd6398b	0.0065376214
73	0x3d334b07	0.043772724
74	0xbe0700e7	-0.13183938
75	0xbddce9f9	-0.10786814
76	0x3d0c2682	0.03421641
77	0xbd196f67	-0.037459757
78	0x3db76b74	0.08956042
79	0x3d8a830f	0.06763279
80	0x3dbb7f79	0.09155173
81	0xbd9d0a57	-0.07667988
82	0x3e00f432	0.12593153
83	0x3d304c53	0.04304154
84	0xbd551a59	-0.05202708
85	0xbdd05d3c	-0.10174033
86	0x3d9fed6b	0.07808956
87	0x3da80094	0.08203235
88	0xbd7a1b8f	-0.06106144
89	0xbcc8dd19	-0.02451949
90	0xbcb08174	-0.021546103
91	0x3dbf9848	0.09355217
92	0xbd677ae8	-0.056513697
93	0x3ddf2f6b	0.10897716
94	0xbc9bc2f4	-0.01901386
95	0x3db9e576	0.09076969
96	0xbda2ec52	-0.07955231
97	0xbd0a951b	-0.033833604
98	0x3dcd62e0	0.100286245
99	0xbcd6d85a	-0.026226211
100	0xbde728e4	-0.11287096
101	0xbe2bd437	-0.16780172
102	0xbd8c19db	-0.06840869
103	0xbe0328bf	-0.12808512
104	0xbe0f03dd	-0.13966317
105	0x3bbb80af	0.0057221274
106	0xbd6408d8	-0.055672497
107	0x3d112576	0.035436116
108	0xbd3d5ccb	-0.046231072
109	0xbdd413f9	-0.10355372
110	0xbcfb2614	-0.030657806
111	0x3c7c4fc6	0.015399879
112	0xbe0a4c25	-0.1350561
113	0xbe2378bb	-0.15964024
114	0xbdab30f5	-0.08358947
115	0xbd95c897	-0.0731365
116	0xbd25e42e	-0.040500812
117	0x3b33ec09	0.002745392
118	0xbdc3cb39	-0.09560246
119	0x3bba1dda	0.005679828
120	0xba065789	-0.0005124738
121	0xbd75c026	-0.0599977
122	0xbdbb679d	-0.09150622
123	0xbb7dd043	-0.003872887
124	0xbcecab58	-0.028890297
125	0xbd899746	-0.06718306
126	0xbcbffd85	-0.023436317
127	0x3d009543	0.031392347
128	0xbbd480ef	-0.0064850966
129	0xbe2862f2	-0.16443995
130	0xbde0d6a6	-0.10978441
131	0xbc772275	-0.015083899
132	0xbdad2e79	-0.084561296
133	0xbd0fde4b	-0.035124104
134	0x3bc8a0e5	0.0061226957
135	0xbd2d0a6b	-0.042246263
136	0xbd9943ce	-0.07483636
137	0xbe2c829e	-0.16846702
138	0x3c5a5580	0.013326049
139	0xbd8c8913	-0.06862082
140	0x3cbf8ec9	0.023383515
141	0xbe1cf5b6	-0.15328106
142	0xbd3259c5	-0.043542642
143	0x3c8ec50f	0.01742795
144	0x3de17493	0.11008563
145	0x3d3cbf58	0.046080917
146	0xbe10ccba	-0.14140597
147	0xbe0a31a0	-0.13495493
148	0xbce2a290	-0.027665406
149	0xbdb46ea8	-0.088101685
150	0xbe0a0ec6	-0.13482198
151	0xbc968ccc	-0.018377684
152	0xbc3504c8	-0.011048503
153	0xbd2e8fd8	-0.04261765
154	0xbe187770	-0.14889312
155	0xbd7adcb7	-0.061245646
156	0xbdf10aad	-0.11769614
157	0xbe230848	-0.15921128
158	0xbbabb24d	-0.005239761
159	0x3cabb1dc	0.020958833
160	0xbc1db865	-0.009626483
161	0xbdd8c807	-0.10585027
162	0xbcdef39e	-0.027215775
163	0x3d8da688	0.06916529
164	0x3c2b69cb	0.010462235
165	0xbd812b82	-0.063071266
166	0xbc8bdf13	-0.017074144
167	0x3c747498	0.014920376
168	0xbb805662	-0.0039165476
169	0xbdebc101	-0.11511422
170	0xbe25ce65	-0.16192015
171	0xbe180355	-0.14845021
172	0xbda62470	-0.08112419
173	0xbd7e1401	-0.062030796
174	0x3b090ee5	0.002091342
175	0xbd194d9e	-0.037427537
176	0xbd156702	-0.03647519
177	0xbd2a66f2	-0.041602083
178	0xbda07108	-0.07834059
179	0xbdd45941	-0.10368586
180	0xbcbf4131	-0.023346515
181	0xbe0f8523	-0.14015631
182	0xbd69d373	-0.05708642
183	0xbc95bee8	-0.018279508
184	0xbd566ef8	-0.05235192
185	0xbdff97ea	-0.12480147
186	0xbcb3410f	-0.021881608
187	0xbc3cbc80	-0.011519551
188	0xbc7975e0	-0.0152258575
189	0x3c6d8a02	0.014498236
190	0xbdb9ed6a	-0.09078486
191	0xbdd51a84	-0.10405448
192	0xbd5429fc	-0.051797852
193	0x3c869d0e	0.016432311
194	0xbd3d1809	-0.0461655
195	0xbcaae5cb	-0.020861527
196	0xbe39d845	-0.18148907
197	0x3b5a7dee	0.003333922
198	0xbd93c171	-0.072146304
199	0x3c756826	0.014978444
200	0xbd5e8e49	-0.054334912
201	0x3d065f00	0.032805443
202	0x3d9432db	0.072362624
203	0x3dc8bb18	0.0980131
204	0xbc54d303	-0.012989762
205	0x3c826520	0.01591736
206	0xbd01d547	-0.031697538
207	0x3d64a2f6	0.055819474
208	0xbdc0b43f	-0.09409379
209	0xbc31d07f	-0.010852932
210	0x3db35dd5	0.087581314
211	0x3d114dc1	0.035474543
212	0x3cbec20b	0.023285886
213	0xbd2893b9	-0.041156504
214	0xbcbca120	-0.02302605
215	0x3dbaddba	0.09124322
216	0x3d37f572	0.04491181
217	0xbd8d2fe5	-0.06893901
218	0xbcea4d9f	-0.028601466
219	0xbd588816	-0.052864157
220	0x3d6396e4	0.055563822
221	0x3b3171f3	0.0027075976
222	0xbd4e51c0	-0.05037093
223	0x3d85501f	0.065094225
224	0x3d0f736e	0.03502219
225	0x3d4dd129	0.0502483
226	0x3d88a826	0.06672697
227	0xbdee500d	-0.11636362
228	0x3d81a3a5	0.06330041
229	0x3d9d6210	0.076847196
230	0xbd9ccf84	-0.07656768
231	0xba621be0	-0.00086253695
232	0x3dcf8e05	0.1013451
233	0x3c9f91d3	0.019478714
234	0xbc572f3d	-0.013133821
235	0xbca6b08c	-0.020347856
236	0x3d9909b4	0.07472554
237	0x3d3dd5b5	0.046346385
238	0x3d106312	0.03525073
239	0xba8ba785	-0.0010654783
240	0x3dcda1ab	0.10040601
241	0xbd388e4c	-0.04505758
242	0xbd3548a0	-0.044258714
243	0x3d3bdeab	0.04586665
244	0xba5420cc	-0.00080920453
245	0xbd917846	-0.071030185
246	0xbdac1e98	-0.08404273
247	0xbda01f3d	-0.07818458
248	0x3dbcd870	0.0922097
249	0x3d9fdbb2	0.078055754
250	0xbcf6cce6	-0.030127
251	0x3d1d6ec5	0.038435716
252	0x3d3928df	0.045204993
253	0xbdd38da5	-0.10329751
254	0xbdd9b463	-0.10630109
255	0xbdb604be	-0.08887623

linear.weight f4 [1, 100]
0	0x3db747b5	0.08949224
1	0xbd290eff	-0.041274067
2	0x3ddb8f5e	0.107207045
3	0x3dec8a48	0.115498126
4	0x3da3ef7b	0.08004662
5	0x3c8dc2a4	0.017304726
6	0xbbe121e5	-0.0068704956
7	0x3d04f76a	0.032462515
8	0x3d7818df	0.060570594
9	0xbd9a8a1d	-0.07545874
10	0xbdeb4508	-0.11487776
11	0x3d8fd5c3	0.07023194
12	0xbddc832b	-0.10767206
13	0xbd89e9d9	-0.06734056
14	0x3d84ae1f	0.064785235
15	0xbded4faf	-0.11587464
16	0x3dae5708	0.08512694
17	0x3dfc7318	0.1232664
18	0xbdbb022c	-0.091312736
19	0xbd2e6faa	-0.04258696
20	0x3d04725a	0.032335617
21	0x3d7fd6ff	0.062460896
22	0x3df3e186	0.119082496
23	0x3d335054	0.04377778
24	0x3d42b300	0.04753399
25	0xbc7eb73f	-0.015546619
26	0x3d837ef0	0.06420696
27	0xbd8730ee	-0.066011295
28	0x3c9831f6	0.01857851
29	0x3b2f844c	0.0026781736
30	0x3c2a350f	0.010388627
31	0x3d29668f	0.041357573
32	0x3d84032c	0.064459175
33	0x3d805828	0.062668145
34	0x3d94183b	0.07231184
35	0x3ce16604	0.027514465
36	0xbdbb01b5	-0.09131185
37	0xbca65c65	-0.020307729
38	0xbd5a5496	-0.053303324
39	0x3d068073	0.032837342
40	0x3c8eb2af	0.017419187
41	0x3dc3c1e2	0.095584646
42	0x3b66d01b	0.0035219255
43	0x3d672e6a	0.05644075
44	0x3d6cebc4	0.05784203
45	0xbd181b9c	-0.037135705
46	0x3dca859f	0.098887675
47	0xbca4509c	-0.020057969
48	0xbd916c06	-0.07100682
49	0x3d7144ce	0.058903508
50	0x3ddfcb1e	0.109274134
51	0xbd98ac4d	-0.07454739
52	0x3d9d79f8	0.07689279
53	0x3d063507	0.032765415
54	0xbdbdf431	-0.092750914
55	0x3d882c7d	0.066491105
56	0xbde17ee1	-0.11010528
57	0xbddc5f15	-0.10760323
58	0x3d81e676	0.06342785
59	0x3d944d11	0.07241262
60	0xbc820524	-0.015871592
61	0x3dd688a9	0.104752846
62	0xbd860505	-0.06543926
63	0xbd304d13	-0.043042254
64	0xbd324c35	-0.043529708
65	0xbd9725da	-0.073802665
66	0xbdc3af54	-0.095549256
67	0x3d9536aa	0.07285817
68	0x3da91e92	0.08257784
69	0xbcc47d7e	-0.02398562
70	0x3dd3b160	0.10336566
71	0x3d342ad4	0.043986157
72	0x3d5556ca	0.05208472
73	0x3dad624a	0.08466013
74	0xbd711b15	-0.058863718
75	0x3bf5a893	0.0074969023
76	0xbdc7a89b	-0.09748956
77	0x3db49132	0.08816756
78	0xbdf66e6e	-0.120327815
79	0x3d7eae78	0.062178105
80	0x3d8d9dd0	0.06914866
81	0xbdcac3cb	-0.09900626
82	0xbda8181e	-0.08207725
83	0x3c607267	0.013699151
84	0xbd4cfcee	-0.0500459
85	0xbdc3c043	-0.095581554
86	0x3deef99e	0.116687045
87	0x3de569d0	0.11201823
88	0x3bc7973c	0.0060910266
89	0xbdf9759c	-0.12180635
90	0xbdcb82dd	-0.099370696
91	0x3d69b422	0.057056554
92	0xbdb057ea	-0.08610518
93	0x3d4e5dd6	0.050382458
94	0xbdb5c836	-0.08876078
95	0x3d779936	0.060448848
96	0x3d93e7ee	0.072219715
97	0x3c13d42d	0.009022755
98	0x3de03843	0.10948231
99	0xbdec9355	-0.11551539
