backend/trained_models/SCB_GRU_model_state_dict.pth (torch, 126714 bytes, 5 tensors)

rnn.weight_ih_l0 f4 [300, 1]
0.068941794 0.035778195 -0.05367613 0.03343036 0.019740634 -0.055869017 0.12595738 0.005493068
0.026355779 -0.025217991 0.056346707 0.040863488 -0.0069811437 -0.07051133 -0.06841979 -0.028310146
-0.030817846 0.11808217 -0.026657496 0.033993177 0.0036964118 -0.018945433 -0.039287005 0.07488462
-0.049771957 0.09241325 0.120895386 0.091726385 0.1224189 -0.024922479 0.0013746188 -0.05771759
-0.049728535 -0.082447566 0.021157587 -0.07583284 -0.0026718737 -0.03369013 0.09829121 0.057794716
0.04614043 -0.006212983 0.11563767 0.122141704 -0.056454804 0.03387525 -0.046247672 0.12021165
0.04905361 0.081583165 0.10880918 -0.040941786 -0.08145673 0.009033158 0.0018117311 0.060560625
0.013055758 -0.001686502 -0.08770528 0.034906317 -0.04927232 -0.03556149 0.097356595 0.03801112
0.12090848 -0.017252488 0.096865885 -0.068805054 0.041347794 0.111856155 -0.020398239 0.052764177
-0.11078124 -0.09190571 0.0038944385 0.0179709 0.07258383 0.053797603 -0.003535652 -0.0035830422
0.06925276 -0.025359498 -0.04216359 -0.068451375 -0.07600426 0.04167687 -0.02335027 -0.10718644
0.05955091 -0.014766901 -0.11611875 0.06867488 0.015029293 -0.0833842 0.089032575 -0.052257266
0.018862003 0.12623867 0.08906459 8.207315e-05 -0.054493885 0.09666694 -0.06244707 0.010994416
-0.05543768 0.015125733 -0.047374386 0.016587658 0.053820405 0.046539795 -0.041928843 -0.08158366
-0.0029554118 -0.0021704899 -0.05957961 -0.077435546 0.015567959 -0.10018239 0.040700868 -0.048584074
-0.12964211 -0.12430105 -0.13684626 -0.04539669 -0.10956417 0.013903455 -0.02350569 -0.0052477964
-0.060008116 -0.17979218 -0.16059329 -0.029922303 -0.023138134 0.02588106 -0.110440485 -0.05459555
-0.14996895 -0.0905774 0.08963878 0.05600984 -0.11068456 0.07311253 -0.15094362 -0.055166557
-0.038354687 0.102044754 -0.16462594 -0.12919939 -0.04718804 -0.086703286 0.043952536 -0.001997153
-0.16536574 0.047225103 -0.062811345 -0.07496854 -0.06902794 -0.13630079 -0.15432835 -0.14874464
0.014802757 -0.002645802 0.043022525 -0.05272349 -0.036788613 0.053973217 -0.06652705 -0.012674629
-0.059727684 -0.03198228 -0.11497256 -0.16060372 -0.13872892 0.06871503 0.0216797 -0.117185846
-0.076297805 -0.029562773 -0.040119234 -0.1389926 -0.006314019 0.041199293 0.0037401824 -0.05273038
-0.11173331 -0.10411284 -0.12265329 -0.078174375 -0.023896797 -0.1419356 -0.11623409 0.036290564
-0.04306105 0.04652327 -0.07971331 0.02238328 -0.036533944 -0.1337536 -0.08314197 -0.11989069
0.06885096 0.0028057196 -0.05607006 0.06845139 0.049340736 -0.051641427 -0.01647369 -0.072720274
0.027177177 0.017281722 0.026286827 -0.11291211 0.07366726 -0.04720831 -0.11894011 0.062725484
0.049670916 0.06730471 -0.0012261487 -0.12227648 0.0136213545 -0.090091445 -0.030546425 0.07212624
0.09008227 -0.08377731 -0.010006117 0.10355293 0.1106808 -0.087514125 0.12770185 -0.044832848
-0.11928422 -0.12923361 0.024890637 0.080775976 -0.042223074 -0.07721487 -0.07222124 -0.07757055
0.057007026 -0.04554351 -0.0708015 -0.05739764 -0.06291114 -0.064217396 -0.034381382 -0.023280438
-0.123813994 0.11940888 0.02952074 0.119746946 -0.11381358 -0.016533708 0.04074882 0.004694997
00000000: 5b31 8d3d 288c 123d 80db 5bbd 46ee 083d
00000010: 1cb7 a13c e9d6 64bd f9fa 003e 32ff b33b
00000020: 13e8 d73c f695 cebc cecb 663d 7960 273d
00000030: 14c2 e4bb 3f68 90bd ad1f 8cbd aeea e7bc
00000040: b575 fcbc 11d5 f13d d260 dabc 6e3c 0b3d
00000050: 803f 723b 7433 9bbc 69eb 20bd 1c5d 993d
00000060: aedd 4bbd 2843 bd3d 0098 f73d 0bdb bb3d
00000070: c3b6 fa3d 3a2a ccbc 8e2c b43a 4869 6cbd
00000080: 26b0 4bbd 45da a8bd ad52 ad3c 3f4e 9bbd
00000090: 9a1a 2fbb a9fe 09bd e74c c93d 27ba 6c3d
000000a0: bffd 3c3d 4796 cbbb 71d3 ec3d 6e25 fa3d
000000b0: 273d 67bd c6c0 0a3d 336e 3dbd 8731 f63d
000000c0: 70ec 483d 1315 a73d 59d7 de3d 93b2 27bd
000000d0: c9d2 a6bd d0ff 133c 9c77 ed3a 6b0e 783d
000000e0: d1e7 553c 9e0d ddba d39e b3bd edf9 0e3d
000000f0: c6d1 49bd eda8 11bd e562 c73d 8cb1 1b3d
00000100: dd9e f73d 1755 8dbc 9f61 c63d aae9 8cbd
00000110: 4e5c 293d d714 e53d 351a a7bc 401f 583d
00000120: 46e1 e2bd 1039 bcbd d639 7f3b b537 933c
00000130: d5a6 943d e05a 5c3d 66b6 67bb 79d1 6abb
00000140: 64d4 8d3d b9be cfbc bbb3 2cbd 3c30 8cbd
00000150: 1fa8 9bbd 5eb5 2a3d 1149 bfbc 9084 dbbd
00000160: a8eb 733d dff0 71bc abcf edbd 6aa5 8c3d
00000170: 6c3d 763c 56c5 aabd b656 b63d b70b 56bd
00000180: 7d84 9a3c b644 013e 7f67 b63d b01e ac38
00000190: fb34 5fbd 51f9 c53d 80c8 7fbd ec21 343c
000001a0: 9f12 63bd ecd1 773c a50b 42bd d7e2 873c
000001b0: c972 5c3d 83a0 3e3d 94bd 2bbd 5515 a7bd
000001c0: 95af 41bb c73e 0ebb c009 74bd 8796 9ebd
000001d0: c110 7f3c 6d2c cdbd f4b5 263d 1800 47bd
000001e0: e7c0 04be 8d91 febd 6d21 0cbe e1f1 39bd
000001f0: 2e63 e0bd 51cb 633c 018f c0bc b5f5 abbb
00000200: 12cb 75bd 711b 38be 9172 24be 9e1f f5bc
00000210: 2f8c bdbc 8404 d43c 9f2e e2bd 959f 5fbd
00000220: 7691 19be a580 b9bd 8994 b73d 936a 653d
00000230: 96ae e2bd 06bc 953d f790 1abe 54f6 61bd
00000240: ce19 1dbd d7fc d03d b493 28be d84c 04be
00000250: 3f48 41bd 7e91 b1bd 9307 343d abe2 02bb
00000260: a355 29be 1c6f 413d 3ca3 80bd 1b89 99bd
00000270: 855e 8dbd 6f92 0bbe 4008 1ebe 8450 18be
00000280: 4387 723c 3165 2dbb 6338 303d 96f4 57bd
00000290: a8af 16bd 0513 5d3d 563f 88bd 3fa9 4fbc
000002a0: 04a5 74bd daff 02bd bc76 ebbd 4d75 24be
000002b0: f40e 0ebe 77ba 8c3d a099 b13c 22ff efbd
000002c0: 0642 9cbd a12d f2bc 1154 24bd 1354 0ebe
000002d0: d5e5 cebb 97c0 283d d91d 753b d0fb 57bd
000002e0: 6fd4 e4bd 1d39 d5bd a631 fbbd e319 a0bd
000002f0: 37c3 c3bc 9157 11be 230c eebd 6aa5 143d
00000300: c960 30bd 2f8f 3e3d bb40 a3bd 245d b73c
00000310: 9ea4 15bd b4f6 08be 5646 aabd 4089 f5bd
00000320: bb01 8d3d 2ae0 373b b8a9 65bd 3e30 8c3d
00000330: 8319 4a3d f685 53bd d5f3 86bc 5eee 94bd
00000340: aca2 de3c 6692 8d3c 7957 d73c 773e e7bd
00000350: dcde 963d 805d 41bd df96 f3bd 3876 803d
00000360: bb73 4b3d 0dd7 893d b9b6 a0ba 176c fabd
00000370: 1a2c 5f3c dd81 b8bd 7f3c fabc ecb6 933d
00000380: 0e7d b83d 7093 abbd b2f0 23bc 8f13 d43d
00000390: 9eac e23d 9b3a b3bd 46c4 023e a6a2 37bd
000003a0: 494b f4bd d155 04be 73e7 cb3c e06d a53d
000003b0: 1af2 2cbd d422 9ebd bbe8 93bd 4fdd 9ebd
000003c0: 3380 693d d58b 3abd 6000 91bd ca19 6bbd
000003d0: 8ed7 80bd 6984 83bd 7ed3 0cbd 9eb6 bebc
000003e0: 3192 fdbd a58c f43d 7bd5 f13c e33d f53d
000003f0: 1817 e9bd b371 87bc 3ce8 263d 7dd8 993b

rnn.weight_hh_l0 f4 [300, 100]
-0.058609016 -0.0041456376 0.063802026 -0.044590198 -0.059531517 -0.102575205 0.0188397 0.06544427
0.084862575 0.005395771 0.09837123 0.051585723 -0.071282424 -0.09158503 -0.020739164 0.011482231
0.03683916 -0.04176518 0.029999863 0.004881 -0.04256358 -0.072973505 -0.060868822 0.029158015
0.078510255 -0.029298168 -0.061763294 0.041331425 -0.08653821 0.05656769 0.071446165 -0.012007229
-0.02926887 -0.108332336 -0.051992945 0.035113804 0.03430127 -0.0726247 -0.07675496 0.008321997
-0.05694779 -0.0087191 0.051523328 0.0024808664 -0.015416072 -0.09177618 0.11283453 0.005778363
-0.023562936 0.05732936 -0.032530315 -0.07525031 -0.086105086 -0.092172086 -0.0003704541 -0.073745884
-0.06877623 -0.02920343 0.016412808 -0.012005003 0.049929127 0.040912658 -0.031784892 0.039085146
0.11001963 0.041145254 0.096132465 0.0047841812 0.029263617 -0.101991326 -0.01566586 -0.037389975
-0.06701822 0.034349833 -0.009740941 0.0126038175 -0.016196448 0.072657876 0.11251909 -0.011036547
-0.057129286 -0.06744363 -0.008678157 -0.07194971 0.020625252 0.07763494 -0.0816227 -0.062005047
-0.022853857 0.019634398 -0.013621679 -0.022497399 0.03000572 -0.024878383 -0.048458487 -0.083612144
-0.1037673 0.068501934 -0.06413881 0.04408663 0.060318757 0.0038681198 0.032973137 0.043224767
0.07083394 0.07939014 0.012769345 -0.051482882 0.017709766 0.079459414 -0.08350737 -0.06133079
-0.016107602 0.014807324 0.010854454 -0.07885722 -0.027884882 -0.020882977 -0.029255204 -0.017980218
-0.026788352 0.04909821 -0.037473086 0.03789128 -0.05967076 -0.015900783 -0.04764112 -0.057447106
-0.08504159 -0.039735086 0.035279512 -0.08654915 0.07122914 -0.054860987 0.013646519 0.069621064
-0.0022074052 -0.024940029 -0.061824854 -0.07357094 -0.013404035 0.027431682 -0.09722291 0.0048593106
0.08203122 -0.06398743 0.034241 0.075027704 0.07950821 -0.09118275 -0.023541594 0.071492545
-0.01669427 0.046040222 0.11191637 0.016039388 0.02530973 0.09754416 -0.07517388 -4.897971e-05
-0.00040200836 0.042241644 0.026159538 0.01216257 -0.022356514 -0.043286804 -0.052999325 -0.07091472
-0.011483647 -0.07288635 -0.09025484 0.05572679 -0.06534394 0.0598501 0.05285844 0.016361307
0.047556985 -0.08244206 -0.038834095 -0.10492868 -0.011794186 0.05494575 0.019553293 0.07837164
-0.051484983 -0.0363893 -0.08411732 -0.079197936 0.08804226 -0.061646342 0.015424738 -0.044989016
-0.044936247 0.106727935 -0.099409565 -0.05643577 -0.099293664 0.075831406 -0.07993225 -0.049434945
0.09354224 0.06961704 0.08583512 0.094580606 0.067304775 0.021079896 -0.06729176 -0.12082068
-0.05576817 0.002178507 0.094119035 -0.0442679 0.06826639 -0.07956932 -0.03896989 0.016214177
0.0196496 -0.06336861 -0.100290716 -0.10826507 0.001475504 -0.04792019 0.006732078 -0.07426895
0.0916383 -0.032715894 0.00052303023 -0.021569222 0.11011771 -0.029589785 -0.044065338 -0.0971037
-0.020066043 -0.12004599 0.07521669 -0.037311155 -0.055788886 -0.11100616 -0.04793023 0.013934251
0.00984687 0.013336429 0.04293751 -0.05865842 -0.11883139 -0.09341728 0.043004774 -0.11912061
-0.12272536 0.05671403 -0.06551353 0.09020924 -0.013051132 0.070238784 0.059367266 -0.019443316
00000000: 0210 70bd 21d8 87bb a3aa 823d 36a4 36bd
00000010: 52d7 73bd f312 d2bd b755 9a3c a507 863d
00000020: 6ecc ad3d 02cf b03b db76 c93d 8d4b 533d
00000030: 85fc 91bd ef90 bbbd 2ee5 a9bc f81f 3c3c
00000040: a9e4 163d f711 2bbd 46c2 f53c ccf0 9f3b
00000050: 2657 2ebd 2273 95bd 9651 79bd cadc ee3c
00000060: fcc9 a03d b602 f0bc 82fb 7cbd 244b 293d
00000070: f23a b1bd 86b3 673d 5e52 923d f8b9 44bc
00000080: 45c5 efbc 58dd ddbd 8ef6 54bd 7ed3 0f3d
00000090: 7d7f 0c3d 42bc 94bd b431 9dbd fc58 083c
000000a0: 1642 69bd 8eda 0ebc 200a 533d 0896 223b
000000b0: b193 7cbc 26f5 bbbd ca15 e73d 6c58 bd3b
000000c0: 0f07 c1bc 31d2 6a3d 823e 05bd d61c 9abd
000000d0: dd57 b0bd b8c4 bcbd 8239 c2b9 1508 97bd
000000e0: 8dda 8cbd 083c efbc 2774 863c a2b0 44bc
000000f0: 7c82 4c3d 0894 273d e030 02bd bf17 203d
00000100: f951 e13d ed87 283d 19e1 c43d 9fc4 9c3b
00000110: 41ba ef3c d4e0 d0bd b155 80bc 3b26 19bd
00000120: d940 89bd 69b2 0c3d 7898 1fbc 3e80 4e3c
00000130: 6aae 84bc a7cd 943d 6970 e63d a2d2 34bc
00000140: 6600 6abd e31f 8abd d42e 0ebc 5f5a 93bd
00000150: 4af6 a83c 11ff 9e3d cd29 a7bd 01f9 7dbd
00000160: 0338 bbbc 51d8 a03c 762d 5fbc 774c b8bc
00000170: 8ece f53c c0cd cbbc 687c 46bd d83c abbd
00000180: f383 d4bd be4a 8c3d 355b 83bd 2f94 343d
00000190: cd10 773d 4880 7d3b d70e 073d 740c 313d
000001a0: 6211 913d 4c97 a23d 8436 513c b7df 52bd
000001b0: 1214 913c 9ebb a23d e905 abbd ff35 7bbd
000001c0: 17f4 83bc 6b9a 723c e1d6 313c e57f a1bd
000001d0: d66e e4bc c712 abbc 9ca8 efbc 404b 93bc
000001e0: 3f73 dbbc 341b 493d 617d 19bd e333 1b3d
000001f0: 5469 74bd 5c42 82bc 5623 43bd a84d 6bbd
00000200: 492a aebd 42c1 22bd 4081 103d ae40 b1bd
00000210: 95e0 913d eab5 60bd a695 5f3c 7d95 8e3d
00000220: 1daa 10bb 084f ccbc 0f3c 7dbd 5cac 96bd
00000230: 999c 5bbc 68b8 e03c ce1c c7bd da3a 9f3b
00000240: fcff a73d d70b 83bd 4a40 0c3d 20a8 993d
00000250: 33d5 a23d 06be babd 4dda c0bc af6a 923d
00000260: 6cc2 88bc ac94 3c3d 6934 e53d 0965 833c
00000270: 5a56 cf3c 3cc5 c73d c3f4 99bd 906f 4db8
00000280: a6c4 d2b9 9305 2d3d 874c d63c 8445 473c
00000290: 0225 b7bc 814d 31bd d215 59bd bd3b 91bd
000002a0: e825 3cbc 7045 95bd 88d7 b8bd c641 643d
000002b0: 0bd3 85bd 6125 753d 1782 583d 2608 863c
000002c0: 1dcb 423d 62d7 a8bd 8010 1fbd d9e4 d6bd
000002d0: 673c 41bc cb0e 613d 3a2e a03c 4f81 a03d
000002e0: ebe1 52bd f20c 15bd b445 acbd 8732 a2bd
000002f0: 804f b43d e080 7cbd 0ab8 7c3c 6746 38bd
00000300: 120f 38bd 2d94 da3d 3e97 cbbd 3229 67bd
00000310: 7a5a cbbd 7f4d 9b3d 85b3 a3bd 4c7c 4abd
00000320: 1393 bf3d 6193 8e3d 53ca af3d 7ab3 c13d
00000330: 16d7 893d bfaf ac3c 43d0 89bd d570 f7bd
00000340: 2a6d 64bd 48c5 0e3b 7bc1 c03d 4252 35bd
00000350: 40cf 8b3d 3df5 a2bd e49e 1fbd 98d3 843c
00000360: 33f8 a03c 67c7 81bd 3865 cdbd 14ba ddbd
00000370: b365 c13a f647 44bd c398 dc3b 521a 98bd
00000380: dcac bb3d 1a01 06bd f71b 093a f0b1 b0bc
00000390: 6585 e13d 4766 f2bc db7d 34bd 4ede c6bd
000003a0: 8b61 a4bc acda f5bd 350b 9a3d 95d3 18bd
000003b0: e382 64bd 3357 e3bd 7d52 44bd 7c4c 643c
000003c0: c454 213c 0a81 5a3c 3edf 2f3d d043 70bd
000003d0: df5d f3bd 8f51 bfbd c625 303d 82f5 f3bd
000003e0: 6f57 fbbd f94c 683d f52b 86bd 9fbf b83d
000003f0: 6ad4 55bc 5ad9 8f3d 172b 733d 9747 9fbc

rnn.bias_ih_l0 f4 [300]
-0.019299565 -0.020932743 0.1213063 0.115861796 0.007556559 -0.04777233 0.017845273 -0.07002177
-0.067830354 0.03825853 0.12026531 0.021446517 0.05071195 -0.028855579 0.030268967 0.004780784
0.06687937 -0.058591332 -0.08862804 0.0089545315 0.06813595 -0.070274994 0.057332274 0.06321127
0.038193658 0.040665273 0.054033842 0.019206913 0.0850236 0.047343563 0.006231594 -0.014856229
0.00585615 -0.06203624 -0.07656713 -0.025926458 0.09335608 0.04724802 0.05631236 -0.06475209
0.10873694 -0.047641847 0.055567916 0.11573889 0.063699126 0.084700264 -0.020419652 -0.048987616
-0.12093319 0.013672267 -0.06371771 -0.01053823 0.06541802 0.08478257 -0.0042853174 0.011882272
0.0013974056 0.09044677 0.014170944 -0.0087602055 -0.023032844 0.0028121925 -0.0018387196 -0.0803434
0.09871818 -0.06913732 0.012200495 0.048428472 -0.0187537 0.02610644 -0.09286894 0.10358198
0.00943565 -0.002789701 0.085935436 -0.04534814 0.092886955 -0.08169633 0.029723825 0.045365695
0.058048863 -0.07062848 -0.032008834 -0.035723813 0.028868599 -0.023063479 0.07562096 -0.063442625
0.018412968 -0.0029849238 0.046478353 -0.009515357 0.06480676 -0.043401383 -0.070603244 0.12333344
-0.08056342 0.053986825 0.072251506 0.06863031 -0.020418638 -0.0014909764 0.056606863 -0.08180991
-0.13994794 -0.057169825 -0.06624802 -0.124642566 0.075958915 0.023744417 -0.06378674 -0.1420205
-0.07665233 -0.051497947 -0.06134536 -0.14171799 -0.04834062 -0.09473782 -0.031371046 -0.15283369
-0.111612715 -0.009445313 0.037600715 0.0071864775 -0.06703128 -0.15416516 -0.14808506 -0.024153534
-0.1536842 -0.09337269 0.0050221602 0.061126124 -0.10737862 -0.14188848 -0.026935102 -0.09194783
-0.041132234 -0.07402559 0.06952629 0.054486223 -0.06792751 -0.09159379 -0.10543808 -0.14554173
-0.16377415 0.01672992 -0.01044581 -0.006625155 -0.116238415 0.0086899055 -0.10395522 -0.01818606
-0.039610162 -0.04877767 0.07462959 0.010645036 -0.0006474906 -0.0018945454 -0.14867055 -0.052639976
-0.088699706 -0.09249756 -0.026794005 0.041401397 -0.15685727 0.0259126 -0.056779236 0.021368284
-0.073336884 -0.09108519 -0.06583575 -0.11367218 -0.09546504 -0.03925394 -0.11863927 -0.036026046
-0.01454511 -0.10229249 -0.098721996 -0.15993802 -0.0022420725 -0.024345715 -0.13943031 -0.16831589
-0.08120263 0.04237474 -0.0011337181 -0.15964511 -0.12773202 -0.017600534 -0.0799155 -0.059610263
-0.11293558 -0.0062815826 -0.06780065 0.0584182 -0.018715968 -0.051401936 -0.004224965 -0.0782252
0.052685615 0.073448695 0.005551912 -0.055661105 0.07540826 0.0060210587 -0.07797926 -0.0066744927
0.06101241 -0.09738587 -0.05800465 0.02116268 0.0148440255 -0.08113503 0.052657094 -0.06887815
-0.022577962 0.07943929 -0.05672295 0.002573442 -0.060666084 -0.018975995 -0.044416025 0.036930438
0.0074335537 0.07690685 -0.038277406 -0.04391412 -0.07634418 0.0019087577 0.066020034 -0.007081027
-0.04839516 -0.06938811 0.08889094 0.06281657 -0.03754751 0.0826381 0.049087126 0.034670107
0.08116166 -0.033832334 -0.07084494 -0.029271346 -0.028260613 -0.043190017 0.037521545 0.049456928
-0.08126341 -0.07016459 -0.06894751 0.09362716 0.025636986 -0.08679243 0.05008156 0.03513294
00000000: 1f1a 9ebc 257b abbc 706f f83d f348 ed3d
00000010: 039d f73b ebac 43bd 4030 923c 9367 8fbd
00000020: a4ea 8abd fab4 1c3d a94d f63d 9bb0 af3c
00000030: 55b7 4f3d 8962 ecbc a0f6 f73c 1fa8 9c3b
00000040: 0df8 883d 77fd 6fbd 9e82 b5bd 07b6 123c
00000050: dc8a 8b3d 56ec 8fbd 3fd5 6a3d e974 813d
00000060: f470 1c3d a190 263d 9752 5d3d d157 9d3c
00000070: da20 ae3d 53eb 413d 6632 cc3b 8a67 73bc
00000080: f2e4 bf3b b619 7ebd 3acf 9cbd b963 d4bc
00000090: 7931 bf3d 2487 413d caa7 663d be9c 84bd
000000a0: 79b1 de3d 1924 43bd 2f9b 633d 8308 ed3d
000000b0: b074 823d 5577 ad3d 1d47 a7bc 3da7 48bd
000000c0: d2ab f7bd a501 603c 6e7e 82bd 8aa8 2cbc
000000d0: e2f9 853d 7ca2 ad3d d96b 8cbb dcad 423c
000000e0: 2729 b73a 283c b93d 3f2d 683c f786 0fbc
000000f0: 60af bcbc c34c 383b 3101 f1ba 158b a4bd
00000100: c22c ca3d de97 8dbd 96e4 473c ef5c 463d
00000110: 5ca1 99bc 2cdd d53c 1232 bebd ca22 d43d
00000120: fc97 1a3c 6bd3 36bb ebfe af3d f9be 39bd
00000130: 843b be3d 6850 a7bd 617f f33c 61d1 393d
00000140: a5c4 6d3d aaa5 90bd b21b 03bd 2253 12bd
00000150: d77d ec3c 9fef bcbc 29df 9a3d 35ee 81bd
00000160: cbd6 963c b69e 43bb 1660 3e3d 4de6 1bbc
00000170: 68b9 843d a6c5 31bd 6f98 90bd 3e96 fc3d
00000180: 6ffe a4bd 4a21 5d3d 99f8 933d 0c8e 8c3d
00000190: fd44 a7bc de6c c3ba 99dc 673d f48b a7bd
000001a0: 834e 0fbe e82a 6abd 0bad 87bd 9a44 ffbd
000001b0: 5990 9b3d a783 c23c 9fa2 82bd d26d 11be
000001c0: e6fb 9cbd 83ef 52bd 4645 7bbd 851e 11be
000001d0: d000 46bd e705 c2bd ed7e 00bd 6f80 1cbe
000001e0: 3595 e4bd 84c0 1abc 3503 1a3d 8b7c eb3b
000001f0: b247 89bd 79dd 1dbe 9ca3 17be a2dd c5bc
00000200: 645f 1dbe 2e3a bfbd ef90 a43b 635f 7a3d
00000210: 52e9 dbbd 374b 11be 01a7 dcbc 254f bcbd
00000220: 467a 28bd bb9a 97bd cd63 8e3d f22c 5f3d
00000230: 941d 8bbd 8695 bbbd ecef d7bd e408 15be
00000240: 69b4 27be 2f0d 893c e724 2bbc d417 d9bb
00000250: 680e eebd 1b60 0e3c 79e6 d4bd effa 94bc
00000260: 443e 22bd 18cb 47bd 66d7 983d 8468 2e3c
00000270: 5cbc 29ba 6552 f8ba 183d 18be 049d 57bd
00000280: 31a8 b5bd 5c6f bdbd 1a7f dbbc 8394 293d
00000290: 319f 20be a946 d43c 5891 68bd 8a0c af3c
000002a0: a631 96bd df8a babd e5d4 86bd f6cc e8bd
000002b0: 2d83 c3bd bdc8 20bd 25f9 f2bd 0c90 13bd
000002c0: 9d4e 6ebc ba7e d1bd c22e cabd cbc6 23be
000002d0: bcef 12bb aa70 c7bc d2c6 0ebe 005b 2cbe
000002e0: 914d a6bd 2391 2d3d 4499 94ba 027a 23be
000002f0: 2fcc 02be ff2e 90bc bdaa a3bd e429 74bd
00000300: c54a e7bd bcd5 cdbb 11db 8abd ec47 6f3d
00000310: 3b52 99bc d68a 52bd 9371 8abb 8934 a0bd
00000320: dfcc 573d 456c 963d d0ec b53b e6fc 63bd
00000330: a56f 9a3d 4d4c c53b 97b3 9fbd b4b5 dabb
00000340: 26e8 793d 3e72 c7bd 4996 6dbd 5b5d ad3c
00000350: 5b34 733c 1f2a a6bd f7ae 573d fd0f 8dbd
00000360: 6bf5 b8bc 11b1 a23d 5356 68bd 31a7 283b
00000370: 007d 78bd 8c73 9bbc 94ed 35bd 5f44 173d
00000380: 2b95 f33b 5781 9d3d c5c8 1cbd 4bdf 33bd
00000390: 565a 9cbd 482f fa3a 8335 873d f607 e8bb
000003a0: 013a 46bd 5a1b 8ebd 740c b63d f9a5 803d
000003b0: 6bcb 19bd 2a3e a93d 950f 493d 3e02 0e3d
000003c0: 1638 a63d c693 0abd 2717 91bd 76ca efbc
000003d0: cd82 e7bc 04e8 30bd 31b0 193d 5993 4a3d
000003e0: 6e6d a6bd 74b2 8fbd 5a34 8dbd 99bf bf3d
000003f0: a804 d23c 3bc0 b1bd 5222 4d3d 8fe7 0f3d

rnn.bias_hh_l0 f4 [300]
-0.016501818 -0.07279977 -0.021540748 -0.051737264 0.06586351 -0.021727134 0.0321017 0.0881704
0.012730042 0.072254755 0.08979165 0.043756697 0.05293622 -0.04717908 0.09661098 -0.08517696
-0.02826114 0.07186163 -0.033092313 0.050538052 0.0041390196 0.115590006 0.037367757 -0.008160714
0.10793139 -0.014428527 0.07269338 0.07681574 -0.049840152 0.052288067 0.06411353 -0.09485984
0.013270814 -0.035218176 -0.004499092 0.06181347 -0.034420103 -0.0534361 -0.08339144 -0.06284791
-0.0106900595 0.08405745 -0.0026865306 0.11870828 -0.043225855 0.09512307 0.05293631 0.0419409
0.025226166 0.0041804127 -0.0642853 0.055737853 -0.07363629 0.08749002 0.10106276 0.040199824
-0.0073413285 0.07444422 0.009281151 0.028383574 0.06646501 0.0026446905 0.08798001 -0.024126522
-0.034063708 -0.007840297 0.11341101 0.014761527 -0.06479451 0.09849077 0.07300692 -0.041586343
0.08474353 -0.057300657 0.044344842 -0.08084388 -0.043514382 0.09362728 0.035740133 -0.10736934
0.0109764505 0.0073626223 0.0881886 -0.06487293 -0.053693708 -0.06731923 0.106436096 -0.02796913
-0.018734818 -0.050334007 0.049869742 0.014954359 0.114462055 -0.059452478 0.08693616 0.024812097
0.117446505 -0.08357003 -0.028818507 0.012295352 -0.048151124 0.0735163 0.04488434 -0.0955707
-0.06582073 -0.009434421 -0.14852738 0.02187619 -0.044720974 -0.04489493 -0.071211234 -0.16877015
-0.037242662 0.050523765 -0.13263352 -0.13211098 0.034863483 -0.08042486 -0.11418962 -0.12307561
-0.044833537 -0.14989099 -0.03677517 -0.058218904 -0.07840093 -0.17606638 0.015518706 -0.048431087
-0.10067825 -0.13503982 0.02222992 0.0943177 -0.080616675 -0.12444233 -0.13315879 -0.150585
-0.17685634 -0.12695134 0.040065635 0.07112146 -0.037165973 0.07163295 0.016678201 -0.1024103
-0.047553666 0.075070135 -0.16132575 -0.007478029 -0.08116215 -0.13061564 0.059217986 -0.021551162
-0.11524506 -0.037663043 -0.02455869 0.025695398 -0.012870168 -0.042893473 -0.17459974 -0.105540186
-0.041006412 0.04664052 -0.08475608 0.0400932 -0.11270441 0.0017738548 -0.0024994893 -0.1457126
-0.0047466536 -0.12851022 -0.086051814 -0.05834658 -0.07095199 -0.015720539 0.009743316 0.04102965
-0.091337666 -0.0669773 -0.07781314 -0.15061967 -0.0015762685 0.022225566 0.043027997 -0.14249362
-0.0044861683 -0.01995674 -0.12665518 -0.14913593 -0.12444047 0.022778593 0.026734257 -0.03263163
-0.07169367 -0.07941039 -0.123925775 0.009835623 -0.032007195 0.017125292 -0.0029116333 -0.1232102
-0.027597802 -0.11109592 0.042092904 -0.039533213 -0.067418225 -0.0091064125 0.0102967955 0.07265363
-0.07049648 0.049613092 0.08655169 -0.044727158 -0.06616364 0.10947205 -0.06906701 -0.036564127
-0.09897939 -0.036596872 0.03239786 -0.07362041 0.006881087 -0.0487565 0.04732884 -0.0039012711
-0.0685394 -0.014575529 -0.07264002 0.032735985 0.081861965 -0.057606213 -0.07790134 0.070401765
-0.08499529 0.05120758 -0.057012968 0.01945982 0.046089746 -0.05766771 0.052495882 0.0059110387
0.034394134 0.058447007 -0.08415383 0.032664854 -0.0011387703 0.09585801 0.050368 -0.035564978
0.017594174 0.100095294 -0.047448978 0.008804433 0.061663635 -0.027889526 -0.074721344 0.028725194
00000000: d22e 87bc 0c18 95bd 3976 b0bc 74ea 53bd
00000010: 73e3 863d 1afd b1bc 127d 033d af92 b43d
00000020: ab91 503c 4dfa 933d afe4 b73d 393a 333d
00000030: a6d3 583d da3e 41bd fadb c53d 4271 aebd
00000040: e883 e7bc 312c 933d ce8b 07bd fd00 4f3d
00000050: 9da0 873b 74ba ec3d ef0e 193d 84b4 05bc
00000060: 220b dd3d a165 6cbc 44e0 943d 9251 9d3d
00000070: 3025 4cbd 032c 563d f44d 833d e045 c2bd
00000080: d46d 593c ef40 10bd 1f6d 93bb 1f30 7d3d
00000090: 18fc 0cbd d0df 5abd 22c9 aabd 68b6 80bd
000000a0: 5c25 2fbc 5026 ac3d 8110 30bb 541d f33d
000000b0: 980d 31bd e2cf c23d bfd3 583d 39ca 2b3d
000000c0: 1ba7 ce3c d8fb 883b 03a8 83bd 604d 643d
000000d0: a0ce 96bd f82d b33d fef9 ce3d 92a8 243d
000000e0: 878f f0bb 3676 983d f80f 183c ab84 e83c
000000f0: cf1e 883d 8b52 2d3b dd2e b43d fca4 c5bc
00000100: 6386 0bbd 9774 00bc 0844 e83d 55da 713c
00000110: fcb2 84bd 87b5 c93d a784 953d 7156 2abd
00000120: 048e ad3d 18b4 6abd f0a2 353d 7a91 a5bd
00000130: 233c 32bd a9bf bf3d 3f64 123d 75e4 dbbd
00000140: 92d6 333c 2742 f13b 3a9c b43d 19dc 84bd
00000150: efed 5bbd aade 89bd 2bfb d93d 841f e5bc
00000160: c379 99bc 082b 4ebd 3744 4c3d 2103 753c
00000170: 156b ea3d 7184 73bd 960b b23d bd42 cb3c
00000180: cb87 f03d c426 abbd ca14 ecbc 7272 493c
00000190: 1d3a 45bd b78f 963d a4d8 373d 92ba c3bd
000001a0: 05cd 86bd d492 1abc 9017 18be b235 b33c
000001b0: 572d 37bd bfe3 37bd 32d7 91bd 15d2 2cbe
000001c0: c38b 18bd 02f2 4e3d 15d1 07be 1a48 07be
000001d0: 03cd 0e3d cab5 a4bd 3fdc e9bd 110f fcbd
000001e0: 5fa3 37bd 067d 19be 90a1 16bd f276 6ebd
000001f0: ab90 a0bd bf4a 34be 2c42 7e3c ad5f 46bd
00000200: 6630 cebd e147 0abe 851b b63c a329 c13d
00000210: 5b1a a5bd 9fdb febd c75a 08be f432 1abe
00000220: d419 35be 88ff 01be dd1b 243d 21a8 913d
00000230: 593b 18bd 4cb4 923d b9a0 883c 7ebc d1bd
00000240: a2c7 42bd 5fbe 993d 9432 25be 410a f5bb
00000250: 5738 a6bd 1bc0 05be 8f8e 723d 108c b0bc
00000260: 9a05 ecbd 9044 1abd 4e2f c9bc 287f d23c
00000270: 66dd 52bc 11b1 2fbd 46ca 32be 7425 d8bd
00000280: 57f6 27bd 210a 3f3d 9894 adbd c438 243d
00000290: 92d1 e6bd b180 e83a 79ce 23bb af35 15be
000002a0: d189 9bbb 2f98 03be ef3b b0bd d3fc 6ebd
000002b0: 474f 91bd 5cc8 80bc 6ea2 1f3c b50e 283d
000002c0: 3e0f bbbd 652b 89bd 7f5c 9fbd 0b3c 1abe
000002d0: cb9a ceba 6412 b63c 203e 303d d9e9 11be
000002e0: b500 93bb 517c a3bc e5b1 01be 17b7 18be
000002f0: a5da febd 2c9a ba3c cd01 db3c bea8 05bd
00000300: 21d4 92bd eaa1 a2bd cccc fdbd 9825 213c
00000310: fa19 03bd 574a 8c3c 1ad1 3ebb a155 fcbd
00000320: c914 e2bc 4286 e3bd 9c69 2c3d 94ed 21bd
00000330: 9112 8abd 1033 15bc e4b3 283c 6dcb 943d
00000340: 7560 90bd 1937 4b3d 0342 b13d d333 37bd
00000350: cd80 87bd e232 e03d 0173 8dbd 44c4 15bd
00000360: b5b5 cabd 9ae6 15bd 9eb3 043d 4cc6 96bd
00000370: be7a e13b e5b4 47bd e3db 413d 78ac 7fbb
00000380: 635e 8cbd 33ce 6ebc 4ac4 94bd 2b16 063d
00000390: 3fa7 a73d 7ef4 6bbd bd8a 9fbd cd2e 903d
000003a0: 0312 aebd 0abf 513d 6e86 69bd 336a 9f3c
000003b0: 9ac8 3c3d fa34 6cbd ec05 573d 63b1 c13b
000003c0: dde0 0c3d 2166 6f3d d858 acbd 95cb 053d
000003d0: ca42 95ba 3451 c43d ad4e 4e3d 95ac 11bd
000003e0: a821 903c c3fe cc3d dc59 42bd 7840 103c
000003f0: 0293 7c3d 9378 e4bc 8107 99bd 1951 eb3c

linear.weight f4 [1, 100]
0.077546895 -0.018556997 0.04945551 0.048222523 -0.073930606 0.056938443 0.060013007 -0.08919226
-0.030656692 -0.029654846 0.07918577 -0.0054730703 0.12213428 0.019168006 -0.06525427 0.08879273
-0.056518003 -0.06212222 -0.053101018 -0.018807441 0.08915604 -0.042392343 0.002623941 -0.038839802
0.08043503 -0.0951224 -0.08428386 0.0994985 0.059748095 -0.033740565 0.022697354 0.07244261
-0.08323027 -0.045499638 0.019291745 0.0051256376 -0.09652092 -0.06425864 0.06305533 0.055647824
0.046450213 0.08078625 -0.10547868 -0.10628454 -0.08878091 0.053893693 -0.07598049 -0.050368298
-0.022176664 0.12657675 -0.04329211 0.024449604 -0.06510533 0.01704174 -0.013811202 0.05507697
0.120259866 0.008511923 0.05376383 -0.029563785 0.084574156 0.048200544 -0.051353645 0.10145314
-0.06558461 -0.012477344 0.06355441 -0.085467815 -0.042617653 -0.08362426 -0.012100604 0.04805837
0.041637417 0.06823956 0.07466548 -0.019258887 0.006332495 0.060617805 -0.007700671 -0.064577006
-0.09279806 0.014640376 -0.012227511 -0.11717832 0.086512096 -0.0003628564 -0.08158815 0.015107893
0.11680799 -0.050634455 0.01607917 0.041773327 0.103412606 -0.0676036 0.093821555 -0.06316153
-0.12434467 0.06504904 0.030507721 0.086114496
00000000: e8d0 9e3d d804 98bc dc91 4a3d fb84 453d
00000010: ee68 97bd 4938 693d 33d0 753d 6eaa b6bd
00000020: be23 fbbc b8ee f2bc 262c a23d 7157 b3bb
00000030: 8a21 fa3d 3906 9d3c 08a4 85bd f6d8 b53d
00000040: 6c7f 67bd de73 7ebd 7480 59bd 1012 9abc
00000050: 7197 b63d 98a3 2dbd 6df6 2b3b 7c16 1fbd
00000060: 1fbb a43d 88cf c2bd 049d acbd dfc5 cb3d
00000070: 6bba 743d 8c33 0abd cdef b93c cb5c 943d
00000080: a274 aabd d45d 3abd b909 9e3c f7f4 a73b
00000090: c3ac c5bd 099a 83bd 2723 813d f9ee 633d
000000a0: 9442 3e3d 4373 a53d 3505 d8bd b5ab d9bd
000000b0: c4d2 b5bd a2bf 5c3d a99b 9bbd fd4e 4ebd
000000c0: d6ab b5bc 569d 013e 1153 31bd 894a c83c
000000d0: f155 85bd 1e9b 8b3c 6148 62bc 6498 613d
000000e0: ce4a f63d 9875 0b3c 7637 5c3d c02f f2bc
000000f0: 3735 ad3d ef6d 453d 3358 52bd aac6 cf3d
00000100: 3951 86bd c66d 4cbc d128 823d c009 afbd
00000110: d98f 2ebd 3243 abbd 9d41 46bc dad8 443d
00000120: ff8b 2a3d 2fc1 8b3d 37ea 983d d0c4 9dbc
00000130: d180 cf3b 604a 783d e955 fcbb f340 84bd
00000140: e90c bebd 30de 6f3c e655 48bc 30fb efbd
00000150: 412d b13d c33d beb9 b017 a7bd 1987 773c
00000160: 0739 ef3d 1366 4fbd 77b8 833c 821a 2b3d
00000170: fdc9 d33d c273 8abd 8425 c03d d55a 81bd
00000180: 6ba8 febd 6e38 853d 54eb f93c cc5c b03d
