backend/trained_models_sample/ADBL_LSTM_model_state_dict.pth (torch, 167948 bytes, 5 tensors)

rnn.weight_ih_l0 f4 [400, 1]
0	0x3deedf96	0.116637394
1	0x3d0a5bf1	0.03377909
2	0x3d2b6a6a	0.04184953
3	0x3de05137	0.109529905
4	0x3c8a3d0f	0.016874818
5	0x3da073d4	0.078345925
6	0xbd9e09c1	-0.07716704
7	0x3df72196	0.12066953
8	0xbc0d08cf	-0.008608057
9	0x3d20e4aa	0.03928057
10	0xbd41c86e	-0.047310285
11	0x3df9347b	0.12168213
12	0xbdb72590	-0.08942711
13	0x3d0e0af9	0.034678433
14	0xbd65341a	-0.05595789
15	0xbcb3d747	-0.021953238
16	0x3cb691c3	0.022286301
17	0x3df11039	0.11770672
18	0x3d82e1e8	0.063907444
19	0x3c2ab515	0.01041915
20	0x3dc01fda	0.09381075
21	0xbc967693	-0.018367087
22	0x3d1690e7	0.036759283
23	0x3d01b836	0.031669818
24	0xbc079b0d	-0.008276713
25	0xbdee2525	-0.116281785
26	0xbcd7f338	-0.026361093
27	0x3d512444	0.051059976
28	0x3d0f7186	0.035020374
29	0xbceb0787	-0.028690113
30	0xbc34628f	-0.011009826
31	0x3d2208a9	0.03955904
32	0xbe0675b4	-0.13130838
33	0xbda9195a	-0.082567886
34	0x3dfc945e	0.12332986
35	0xbc5bac92	-0.013407843
36	0xbd4deffc	-0.050277695
37	0xbbcacc24	-0.0061888862
38	0x3daa8dae	0.083278045
39	0x3d73888e	0.0594564
40	0x3c864dcc	0.016394518
41	0x3db551a7	0.088534646
42	0x3dc45324	0.0958617
43	0x3cae045f	0.021242319
44	0x3c87196f	0.01649162
45	0xbd39f3f8	-0.045398682
46	0x3d8574d2	0.06516422
47	0xbd6efdc9	-0.058347497
48	0xbd589b6c	-0.052882597
49	0xbd46fe7c	-0.04858254
50	0xbd4c932c	-0.04994504
51	0x3c03cccf	0.008044436
52	0x3d1dc190	0.038514674
53	0xbd1eba8c	-0.038752124
54	0x3dc06ea8	0.09396106
55	0xbe100603	-0.14064793
56	0x3c635f25	0.013877665
57	0x3c1f07ce	0.009706451
58	0xbc8dd193	-0.017311847
59	0xbddb0d18	-0.10695857
60	0xbcd6bf8d	-0.026214385
61	0x39aae689	0.0003259669
62	0x3da68b4b	0.08132037
63	0xbc237b3c	-0.009978112
64	0xbd5c2d66	-0.053754233
65	0x3d8409f8	0.06447214
66	0xbc74b845	-0.014936511
67	0x3da17709	0.07884032
68	0xbcf9da4c	-0.0304996
69	0xbd9cdeb9	-0.076596685
70	0x3d7279d4	0.059198216
71	0xbdd68d03	-0.104761146
72	0x3d88eb9d	0.06685565
73	0xbc7c1d0a	-0.015387783
74	0xbd723fb1	-0.059142772
75	0x3cf2aa9d	0.02962237
76	0x3d9de0f4	0.07708922
77	0xbd645ea2	-0.05575431
78	0x3c1440cf	0.009048655
79	0xbdf44dd4	-0.11928907
80	0x3d82d24d	0.06387768
81	0x3dbf9f86	0.093565986
82	0x3dff1cd7	0.12456673
83	0xbd82a7d2	-0.063796654
84	0xbc0cf889	-0.008604177
85	0x3cb27ad0	0.021787077
86	0x3cff4f53	0.031165754
87	0x3d6efdfa	0.05834768
88	0xbbde87b8	-0.0067910813
89	0xbd1520a5	-0.036408085
90	0xbd199098	-0.03749141
91	0xbc9eb445	-0.019373069
92	0xbd46934a	-0.04848031
93	0xbdcb20b3	-0.09918346
94	0x3b4419a4	0.002992251
95	0x3de8bb20	0.11363816
96	0x3c80781b	0.01568227
97	0x3c65a06f	0.014015301
98	0xbde85a5b	-0.11345359
99	0x3dce2b9f	0.10066914
100	0xbcd5796e	-0.026058879
101	0xbdb93cfd	-0.09044836
102	0x3dd01a90	0.101613164
103	0xbcbde2c6	-0.023179423
104	0xbd0b2982	-0.03397513
105	0x3aba6f9a	0.0014223934
106	0xbdb010b7	-0.08596938
107	0xbd2ecdca	-0.042676724
108	0xbabe6d4a	-0.001452842
109	0x3d982164	0.07428244
110	0xbbfd032f	-0.007721327
111	0x3e0b41fe	0.13599393
112	0xbda36ccd	-0.079797365
113	0x3d225f6d	0.039641786
114	0x3d048a7a	0.032358624
115	0xbd4c5fb3	-0.049895953
116	0x3c263a7a	0.010145778
117	0x3c6f4731	0.014604376
118	0x3de7e8d8	0.11323708
119	0x3be7246d	0.007053903
120	0x3dcd4ea5	0.10024766
121	0x3dfb6bca	0.122764185
122	0x3da281cd	0.07934914
123	0x3d1010f5	0.03517242
124	0x3d3eac4c	0.046551034
125	0xbd6a362d	-0.057180572
126	0x3d925008	0.07144171
127	0xbc7d462d	-0.015458626
128	0xbdb7225c	-0.089421004
129	0x3d84e5be	0.06489132
130	0xbd02360b	-0.03178982
131	0x3da431d8	0.080173194
132	0xbe062e39	-0.1310357
133	0xbdd1c041	-0.10241748
134	0x3d985e27	0.07439833
135	0xbd6034e5	-0.054737944
136	0x3ded2e03	0.11581042
137	0xbd525819	-0.051353548
138	0x3d3ba465	0.045811076
139	0xbe09ed2f	-0.13469385
140	0xbda551ec	-0.08072266
141	0x3e02f36c	0.1278817
142	0xbd920299	-0.07129402
143	0xbe0dbc24	-0.13841301
144	0xbbbe6637	-0.005810525
145	0xbcccb8c7	-0.024990452
146	0xbbf0b088	-0.007345263
147	0xbd5d307c	-0.054001316
148	0x3dcfe0f7	0.101503305
149	0x3db1660a	0.086620405
150	0xbc04f571	-0.008115158
151	0x3d321849	0.04348019
152	0xbdba4766	-0.090956494
153	0x3d3a8120	0.0455333
154	0x3dcc79e8	0.09984189
155	0x3cb98aef	0.022649257
156	0x3dbe0779	0.09278769
157	0x3d928401	0.07154084
158	0x3d48d254	0.04902871
159	0xbd1d10f7	-0.038346257
160	0xbc2b042d	-0.010438007
161	0x3d488944	0.04895903
162	0x3d46e464	0.048557654
163	0xbd0ad04b	-0.03389005
164	0xbd463bb7	-0.048396792
165	0xbcf49436	-0.029855829
166	0x3ca664d1	0.020311745
167	0xbc8c43ec	-0.017122231
168	0xbc38864e	-0.0112624895
169	0xbd9b41d8	-0.07580918
170	0x3da6ea75	0.08150188
171	0xbc1c2f4f	-0.009532764
172	0x3c3681cb	0.0111393435
173	0x3c70bef1	0.0146939615
174	0x3dd30608	0.10303885
175	0x3d2c0994	0.042001322
176	0xbcf5a53d	-0.029986018
177	0x3d95154a	0.07279451
178	0x3ded2226	0.11578779
179	0xbd6f73b6	-0.05845996
180	0x3b6c1900	0.0036025643
181	0x3cf0c8d1	0.029392632
182	0xbd4ad79c	-0.049522027
183	0xbbac183e	-0.0052519133
184	0xbd182670	-0.03714603
185	0x3c462fe3	0.012096378
186	0xbd83a9ba	-0.06428857
187	0x3d5fd632	0.054647632
188	0xbc243e01	-0.0100245485
189	0x3de97eaa	0.114011124
190	0x3d81aebb	0.06332155
191	0x3d96edca	0.073695734
192	0x3d184c85	0.03718235
193	0x3c6d8270	0.014496431
194	0xbc197298	-0.0093657
195	0x3ddc270b	0.10749634
196	0xbdb6e8b2	-0.08931102
197	0x3b861692	0.004092046
198	0xbd34c9c2	-0.044137724
199	0x3c95bb49	0.018277781
200	0xbcb22530	-0.021746248
201	0xbde8353f	-0.11338281
202	0xbd90b443	-0.07065632
203	0xbde4e220	-0.111759424
204	0xbb799ed4	-0.0038089054
205	0x3d445bbc	0.047939047
206	0x3e07b47a	0.1325244
207	0x3d483369	0.048877154
208	0x3d8e3205	0.06943134
209	0x3dc0ae6b	0.094082676
210	0x3d2d4693	0.042303633
211	0x3ca1b90b	0.019741556
212	0xbd917ba4	-0.07103661
213	0x3cd7e8c1	0.026356103
214	0xbcd9b408	-0.026575103
215	0x3df1db0e	0.118093595
216	0x3dc1f4df	0.094705336
217	0xbdc9c55b	-0.09852096
218	0x3db01954	0.08598581
219	0xbdc9709c	-0.09835932
220	0xbd5780ab	-0.05261294
221	0xbd360453	-0.044437718
222	0xbdb83c77	-0.08995908
223	0x3da89647	0.08231788
224	0xbd22bb5e	-0.03972947
225	0xbd647a17	-0.055780496
226	0x3d356f92	0.044295855
227	0xbd5c2e0f	-0.053754862
228	0x3ca1cf62	0.019752208
229	0xbd32332a	-0.043505825
230	0xbdb1a0d1	-0.086732514
231	0x3db25072	0.0870675
232	0xbd1c4295	-0.038149435
233	0xbd691ebe	-0.056914084
234	0xbda2b7bc	-0.07945201
235	0xbcf39ff7	-0.029739363
236	0xbd913a11	-0.070911534
237	0x3c90b2eb	0.01766344
238	0x3d8036c3	0.06260445
239	0xbdee7eb3	-0.1164526
240	0xbde0c8c9	-0.10975797
241	0x3df201b4	0.11816731
242	0xbdb1bd5a	-0.08678694
243	0x3ded4ac7	0.11586528
244	0x3d1c2e55	0.038130123
245	0x3dc96e4d	0.09835491
246	0xbd1a33ca	-0.037647046
247	0x3cd15078	0.025551066
248	0x3d590b96	0.052989565
249	0x3db086d5	0.08619467
250	0xbda07ef7	-0.078367166
251	0xbca7cd93	-0.020483768
252	0x3ac0e5c8	0.0014716918
253	0x3dcec6c9	0.10096509
254	0x3d7b2870	0.06131786
255	0xbcbda434	-0.023149587

rnn.weight_hh_l0 f4 [400, 100]
0	0xbdb28341	-0.08716441
1	0x3d3ce218	0.046114057
2	0x3d659b45	0.05605628
3	0x3d67faac	0.056635544
4	0x3ced9c94	0.029005326
5	0xbd0db765	-0.034598727
6	0xbdb2d4af	-0.087319724
7	0x3dd1625f	0.10223841
8	0xbdaa2aa4	-0.08308914
9	0x3da2dbef	0.07952105
10	0xbc874b6c	-0.016515456
11	0x3d65c844	0.05609919
12	0x3dbcae75	0.092129625
13	0x3cae4f6a	0.021278102
14	0xbda4dc48	-0.08049828
15	0x3ce62379	0.028093087
16	0x3c8e1c88	0.01734759
17	0xbca82cef	-0.020529239
18	0x3c4c199a	0.012457276
19	0xbd8e1ce1	-0.06939102
20	0x3d0d5efb	0.03451441
21	0x3df1f50d	0.11814318
22	0xbddf2a18	-0.108967006
23	0x3da125df	0.078685515
24	0xbc2fe9cf	-0.010736897
25	0x3c19cc74	0.009387124
26	0x3dce9dd4	0.10088697
27	0xbd5dfc69	-0.054195795
28	0xbdd85e65	-0.10564879
29	0xbda9dd14	-0.082941204
30	0xbc81e5cc	-0.015856646
31	0xbd8d6c2e	-0.06905399
32	0xbc63cb23	-0.013903412
33	0x3cc4ca66	0.024022292
34	0x3db5d74a	0.08878954
35	0x3d8cc877	0.06874173
36	0xbcfe2526	-0.031023573
37	0x39f0def3	0.00045942477
38	0x3dda84b8	0.10669845
39	0x3c215386	0.009846574
40	0xbc99df3a	-0.0187832
41	0x3dbc6110	0.09198201
42	0x3d8b7599	0.06809539
43	0xbdb509b3	-0.088397406
44	0xbd4b4fbc	-0.049636588
45	0x3d8a1118	0.067415416
46	0x3d1834d1	0.037159745
47	0x39dee090	0.00042510452
48	0xbc20640d	-0.009789479
49	0xbd8a6dec	-0.06759247
50	0x3d822081	0.06353856
51	0xbc0b74b9	-0.008511716
52	0x3d8e9bda	0.0696332
53	0x3daf7768	0.08567697
54	0x3d2348c8	0.03986433
55	0x3c94c8a9	0.018162088
56	0xbd686be1	-0.056743506
57	0xbdf8013c	-0.121096104
58	0xbdc7066e	-0.09718023
59	0xbd088646	-0.033331178
60	0xbcb1490f	-0.021641282
61	0xbd65c500	-0.056096077
62	0x3d9d9c39	0.07695813
63	0xbc8c00c8	-0.017090216
64	0x3dcecad7	0.100972824
65	0x3dd23218	0.10263461
66	0xbd82c8a1	-0.06385923
67	0x3d6c1f47	0.057647016
68	0xbd61fe74	-0.055174306
69	0xbc63f838	-0.01391416
70	0xbd72046c	-0.05908625
71	0x3d2a4aa7	0.0415751
72	0x3c825ff6	0.015914898
73	0x3d59b44c	0.05315046
74	0x3d30285d	0.043007243
75	0xbcdd56a4	-0.027018853
76	0x3de3655b	0.111033164
77	0x3d6d5ecb	0.05795173
78	0xbd5c0e59	-0.05372462
79	0xbcacb47e	-0.02108216
80	0x3dd37af1	0.103261836
81	0x3dfeda3c	0.12443969
82	0x3cbf3bfa	0.023344029
83	0x3da3edc5	0.08004335
84	0x3d247e42	0.04015947
85	0xbdb3c95f	-0.08778643
86	0xbd562dfd	-0.05228995
87	0xbe12aa27	-0.1432272
88	0x3d15910a	0.036515273
89	0x3cb534d7	0.022119923
90	0xbd452108	-0.048127204
91	0xbdbc0367	-0.091803364
92	0xbd7eae16	-0.06217774
93	0xbd436d67	-0.047711756
94	0xbdc39c4f	-0.09551298
95	0xbc62d502	-0.01384473
96	0x3c58885c	0.013216104
97	0x3d68e676	0.05686041
98	0xbd219813	-0.03945167
99	0x3df994d2	0.12186588
100	0xbd458000	-0.048217773
101	0xbd933304	-0.07187465
102	0x3e13ce99	0.1443428
103	0xbd047c16	-0.0323449
104	0xbd952d90	-0.07284081
105	0xbd72a35a	-0.059237815
106	0x3c8bdcd2	0.017073069
107	0x3c1457e8	0.009054162
108	0xbe09b404	-0.13447577
109	0x3dabff47	0.083983
110	0x3d074f00	0.033034325
111	0xbd404aa8	-0.046946198
112	0x3daa6670	0.0832032
113	0xbd91c442	-0.07117511
114	0xbb5cfaea	-0.0033718892
115	0xbd2fa28f	-0.042879637
116	0xbd9701db	-0.07373401
117	0xbc5b7dd2	-0.013396697
118	0x3d507fc2	0.05090309
119	0xbdb4bae6	-0.088247105
120	0xbd437ff5	-0.04772945
121	0x3e04d2a3	0.12970977
122	0x3d50d0a4	0.050980225
123	0xbc777ad4	-0.015104968
124	0xbd898137	-0.06714099
125	0x3ce8a4b3	0.028398847
126	0x3de61611	0.112346776
127	0xbd086370	-0.033297956
128	0x3d706776	0.058692418
129	0x3bbd2b00	0.0057729483
130	0xbcb8d697	-0.022563262
131	0x3d333ca6	0.04375901
132	0xbd243afd	-0.040095318
133	0xbd68f9ac	-0.05687873
134	0xbd06976c	-0.03285925
135	0x3d41b295	0.04728945
136	0xbd3ee985	-0.04660942
137	0x3de520f1	0.11187924
138	0x3deea77b	0.11653038
139	0x3ce3e844	0.027820714
140	0x3d45aaf6	0.048258744
141	0xbd959743	-0.073042415
142	0xbdb35ec2	-0.08758308
143	0xbdd86195	-0.10565487
144	0x37da1358	2.5996633e-05
145	0xbd342520	-0.043980718
146	0xbd969423	-0.073524736
147	0x3dd2f851	0.10301269
148	0xbd807377	-0.06272023
149	0xbd1c8f8b	-0.03822283
150	0x3e02a85e	0.1275954
151	0x3d200a26	0.03907218
152	0x3da0b84b	0.07847651
153	0x3d7d2e3f	0.06181168
154	0x3d960a9e	0.07326244
155	0xbd389115	-0.045060236
156	0x3da90278	0.08252424
157	0x3d150626	0.036382817
158	0xbd9eff46	-0.07763533
159	0xbdae5151	-0.085116036
160	0xbd922b04	-0.07137111
161	0xbc5358b7	-0.012899569
162	0x3dc77468	0.097389996
163	0x3d2840e3	0.041077506
164	0xbd1fa04e	-0.038971238
165	0x3ad611e1	0.0016332233
166	0xbc666dcd	-0.0140642645
167	0xbdaf257e	-0.08552073
168	0x3cf8b831	0.030361267
169	0x3d1c69e3	0.03818692
170	0xbdfcd99c	-0.12346193
171	0xbbe5cebd	-0.0070131705
172	0x3dd68112	0.10473837
173	0xbd2204d7	-0.039555397
174	0xbd848b76	-0.064719126
175	0xbdb0835f	-0.08618807
176	0xbc4a56b0	-0.0123497695
177	0x3cd22f9b	0.025657466
178	0xbdd00d5a	-0.101587966
179	0xbdb3b9d5	-0.08775679
180	0x3d604db9	0.054761622
181	0xbcc32625	-0.0238219
182	0x3d686d27	0.05674472
183	0x3c1a0312	0.009400146
184	0xbca0954c	-0.01960244
185	0x3ac427da	0.001496549
186	0x3c3040c8	0.010757633
187	0x3d4bbeb7	0.049742427
188	0xbdb79dcc	-0.08965644
189	0x3d967d52	0.07348122
190	0x3cfe5f8f	0.031051425
191	0xbbb49b3c	-0.0055116694
192	0xbcf8b4dd	-0.03035968
193	0x3bcd4057	0.0062637734
194	0x3cb37fc1	0.021911504
195	0x3c890eed	0.01673075
196	0x3d6fd4f2	0.05855269
197	0x3d98a9f7	0.07454293
198	0x3d3b85cc	0.045781896
199	0x3e08918d	0.13336773
200	0xba03c2ef	-0.0005026301
201	0xbe0c3538	-0.13692176
202	0x3db4922f	0.08816945
203	0x3d6c4270	0.057680547
204	0x3d361e00	0.044462204
205	0xbd2761c0	-0.040864706
206	0x3db949a4	0.09047249
207	0x3d7102da	0.05884061
208	0xbde1559f	-0.11002659
209	0x3d049375	0.03236719
210	0x3c92319f	0.017845927
211	0x3da9807d	0.0827646
212	0xbd145c04	-0.036220565
213	0x3d47cc3b	0.048778754
214	0x3d695e7f	0.056974884
215	0x3ccecf6e	0.025245395
216	0x3ce22fc0	0.02761066
217	0xbc81819e	-0.015808877
218	0xbdb6bf09	-0.08923156
219	0x3b6f5c28	0.0036523435
220	0x3d51b0e4	0.051194087
221	0xbdb42cc5	-0.087976016
222	0xbdc3c52c	-0.09559092
223	0xbd70a48a	-0.058750667
224	0x3d4d2bea	0.050090708
225	0x3b7fdc49	0.0039041212
226	0xbd6dfcf3	-0.05810256
227	0x3a86ac97	0.0010274824
228	0x3c9cd0d8	0.019142553
229	0x3db09b85	0.08623413
230	0x3d461545	0.048360128
231	0x3ce68490	0.028139383
232	0xbdf26d50	-0.11837256
233	0xbcef8232	-0.029236887
234	0x3ce24db6	0.027624946
235	0x3dafd80c	0.085861295
236	0x3d3a3e4a	0.04546956
237	0x3d2440e4	0.040100947
238	0x3d874eec	0.0660685
239	0xbd5b35d7	-0.053518143
240	0xbde1a8f7	-0.110185556
241	0xbc714ea3	-0.014728221
242	0xbd965a92	-0.07341494
243	0x3d47192e	0.048607998
244	0x3ba7b616	0.005118142
245	0x3d7f77e6	0.062370203
246	0x3c082afa	0.008311028
247	0x3d2987e7	0.041389372
248	0xbda3a9bd	-0.079913594
249	0xbcd9f5d5	-0.02660648
250	0xbdaf546e	-0.085610256
251	0xbd756268	-0.0599083
252	0xbe073e1c	-0.13207287
253	0x3d9457c7	0.07243305
254	0x3dc29692	0.09501375
255	0x3d5fa9cc	0.05460529

rnn.bias_ih_l0 f4 [400]
0	0xbd7a1b16	-0.061060987
1	0x3ca4c189	0.020111816
2	0x3cbe80e2	0.023254815
3	0x3d54e918	0.051980108
4	0xbda3d005	-0.07998661
5	0x3dbdc50a	0.09266098
6	0xbccde1e1	-0.025132122
7	0x3d634177	0.055482354
8	0xbccbcd56	-0.024878185
9	0xbd8b6259	-0.06805868
10	0xbd828af9	-0.06374163
11	0xbca836d5	-0.020533958
12	0x3d987e6b	0.07445987
13	0xbc1e4191	-0.009659187
14	0xbd99fdce	-0.075191125
15	0x3c8eb3b5	0.017419675
16	0xbc0e3cc4	-0.00868148
17	0x3dcbf1ce	0.0995823
18	0x3db2c72a	0.08729394
19	0x3de4813d	0.11157463
20	0x3dccad9a	0.09994049
21	0x3aec3b9e	0.0018023138
22	0x3db966df	0.09052824
23	0xbd4fa901	-0.050698284
24	0x3d97402e	0.07385288
25	0xbd375b4f	-0.044764813
26	0x3dd097a5	0.10185174
27	0x3d3f3d6b	0.046689432
28	0x3d7d474b	0.06183557
29	0x3cf4a626	0.029864382
30	0x3d4caaf4	0.04996772
31	0x3ce8d581	0.02842212
32	0x3db4f2de	0.08835386
33	0x3b17399e	0.0023075114
34	0x3d8cfa47	0.06883674
35	0xbcc65b7e	-0.024213549
36	0x3d382d64	0.044965163
37	0xbc265411	-0.010151879
38	0x3d549580	0.051900387
39	0xbd9970f9	-0.07492251
40	0xbd5496ab	-0.0519015
41	0x3db40a4d	0.08791027
42	0xbd9d5b57	-0.07683437
43	0x3dce2e80	0.10067463
44	0x3df935d7	0.12168472
45	0x3d0e2fea	0.034713663
46	0x3d8d3a90	0.068959355
47	0xbcb0eaea	-0.02159639
48	0xbb9c4597	-0.004769038
49	0x3d84f2f5	0.06491653
50	0xbbe107f6	-0.006867404
51	0x3d0771c0	0.033067465
52	0x3ccc8d3c	0.02496969
53	0x3d8187b7	0.06324714
54	0x3db940ba	0.09045549
55	0x3c657eb5	0.01400726
56	0xbceb6302	-0.028733734
57	0x3a81f975	0.0009916263
58	0x3db758b8	0.08952469
59	0xbd7ed1e0	-0.06221187
60	0x3d632834	0.055458263
61	0x3b7cfe5f	0.0038603765
62	0xbd8f8222	-0.07007243
63	0xbcc520c1	-0.02406347
64	0x3ccb3088	0.024803415
65	0x3d17f6f7	0.03710076
66	0xbdbbe240	-0.09174013
67	0x3d682844	0.056679025
68	0xbcf01382	-0.029306177
69	0x3d01fc3a	0.031734683
70	0x3da07979	0.07835669
71	0x3d68fba6	0.056880616
72	0x3cf63189	0.030052917
73	0xbcf7b682	-0.030238394
74	0xbd32c4df	-0.043644782
75	0xbc97dcd4	-0.018537916
76	0x3d84b4fa	0.06479831
77	0xbc83323a	-0.01601516
78	0xbd9663bd	-0.07343242
79	0xbca2108b	-0.019783279
80	0xbcf03f7d	-0.029327149
81	0x3d73a13a	0.05947993
82	0x3d34d7ab	0.04415099
83	0x3dc507df	0.09620642
84	0xbd45050d	-0.04810052
85	0xbc365d87	-0.011130697
86	0xbd4cc44b	-0.049991887
87	0x3d2d5f49	0.0423272
88	0xbd1ff9c5	-0.03905656
89	0xbd152cb5	-0.03641959
90	0x3d687e47	0.056761052
91	0x3dbb41f8	0.09143442
92	0xbbf1cea4	-0.00737937
93	0x3d278b62	0.04090441
94	0x3d4628ed	0.048378874
95	0x3dbadf29	0.09124596
96	0x3d4fbd4e	0.050717644
97	0x3d17632c	0.036959812
98	0xbd18fe8b	-0.037352126
99	0x3bac2884	0.0052538533
100	0xbdb944ce	-0.090463266
101	0x3dd44c75	0.103661455
102	0xbd77e6cd	-0.060522843
103	0x3dac45d7	0.084117584
104	0x3cc2257d	0.023699516
105	0x3dc59048	0.0964666
106	0xbd9c6d35	-0.07638017
107	0xbd61235b	-0.05496536
108	0x3d9c3035	0.07626382
109	0x3d86a963	0.06575277
110	0x3da5e615	0.08100525
111	0x3d461dfd	0.048368443
112	0x3db6acef	0.08919703
113	0x3bbe1b40	0.0058015883
114	0x3d333afa	0.043757416
115	0xbd8bbf0f	-0.06823551
116	0x3da53a2a	0.080677345
117	0x3da625c7	0.08112674
118	0xbd8c7e0d	-0.0685998
119	0x3b1c5a35	0.0023857479
120	0x3d96179f	0.07328724
121	0x3d1a7824	0.03771223
122	0x3cf5abf8	0.029989228
123	0xbdc8a0d3	-0.097963
124	0x3d7f7900	0.062371254
125	0xbd59253a	-0.053014018
126	0xbd52df91	-0.05148274
127	0x3d9683ea	0.07349379
128	0x3dc6c7b4	0.09706059
129	0xbd3e04f4	-0.046391442
130	0xbdb57302	-0.088598266
131	0x3d058667	0.03259888
132	0xbb9731bc	-0.004614083
133	0x3d13b253	0.036058735
134	0x3c7cfa90	0.015440598
135	0x3d161a5e	0.03664624
136	0x3db64714	0.08900276
137	0xbc916e8f	-0.017752914
138	0x3d8a0313	0.067388676
139	0x3da9feae	0.083005294
140	0x3dd00391	0.1015693
141	0x3d4af3a0	0.049548745
142	0x3ddbceed	0.10732827
143	0xbd36e674	-0.04465337
144	0xbc5e8254	-0.013580877
145	0xbac7529f	-0.0015207118
146	0x3da7060f	0.081554525
147	0x3ceb4a20	0.028721869
148	0xbdbeb437	-0.09311717
149	0xbcd6756b	-0.026179036
150	0xbcd94bb5	-0.026525358
151	0x3dcf404f	0.10119688
152	0xbcd6f43d	-0.026239509
153	0x3cc0b932	0.023525808
154	0xbbc6a3ad	-0.006061992
155	0xbd1a32c2	-0.037646063
156	0x3d906145	0.07049803
157	0x3d600770	0.054694593
158	0xbccd04e9	-0.025026755
159	0x3d9cf68e	0.07664214
160	0x3dbe8719	0.093031116
161	0xbd5ad88a	-0.053429164
162	0xbcad20fd	-0.021133894
163	0xbd12715e	-0.035752647
164	0x3d08c4c1	0.033390764
165	0xbd4a2d7b	-0.04935978
166	0xbdc8f0b9	-0.09811539
167	0xbd06a062	-0.032867797
168	0xbd7ba37a	-0.0614352
169	0xbd300820	-0.0429765
170	0xbdb70612	-0.08936705
171	0x3d6a13ce	0.057147793
172	0xbd02f47d	-0.031971443
173	0x3d5d7c9d	0.05407392
174	0xbb531d9b	-0.003221369
175	0x3c35525a	0.011066997
176	0xbb4601a4	-0.003021338
177	0x3d6ef68e	0.0583406
178	0x3c55ca7e	0.013048766
179	0x3d45ab85	0.048259277
180	0x3d73fd6a	0.059567846
181	0x3bb36d27	0.0054756585
182	0x3d0f00ac	0.03491275
183	0x3daa3b9a	0.08312149
184	0x3d8d8bf2	0.06911458
185	0xbdd7d707	-0.1053906
186	0xbcfeb654	-0.0310928
187	0x3d7e129c	0.062029466
188	0xbd493b32	-0.04912872
189	0x3dbdaded	0.09261689
190	0xbdc1db36	-0.09465639
191	0x3c0b1b2e	0.008490367
192	0xbcf6e3ac	-0.03013786
193	0x3d76b995	0.06023558
194	0x3dc818b3	0.09770336
195	0x3d953528	0.072855294
196	0xbdfe8962	-0.124285474
197	0x3db3b8d2	0.08775486
198	0x3d3e6de7	0.04649153
199	0x3d8af213	0.06784453
200	0x3d3a85f2	0.045537896
201	0x3d237979	0.039910767
202	0x3d94e1ea	0.07269652
203	0xbbc89758	-0.006121557
204	0xbd8ba3d3	-0.06818356
205	0x3dd90857	0.10597294
206	0xbdb971b1	-0.09054888
207	0x3cc9dabf	0.02464044
208	0x3b9f3f16	0.0048598154
209	0x3d7e6ca3	0.062115323
210	0xbc9ac3e3	-0.018892234
211	0x3d9a3c59	0.07531042
212	0x3dbbf21b	0.09177037
213	0xbd832f21	-0.064054735
214	0x3ccb01e1	0.02478117
215	0x3dc73e6e	0.097287044
216	0x3da4b492	0.080422536
217	0x3cc62d70	0.024191588
218	0x3d462abd	0.048380602
219	0xbc226ef1	-0.009914146
220	0x3d9cbd47	0.07653289
221	0x3d87142e	0.06595646
222	0x3c8f7e4e	0.017516281
223	0x3d85caf1	0.065328486
224	0x3db63f05	0.08898739
225	0x3dba3301	0.090917595
226	0xbd5b2d7a	-0.053510167
227	0xbdb7c053	-0.0897223
228	0x3d34b95b	0.04412208
229	0xbd96663e	-0.0734372
230	0xbc759c1d	-0.014990834
231	0xbd00f77d	-0.031486023
232	0xbcee087e	-0.029056784
233	0xbd3951ea	-0.045244135
234	0xbdc9fb3b	-0.098623715
235	0xbd59c1c4	-0.053163305
236	0x3d2a3216	0.041551672
237	0xbd2f7140	-0.042832613
238	0x3cc21ff2	0.023696873
239	0x3d1f7367	0.038928416
240	0xbc8da7dd	-0.017291958
241	0xbc465d2e	-0.012107177
242	0x3d2e1a26	0.042505406
243	0xbd8acdf4	-0.06777564
244	0x3dc67c61	0.09691692
245	0x3d85263d	0.06501434
246	0xbdc52ffd	-0.09628294
247	0x3daa353a	0.083109334
248	0x3da233f1	0.07920063
249	0x3b3181b8	0.0027085375
250	0x3d68ee7d	0.056868065
251	0xbdc0be9b	-0.09411355
252	0xbd297c49	-0.041378293
253	0x3d7c2542	0.06155897
254	0x3beef553	0.0072924285
255	0x3d555e54	0.05209191

rnn.bias_hh_l0 f4 [400]
0	0xbdcba6f0	-0.0994395
1	0x3d916fdc	0.071014136
2	0xbcd99787	-0.026561512
3	0xbd0cf18e	-0.034410052
4	0xbbf9c540	-0.007622391
5	0x3c0e39a6	0.008680737
6	0x3d3f51b2	0.04670877
7	0x3d7ed00d	0.06221013
8	0xbd96281b	-0.07331868
9	0xbb555644	-0.003255264
10	0x3db05288	0.086094916
11	0xbcd40c3b	-0.025884738
12	0x3db52076	0.08844082
13	0x3c1de2aa	0.00963656
14	0x3c3df0c5	0.011593048
15	0x3c2fc811	0.010728852
16	0x3d1629b0	0.03666085
17	0x3d45abb8	0.048259467
18	0xbd162a51	-0.03666145
19	0xbd7188d8	-0.058968395
20	0xbd6a33db	-0.05717836
21	0xbb08762e	-0.0020822394
22	0x3c59551b	0.01326492
23	0x3d4a14a9	0.04933611
24	0x3db1d8da	0.08683939
25	0xbd03a349	-0.032138143
26	0x3d7139d2	0.058893032
27	0xbd6f8b2e	-0.05848234
28	0x3cdb592a	0.026775915
29	0xbdb79465	-0.08963851
30	0x3d5f7113	0.054551195
31	0x3ca3fb5a	0.020017315
32	0xbb7e57de	-0.0038809697
33	0xbd8260a0	-0.06366086
34	0xbd9bf461	-0.07614971
35	0xbd27f2a9	-0.041002903
36	0x3aa7d7ee	0.0012805441
37	0xbdb25741	-0.087080486
38	0xbcb94e7e	-0.022620436
39	0x3d41a366	0.04727497
40	0x3bc5d64c	0.006037509
41	0xbb895a82	-0.0041916976
42	0x3dccad30	0.099939704
43	0xbc9c7b7c	-0.01910185
44	0xbd9002e3	-0.070318006
45	0xbd0432da	-0.03227506
46	0x3d6ba6a0	0.057531953
47	0x3b831f1a	0.0040015103
48	0xbd64897c	-0.055795178
49	0xbd906b6c	-0.07051739
50	0xbb813e8e	-0.0039442247
51	0x399ecb20	0.00030287448
52	0xbce8b65f	-0.028407274
53	0x3db035ac	0.08603987
54	0x3c823064	0.015892215
55	0x3da0a12c	0.07843241
56	0xbd535944	-0.051598802
57	0xbd9cde52	-0.07659592
58	0x3dc70a90	0.097188115
59	0xbd7f49e2	-0.06232632
60	0x3df73503	0.12070658
61	0xbca15649	-0.019694464
62	0xbd193960	-0.037408233
63	0x3d23bdc5	0.0399759
64	0x3d801479	0.06253905
65	0xbd1d01ba	-0.038331725
66	0x3d557823	0.052116524
67	0xbcaadc71	-0.020857068
68	0xbd8befcd	-0.06832848
69	0xbd3fff65	-0.046874423
70	0xbd81f359	-0.06345243
71	0xbbc86930	-0.006116055
72	0x3cfcc969	0.030857759
73	0xbd9b440d	-0.07581339
74	0xbd5ba62a	-0.053625263
75	0x3da447c7	0.08021503
76	0xbd174adb	-0.036936622
77	0x3d15db0e	0.03658586
78	0x3d34c145	0.04412963
79	0xbd2a5285	-0.041582603
80	0x3de62f7b	0.11239525
81	0x3cc0a348	0.023515359
82	0x3baa6f5a	0.0052012624
83	0x38cf5cbb	9.8878016e-05
84	0x3c934608	0.01797773
85	0xbd44b04a	-0.048019685
86	0x3d1b224f	0.037874516
87	0x3ca37caa	0.019956905
88	0x3dd48d9e	0.10378574
89	0xbd007768	-0.031363875
90	0xbdad9fa1	-0.084777124
91	0xbd830457	-0.06397312
92	0x3cab63d8	0.020921633
93	0xbceba38d	-0.02876451
94	0x3dfa2e96	0.12215917
95	0xbd924609	-0.071422644
96	0xbbc37f58	-0.0059661083
97	0x3dbceff3	0.09225454
98	0xbd7a8f4e	-0.061171822
99	0x3d179107	0.037003543
100	0xbc498cba	-0.012301618
101	0x3d93b9d0	0.07213175
102	0xbd09472f	-0.03351515
103	0x3ba0678c	0.0048951562
104	0xbdc5da2e	-0.09660755
105	0xbd639852	-0.055565186
106	0x3a123ee7	0.0005578831
107	0xbd2642e7	-0.040591147
108	0x3cf27bb3	0.0296
109	0xbd1345c4	-0.035955206
110	0x3d26f5c5	0.040761728
111	0xbd6b80f5	-0.05749603
112	0xbdaf413e	-0.08557366
113	0xbd439078	-0.047745198
114	0x3df9227f	0.12164783
115	0xbd1a986d	-0.03774302
116	0x3d5ba04b	0.053619664
117	0xbc645efc	-0.013938662
118	0x3dbdfc1d	0.092766024
119	0xbd9ac611	-0.075573094
120	0xbd14c0d0	-0.036316693
121	0xbd8bdc1e	-0.068290934
122	0x3d17a6d7	0.037024345
123	0x3d40a58c	0.047032878
124	0x3c5878d0	0.013212398
125	0x3d2bec1d	0.041973222
126	0xbc14830a	-0.009064445
127	0xbd61e1b3	-0.055146884
128	0x3a9bad4d	0.0011877209
129	0x3d52c976	0.05146166
130	0xbdcf8c27	-0.10134154
131	0x3d73b4af	0.059498485
132	0x3dfa44bf	0.122201435
133	0x3b2145a7	0.0024608166
134	0x3d40be2c	0.047056362
135	0x3d5c48ae	0.05378025
136	0x3d9e1a47	0.07719856
137	0xbdaad079	-0.08340544
138	0xbd5afc03	-0.053462993
139	0x3d5cbf86	0.05389359
140	0xbc80296a	-0.015644748
141	0xbd721896	-0.05910548
142	0x3d485242	0.048906572
143	0x3c82aa4a	0.01595034
144	0x3c021389	0.007939228
145	0x3d990425	0.07471494
146	0x3c2079a9	0.009794631
147	0x3cfb3f74	0.030669905
148	0xbd1e7e08	-0.03869441
149	0x3da205bf	0.07911252
150	0x3d66b391	0.05632359
151	0x3d64e02d	0.055877853
152	0x3d67a260	0.056551337
153	0xbda0966d	-0.078411914
154	0x3dc63250	0.09677565
155	0xbb83be2f	-0.0040204744
156	0xbcff2377	-0.03114484
157	0x3d46a367	0.048495676
158	0x3d9a5f8f	0.075377576
159	0x3dab071d	0.08350966
160	0x3cf7cf2f	0.03025016
161	0x3c6e95b6	0.014562061
162	0xbd410716	-0.0471259
163	0xbd0ee2e8	-0.034884363
164	0x3db1d5d5	0.08683363
165	0x3d47a735	0.048743445
166	0xbcaa0a4b	-0.020756861
167	0x3d6e393b	0.058160048
168	0x3d803465	0.062599935
169	0x3d9caad7	0.076497726
170	0x3dbeb0b2	0.09311046
171	0xbbb9ce8b	-0.005670374
172	0xbd83ad5a	-0.064295486
173	0x3c6e89c2	0.014559211
174	0x3d238e15	0.03993042
175	0xbccd091a	-0.025028754
176	0x3d977425	0.073952
177	0xbcff013e	-0.031128522
178	0x3c9e28e1	0.019306602
179	0xbcff44d2	-0.031160746
180	0x3da7d271	0.081944354
181	0xbda87617	-0.08225649
182	0x3d808974	0.06276217
183	0x3d8b0658	0.06788319
184	0x3ac5a0de	0.0015077849
185	0xbc81fe14	-0.015868224
186	0x3df09654	0.11747423
187	0x3b727ef1	0.0037001933
188	0xbdad6f77	-0.08468526
189	0x3abc409f	0.001436252
190	0x3db73d72	0.08947267
191	0x3de96d17	0.1139776
192	0x3b9faa82	0.004872621
193	0x3ca8db2d	0.020612324
194	0x3cce6732	0.025195692
195	0xbd8a5d15	-0.06756035
196	0x3d5a260c	0.05325894
197	0x3d9b30e5	0.07577685
198	0x3da2a3c8	0.07941395
199	0xbdaaae3a	-0.08334012
200	0xbd9f493c	-0.0777764
201	0x3c8f66f0	0.01750514
202	0x3de511ca	0.111850336
203	0x3d2685bd	0.040654887
204	0xbd6c5199	-0.057695005
205	0x3d9a7a17	0.07542818
206	0xbcb26f67	-0.021781636
207	0x3d39a103	0.04531957
208	0xbccf644a	-0.025316376
209	0xbd028a90	-0.031870425
210	0x3d70b693	0.058767866
211	0x3cd4bfb1	0.025970312
212	0xbcfd764b	-0.030940196
213	0xbd67fddd	-0.056638587
214	0xbd69f1ae	-0.05711525
215	0xbd5854c3	-0.05281521
216	0xbd3e18f2	-0.04641051
217	0xbd16dbb9	-0.036830638
218	0x3dc08fb4	0.09402409
219	0xbde64893	-0.11244311
220	0xbd1e9a5c	-0.038721427
221	0x3db9e353	0.09076562
222	0xbd05f150	-0.032700837
223	0xbde0b4bb	-0.109719716
224	0x3cf6ec72	0.030142043
225	0xbccf26b3	-0.025287008
226	0x3d933c7f	0.07189273
227	0xbd2455f0	-0.04012102
228	0x3d0fc218	0.03509721
229	0xbc0581af	-0.008148595
230	0x3dbe4087	0.09289651
231	0xbd4458d3	-0.047936272
232	0x3da33e7b	0.079709016
233	0x3be2a26c	0.006916335
234	0xbdc2d528	-0.095133126
235	0xbd9205d3	-0.07130017
236	0x3d815c9a	0.063164905
237	0x3d1ce30a	0.03830246
238	0x3d8ebb5d	0.069693305
239	0x3d8a3e0e	0.06750117
240	0x3c5df0bf	0.013546168
241	0x3c2a1e60	0.0103832185
242	0xbd8f8452	-0.0700766
243	0xbdc8ff47	-0.09814315
244	0xbd175d2e	-0.036954097
245	0xbd9f5a4e	-0.07780896
246	0x3d58e187	0.052949455
247	0x3a94b96c	0.0011346764
248	0xbba6190d	-0.0050689043
249	0xbd1d53d9	-0.03841004
250	0x3d88c96d	0.06679044
251	0x3d57e198	0.052705377
252	0x3da76bd4	0.081748635
253	0xbddb09f8	-0.10695261
254	0xbd164f34	-0.036696628
255	0x3da05556	0.078287765

linear.weight f4 [1, 100]
0	0xbd8ee4c4	-0.06977227
1	0xbd82a7ab	-0.063796364
2	0x3dbd778b	0.09251317
3	0xbe15c2ed	-0.1462514
4	0x3ceae1f2	0.028672192
5	0x3db59fdc	0.088683814
6	0x3d51d6ab	0.051230114
7	0x3d70b03e	0.058761828
8	0xbd9dd994	-0.07707515
9	0x3db4b3b3	0.088233374
10	0x3e16ce43	0.1472712
11	0x3d4cc4b9	0.049992297
12	0x3d0d22b2	0.034456916
13	0x3d2f416b	0.042786997
14	0xbdce4e66	-0.10073547
15	0x3df26fc6	0.11837725
16	0x3d5ffd7f	0.054685112
17	0xbdfc7b9d	-0.12328265
18	0x3e0c1a77	0.1368197
19	0xbdfba7f1	-0.12287892
20	0xbe037c09	-0.12840284
21	0x3ce62fb3	0.028098917
22	0xbd89e640	-0.0673337
23	0xbd0e25ac	-0.034703895
24	0xbd934172	-0.07190217
25	0xbdb03f43	-0.08605816
26	0x3ccc04eb	0.024904689
27	0xbd81dd67	-0.06341057
28	0xbdaf990a	-0.08574112
29	0x3d09c5c1	0.03363586
30	0x3b560531	0.0032656903
31	0x3e0502a8	0.12989295
32	0xbde1244b	-0.109932505
33	0x3d4d8e8f	0.050184783
34	0xbd838db7	-0.06423514
35	0x3d93ed8b	0.07223042
36	0xbe13fbfe	-0.14451596
37	0xbd94c918	-0.07264918
38	0x3d804b06	0.062643096
39	0xbc90a0ac	-0.01765474
40	0xbd3903ae	-0.045169525
41	0x3e10f3c5	0.1415549
42	0xbd9abf91	-0.0755607
43	0x3cb6a700	0.022296429
44	0x3e0e7e82	0.13915446
45	0x3e165f1a	0.14684716
46	0xbd615f2a	-0.055022396
47	0x3d8dcf47	0.06924301
48	0xbc0f58ba	-0.008749181
49	0x3d993fd6	0.07482879
50	0xbc6d9228	-0.014500178
51	0xbde14fd7	-0.11001556
52	0xbde7ae4e	-0.11312543
53	0xbc107514	-0.008816976
54	0x3cd4f436	0.025995355
55	0xbcac33e6	-0.02102084
56	0xbd94f3a4	-0.07273033
57	0xbcce6c7c	-0.025198214
58	0xbd9b47e2	-0.0758207
59	0x3d8b964d	0.06815777
60	0xbd561c8e	-0.052273326
61	0x3ca4cbca	0.020116705
62	0x3e0b78a7	0.13620244
63	0xbd2f064e	-0.042730622
64	0xbd2a9693	-0.041647505
65	0x3cab973b	0.020946136
66	0x3daa66bd	0.08320377
67	0x3dae164a	0.08500345
68	0xbca97962	-0.020687763
69	0xbdd259df	-0.10271048
70	0xbd98af56	-0.07455318
71	0x3d1575fc	0.03648947
72	0x3d0c8c3f	0.034313437
73	0xbdd1385e	-0.10215829
74	0xbdf5b888	-0.11998087
75	0xbdc91bc8	-0.09819752
76	0x3e11c07c	0.14233583
77	0x3e0dd385	0.1385022
78	0xbdb17366	-0.08664589
79	0xbc8e5014	-0.017372169
80	0x3dcdd3c7	0.10050159
81	0x3dbdeeec	0.09274086
82	0x3d36880a	0.04456333
83	0xbdf0c29b	-0.11755868
84	0xbdd435d9	-0.10361833
85	0xbddb1d5b	-0.106989585
86	0xbdb88cb7	-0.09011214
87	0xbdec5773	-0.11540117
88	0xbdd5c8a3	-0.10438659
89	0x3d9df8ed	0.077134944
90	0x3c359362	0.011082502
91	0xbde0ea89	-0.10982234
92	0xbda13703	-0.07871821
93	0x3d2479c6	0.040155195
94	0xbe0a4c15	-0.13505585
95	0xbdcc7119	-0.09982509
96	0x3d6d58f9	0.05794618
97	0x3d8e7362	0.06955601
98	0x3df3c81a	0.11903401
99	0x3dafe04b	0.08587702
