backend/trained_models_sample/ADBL_GRU_model_state_dict.pth (torch, 126723 bytes, 5 tensors)

rnn.weight_ih_l0 f4 [300, 1]
0.029182324 -0.03558835 -0.06421666 -0.032022387 -0.055256445 0.070779994 -0.028270535 -0.04223636
0.02575707 -0.082144 0.10113757 0.0053823637 0.045793865 0.019656029 -0.053375475 -0.085704975
-0.01899707 0.016226029 0.07577158 0.028265528 0.081336655 0.019946335 0.018958725 0.10834989
0.007668872 -0.07008615 0.007684094 0.06695136 0.06902854 -0.10969507 0.08995693 -0.031026123
0.072051086 -0.018807197 0.029790455 0.053573325 -0.048742447 -0.07649007 -0.090086326 0.073056914
-0.07520391 -0.066961855 0.09631987 0.061524507 -0.0062415292 0.10351657 -0.06831842 -0.018872015
0.0012999637 -0.0003545525 -0.05985002 -0.001029354 0.07965386 0.077109694 -0.027454617 -0.043784976
-0.09929353 -0.015504288 -0.019801045 -0.051731557 0.070339866 0.051636763 -0.09948819 -0.0019311022
-0.04150188 -0.041227363 0.07578413 -0.02224101 0.060900412 0.046619985 -0.024717776 0.06648912
-0.026401103 0.09148089 0.053054754 0.0674646 0.07393424 0.10283087 0.0110896835 -0.03686157
-0.071139425 -0.1042374 0.02625742 -0.016780863 -0.030681599 0.09372204 -0.045251653 -0.06082681
-0.05198733 0.0027580091 0.0022730213 -0.028088193 0.015922843 0.002991229 -0.0049677 -0.040213253
0.038358692 -0.001962138 -0.04610543 0.025881156 0.079405196 -0.037964787 -0.0690272 -0.12932155
0.01212694 -0.036632903 -0.13146566 -0.055945825 0.02820191 -0.05422757 0.012383534 -0.07532423
-0.11160203 -0.016429732 -0.006201474 0.06831658 0.01846992 -0.11281186 -0.09812058 -0.12367634
0.010696857 -0.053358845 -0.14816386 -0.03439499 0.02285696 0.02706718 -0.038844667 -0.005687655
-0.121647604 -0.12094385 0.1120077 -0.013415466 -0.12814288 -0.12993771 0.056278862 -0.08393267
-0.065462 0.016935144 -0.08309341 0.03861224 -0.1372611 0.06181848 -0.03397503 0.020793451
-0.004693598 -0.10409754 0.030269116 -0.076951034 -0.016139291 -0.026336642 -0.04455717 0.034133904
0.015392892 -0.1083119 -0.028121792 -0.10705587 -0.005663792 -0.10016301 -0.035321634 -0.07326284
0.045302186 0.064684585 -0.022262584 0.02140911 -0.032922134 -0.09716759 0.061220795 -0.15544197
-0.04611336 -0.10557625 -0.025077777 0.01603768 0.006343238 -0.045494467 0.0024658698 0.1006685
0.107428655 -0.01503173 -0.08855517 0.011556025 -0.045347553 0.00906885 -0.15415724 0.054981865
-0.0668841 -0.09810348 0.027227001 0.035339516 0.014353213 0.05964327 -0.06258757 -0.04389429
-0.023667727 -0.0067836717 -0.049676932 -0.042894743 -0.015509901 -0.09307734 -0.15251534 0.007350541
0.053072795 0.07441464 0.0930831 0.11066208 0.07224436 -0.060077175 0.045479104 -0.065128565
-0.11027873 0.11153684 0.050377935 0.021397993 -0.09753432 0.10685663 -0.07039708 -0.062332038
0.01703699 0.08818735 -0.03203293 0.0591727 0.09335214 -0.033284113 0.094076835 -0.060402405
0.11151198 -0.049000617 0.01270129 -0.096645914 0.058123983 -0.090140745 0.047723092 -0.10377091
-0.031880554 0.059805032 0.012678061 0.051620256 -0.09858947 -0.045717172 0.016496127 0.045914795
-0.10086613 -0.1050283 -0.09544989 0.020826194 0.06408616 -0.017870463 0.038381528 0.08965299
-0.044244368 0.100165114 -0.035202444 -0.116964236 -0.08726538 -0.04547292 -0.0250626 -0.059374563
00000000: c50f ef3c 17c5 11bd 0684 83bd e829 03bd
00000010: 9554 62bd 1af5 903d 9c97 e7bc 0900 2dbd
00000020: 7e00 d33c 1d3b a8bd 3721 cf3d 8a5e b03b
00000030: 5992 3b3d ae05 a13c 3ea0 5abd 1786 afbd
00000040: be9f 9bbc 73ec 843c 212e 9b3d 1c8d e73c
00000050: d593 a63d 7f66 a33c 544f 9b3c 8ce6 dd3d
00000060: 294b fb3b 5489 8fbd daca fb3b cb1d 893d
00000070: d65e 8d3d cfa7 e0bd 573b b83d 7f2a febc
00000080: 858f 933d 8d11 9abc 1d0b f43c b46f 5b3d
00000090: 29a6 47bd d3a6 9cbd 2e7f b8bd dd9e 953d
000000a0: 8204 9abd 4c23 89bd 5a43 c53d 1f01 7c3d
000000b0: be85 ccbb 7f00 d43d 87ea 8bbd 7c99 9abc
000000c0: 8b63 aa3a 3be3 b9b9 4b25 75bd 64eb 86ba
000000d0: 9021 a33d b0eb 9d3d 81e8 e0bc e057 33bd
000000e0: 685a cbbd b205 7ebc cd35 a2bc 78e4 53bd
000000f0: 590e 903d 1281 533d 77c0 cbbd 0a1d fdba
00000100: e0fd 29bd 06de 28bd b634 9b3d c732 b6bc
00000110: b672 793d 99f4 3e3d ef7c cabc 732b 883d
00000120: 2047 d8bc 555a bb3d f14f 593d e12a 8a3d
00000130: d66a 973d fe98 d23d 81b1 353c 28fc 16bd
00000140: 8cb1 91bd 6b7a d5bd cd19 d73c 0578 89bc
00000150: fa57 fbbc 57f1 bf3d cc59 39bd 8825 79bd
00000160: abf0 54bd b7bf 343b f8f6 143b 3619 e6bc
00000170: 9f70 823c 7f08 443b 17c8 a2bb a7b6 24bd
00000180: 011e 1d3d 3797 00bb 0cd9 3cbd b804 d43c
00000190: 319f a23d f780 1bbd 225e 8dbd de6c 04be
000001a0: 13b0 463c 620c 16bd ef9e 06be 7327 65bd
000001b0: b107 e73c ba1d 5ebd 4ee4 4a3c 9743 9abd
000001c0: 9b8f e4bd a597 86bc bc35 cbbb 90e9 8b3d
000001d0: 3b4e 973c e809 e7bd 71f3 c8bd 054a fdbd
000001e0: df41 2f3c ce8e 5abd 44b8 17be c3e1 0cbd
000001f0: 853e bb3c febb dd3c 961b 1fbd 825f babb
00000200: 6122 f9bd 69b1 f7bd 4b64 e53d 8bcc 5bbc
00000210: e337 03be 640e 05be aa84 663d e4e4 abbd
00000220: f110 86bd 92bb 8a3c e12c aabd de27 1e3d
00000230: 2c8e 0cbe 6035 7d3d 6729 0bbd 0757 aa3c
00000240: c1cc 99bb 1731 d5bd f0f6 f73c 8198 9dbd
00000250: 8c36 84bc f1bf d7bc 9481 36bd fecf 0b3d
00000260: 7832 7c3c a1d2 ddbd ac5f e6bc 1c40 dbbd
00000270: 5597 b9bb 4422 cdbd 6bad 10bd d40a 96bd
00000280: c98e 393d 5a79 843d 0660 b6bc 2862 af3c
00000290: 5cd9 06bd cdff c6bd a8c2 7a3d 2e2c 1fbe
000002a0: 5de1 3cbd 5c38 d8bd e96f cdbc 7461 833c
000002b0: f0da cf3b 6858 3abd 6e9a 213b 492b ce3d
000002c0: 8e03 dc3d a547 76bc 6a5c b5bd 7b55 3d3c
000002d0: 5bbe 39bd 8495 143c 65db 1dbe aa34 613d
000002e0: 88fa 88bd 7aea c8bd 290b df3c 2bc0 103d
000002f0: bd29 6b3c 804c 743d e92d 80bd 80ca 33bd
00000300: d2e2 c1bc 9049 debb 0a7a 4bbd 66b2 2fbd
00000310: 3d1d 7ebc 559f bebd fb2c 1cbe cfdc f03b
00000320: dc62 593d b466 983d 5aa2 be3d cda2 e23d
00000330: daf4 933d 7c13 76bd 4c48 3a3d 2062 85bd
00000340: d1d9 e1bd 6d6d e43d 1859 4e3d d84a af3c
00000350: 13c0 c7bd a6d7 da3d 582c 90bd e14f 7fbd
00000360: 2891 8b3c 929b b43d f634 03bd 135f 723d
00000370: 682f bf3d ec54 08bd 5bab c03d 8368 77bd
00000380: 6560 e43d dfb4 48bd 1219 503c 4bee c5bd
00000390: 6a13 6e3d b69b b8bd 4a79 433d d885 d4bd
000003a0: 2f95 02bd 1ff6 743d a4b7 4f3c c36f 533d
000003b0: 47e9 c9bd ee41 3bbd e322 873c 2711 3c3d
000003c0: e792 cebd 1419 d7bd 3b7b c3bd b29b aa3c
000003d0: 9b3f 833d 1465 92bc f335 1d3d fd9b b73d
000003e0: 9539 35bd 5e23 cd3d 7030 10bd f28a efbd
000003f0: 31b8 b2bd d041 3abd 1550 cdbc be32 73bd

rnn.weight_hh_l0 f4 [300, 100]
0.013198196 0.028961385 0.11799133 0.012979801 0.036298294 -0.0026303327 0.07280751 0.04648792
-0.046792507 0.010317115 -0.09030915 0.091329664 0.0073352396 0.02414604 -0.06771955 -0.092722476
-0.03923473 0.04789163 0.0017089751 0.12347257 0.12368904 0.095661186 0.07748019 -0.10105174
-0.01886928 -0.018837718 0.053021956 0.04686573 0.05888757 -0.11711004 0.087253906 0.009820329
-0.0101047335 -0.0059765344 0.07750273 -0.042334363 -0.12779595 -0.021325879 -0.07581901 0.04838325
-0.13267678 -0.045784816 -0.039430507 -0.026845334 0.09927488 -0.054685418 0.053419366 0.031025765
0.019943075 -0.033505164 -0.05519598 -0.0527555 -0.037286475 0.06603021 -0.008356542 0.047224227
-0.10672186 -0.046989843 0.046026144 -0.1214016 0.044017717 0.004328561 -0.12098911 0.013337954
-0.12907256 0.027742699 -0.03459236 -0.029869236 -0.09699897 0.1248938 0.12209596 -0.09546151
-0.05724352 0.12392301 0.025515247 0.009098691 0.034324624 -0.06295303 0.051871665 -0.064166546
0.002855433 0.023064777 0.013738598 0.04174315 0.11188118 0.044710223 -0.08135264 0.024021523
0.0057166484 -0.028799996 0.1087739 -0.035190053 -0.008245692 0.011702393 -0.09209015 0.0059139947
0.0022493177 -0.07247447 -0.012998594 -0.10119511 -0.1032057 0.02790462 -0.04628886 -0.06400874
-0.08043246 0.0807225 -0.03730644 0.00012525142 0.06940721 -0.00883347 0.044001933 0.057996593
-0.0539624 0.013189072 -0.051150396 -0.08374264 0.048583653 0.10696226 0.056451023 0.05190247
0.045019478 0.022161666 0.047900945 -0.038332306 0.04370632 0.035616837 -0.07140136 -0.07436443
0.076156996 0.002953719 0.05373241 0.056561388 -0.025756013 0.017057009 0.03374324 -0.027779149
-0.021165226 0.037508197 -0.032655366 -0.07058311 -0.024419094 -0.0003561409 -0.07215351 -0.076494746
0.018899282 -0.08402386 0.096963525 0.025719602 -0.043777633 -0.03571283 0.013052003 -0.02288031
-0.061041676 -0.0389035 -0.0029566444 0.109119624 -0.004999768 -0.057185166 0.0368776 -0.052871734
-0.022676013 -0.04924664 0.032645274 -0.03256595 0.02984444 -0.016330622 0.11965356 0.0592518
0.072529964 0.11126421 0.06067712 -0.06640167 0.042618252 0.07235619 0.1008042 0.015659478
-0.062084284 -0.054641787 0.01848915 -0.007206623 -0.095280126 -0.012930018 0.09342455 0.050264534
0.07319919 -0.059979178 -0.009104972 -0.07593648 0.031038487 -0.02276618 0.06851561 -0.027493125
0.047112614 -0.06937669 0.0058296374 -0.016766403 0.0683701 -0.092787124 0.03472494 -0.086179994
-0.064130865 -0.09034744 0.018907895 -0.046512727 0.047352903 0.0051239957 -0.0957383 -0.048068456
0.03608132 -0.08551589 -0.13326617 0.10561444 -0.0072185127 0.010717589 -0.0879898 0.048116475
0.032798983 -0.025079636 0.050762717 -0.0014645265 -0.028642967 0.01889069 -0.07055092 0.011156877
0.0037274477 -0.037209198 -0.039925937 -0.08764028 0.09384975 0.04140482 -0.07661641 -0.0857915
-0.0050380714 -0.085313775 0.0029281373 0.0717905 -0.08087305 -0.03845118 -0.028862251 -0.048048466
0.10992138 0.11214704 -0.025636872 -0.11468716 -0.06023854 0.030619988 -0.037075724 -0.055432674
0.054882787 -0.101441756 -0.03612956 -0.059795175 -0.04107417 -0.12299844 0.11182477 0.0519164
00000000: 3f3d 583c 6d40 ed3c 70a5 f13d 3ba9 543c
00000010: 85ad 143d a961 2cbb 1b1c 953d 1e6a 3e3d
00000020: 80a9 3fbd 1e09 293c 01f4 b8bd 0c0b bb3d
00000030: 735c f03b ebcd c53c 8cb0 8abd 48e5 bdbd
00000040: 99b4 20bd 042a 443d b0ff df3a 30df fc3d
00000050: ae50 fd3d 03ea c33d efad 9e3d 37f4 cebd
00000060: c093 9abc 8f51 9abc 8d2d 593d 48f6 3f3d
00000070: 1834 713d 63d7 efbd 2db2 b23d 72e5 203c
00000080: 538e 25bc ced6 c3bb c0b9 9e3d cc66 2dbd
00000090: f1dc 02be 9cb3 aebc ff46 9bbd 842d 463d
000000a0: 6cdc 07be dc88 3bbd e281 21bd bfea dbbc
000000b0: a150 cb3d d1fd 5fbd 44ce 5a3d bf29 fe3c
000000c0: a95f a33c b63c 09bd 2e15 62bd 2716 58bd
000000d0: b4b9 18bd d93a 873d e1e9 08bc 316e 413d
000000e0: fe90 dabd 6c78 40bd e985 3c3d 67a1 f8bd
000000f0: ec4b 343d 9ad6 8d3b 23c9 f7bd 6f87 5a3c
00000100: 992b 04be a844 e33c b8b0 0dbd 54b0 f4bc
00000110: 65a7 c6bd 52c8 ff3d 720d fa3d 5381 c3bd
00000120: 2e78 6abd 59cb fd3d 5a05 d13c ad12 153c
00000130: fa97 0c3d 85ed 80bd 6277 543d c069 83bd
00000140: 3722 3b3b 58f2 bc3c db17 613c defa 2a3d
00000150: f621 e53d 1122 373d 379c a6bd c9c8 c43c
00000160: b952 bb3b f8ed ebbc dac4 de3d 7223 10bd
00000170: f018 07bc 65bb 3f3c c399 bcbd 2fca c13b
00000180: 4a69 133b 7f6d 94bd 0ef8 54bc 623f cfbd
00000190: 835d d3bd 3b98 e43c 6399 3dbd 0417 83bd
000001a0: c6b9 a4bd d751 a53d a3ce 18bd ec55 0339
000001b0: 5e25 8e3d 42ba 10bc 5f3b 343d d68d 6d3d
000001c0: ad07 5dbd fa16 583c 1483 51bd 4381 abbd
000001d0: a7ff 463d 080f db3d 3039 673d af97 543d
000001e0: 5866 383d 628c b53c c833 443d 5602 1dbd
000001f0: 6605 333d f6e2 113d e03a 92bd 614c 98bd
00000200: 33f8 9b3d 2f93 413b 8416 5c3d eaac 673d
00000210: 46fe d2bc 24bb 8b3c 5a36 0a3d 1991 e3bc
00000220: b262 adbc 32a2 193d a2c1 05bd e18d 90bd
00000230: 8d0a c8bc 6cb8 bab9 38c5 93bd 47a9 9cbd
00000240: abd2 9a3c b414 acbd d094 c63d eab1 d23c
00000250: 2d50 33bd 9e47 12bd 12d8 553c 7d6f bbbc
00000260: d606 7abd 4759 1fbd 43c4 41bb 1c7a df3d
00000270: 18d5 a3bb fe3a 6abd f70c 173d 0890 58bd
00000280: 0cc3 b9bc d8b6 49bd 0db7 053d e063 05bd
00000290: 547c f43c ccc7 85bc ed0c f53d 04b2 723d
000002a0: 978a 943d 7dde e33d 9288 783d 99fd 87bd
000002b0: 7a90 2e3d 7b2f 943d 6f72 ce3d 4e48 803c
000002c0: 174c 7ebd 11d0 5fbd 8f76 973c 8925 ecbb
000002d0: 3a22 c3bd 6dd8 53bc 5f55 bf3d 2fe2 4d3d
000002e0: 75e9 953d baac 75bd 052d 15bc 9684 9bbd
000002f0: 6d44 fe3c 2480 babc ea51 8c3d 4339 e1bc
00000300: 28f9 403d 5e15 8ebd 8b06 bf3b b259 89bc
00000310: 9f05 8c3d 2d07 bebd bd3b 0e3d 237f b0bd
00000320: 0b57 83bd 1408 b9bd bbe4 9a3c 2184 3ebd
00000330: 1ef5 413d 31e7 a73b 7112 c4bd 6ee3 44bd
00000340: 02ca 133d f422 afbd ed76 08be 624c d83d
00000350: 4689 ecbb d498 2f3c ff33 b4bd c815 453d
00000360: 3a58 063d cf73 cdbc 91ec 4f3d 5bf5 bfba
00000370: a8a4 eabc a6c0 9a3c 007d 90bd 55cb 363c
00000380: 3248 743b ac68 18bd 6189 23bd bf7c b3bd
00000390: 4c34 c03d 1a98 293d 10e9 9cbd 74b3 afbd
000003a0: 6816 a5bb fdb8 aebd fee5 3f3b e606 933d
000003b0: c5a0 a5bd fc7e 1dbd 8770 ecbc 78ce 44bd
000003c0: 761e e13d 59ad e53d 6b04 d2bc 1ae1 eabd
000003d0: b0bc 76bd c5d6 fa3c b7dc 17bd 5f0d 63bd
000003e0: c6cc 603d b2c0 cfbd 97fc 13bd c9eb 74bd
000003f0: 643d 28bd 9be6 fbbd 6304 e53d 4ba6 543d

rnn.bias_ih_l0 f4 [300]
-0.02978952 -0.02812262 -0.06320509 0.05238508 -0.077081025 -0.0920227 0.08952991 0.11294361
-0.08698426 -0.0734775 0.09002433 -0.011351143 0.111121655 0.050377704 -0.013988704 -0.10401991
0.021895293 0.046518773 -0.007808828 0.02837706 -0.036537737 0.07337074 0.014650193 0.019568661
-0.050972942 0.014596441 0.0036918835 0.091894925 -0.04199546 0.0003563215 0.0031626897 -0.040274475
-0.065758996 -0.051100962 0.0010323273 -0.013112608 -0.071666814 -0.0018106059 -0.0013569033 0.027325764
0.079016216 -0.1047906 0.011400959 0.09228677 0.11401862 0.069320425 -0.055677056 0.043628506
0.063977666 0.035647806 0.028230283 -0.0035770559 0.05924138 -0.022138052 0.119516864 0.061931223
0.0029563233 -0.032952808 0.0030139235 -0.03252072 0.034055557 0.10348413 -0.07003708 -0.08610686
0.02720011 -0.052806802 0.09417843 -0.0022391307 0.07532801 0.09565133 -0.03362362 -0.09028922
-0.07326124 0.02549289 -0.037051715 0.029871183 0.00044824832 -0.042474102 -0.06491862 0.04133097
-0.017923776 0.08272596 0.031797506 0.05193282 0.030220844 0.07438868 -0.046793118 -0.025170414
-0.11733957 -0.057281505 -0.016932605 -0.029483706 -0.075264946 -0.07183682 -0.02256502 -0.09659031
0.0654903 0.11563414 0.06770817 0.10302833 -0.07207732 -0.0511483 -0.06390851 0.004008448
-0.07796368 -0.0037396217 0.0077808886 0.04913909 -0.18043835 -0.028144797 0.02458554 -0.09266674
-0.1737104 -0.15146546 -0.121333286 -0.10222026 0.020686233 -0.10292238 0.014621671 -0.034745146
-0.09717757 -0.14891069 -0.10068131 -0.16794647 0.008966916 -0.058018666 -0.10853021 -0.07830477
-0.0009811261 -0.13021857 0.071144536 -0.043900292 -0.023553 0.002474899 0.0021197253 -0.10720843
-0.07523932 -0.017233957 0.018401753 -0.12388512 -0.17771603 0.0046273847 -0.10253437 -0.08135075
-0.17116451 0.0044700354 -0.1681676 -0.122289635 -0.08219794 -0.059352007 -0.057370815 -0.1681099
-0.06398293 -0.1315157 -0.13054842 -0.016817914 -0.056423113 -0.092338026 -0.059288796 -0.09026319
-0.06783912 -0.096490175 -0.18628289 0.007308262 -0.13626255 -0.032075368 -0.020576702 -0.09555603
0.007436781 -0.05786992 -0.01932629 -0.033804145 -0.14026098 -0.13418847 -0.005670166 0.011541053
0.12002513 -0.067854084 -0.012941321 -0.056255683 -0.067324765 -0.055174056 -0.04418587 -0.06864373
-0.09996209 -0.059103362 -0.020817159 -0.08971613 -0.029863868 -0.049945988 -0.07875985 0.017473286
-0.021976296 -0.066379555 -0.16689669 0.105665654 -0.104768634 0.013454202 -0.13703549 -0.036128487
0.0354865 -0.043032736 0.009551378 0.073567316 0.014409495 0.089737356 -0.010396026 0.010871164
0.03651307 0.084371075 -0.064893834 0.021112079 0.035748925 0.010939518 -0.032008495 -0.04396192
-0.0077849496 0.087501116 -0.027266547 -0.042291816 -0.027862502 0.11114399 0.0025001892 0.016760228
0.07035938 -0.081123285 -0.052857917 0.052188504 0.02875737 0.11130461 -0.0707366 -0.06866307
-0.021861717 -0.065212786 0.011346374 0.020820599 -0.03829863 -0.05558267 -0.0622651 -0.015992988
-0.07418098 0.082717724 -0.020462519 0.052163642 0.08767527 -0.034721605 0.09466449 -0.036608335
-0.038830753 0.003353521 -0.056793183 -0.058180694 -0.047407538 -0.005846021 -0.025037628 0.032859065
00000000: 2709 f4bc 6961 e6bc ac71 81bd bd91 563d
00000010: a8dc 9dbd 6676 bcbd 755b b73d fb4e e73d
00000020: ce24 b2bd 5f7b 96bd ad5e b83d 25fa 39bc
00000030: c093 e33d da58 4e3d e130 65bc 6408 d5bd
00000040: c25d b33c 788a 3e3d 32e1 ffbb 0277 e83c
00000050: 98a8 15bd 6643 963d 5d07 703c 754e a03c
00000060: 01c9 50bd e925 6f3c 87f3 713b 6833 bc3d
00000070: 6e03 2cbd aad0 ba39 2145 4f3b d9f6 24bd
00000080: a7ac 86bd 3e4f 51bd 284f 873a 44d6 56bc
00000090: 0dc6 92bd da51 edba 1fda b1ba 48da df3c
000000a0: 41d3 a13d 749c d6bd 17cb 3a3c d900 bd3d
000000b0: 9882 e93d def7 8d3d a00d 64bd ceb3 323d
000000c0: b906 833d 6f03 123d 3243 e73c 0a6d 6abb
000000d0: 17a7 723d dc5a b5bc 42c5 f43d 98ab 7d3d
000000e0: e0be 413b 86f9 06bd 3f85 453b 7234 05bd
000000f0: d77d 0b3d 7def d33d 9a6f 8fbd cb58 b0bd
00000100: c4d2 de3c f24b 58bd 9fe0 c03d 61be 12bb
00000110: 9245 9a3d d8e4 c33d ecb8 09bd 8ee9 b8bd
00000120: fd09 96bd 77d6 d03c 8ac3 17bd 69b4 f43c
00000130: df02 eb39 53f9 2dbd 0ef4 84bd aa4a 293d
00000140: e2d4 92bc 3a6c a93d 1a3e 023d 82b7 543d
00000150: b491 f73c 1859 983d 24aa 3fbd 2f32 cebc
00000160: ba4f f0bd 03a0 6abd 3fb6 8abc d087 f1bc
00000170: 8224 9abd 2f1f 93bd 47da b8bc 24d1 c5bd
00000180: c71f 863d 98d1 ec3d 95aa 8a3d 8400 d33d
00000190: 469d 93bd e180 51bd 77e2 82bd 4d59 833b
000001a0: 6cab 9fbd 7114 75bb d3f6 fe3b 1246 493d
000001b0: d5c4 38be eb8f e6bc 9d67 c93c 0fc8 bdbd
000001c0: 24e1 31be c319 1bbe 967d f8bd db58 d1bd
000001d0: 2d76 a93c f8c8 d2bd bc8f 6f3c ed50 0ebd
000001e0: 0905 c7bd 0b7c 18be 0132 cebd 29fa 2bbe
000001f0: f9e9 123c fba4 6dbd 1645 debd 405e a0bd
00000200: 2199 80ba 0458 05be 3ab4 913d cbd0 33bd
00000210: 39f2 c0bc ea31 223b 17eb 0a3b 1890 dbbd
00000220: 1317 9abd 3a2e 8dbc 46bf 963c 7bb7 fdbd
00000230: 31fb 35be 51a1 973b 8afd d1bd 399b a6bd
00000240: c045 2fbe 6079 923b 2134 2cbe fd72 fabd
00000250: 6557 a8bd 171b 73bd a9fd 6abd 0025 2cbe
00000260: 7b09 83bd 0dac 06be 7cae 05be b9c5 89bc
00000270: ec1b 67bd b81b bdbd cfd8 72bd e8db b8bd
00000280: 3def 8abd a49c c5bd f1c0 3ebe 257a ef3b
00000290: 6988 0bbe 7661 03bd 7990 a8bc e1b2 c3bd
000002a0: 3eb0 f33b 0209 6dbd 2b52 9ebc 3776 0abd
000002b0: 93a0 0fbe b468 09be cdcc b9bb af16 3d3c
000002c0: bccf f53d 15f7 8abd d607 54bc 5c6c 66bd
000002d0: 91e1 89bd 31fe 61bd 3efc 34bd 1595 8cbd
000002e0: edb8 ccbd 5e16 72bd bf88 aabc 17bd b7bd
000002f0: 12a5 f4bc 2a94 4cbd d84c a1bd 2324 8f3c
00000300: a207 b4bc 01f2 87bd f7e6 2abe 3c67 d83d
00000310: f090 d6bd 036f 5c3c 0853 0cbe 77fb 13bd
00000320: 4b5a 113d 1843 30bd 627d 1c3c 76aa 963d
00000330: cd15 6c3c 38c8 b73d 1854 2abc f71c 323c
00000340: bb8e 153d beca ac3d 0fe7 84bd 3df3 ac3c
00000350: 776d 123d aa3b 333c 571b 03bd 6a11 34bd
00000360: e418 ffbb c933 b33d 185e dfbc 2f3a 2dbd
00000370: e73f e4bc 769f e33d 37da 233b bf4c 893c
00000380: 9418 903d f723 a6bd 8b81 58bd 9dc3 553d
00000390: 9394 eb3c acf3 e33d 5ade 90bd 399f 8cbd
000003a0: 5817 b3bc 488e 85bd 24e6 393c f68f aa3c
000003b0: 06df 1cbd a7aa 63bd b109 7fbd ba03 83bc
000003c0: 33ec 97bd e967 a93d 03a1 a7bc 8ba9 553d
000003d0: 188f b33d 3e38 0ebd 75df c13d 9ff2 15bd
000003e0: ff0c 1fbd bfc6 5b3b f89f 68bd e14e 6ebd
000003f0: 682e 42bd fb8f bfbb b61b cdbc 3a97 063d

rnn.bias_hh_l0 f4 [300]
-0.0020139997 -0.03212533 -0.06885789 -0.024113432 0.09804753 0.033320542 -0.02197785 0.02974563
0.005222186 -0.060821477 -0.009022064 0.05419686 -0.069944374 0.009422923 0.10217235 -0.105734095
0.01965859 -0.08452659 -0.013126398 -0.021720752 -0.095455185 0.07620022 0.04434756 -0.016647188
0.08706115 -0.032414097 0.034222167 -0.011705915 0.10931148 -0.11508153 0.014855833 -0.015464517
-0.069619805 -0.010973336 0.050058227 -0.042554565 0.032294776 0.0647275 -0.07167141 -0.06737041
-0.03607886 0.09415466 0.11746155 -0.049457926 0.06957337 0.10013419 0.070068374 0.03374961
0.024562862 0.059172805 0.10366154 0.054839876 0.027866423 -0.032251883 -0.014679306 0.035883382
-0.015547097 -0.02888646 -0.06710597 -0.027032925 0.02983108 0.063384995 0.044667006 -0.022248257
-0.04594805 0.03810032 -0.0165402 -0.0016682027 0.10295174 0.11342776 0.09684895 -0.09808247
0.04046091 0.024122221 -0.007310541 -0.07467145 -0.011570208 0.07081844 0.061773334 0.054898158
0.09736221 -0.055651832 -0.036098816 0.09568458 0.03316517 0.036115553 0.10798216 -0.06306751
-0.11349479 0.007230465 0.11279073 0.040295325 0.013205998 -0.068467036 -0.051467612 -0.023160838
0.09461045 -0.05573302 0.020833857 -0.060424928 -0.024742788 -0.15838131 -0.1044727 -0.118376635
-0.10143243 0.040926192 -0.08347211 0.055920254 -0.023753108 -0.1657726 -0.017424516 -0.06384575
-0.016261576 -0.14336468 -0.0073140943 -0.063981295 0.008654116 -0.016263848 -0.09772247 -0.14027853
-0.10938515 -0.09660211 -0.14298923 -0.109633856 -0.15255733 -0.0552262 0.014634358 -0.15319374
-0.013802594 0.016494488 0.115106754 -0.14521068 0.0135423 -0.023759296 -0.056345794 -0.17095967
-0.111527435 -0.024140552 -0.07617722 -0.051702484 -0.06966552 -0.02352402 -0.114715464 0.055649463
-0.15583344 0.021286735 -0.052718937 -0.12898055 -0.12347816 0.023904527 -0.052248575 -0.12839079
0.004259152 -0.11420367 -0.04643707 0.04477944 -0.10750653 -0.07951929 -0.02206548 -0.090968214
-0.05496424 -0.116706364 -0.08783945 0.018782921 -0.086787775 -0.1849592 -0.069408 -0.07930994
-0.027843721 -0.09993205 0.012270442 0.02596797 -0.02469303 -0.013485328 -0.10939294 -0.093176484
0.013031953 -0.10738972 -0.12931536 -0.1432043 -0.10535784 -0.043220222 -0.09404679 -0.042975593
-0.045105513 0.008241181 0.056525476 -0.071134225 0.037846938 -0.053698998 -0.047538247 -0.11639901
-0.02712302 -0.1167891 -0.0829912 0.0639129 -0.13246292 -0.028823426 -0.0028119728 -0.0987437
-0.08961176 -0.018234491 -0.078995734 -0.071555465 0.037373576 -0.051168993 -0.07656121 0.03423272
0.062190644 -0.09283203 0.030308818 0.05285737 0.03398329 0.0112972045 0.065985136 -0.052101053
-0.04930267 0.07658021 0.009675119 0.06317979 0.00049777067 0.013431158 -0.033380207 0.0006023954
0.02083155 0.061599124 -0.027561832 -0.032597385 0.06024407 0.066227324 0.034505464 0.06481165
-0.047534835 0.07505037 0.045552477 0.04445847 0.04837367 -0.03101337 -0.07477293 0.07157706
0.096155055 0.09442149 -0.06644733 -0.05733711 0.06715918 -0.09104017 -0.0762989 0.0115328375
0.0021182005 -0.11005541 0.07097096 -0.06484682 0.049470972 -0.01172414 0.058301874 0.09530505
00000000: 4ffd 03bb da95 03bd 5e05 8dbd 8889 c5bc
00000010: 25cd c83d 1f7b 083d e40a b4bc 1cad f33c
00000020: df1e ab3b f11f 79bd 47d1 13bc 87fd 5d3d
00000030: ff3e 8fbd 9b62 1a3c bd3f d13d 1e8b d8bd
00000040: 0d0b a13c 471c adbd 1b10 57bc b8ef b1bc
00000050: 027e c3bd dc0e 9c3d c9a5 353d af5f 88bc
00000060: 1e4d b23d a5c4 04bd 8b2c 0c3d 2bca 3fbc
00000070: b2de df3d ddaf ebbd e165 733c e35e 7dbc
00000080: d494 8ebd 82c9 33bc db09 4d3d b24d 2ebd
00000090: 8747 043d da8f 843d 76c8 92bd 7ff9 89bd
000000a0: 6dc7 13bd 29d4 c03d ae8f f03d 6594 4abd
000000b0: 7c7c 8e3d 2713 cd3d 0280 8f3d 083d 0a3d
000000c0: 0e38 c93c 2f5f 723d 804c d43d c79f 603d
000000d0: 2048 e43c 8d1a 04bd 7981 70bc 74fa 123d
000000e0: 40b9 7ebc 4ca3 ecbc db6e 89bd 2774 ddbc
000000f0: 4f60 f43c fecf 813d c0f4 363d fa41 b6bc
00000100: 0634 3cbd 150f 1c3d 507f 87bc 98a7 daba
00000110: 5dd8 d23d d04c e83d be58 c63d 76df c8bd
00000120: 57ba 253d f79b c53c 438d efbb 58ed 98bd
00000130: f890 3dbc 4209 913d 0906 7d3d e4dc 603d
00000140: d765 c73d 2df3 63bd 5adc 13bd 47f6 c33d
00000150: 34d8 073d e7ed 133d c025 dd3d 8a29 81bd
00000160: f56f e8bd 89ed ec3b d4fe e63d b60c 253d
00000170: f85d 583c 7238 8cbd b4cf 52bd ccbb bdbc
00000180: 20c3 c13d 4f48 64bd c4ab aa3c 2180 77bd
00000190: 63b1 cabc b62e 22be c8f5 d5bd 736f f2bd
000001a0: cebb cfbd 39a2 273d 6df3 aabd a30c 653d
000001b0: e195 c2bc 4bc0 29be dcbd 8ebc 90c1 82bd
000001c0: ff36 85bc 31ce 12be 12ab efbb a008 83bd
000001d0: fec9 0d3c c33b 85bc b822 c8bd 2da5 0fbe
000001e0: 5205 e0bd 54d7 c5bd c56b 12be b787 e0bd
000001f0: fd37 1cbe de34 62bd f2c4 6f3c d2de 1cbe
00000200: 4624 62bc 731f 873c 17bd eb3d 1cb2 14be
00000210: 86e0 5d3c dba2 c2bc d9ca 66bd 0d10 2fbe
00000220: 7f68 e4bd 68c2 c5bc cd02 9cbd fcc5 53bd
00000230: ccac 8ebd 72b5 c0bc f1ef eabd b1f0 633d
00000240: cd92 1fbe 8561 ae3c d0ef 57bd 7a13 04be
00000250: 1ee2 fcbd 6dd3 c33c 9a02 56bd e078 03be
00000260: 5b90 8b3b 9de3 e9bd cc34 3ebd a56a 373d
00000270: 622c dcbd 02db a2bd aac2 b4bc 8b4d babd
00000280: 2f22 61bd bf03 efbd 2be5 b3bd a4de 993c
00000290: cabd b1bd f265 3dbe c825 8ebd 406d a2bd
000002a0: 8418 e4bc 2da9 ccbd f709 493c c8ba d43c
000002b0: 0a49 cabc 91f1 5cbc 6809 e0bd 50d3 bebd
000002c0: f983 553c 24ef dbbd 3f6b 04be 26a4 12be
000002d0: dac5 d7bd b007 31bd 9a9b c0bd 2d07 30bd
000002e0: 8fc0 38bd 0506 073c 4287 673d d2ae 91bd
000002f0: 6405 1b3d 7bf3 5bbd 77b7 42bd 9b62 eebd
00000300: 1831 debc 202f efbd 4af7 a9bd c4e4 823d
00000310: 5ca4 07be 1b1f ecbc 1349 38bb 233a cabd
00000320: 5f86 b7bd 8060 95bc 84c8 a1bd ac8b 92bd
00000330: 0915 193d 9496 51bd 20cc 9cbd 9c37 0c3d
00000340: 9ebb 7e3d b81e bebd 334a f83c f880 583d
00000350: 1032 0b3d e917 393c 3723 873d ea67 55bd
00000360: 99f1 49bd 16d6 9c3d 6484 1e3c 6864 813d
00000370: d37c 023a 5c0e 5c3c afb9 08bd 12ea 1d3a
00000380: eda6 aa3c 5d4f 7c3d 5ac9 e1bc d684 05bd
00000390: 7cc2 763d 31a2 873d 9a55 0d3d f8bb 843d
000003a0: e3b3 42bd 02b4 993d 3c95 3a3d 161a 363d
000003b0: 7823 463d c00f febc 8d22 99bd fe96 923d
000003c0: f1ec c43d 0e60 c13d 8a15 88bd 51da 6abd
000003d0: c18a 893d 4573 babd 9942 9cbd 3af4 3c3c
000003e0: 82d1 0a3b bb64 e1bd 3959 913d 69ce 84bd
000003f0: 13a2 4a3d 9b16 40bc f2cd 6e3d 4b2f c33d

linear.weight f4 [1, 100]
-0.020607743 0.08215206 0.06768381 0.121534795 0.06305338 0.0681403 0.10236955 0.070142955
-0.06808345 0.07907576 -0.08623021 0.076726355 -0.04958855 0.033773895 0.012794929 -0.00299544
-0.009313309 0.06527446 -0.11399203 0.06956054 0.00505499 0.051284753 0.11236477 -0.024558866
0.105133176 -0.08774051 0.05663977 -0.065083034 0.0763028 -0.012735084 -0.045335382 -0.008348381
-0.03392278 0.02458947 -0.034169294 0.035545796 0.007933896 0.049173746 0.076174095 0.08489888
-0.11017414 0.0012610308 -0.12985061 -0.040034994 0.0984609 0.084031954 0.07646653 0.080756366
-0.079359956 0.020401962 -0.117254026 -0.10608654 -0.007165537 -0.13235189 0.09521821 0.06710548
-0.061449155 0.10271777 0.049417652 -0.08284824 -0.12175989 -0.050520495 -0.031316184 0.07956304
-0.112729006 0.06896548 0.12664339 0.073729716 -0.07108875 0.08191024 0.10710522 -0.07722275
0.06721265 0.12119185 0.0137890475 0.03583874 0.07326523 -0.0470065 -0.1157956 0.09584934
-0.12450935 0.0038293463 0.10096113 -0.07456048 0.016834566 -0.038604457 0.04695609 -0.13766642
-0.011152819 0.09195309 0.122983955 -0.029792532 0.015536152 -0.067490816 -0.058335762 0.048374243
-0.07950774 -0.0690456 -0.0439668 -0.058152393
00000000: 92d1 a8bc 573f a83d cf9d 8a3d 3ce7 f83d
00000010: 2122 813d 248d 8b3d 20a7 d13d 1ca7 8f3d
00000020: 566f 8bbd 79f2 a13d 7799 b0bd b522 9d3d
00000030: 5d1d 4bbd 7f56 0a3d d2a1 513c 254f 44bb
00000040: d996 18bc 9eae 853d a774 e9bd c275 8e3d
00000050: 54a4 a53b f60f 523d 801f e63d ad2f c9bc
00000060: 1050 d73d 4cb1 b3bd 1aff 673d 414a 85bd
00000070: a444 9c3d d0a6 50bc 98b1 39bd a6c7 08bc
00000080: 9df2 0abd db6f c93c 1af5 0bbd 7898 113d
00000090: 2cfd 013c 696a 493d 2a01 9c3d 77df ad3d
000000a0: fba2 e1bd 2c49 a53a 8ff7 04be bcfb 23bd
000000b0: dea5 c93d f218 ac3d 7c9a 9c3d 9863 a53d
000000c0: 7987 a2bd 0422 a73c e122 f0bd e643 d9bd
000000d0: e2cc eabb 4187 07be c401 c33d 996e 893d
000000e0: 1cb2 7bbd b25d d23d 2a6a 4a3d 57ac a9bd
000000f0: 405d f9bd 94ee 4ebd 6645 00bd f2f1 a23d
00000100: 77de e6bd c63d 8d3d ceae 013e 9bff 963d
00000110: fb96 91bd 8ec0 a73d fb59 db3d f626 9ebd
00000120: c9a6 893d 6f33 f83d 75eb 613c a5cb 123d
00000130: 150c 963d e389 40bd 3e26 edbd a94c c43d
00000140: c2fe febd c5f5 7a3b b5c4 ce3d 2ab3 98bd
00000150: a5e8 893c b51f 1ebd 0755 403d 6df8 0cbe
00000160: 50ba 36bc e751 bc3d 03df fb3d 780f f4bc
00000170: 588b 7e3c a038 8abd 7bf1 6ebd 1224 463d
00000180: f4d4 a2bd c867 8dbd 8816 34bd 3431 6ebd
